results/poc/Shootair/Shootair-5924.onnx (onnx, 493289 bytes, 15 tensors)

discrete_act_size_vector f4 [1, 2]
2.0 2.0
00000000: 0000 0040 0000 0040

network_body._body_endoder.seq_layers.0.weight f4 [128, 420]
-0.0038816791 -0.08196768 0.012997056 -0.052691754 0.07126084 0.013851703 0.046526313 -0.034181125
0.032029692 -0.06905371 0.014998426 0.005842545 0.035269544 0.08516489 0.05330574 0.0066146734
-0.01859905 0.007059663 0.013779773 0.1521164 -0.039373636 -0.0511081 0.0065726317 0.022578163
-0.07865878 -0.021684239 0.06709264 0.055854544 0.077396 -0.0070093824 0.12223137 -0.03961044
0.021078564 -0.052950166 -0.026360163 -0.017843282 -0.03099254 0.009813852 -0.020068496 0.016009033
0.012774391 -0.015464943 0.038969766 -0.065513894 0.040684424 -0.030721854 0.02429525 -0.0007773538
-0.026704155 0.016188422 0.057406913 0.08146262 0.019108327 0.0047848397 -0.06074981 0.10606116
0.00013663065 -0.08278928 -0.0344663 0.02267068 0.040398795 -0.055722304 0.006612117 -0.02208729
-0.035484724 -0.0031599633 0.080156155 0.06152335 0.00840268 -0.062306877 0.018542495 0.006478995
0.13141198 0.109644376 0.0020313254 0.07558314 -0.0061853644 -0.027942507 -0.0053955354 0.069306396
-0.01220318 0.0527121 -0.09429638 0.026624758 -0.04741674 0.036272537 0.037895504 -0.105400376
0.028938932 -0.045656882 -0.0009709864 0.030438656 -0.02417308 -0.0029996973 -0.1279666 -0.04443601
-0.033554494 -0.0010040074 0.046736255 -0.013359418 0.098955184 -0.08960195 -0.0067490586 0.01734216
-0.11551696 -0.017862909 0.07558386 -0.115726024 0.0007392336 -0.014954563 0.050993644 0.016983053
-0.039920036 0.026771618 -0.004645875 -0.0070827724 -0.00626972 0.05747394 0.06611857 0.04196729
0.019654531 0.025958983 -0.032653905 0.03034257 0.035688594 0.11893639 -0.0770903 -0.04405074
0.09516673 -0.036878277 0.020368373 0.0149501925 0.015269233 -0.029969344 0.006066418 0.0013228583
0.033669006 -0.023586929 -0.0013348298 -0.0404431 0.010984971 0.06205709 -0.037078828 -0.0039852383
-0.019747281 0.025662323 -0.043639254 -0.08605782 -0.081856705 -0.04501482 -0.061442588 0.010269762
0.035624765 -0.03336941 -0.03575517 -0.06383918 -0.08033235 -0.15848887 -0.0014855999 -0.0554001
-0.02208647 0.062004965 -0.0059981025 0.04334951 -0.001196902 0.04374984 0.049742784 -0.041609317
0.02971777 0.0051304465 -0.013027327 0.07985229 0.008650395 -0.008000217 -0.016096877 0.035070658
0.076425105 -0.0056896787 0.03185757 0.054952774 0.050900918 0.013270046 -0.0076727914 -0.021019088
0.03127568 0.055189844 0.06435064 -0.02943774 -0.03395575 -0.014381779 0.024685182 -0.016835649
0.002755562 0.060974967 0.014807543 0.017589064 -0.05946513 0.0384149 -0.029655993 0.05105873
0.060694885 0.03803341 -0.050912395 0.10861918 0.014258572 0.05096293 -0.0031347456 -0.00800627
-0.005558749 0.068117835 -0.00541091 -0.014522856 -0.014888256 -0.0030788006 -0.057620443 -0.031600136
0.039492667 0.013818027 -0.04989206 0.025853962 0.004113253 -0.049695827 0.09055227 0.0055602584
0.014975179 -0.021252064 0.016162118 0.027490146 0.034606524 -0.11100725 -0.038559068 0.0035389105
0.03308032 0.005769711 0.005860571 -0.088213 0.0676269 0.07584255 0.03862327 -0.07883267
-0.046631675 0.012162685 0.065366305 -0.0025437889 0.01656924 0.004894032 0.04329438 0.0034000531
-0.028200582 -0.01262283 0.02511864 -0.079426855 -0.053358864 -0.035811663 -0.047984336 -0.05918519
00000000: c563 7ebb acde a7bd 9bf1 543c 4fd3 57bd
00000010: 34f1 913d 41f2 623c 6092 3e3d 8201 0cbd
00000020: 9131 033d 086c 8dbd f5bb 753c d272 bf3b
00000030: cc76 103d ee6a ae3d 1f57 5a3d e7bf d83b
00000040: 095d 98bc bf54 e73b 8fc4 613c 67c4 1b3e
00000050: 4046 21bd ba56 51bd 3b5f d73b d7f5 b83c
00000060: db17 a1bd 25a3 b1bc de67 893d bcc7 643d
00000070: cb81 9e3d f6ae e5bb 7154 fa3d 8f3e 22bd
00000080: f4ac ac3c 46e2 58bd 45f1 d7bc 132c 92bc
00000090: 11e4 fdbc 47ca 203c b066 a4bc 6025 833c
000000a0: ae4b 513c ac60 7dbc c39e 1f3d 262c 86bd
000000b0: b6a4 263d 66ac fbbc d506 c73c 55c7 4bba
000000c0: acc2 dabc 959d 843c 8323 6b3d e0d5 a63d
000000d0: 1189 9c3c 25ca 9c3b cbd4 78bd 9836 d93d
000000e0: 8344 0f39 6d8d a9bd 892c 0dbd ddb7 b93c
000000f0: 3579 253d 123d 64bd 75aa d83b 68f0 b4bc
00000100: 6e58 11bd 6317 4fbb e928 a43d e9ff 7b3d
00000110: 65ab 093c 7f35 7fbd 6ee6 973c c04d d43b
00000120: dd90 063e 3b8d e03d fc1f 053b 55cb 9a3d
00000130: 99ae cabb afe7 e4bc 08cd b0bb 83f0 8d3d
00000140: d9ef 47bc a5e8 573d 761e c1bd 2a1c da3c
00000150: 0e38 42bd 8392 143d 5138 1b3d 27dc d7bd
00000160: 5711 ed3c b602 3bbd cb89 7eba 7d5a f93c
00000170: a006 c6bc 9296 44bb ad09 03be 8902 36bd
00000180: 7070 09bd e698 83ba 846e 3f3d 76e1 5abc
00000190: 04a9 ca3d 3a81 b7bd 3527 ddbb 2511 8e3c
000001a0: 2894 ecbd 3c55 92bc b6cb 9a3d c401 edbd
000001b0: 21c9 413a fc03 75bc b6de 503d 0b20 8b3c
000001c0: 3183 23bd 2750 db3c 6d3c 98bb 9a16 e8bb
000001d0: 3972 cdbb cb69 6b3d 2c69 873d e5e5 2b3d
000001e0: 8a02 a13c efa7 d43c 1ac0 05bd fb90 f83c
000001f0: 342e 123d ec94 f33d 85e1 9dbd 8c6e 34bd
00000200: c6e6 c23d ad0d 17bd 93db a63c a7f1 743c
00000210: ce2b 7a3c 4582 f5bc cdc8 c63b c263 ad3a
00000220: 83e8 093d 6039 c1bc 75f5 aeba aaa7 25bd
00000230: 4ffa 333c 932f 7e3d f8df 17bd 9a96 82bb
00000240: 0dc5 a1bc cb39 d23c 13bf 32bd 153f b0bd
00000250: 7da4 a7bd 7661 38bd 39ab 7bbd 8142 283c
00000260: 46eb 113d 5dae 08bd 0374 12bd 1ebe 82bd
00000270: 4a85 a4bd e84a 22be 76b8 c2ba 37eb 62bd
00000280: afee b4bc ebf8 7d3d bb8b c4bb 418f 313d
00000290: 5ee1 9cba 0833 333d 17bf 4b3d 886e 2abd
000002a0: ae72 f33c 4e1d a83b 9270 55bc 9989 a33d
000002b0: 63ba 0d3c 5813 03bc 99dd 83bc 40a6 0f3d
000002c0: c484 9c3d 7c70 babb 157d 023d 2916 613d
000002d0: 7b7d 503d 9b6a 593c 0a6c fbbb 3930 acbc
000002e0: ed1a 003d bf0e 623d 45ca 833d 6a27 f1bc
000002f0: 2f15 0bbd 8ea1 6bbc 9438 ca3c eaea 89bc
00000300: a996 343b e3c0 793d 569b 723c f116 903c
00000310: b591 73bd f158 1d3d 20f1 f2bc f522 513d
00000320: 339b 783d ecc8 1b3d 8489 50bd bc73 de3d
00000330: c99c 693c 81be 503d 4e70 4dbb bb2c 03bc
00000340: 2b26 b6bb 5d81 8b3d 014e b1bb 46f1 6dbc
00000350: dfed 73bc b4c5 49bb 6a03 6cbd 256f 01bd
00000360: 10c3 213d 0265 623c 9e5b 4cbd b0cb d33c
00000370: 78c8 863b da8d 4bbd 7873 b93d d432 b63b
00000380: 745a 753c cf18 aebc 6b66 843c 0433 e13c
00000390: 92bf 0d3d c557 e3bd 1df0 1dbd 11ed 673b
000003a0: 3b7f 073d d80f bd3b 080a c03b 04a9 b4bd
000003b0: f97f 8a3d 5753 9b3d 6f33 1e3d 0673 a1bd
000003c0: db00 3fbd 0046 473c c5de 853d b2b5 26bb
000003d0: 37bc 873c 1e5e a03b 7355 313d 6dd3 5e3b
000003e0: e804 e7bc fdcf 4ebc 9bc5 cd3c 8caa a2bd
000003f0: d38e 5abd 40af 12bd 398b 44bd 2b6c 72bd

network_body._body_endoder.seq_layers.0.bias f4 [128]
0.0032785453 0.0033484339 -0.0005284824 -0.00404535 0.0043725083 -0.00023964584 -0.0005184065 -0.0012832788
-0.0055966745 0.003156747 -0.0029353336 0.0052621798 0.004871786 0.008992692 -0.001292386 -3.8691414e-05
-0.0038366602 -0.0025989842 0.003996273 -0.006733027 -0.007643797 -0.004081182 0.0051414445 -0.0040992764
0.004777268 0.0062119076 -0.000389526 -0.00041778167 -0.0017502833 -0.0037248617 -0.009109441 -0.0060138605
-0.0031533616 -0.0026458835 -0.00043313872 -0.0018730075 0.0015708645 -0.0015255504 -0.0046372605 0.0008022148
-0.0023376264 -0.0033417954 -0.0035020101 0.00060994306 -0.006418191 0.0036691576 -0.006297221 0.00070570735
-0.006658289 0.0072460435 0.011535053 -0.0015894386 0.00624928 -0.000761162 -0.0040084436 0.0053876727
0.00364029 -0.0008384628 0.0067080874 0.002994451 -0.0017279877 -0.0011000884 0.005813367 0.0005859658
-0.0075348183 -0.0059866896 -0.0023880384 0.0057055494 -0.007246512 -0.0012537355 8.5885215e-05 -0.0017202431
0.001418761 -0.0027951896 -0.0006063435 0.0059528113 0.0007722644 0.0036003261 0.00792963 -0.0013632317
-0.001278118 0.0023523695 0.0013597544 -0.0055907145 0.0034272631 0.0064945007 0.013129783 0.004365014
-0.0024314641 0.0009347025 -0.003760962 -0.0014089661 -0.004400384 -0.00013103287 -5.8262693e-05 0.0027650343
-0.0059197852 -4.3614542e-05 -0.0039709266 0.0046168393 -0.0031491686 0.0026995335 0.004122043 -0.0040519377
-0.0024952188 -0.00011576054 0.0019528511 -0.00087741774 0.0017415836 -0.0038119063 -0.0016299781 0.005394288
-0.007294635 0.0019808074 0.0048565376 0.0037573995 -0.007961383 0.0016789614 0.0015964695 -0.002481288
-0.0020366763 0.002260888 -0.01017583 -0.0035031675 -7.047157e-05 -0.00040517835 0.009057454 -0.0029523587
00000000: dddc 563b 6671 5b3b da89 0aba db8e 84bb
00000010: 4247 8f3b 7149 7bb9 ace5 07ba b133 a8ba
00000020: 4f64 b7bb 6de1 4e3b ba5e 40bb 5d6e ac3b
00000030: 81a3 9f3b 1656 133c 4765 a9ba 9748 22b8
00000040: 7a70 7bbb b853 2abb 2bf3 823b b9a0 dcbb
00000050: d178 fabb 70bb 85bb 9079 a83b 3953 86bb
00000060: a18a 9c3b 428d cb3b 4b39 ccb9 b509 dbb9
00000070: c369 e5ba cf1c 74bb c43f 15bc eb0f c5bb
00000080: a1a8 4ebb 8f66 2dbb e516 e3b9 b47f f5ba
00000090: 77e5 cd3a faf4 c7ba 29f4 97bb b94b 523a
000000a0: dd32 19bb 0602 5bbb fb81 65bb 96e4 1f3a
000000b0: b04f d2bb 4076 703b eb58 cebb 38ff 383a
000000c0: c72d dabb 3870 ed3b 85fd 3c3c b654 d0ba
000000d0: c3c6 cc3b b888 47ba 4359 83bb 138b b03b
000000e0: ee91 6e3b 49cc 5bba 84cf db3b 8d3e 443b
000000f0: a57d e2ba d730 90ba 0f7e be3b 809b 193a
00000100: a3e6 f6bb fe2b c4bb a380 1cbb 9ef5 ba3b
00000110: 2674 edbb 6254 a4ba 461d b438 c879 e1ba
00000120: b8f5 b93a 802f 37bb 06f3 1eba cd0f c33b
00000130: c971 4a3a 73f3 6b3b 47eb 013c 77ae b2ba
00000140: 8686 a7ba 362a 1a3b c939 b23a 5032 b7bb
00000150: ef9b 603b d2cf d43b 4d1e 573c 6408 8f3b
00000160: 3359 1fbb d306 753a 797a 76bb 0fad b8ba
00000170: 1931 90bb de65 09b9 175f 74b8 9435 353b
00000180: c2fa c1bb c2ee 36b8 8c1e 82bb db48 973b
00000190: 4862 4ebb a8ea 303b 3412 873b 1ec6 84bb
000001a0: d386 23bb 77c4 f2b8 cff6 ff3a 8202 66ba
000001b0: d945 e43a 2dd1 79bb fda4 d5ba 91c2 b03b
000001c0: d507 efbb 6fd0 013b 9723 9f3b b43e 763b
000001d0: 7670 02bc 9910 dc3a a140 d13a 1b9d 22bb
000001e0: c279 05bb 682b 143b 86b8 26bc 6695 65bb
000001f0: 23ca 93b8 1e6e d4b9 b765 143c 5c7c 41bb

network_body._body_endoder.seq_layers.2.weight f4 [128, 128]
0.10866749 0.12502559 0.119962156 -0.06732775 0.08195949 0.07511904 -0.07332701 -0.002454827
0.17060828 0.080935575 0.06575148 -0.019678397 0.16402364 -0.031026416 -0.08373036 0.05944335
0.011802422 -0.004173617 -0.14290038 -0.040461108 0.15055148 0.028987117 0.00074210257 -0.08617588
-0.09599655 -0.05941117 -0.13694187 0.009781379 -0.042041488 0.121495314 0.019758102 -0.08834771
0.014577851 -0.03923481 0.031044427 0.06120933 0.09526118 0.18738729 0.052528035 -0.028298283
0.11007453 -0.021806123 -0.013784907 -0.036388777 0.017611673 0.0053045875 0.10335494 0.010426588
0.07336775 -0.16508244 -0.09003048 0.16210145 0.10449202 0.07433951 0.15189986 -0.068250425
-0.092821896 0.051439315 -0.09232885 -0.23236734 0.06516082 -0.06988582 -0.10507079 0.048646316
0.035908863 -0.071104124 -0.02734572 -0.052660435 0.12913503 0.0801394 0.068262205 0.173227
0.06503115 0.00047839037 -0.041375898 -0.11807932 -0.03874066 -0.067583546 0.060679507 -0.031105747
-0.033639114 -0.061626125 -0.055754263 0.012437024 -0.0031023158 -0.049250122 -0.016720071 0.016610593
0.012423195 -0.046528284 -0.10903774 0.023028841 -0.020341447 -0.0017250243 -0.11533104 0.11403041
0.094097346 -0.11345589 -0.2138382 -0.0035277163 0.113625504 -0.06379848 0.03910251 -0.08850297
0.16611734 0.0767741 0.07190424 0.1314366 0.0033374184 -0.12671952 0.10505163 -0.007981985
-0.061966807 0.03716498 -0.071183644 0.07869981 0.05449705 -0.019555662 -0.079529546 -0.07254165
0.11087105 -0.027022032 0.04760168 0.14080983 -0.07074648 -0.1110542 -0.08435162 -0.07682221
0.022986885 -0.03422912 0.058323085 -0.063974574 0.02192989 -0.007221542 -0.17777818 0.14395158
-0.040638175 -0.06681129 0.09729546 -0.0030492095 0.119000584 0.0054974197 -0.02904999 0.029190725
0.051066227 -0.09896922 0.08781056 -0.0438403 -0.057681292 0.0921999 0.021194102 -0.055086236
-0.05175782 0.11149626 0.19845074 -0.10294831 0.063907735 0.1204455 0.03097446 0.03214439
0.07796512 -0.0751628 0.009479471 -0.04963549 -0.08947483 -0.022346612 -0.0771389 -0.15277976
-0.013482977 0.11836598 0.071957536 -0.033583134 -0.12252873 0.1280088 -0.01429629 0.096406944
-0.110804565 -0.04426135 0.06668196 0.035931133 0.14377472 0.12982748 0.036106504 -0.054557048
0.08110631 -0.041392688 0.0011331068 0.0013349106 -0.098200746 0.04103663 0.024070242 -0.001382192
-0.0732873 0.002882657 0.027443236 0.00630885 0.047216725 -0.10185506 0.07361213 -0.15619428
0.002902861 0.024088096 -0.013443153 0.0063554263 0.06742209 -0.1060469 -0.08641156 -0.14104283
-0.011900616 -0.00033499152 0.14199048 -0.010691671 0.117206775 0.10144773 0.16120538 0.2616821
0.061805572 0.045653697 0.044634964 -0.06544746 -0.037135698 -0.12207541 0.04818092 0.013005286
-0.12640458 -0.071212135 0.16098781 0.060860258 0.21100442 0.08257502 0.020936897 0.062282287
-0.006976006 0.10541026 -0.023439227 -0.1326698 0.12380031 -0.03273249 0.030092033 0.1653841
0.021684421 0.051537007 0.21586715 0.046224598 -0.0734792 0.12875384 -0.06305113 -0.022061132
0.027566843 0.077843174 0.049992118 -0.03433482 -0.016235445 0.061584607 0.15147519 0.07991694
00000000: 108d de3d b506 003e b8ae f53d 22e3 89bd
00000010: 61da a73d 03d8 993d 792c 96bd 2ae1 20bb
00000020: f0b3 2e3e 8dc1 a53d b6a8 863d 9734 a1bc
00000030: d0f5 273e 1c2b febc d37a abbd df7a 733d
00000040: f25e 413c d6c2 88bb 7a54 12be 8cba 25bd
00000050: 2b2a 1a3e 6476 ed3c a989 423a fb7c b0bd
00000060: d799 c4bd 2159 73bd 7d3a 0cbe 1442 203c
00000070: b233 2cbd 89d2 f83d bedb a13c a5ef b4bd
00000080: f0d7 6e3c aeb4 20bd e250 fe3c a2b6 7a3d
00000090: 4b18 c33d 74e2 3f3e a327 573d cdd1 e7bc
000000a0: c16e e13d c1a2 b2bc 17da 61bc 660c 15bd
000000b0: 5b46 903c 1bd2 ad3b c1ab d33d 48d4 2a3c
000000c0: d541 963d 5f0b 29be e661 b8bd ecfd 253e
000000d0: eaff d53d 503f 983d a38b 1b3e e1c6 8bbd
000000e0: 6819 bebd 08b2 523d e816 bdbd b4f1 6dbe
000000f0: 0973 853d 4c20 8fbd 5b2f d7bd 5c41 473d
00000100: 2c15 133d 0a9f 91bd 2204 e0bc 78b2 57bd
00000110: f93b 043e 2020 a43d 0ecd 8b3d 6b62 313e
00000120: 0d2f 853d 78d0 fa39 c679 29bd 92d3 f1bd
00000130: 87ae 1ebd 3e69 8abd 138b 783d 7bd1 febc
00000140: 2bc9 09bd ad6b 7cbd 955e 64bd a9c4 4b3c
00000150: 3950 4bbb 7fba 49bd 88f8 88bc f012 883c
00000160: a88a 4b3c 7194 3ebd 2e4f dfbd fba6 bc3c
00000170: 1ba3 a6bc 361a e2ba ae32 ecbd c788 e93d
00000180: 1cb6 c03d 905b e8bd 67f8 5abe 4231 67bb
00000190: 7db4 e83d c7a8 82bd f429 203d 0c41 b5bd
000001a0: aa1a 2a3e bd3b 9d3d 8842 933d 5197 063e
000001b0: 97b8 5a3b c3c2 01be 4f25 d73d dfc6 02bc
000001c0: e8d0 7dbd 4e3a 183d bbc8 91bd 5e2d a13d
000001d0: 4c38 5f3d 3233 a0bc 63e0 a2bd b790 94bd
000001e0: 5c10 e33d 4f5d ddbc fbf9 423d 7430 103e
000001f0: 88e3 90bd 6270 e3bd 8bc0 acbd f654 9dbd
00000200: fe4e bc3c d533 0cbd 30e4 6e3d 1a05 83bd
00000210: 50a6 b33c afa2 ecbb 7c0b 36be 0b68 133e
00000220: 3774 26bd 5cd4 88bd d842 c73d 3fd5 47bb
00000230: 94b6 f33d b323 b43b 3ffa edbc 6321 ef3c
00000240: d22a 513d 60b0 cabd 06d6 b33d e391 33bd
00000250: 3843 6cbd 4dd3 bc3d 419f ad3c 1ba2 61bd
00000260: 0200 54bd 2758 e43d ac36 4b3e 90d6 d2bd
00000270: 0fe2 823d 21ac f63d 27be fd3c d6a9 033d
00000280: 2dac 9f3d f4ee 99bd c84f 1b3c 954e 4bbd
00000290: 943e b7bd 3e10 b7bc 00fb 9dbd 4c72 1cbe
000002a0: b4e7 5cbc dd69 f23d 795e 933d 788e 09bd
000002b0: 58f0 fabd bd14 033e fd3a 6abc 0171 c53d
000002c0: 81ed e2bd 644b 35bd 8d90 883d 862c 133d
000002d0: ae39 133e 7ff1 043e 6ae4 133d 3677 5fbd
000002e0: 111b a63d 618b 29bd c184 943a 2bf8 ae3a
000002f0: 791d c9bd 0616 283d f52e c53c ab2a b5ba
00000300: a717 96bd f6ea 3c3b a3d0 e03c 78ba ce3b
00000310: 5366 413d 6399 d0bd f5c1 963d 65f1 1fbe
00000320: ed3d 3e3b 6654 c53c ac40 5cbc 2e41 d03b
00000330: 9814 8a3d 1e2f d9bd 8bf8 b0bd 886d 10be
00000340: cdfa 42bc cda1 afb9 f465 113e 1e2c 2fbc
00000350: 1b0a f03d d4c3 cf3d 0613 253e 32fb 853e
00000360: d727 7d3d 5fff 3a3d 27d3 363d 5109 86bd
00000370: 9a1b 18bd ac02 fabd 5b59 453d 2014 553c
00000380: 3470 01be abd7 91bd fdd9 243e 9b48 793d
00000390: 8b11 583e 181d a93d db83 ab3c b61b 7f3d
000003a0: fb96 e4bb 56e1 d73d 9f03 c0bc 98da 07be
000003b0: 048b fd3d 8112 06bd 9183 f63c 735a 293e
000003c0: 87a3 b13c 7818 533d 470c 5d3e 0156 3d3d
000003d0: 437c 96bd 0cd8 033e f320 81bd 8cb9 b4bc
000003e0: dcd3 e13c 3e6c 9f3d 89c4 4c3d aba2 0cbd
000003f0: 3200 85bc 2440 7c3d 501c 1b3e 7eab a33d

network_body._body_endoder.seq_layers.2.bias f4 [128]
-0.006244839 0.012091618 -0.005159807 -0.0048374967 0.003350731 -0.0014959043 0.0027231171 0.0019209823
-0.0064005572 -0.0059769414 0.01218398 0.0005802198 0.0027435126 -0.000263853 -0.002250707 0.0019771396
-0.0031955265 -5.6920144e-06 0.0007899747 0.00035691733 0.0020307642 0.0033093903 -0.007035443 -0.005986681
-0.0009213669 -0.0024451923 0.0061122063 -0.0025700128 0.0017355253 -0.00015206668 -0.0014145359 0.0024998803
0.0013178644 0.004414635 -0.00638912 -0.0025541664 0.00063761824 -0.0052788504 -0.002588686 0.008571528
0.00425749 -1.2029433e-05 0.00022029904 0.0011768279 -0.007411555 0.008989714 -0.00090942637 -0.0012851948
-0.0006798498 -0.010149599 -0.0025107155 0.0033370538 -0.00044778085 0.005080517 -0.0056699202 0.0041708425
-0.0044448236 0.0038352911 -0.000905689 0.0028363403 -0.011334969 -0.004263769 -0.0029920214 0.0050241365
0.00078601367 0.0017881434 0.0029016768 -0.0015777531 -0.010143086 0.00035422598 -0.0050463215 -0.006467494
-0.00031952473 -0.0010287206 -0.007208634 -0.0024329359 0.0010607475 0.011192271 -0.0059385262 0.000606512
0.002579961 -0.003176889 0.0033874086 -0.00032823262 0.0039193016 0.0009534205 0.007209587 -0.005434575
0.0039666938 0.0065873126 -0.0064942725 0.005542056 -0.0048366114 0.00048336733 5.037751e-05 -0.0004409014
0.0027518524 -0.005775288 -0.0018999486 0.0053118407 0.0023618445 0.0016283776 0.0005334336 0.0022287206
-0.0034302573 0.001616641 0.0061352644 -0.006031558 0.002045876 0.0035561468 -0.0018727103 -0.0035108621
0.0060141333 -0.0020836154 0.0023019423 -0.0017821534 0.0061226557 0.0023710001 -0.0045679784 -0.011151403
-0.00011149501 -0.0015453199 -0.0032745705 -0.0016725597 -0.0043500056 0.00086401345 -0.0038041438 -0.00088849553
00000000: 82a1 ccbb ec1b 463c 9913 a9bb dd83 9ebb
00000010: f097 5b3b 3812 c4ba 5376 323b 78c9 fb3a
00000020: c4bb d1bb 38da c3bb 519f 473c e419 183a
00000030: 81cc 333b c055 8ab9 9980 13bb e692 013b
00000040: 0a6c 51bb 08fe beb6 4e16 4f3a a220 bb39
00000050: 9216 053b 5be2 583b 9389 e6bb ec2b c4bb
00000060: e387 71ba 853f 20bb e748 c83b a96d 28bb
00000070: 917a e33a 1774 1fb9 f367 b9ba 08d5 233b
00000080: 31bc ac3a a4a8 903b d35b d1bb cd63 27bb
00000090: d625 273a 35fa acbb f2a6 29bb 986f 0c3c
000000a0: 6a82 8b3b 05d2 49b7 1300 6739 cb3f 9a3a
000000b0: a1dc f2bb 9849 133c 9266 6eba fb73 a8ba
000000c0: f337 32ba 814a 26bc d18a 24bb 79b2 5a3b
000000d0: 21c4 eab9 777a a63b bdca b9bb 90ab 883b
000000e0: e2a5 91bb 8259 7b3b c36b 6dba e5e1 393b
000000f0: 4eb6 39bc 16b7 8bbb ca15 44bb 83a1 a43b
00000100: 7c0c 4e3a 2360 ea3a 0f2a 3e3b 9ccc ceba
00000110: 302f 26bc 68b7 b939 9d5b a5bb 46ed d3bb
00000120: e285 a7b9 23d6 86ba 6836 ecbb e471 1fbb
00000130: c808 8b3a c95f 373c f897 c2bb 55fe 1e3a
00000140: 9014 293b 5a33 50bb 49ff 5d3b a316 acb9
00000150: 7c6d 803b f7ee 793a 663e ec3b 8514 b2bb
00000160: 0afb 813b 62da d73b e8cd d4bb 239a b53b
00000170: 707c 9ebb 776c fd39 714c 5338 c928 e7b9
00000180: 6c58 343b a13e bdbb b207 f9ba f30e ae3b
00000190: 2dc9 1a3b 496f d53a 1fd6 0b3a ba0f 123b
000001a0: 2bce 60bb 78e5 d33a 540a c93b 60a4 c5bb
000001b0: 1b14 063b 3e0e 693b bb75 f5ba 7e16 66bb
000001c0: 3512 c53b 448d 08bb 2fdc 163b 2597 e9ba
000001d0: 8fa0 c83b c862 1b3b fbae 95bb 60b4 36bc
000001e0: 6dd2 e9b8 558c caba 2d9a 56bb ca39 dbba
000001f0: 7e8a 8ebb f67e 623a f14e 79bb ede9 68ba

action_model._continuous_distribution.log_sigma f4 [1, 2]
0.010833606 0.003455263
00000000: 707f 313c b271 623b

action_model._continuous_distribution.mu.weight f4 [2, 64]
0.040223315 -0.0136346435 0.008205427 -0.005930092 -0.022439875 0.017639987 -0.048821818 0.011370272
-0.0118145 0.017576214 -0.016661303 0.011483267 0.011503648 0.03724217 -0.04107432 0.025474695
0.032650914 0.015600904 0.04715746 -0.035317402 -0.01559761 -0.0069115963 0.051875494 0.0034549558
-0.017566027 0.0023537683 0.014610732 0.05422357 0.028513692 -0.03920142 -0.049217585 -0.011742731
0.005964244 -0.008164061 0.017803399 -0.006623119 -0.023424169 -0.010669433 0.013992923 0.025582522
-0.014650967 -0.009554621 -0.032460928 -0.036093213 -0.036141403 -0.03592471 -0.020860357 -0.032122117
-0.019702943 0.0468956 -0.0043477104 0.016365713 -0.0051882532 0.037225954 -0.025732651 -0.016744727
0.00027522974 -0.020529008 0.0044835918 0.015897356 0.031235598 0.009164319 0.020482685 0.028677495
0.019442277 -0.007411817 0.013166983 -0.01298238 0.0128569845 0.025827816 0.010254276 -0.025524719
0.0056966683 0.017687935 0.016590506 0.02234853 0.019517345 0.00015582728 0.028238261 0.011590523
0.016347356 -0.060798205 0.0054638055 -0.009617631 0.017297456 0.047901638 0.02650017 -0.0061305254
-0.017544419 -0.03366547 0.018147342 -0.0142907705 0.0482283 -0.007507761 -0.037628595 -0.030606033
0.011847376 -0.022060227 0.033522654 0.038038295 -0.021552997 -0.034827773 -0.045551565 0.0025057963
0.041601434 -0.028983485 -0.014997154 0.012547356 -0.01326572 0.023745414 -0.01693076 0.014537581
-0.042897053 0.031895794 -0.010552819 0.022349998 0.03422465 -0.0015064202 0.025090186 0.039412368
0.027016882 0.040098228 -0.010182738 0.005878898 0.056445092 -0.0060736104 0.024027377 -0.017538326
00000000: 34c1 243d d763 5fbc 0e70 063c 3851 c2bb
00000010: d4d3 b7bc bc81 903c 63f9 47bd 614a 3a3c
00000020: 9b91 41bc fefb 8f3c 497d 88bc 5024 3c3c
00000030: cc79 3c3c 3f8b 183d 8c3d 28bd 4fb0 d03c
00000040: f7bc 053d ef9a 7f3c 2e28 413d fba8 10bd
00000050: 1e8d 7fbc ac7a e2bb 667b 543d 8a6c 623b
00000060: a1e6 8fbc ae41 1a3b da61 6f3c 8919 5e3d
00000070: 8c95 e93c ab91 20bd 6198 49bd 9564 40bc
00000080: b46f c33b 8ec2 05bc 6fd8 913c c006 d9bb
00000090: 0be4 bfbc d8ce 2ebc 9342 653c 7092 d13c
000000a0: 9c0a 70bc fc8a 1cbc c0f5 04bd 7ad6 13bd
000000b0: 0209 14bd ca25 13bd 57e3 aabc 7b92 03bd
000000c0: 1168 a1bc 9a15 403d 3d77 8ebb 6311 863c
000000d0: 3902 aabb 3e7a 183d 48cd d2bc 3d2c 89bc
000000e0: b64c 9039 732c a8bc 18eb 923b 2c3b 823c
000000f0: cce1 ff3c f125 163c 4ecb a73c 11ed ea3c
00000100: 6945 9f3c d4de f2bb 54ba 573c 0cb4 54bc
00000110: 1aa6 523c db94 d33c 8d01 283c 3719 d1bc
00000120: 1eab ba3b 4ae6 903c d0e8 873c 4414 b73c
00000130: d7e2 9f3c 9165 2339 ed53 e73c 2de6 3d3c
00000140: e4ea 853c 8a07 79bd b909 b33b 4593 1dbc
00000150: 65b3 8d3c 8234 443d e216 d93c 93e2 c8bb
00000160: 50b9 8fbc cee4 09bd bca9 943c d623 6abc
00000170: 0a8b 453d aa03 f6bb 7120 1abd 81b9 fabc
00000180: 7f1b 423c a6b7 b4bc 0d4f 093d 0bce 1b3d
00000190: e98f b0bc 91a7 0ebd 4794 3abd 4938 243b
000001a0: 4466 2a3d c66e edbc 9fb6 75bc 6d93 4d3c
000001b0: 7658 59bc be85 c23c 61b2 8abc 092f 6e3c
000001c0: d2b4 2fbd 2aa5 023d bbe5 2cbc 5817 b73c
000001d0: 262f 0c3d 1373 c5ba ef89 cd3c dd6e 213d
000001e0: 8252 dd3c 0a3e 243d 80d5 26bc c5a3 c03b
000001f0: f832 673d 2305 c7bb 10d5 c43c 89ac 8fbc

action_model._continuous_distribution.mu.bias f4 [2]
-0.003596586 -0.00045002296
00000000: b3b4 6bbb 0ff1 ebb9

action_model._discrete_distribution.branches.0.weight f4 [2, 64]
-0.0018786943 -0.001254841 0.01367204 0.011899956 -0.00682002 0.02421308 0.0036699346 -0.016871126
-0.007851601 0.021080513 0.0036175055 0.015532568 0.00415347 0.012972616 -0.007189557 -0.027033167
0.0047105653 -0.023907525 -0.008202908 0.007236232 -0.00045325005 -0.004450666 -0.037665665 0.018211363
-0.0029933902 0.0011308216 -0.00010786887 0.007799373 0.010474998 -0.038413513 0.020905714 0.019085858
0.034710098 0.012884035 0.016708463 0.012869277 -0.009314845 -0.014985997 -0.034111205 -0.01320914
-0.0034366767 0.0049378355 -0.013749303 -0.0006737145 -0.00065196725 0.005526572 0.007995143 -0.0038853867
0.0058261324 -0.0042779506 -0.021702196 -0.012603058 0.010832994 0.003944367 -0.009523971 -0.016677275
0.008065704 -0.021595957 -0.019192513 -0.010669107 0.032356765 0.0088648945 0.007472679 0.0020150165
0.017198244 -0.005531352 -0.022451475 0.0012809312 0.0022794432 0.012761182 -0.019686228 0.014632843
0.014364049 0.009491452 -0.009908767 -0.012486873 -0.0077294162 0.0048561892 0.0011326716 -0.0060739256
0.011967388 0.0034695575 -0.0066414857 -0.009833088 0.0014361304 0.017239742 0.0048393765 -0.0073674885
-0.015179974 -0.002372844 0.0050879507 0.014104864 -0.010436966 0.0010908225 -0.029963525 -0.0099459
-0.0017614306 -0.0047050607 -0.009908224 -0.009207518 -0.009571012 0.011910911 0.017006733 -0.01973626
0.004706215 -0.02096484 -0.0147500485 0.018562129 -0.0018361612 0.013845382 -0.009842907 -0.0047065094
0.0035039205 -0.009654268 0.0017889522 -0.024241118 0.008684526 -0.021515891 -0.005956394 -0.009289334
0.018496878 0.0030094374 0.019026196 -0.026219342 -0.017285265 0.010801138 0.031479802 0.007875008
00000000: 853e f6ba 7a79 a4ba b100 603c 08f8 423c
00000010: 797a dfbb 825a c63c 4983 703b 5135 8abc
00000020: 00a4 00bc 0ab1 ac3c ac13 6d3b 507c 7e3c
00000030: d519 883b 188b 543c 6096 ebbb a974 ddbc
00000040: 165b 9a3b b7d9 c3bc 7d65 06bc ea1d ed3b
00000050: 31a2 edb9 e4d6 91bb 5047 1abd ff2f 953c
00000060: c12c 44bb 1438 943a a937 e2b8 e291 ff3b
00000070: 539f 2b3c 7d57 1dbd 7642 ab3c f259 9c3c
00000080: 2d2c 0e3d 8f17 533c 30e0 883c a9d9 523c
00000090: 4b9d 18bc d487 75bc 31b8 0bbd 266b 58bc
000000a0: de39 61bb 91cd a13b c244 61bc 379c 30ba
000000b0: c8e8 2aba 3f18 b53b 0ffe 023c f9a1 7ebb
000000c0: 24e9 be3b 0d2e 8cbb cec8 b1bc 0e7d 4ebc
000000d0: df7c 313c c03f 813b 6e0a 1cbc c89e 88bc
000000e0: 0426 043c 01ea b0bc 9e39 9dbc 7acd 2ebc
000000f0: 8788 043d 103e 113c 60dd f43b 5e0e 043b
00000100: 55e3 8c3c 5840 b5bb 28ec b7bc ebe4 a73a
00000110: b662 153b 4714 513c 0345 a1bc 98be 6f3c
00000120: 3057 6b3c 0982 1b3c 6258 22bc be95 4cbc
00000130: 0b47 fdbb ab20 9f3b 2776 943a c807 c7bb
00000140: dd12 443c 8461 633b d2a0 d9bb f61a 21bc
00000150: 8a3c bc3a 5c3a 8d3c a293 9e3b f96a f1bb
00000160: 6db5 78bc b781 1bbb d3b8 a63b 1618 673c
00000170: cfff 2abc eef9 8e3a 1176 f5bc 21f4 22bc
00000180: cedf e6ba e92c 9abb 1b56 22bc 21db 16bc
00000190: bccf 1cbc fb25 433c b451 8b3c f0ad a1bc
000001a0: 9836 9a3b 75be abbc 30aa 71bc 9b0f 983c
000001b0: 59ab f0ba bed7 623c 2544 21bc 1039 9abb
000001c0: 08a2 653b ef2c 1ebc 467b ea3a 4f95 c6bc
000001d0: 8b49 0e3c 1842 b0bc db2d c3bb 4a32 18bc
000001e0: c486 973c fb39 453b d3dc 9b3c f2c9 d6bc
000001f0: d499 8dbc 42f7 303c f7f0 003d 2d06 013c

action_model._discrete_distribution.branches.0.bias f4 [2]
0.008841293 -0.008841294
00000000: 12db 103c 13db 10bc

action_model._discrete_distribution.branches.1.weight f4 [2, 64]
-0.0147387525 0.022658085 -0.00066242815 -0.0067031756 0.0026519354 -0.00020423303 -0.0015042858 -0.021548072
-0.0012197907 0.016055983 0.008714961 0.020233972 0.0071325074 -0.016202504 -0.005567591 0.010667091
-0.022553116 0.00859569 0.0030347335 -0.0069175996 0.004669662 0.008060675 0.011044132 0.007751313
0.0015421741 -0.02135519 -0.008363853 0.005064315 0.019417323 0.024830388 0.012511975 -0.0021337098
0.0019094959 0.011925713 0.0043942267 -0.0041683805 -0.027924722 0.006415806 0.0032133604 0.005133326
0.0040095197 0.020774005 -0.026502857 -0.012102955 0.010997118 -0.0051029283 -0.0075769625 -0.009519978
-0.0028712326 0.010638395 0.004143006 -0.008708822 -0.014108302 -0.0035882324 -0.0150640085 0.008498964
-0.029668318 0.004663958 -0.0062326575 0.011521484 0.0018331443 -0.0018669748 0.032678615 0.0077300183
0.0025976163 0.0031701594 0.0063400357 -0.00058560324 -0.010953307 -0.0083410675 -0.0032971315 -0.0016541413
0.0038005759 0.00890577 0.0015086576 0.010203226 0.0036042142 0.016131012 -0.010015885 0.002448961
0.005324322 -0.013408491 -0.007200766 -0.0072262036 -0.006462765 -0.007979045 -0.011323611 0.0155671835
-0.0011066117 0.006007061 -0.012575818 0.015356191 0.00036796802 0.009099916 0.012328577 0.022456108
0.0020959894 -0.004670988 0.00603616 -0.008640977 -0.008610539 0.018729245 0.022316614 -0.007861266
0.0029249075 0.0142063 0.0037950545 -0.020060195 0.0134884445 0.0064626164 -0.010070857 0.0027132954
-0.014357839 -0.0008779227 0.021062711 -0.0131342625 0.01873284 -0.0079284245 0.0011361665 -0.023002204
0.008493368 0.002889945 -0.004341063 0.0050872774 0.018804766 0.0052101915 0.008787502 0.0087847365
00000000: cf7a 71bc 739d b93c cda6 2dba 50a6 dbbb
00000010: 18cc 2d3b 6327 56b9 752b c5ba 9585 b0bc
00000020: 62e1 9fba d687 833c 32c9 0e3c b7c1 a53c
00000030: cfb7 e93b 1dbb 84bc 5770 b6bb 06c5 2e3c
00000040: 50c1 b8bc f0d4 0c3c 61e2 463b 08ad e2bb
00000050: f703 993b ec10 043c 72f2 343c bafe fd3b
00000060: c722 ca3a 14f1 aebc 8b08 09bc 8ef2 a53b
00000070: 1411 9f3c 1969 cb3c 07ff 4c3c b6d5 0bbb
00000080: 0d48 fa3a 1164 433c 72fd 8f3b e996 88bb
00000090: 63c2 e4bc ae3b d23b 3e97 523b 7635 a83b
000000a0: 4a62 833b 3f2e aa3c 851c d9bc 794b 46bc
000000b0: 422d 343c 7736 a7bb 2b48 f8bb aff9 1bbc
000000c0: 4a2b 3cbb aa4c 2e3c 0ec2 873b 72af 0ebc
000000d0: 8226 67bc 8d28 6bbb 08cf 76bc 3d3f 0b3c
000000e0: f90a f3bc 1ed4 983b 523b ccbb 9bc4 3c3c
000000f0: 1e46 f03a 47b5 f4ba 03da 053d 184c fd3b
00000100: c53c 2a3b 73c2 4f3b 13c0 cf3b 2b83 19ba
00000110: 8075 33bc f9a8 08bc b014 58bb c6cf d8ba
00000120: 1513 793b 82e9 113c 26be c53a 6e2b 273c
00000130: ae34 6c3b 2f25 843c ab19 24bc bf7e 203b
00000140: a677 ae3b 4aaf 5bbc 67f4 ebbb cac9 ecbb
00000150: 9ac5 d3bb 8aba 02bc ab86 39bc 800d 7f3c
00000160: ba0b 91ba e1d6 c43b ce0a 4ebc 8998 7b3c
00000170: d5eb c039 d017 153c cdfd 493c dff5 b73c
00000180: de5c 093b 160f 99bb fbca c53b e292 0dbc
00000190: 3813 0dbc 136e 993c 55d1 b63c 8acc 00bc
000001a0: ceaf 3f3b 8ac1 683c 73b6 783b 4755 a4bc
000001b0: a3fe 5c3c 5bc4 d33b 3c00 25bc 8bd1 313b
000001c0: 243d 6bbc 6524 66ba b58b ac3c 1731 57bc
000001d0: 9d75 993c 39e6 01bc 6ceb 943a 1e6f bcbc
000001e0: c427 0b3c 3b65 3d3b 7a3f 8ebb 2db3 a63b
000001f0: 740c 9a3c 41ba aa3b 74f9 0f3c dbed 0f3c

action_model._discrete_distribution.branches.1.bias f4 [2]
0.000117272095 -0.000117273594
00000000: faef f538 c8f0 f5b8

onnx::LSTM_133 f4 [1, 256, 128]
0.14014971 0.039754692 -0.07059994 0.085408054 0.11531787 -0.12235939 0.03675734 0.17721513
-0.087928064 0.119070105 0.092227764 0.009888711 -0.14265993 0.068251915 0.10913647 0.056053657
0.103216045 -0.12912138 0.08787718 0.09972251 -0.11508679 -0.044744328 0.1622487 0.1329411
-0.10409963 -0.03440045 -0.17214583 0.1348808 0.16801947 -0.16045241 0.061984308 -0.16128404
-0.06701471 -0.052505374 -0.14941712 -0.11714388 0.10192014 0.008130613 -0.00046623955 -0.0008249376
0.16502619 -0.05739545 0.13417822 0.06875618 -0.09294736 -0.07628424 0.16033056 -0.08325231
0.09963404 -0.012738849 -0.16499753 0.15624997 -0.03192367 0.1189897 0.16941568 -0.011782912
0.11310529 0.07530434 -0.028158141 -0.10939429 -0.020979043 0.12960814 0.025730448 -0.07295389
0.08085307 -0.06915752 -0.07281395 -0.054371282 0.017367747 -0.08670429 -0.10272112 0.17908151
0.06454826 0.038300335 0.06029982 -0.09983974 -0.15734902 -0.06686069 -0.08820863 0.1628829
0.057205208 0.06076686 0.095646456 0.17250308 -0.16309741 0.16072379 -0.010669964 0.035278615
0.016879307 -0.045822393 0.1447203 -0.14972723 0.00083112664 0.14686897 -0.17114536 0.16128217
0.10011288 -0.07306409 0.14275849 0.05290464 0.06299278 -0.115192436 0.12267137 -0.13276972
0.15483506 0.1770461 0.12676916 -0.025075696 -0.0025533806 -0.08611981 0.0959343 0.031896163
-0.1664489 0.16057983 -0.16966562 0.14199772 0.033962235 -0.0544463 0.0071853087 0.1330904
0.10653041 -0.09011756 -0.15903398 0.1492292 0.1674107 0.161883 -0.103461236 0.16502967
0.1268872 -0.16281125 -0.044777453 0.131691 -0.045129668 0.10112384 0.0018651157 0.11917686
0.006161428 0.16544273 0.033571053 -0.033507008 0.054518424 0.17460723 -0.13043724 0.15125515
0.0566688 0.08822048 0.11009201 0.098216735 -0.065879636 -0.16382404 0.0077749547 -0.11149202
-0.022399727 -0.12101487 -0.071925625 0.011700979 -0.1459532 -0.009869246 0.048523176 0.10968918
0.073633425 0.07808821 0.11311531 -0.17608623 -0.047687743 -0.03614373 -0.10675676 -0.07025545
-0.10315784 0.072627455 0.039543394 0.12949799 0.047755416 -0.06299082 -0.09210676 -0.14588098
0.15785888 -0.066272624 -0.083173506 -0.087236345 -0.119712174 -0.14872171 0.17484131 -0.104402855
0.11870541 -0.15664138 -0.00077006896 -0.018923478 -0.045848124 0.045769297 0.1542741 -0.0021864062
0.16328245 0.045242168 0.13630381 0.09101041 0.06917231 -0.010604208 -0.047773503 -0.0062586344
0.09520697 -0.043285336 -0.039051738 0.1103276 -0.041506335 0.12195521 0.041837476 -0.080584146
-0.15699455 -0.16666473 0.0007467096 0.1620829 -0.09093314 0.06435403 -0.014293677 -0.10470702
-0.1549615 0.108967215 0.17211744 0.13754258 0.15438211 0.064646766 0.03824448 0.14537759
-0.15956816 -0.09794925 -0.009286085 0.14558814 -0.08624083 0.13326865 0.007838445 0.11268834
-0.13556467 -0.021084607 0.06518282 0.13694303 0.06072806 -0.14003348 0.104896955 -0.15356073
0.17126425 0.15844229 -0.15760605 -0.0341801 0.15176763 0.10950515 0.032103937 0.042341903
-0.14799981 0.07413923 -0.09836173 0.074773096 -0.1170398 -0.114991814 0.09888695 0.025612237
00000000: 6883 0f3e d1d5 223d b496 90bd 6bea ae3d
00000010: c72b ec3d 8f97 fabd dd8e 163d e277 353e
00000020: a113 b4bd 07db f33d e9e1 bc3d 4304 223c
00000030: 7215 12be a9c7 8b3d f182 df3d 8598 653d
00000040: ef62 d33d 6538 04be f3f8 b33d 513b cc3d
00000050: 9fb2 ebbd d445 37bd 8624 263e b621 083e
00000060: 3032 d5bd 7ce7 0cbd ff46 30be 311e 0a3e
00000070: 4c0d 2c3e a34d 24be 42e3 7d3d a527 25be
00000080: 023f 89bd e00f 57bd cd00 19be 21e9 efbd
00000090: 82bb d03d 4336 053c 9d71 f4b9 a040 58ba
000000a0: a0fc 283e 7e17 6bbd 0466 093e 0ad0 8c3d
000000b0: 2f5b bebd e93a 9cbd b22d 243e 3080 aabd
000000c0: ee0c cc3d 9bb6 50bc 1df5 28be feff 1f3e
000000d0: 65c2 02bd dfb0 f33d 4e7b 2d3e 1d0d 41bc
000000e0: bfa3 e73d 2939 9a3d e7ab e6bc 1d0a e0bd
000000f0: 3edc abbc ffb7 043e a9c8 d23c d968 95bd
00000100: 4b96 a53d 75a2 8dbd 7b1f 95bd 6cb4 5ebd
00000110: ce46 8e3c 0592 b1bd 735f d2bd 2561 373e
00000120: e131 843d d0e0 1c3d f2fc 763d c778 ccbd
00000130: 1a20 21be 42ee 88bd baa6 b4bd c6ca 263e
00000140: 0250 6a3d ace6 783d 4ae2 c33d a6a4 303e
00000150: 0203 27be c794 243e 13d1 2ebc 4f80 103d
00000160: 7946 8a3c 43b0 3bbd 8f31 143e 1852 19be
00000170: f7df 593a d264 163e bb40 2fbe 2727 253e
00000180: fb07 cd3d a0a2 95bd 482f 123e 89b2 583d
00000190: 5c02 813d 03ea ebbd 213b fb3d c9f4 07be
000001a0: 158d 1e3e 934b 353e c6cf 013e 8c6b cdbc
000001b0: 9e56 27bb 955f b0bd 3479 c43d 8da5 023d
000001c0: 9571 2abe 0a6f 243e d3bc 2dbe da67 113e
000001d0: fc1b 0b3d 1503 5fbd bd72 eb3b da48 083e
000001e0: 9e2c da3d 8e8f b8bd ced9 22be 8acf 183e
000001f0: b66d 2b3e a8c4 253e 7ce3 d3bd 8afd 283e
00000200: b8ee 013e feb7 26be 9068 37bd 01da 063e
00000210: e3d9 38bd 041a cf3d e676 f43a ff12 f43d
00000220: cee5 c93b d269 293e cd81 093d a53e 09bd
00000230: b64e 5f3d 3dcc 323e 5791 05be a1e2 1a3e
00000240: 8b1d 683d f0ac b43d eb77 e13d db25 c93d
00000250: e7eb 86bd 7dc1 27be 0cc5 fe3b ee55 e4bd
00000260: a27f b7bc a5d6 f7bd be4d 93bd 77b5 3f3c
00000270: c174 15be 9eb2 21bc 3dc0 463d b9a4 e03d
00000280: 1fcd 963d b6ec 9f3d 00a9 e73d f34f 34be
00000290: 3954 43bd 730b 14bd 4aa3 dabd 17e2 8fbd
000002a0: 6b44 d3bd b4bd 943d 41f8 213d 1f9b 043e
000002b0: 2f9b 433d 5501 81bd 78a2 bcbd d361 15be
000002c0: c2a5 213e f1b9 87bd df56 aabd f8a8 b2bd
000002d0: a82b f5bd 814a 18be 9a09 333e 2ad1 d5bd
000002e0: d21b f33d 9966 20be 74de 49ba 6905 9bbc
000002f0: 3ecb 3bbd 9678 3b3d 08fa 1d3e cf49 0fbb
00000300: 8433 273e da4f 393d 3a93 0b3e aa63 ba3d
00000310: 36aa 8d3d 46bd 2dbc 26ae 43bd 3b15 cdbb
00000320: dffb c23d f74b 31bd b7f4 1fbd 70f3 e13d
00000330: 8c02 2abd a7c3 f93d c65d 2b3d 4d09 a5bd
00000340: 2ec3 20be 29aa 2abe d5be 433a 0ff9 253e
00000350: 273b babd 0ccc 833d 0730 6abc a270 d6bd
00000360: 3aae 1ebe 342a df3d 8e3f 303e f6d7 0c3e
00000370: 5816 1e3e 8665 843d 3ea6 1c3d dddd 143e
00000380: d665 23be 9e99 c8bd aa24 18bc 0f15 153e
00000390: 089f b0bd 9477 083e d26c 003c 25c9 e63d
000003a0: 77d1 0abe a0b9 acbc 927e 853d cb3a 0c3e
000003b0: fcbd 783d f064 0fbe 37d4 d63d 063f 1dbe
000003c0: e55f 2f3e b23e 223e 7b63 21be 6f00 0cbd
000003d0: f968 1b3e 3c44 e03d 6b7f 033d b46e 2d3d
000003e0: 438d 17be 4fd6 973d e071 c9bd a322 993d
000003f0: 90b2 efbd d480 ebbd 3e85 ca3d c1d0 d13c

onnx::LSTM_134 f4 [1, 256, 64]
-0.11250991 0.20837635 -0.2071012 -0.12806587 0.0087100165 -0.21357596 -0.07222493 -0.024676086
0.21374154 0.022110797 0.12297333 0.02294305 -0.21852615 0.20290618 0.052003097 0.20566891
0.16426788 -0.20967373 0.04321982 0.1512257 -0.050825436 -0.15445149 0.089410976 -0.10231942
-0.14663401 -0.10870743 0.1354421 0.007190355 0.14938457 -0.1726852 -0.17317025 0.2069144
0.07989585 -0.1241539 0.06614474 0.10231913 -0.14770901 0.064394265 0.15380375 -0.092220604
-0.038798302 0.17628199 0.05549432 0.061800107 0.111910604 0.09664198 -0.20398924 -0.08564655
0.19775155 -0.14111517 -0.041207463 0.044497196 0.1399377 -0.18093906 -0.110345624 0.080247544
0.15104386 0.12645788 -0.031009432 0.0071922084 0.046898987 -0.0501289 0.02754011 0.2085287
0.025595792 -0.073457584 -0.063154 0.14545543 -0.17637262 0.026425768 -0.20054862 -0.13619748
0.060040876 -0.16132814 0.15953776 -0.036960594 -0.13838682 0.11531553 -0.1854012 -0.033925246
-0.1472556 -0.21433385 0.19137998 0.115514554 -0.15595295 -0.12064483 0.09994032 0.19367151
-0.17206219 0.10437528 -0.14572643 -0.035479426 -0.08108809 -0.12725477 -0.09682432 -0.10647477
-0.15024954 0.09167998 -0.13405213 0.20192152 0.20069766 -0.05388897 0.1849405 0.17178722
-0.029478826 0.033175826 -0.044460397 0.009734275 -0.085214555 -0.08948401 0.06551833 0.016756956
-0.16246453 0.026061062 -0.03219751 0.05222973 0.07873364 -0.1748607 -0.075478934 0.06585401
-0.059144955 0.16325831 0.07706436 0.21792294 0.16971922 0.20759155 -0.09355437 -0.01669317
-0.04630815 -0.0056874915 -0.042617902 0.18995441 -0.10062522 -0.17793468 -0.20012632 0.16255902
-0.00438443 -0.10484554 -0.17964017 -0.044866987 -0.1914146 0.22671588 -0.083658114 0.19909547
0.07429408 0.18471813 0.20305693 -0.0638064 0.042970084 0.22207502 0.057732884 -0.03579395
-0.11865726 0.072358675 -0.21097423 -0.12589692 -0.14419572 -0.07679926 0.0073136394 0.05409113
0.18906808 0.15023078 0.007630811 -0.1772231 0.075687915 -0.07188611 -0.22271565 0.029006552
0.04260299 0.054695368 -0.19105995 -0.08101894 0.03659345 -0.014413347 0.12572943 -0.15664837
-0.19697943 0.020010566 -0.08510212 -0.18186006 0.00787854 0.06441973 0.0136841 -0.012003441
0.042436022 0.21349144 -0.1550391 -0.13001563 -0.025068052 -0.034098107 -0.16801265 0.16811857
-0.21902932 0.1329388 -0.1047104 0.15900351 -0.12247907 0.20785627 -0.12606418 0.036480546
-0.040263765 0.048095338 0.16657233 -0.016103067 0.19978169 0.025442071 0.11343943 0.016414687
0.1425894 0.12743457 0.11128822 0.20685047 0.13081864 0.05166242 -0.17056502 0.13677157
0.07786127 0.019203745 0.008087436 -0.120128624 0.04781164 -0.02495439 -0.03671571 0.08738529
-0.06776642 -0.15135501 0.20617715 -0.013315218 -0.11419233 -0.15787996 -0.040917296 -0.11892999
-0.050875865 0.07456312 -0.08140794 -0.16926254 -0.06577826 0.06926162 -0.14180417 -0.016616352
0.20961007 -0.20008549 -0.086704075 -0.07631696 -0.15876473 -0.21879184 0.07288414 -0.030624583
-0.1579836 -0.10123073 -0.16323206 0.22061338 -0.19294086 0.027924899 0.019919043 0.06903763
00000000: 986b e6bd 9c60 553e 5612 54be b323 03be
00000010: 75b4 0e3c a8b3 5abe aaea 93bd 8125 cabc
00000020: 10df 5a3e b421 b53c 71d9 fb3d 10f3 bb3c
00000030: 52c5 5fbe a3c6 4f3e 3301 553d df9a 523e
00000040: d735 283e b6b4 56be 4407 313d e9da 1a3e
00000050: 552e 50bd 8828 1ebe 1a1d b73d d88c d1bd
00000060: 3a27 16be 00a2 debd 55b1 0a3e 129d eb3b
00000070: 45f8 183e 64d4 30be 8b53 31be 5ee1 533e
00000080: 6fa0 a33d 6644 febd e576 873d b18c d13d
00000090: 0841 17be 24e1 833d bb7e 1d3e 28de bcbd
000000a0: f8ea 1ebd 4483 343e 034e 633d 1c22 7d3d
000000b0: 6331 e53d 3bec c53d 8ee2 50be 7567 afbd
000000c0: 627f 4a3e 7f80 10be 28c9 28bd b142 363d
000000d0: d44b 0f3e 1748 39be e3fc e1bd d358 a43d
000000e0: 3eab 1a3e 2d7e 013e 7e07 febc 9eac eb3b
000000f0: 2719 403d f653 4dbd cc9b e13c 8c88 553e
00000100: 44ae d13c ee70 96bd e256 81bd 45f2 143e
00000110: 069b 34be da7a d83c 9e5c 4dbe 5a77 0bbe
00000120: 6ced 753d 3433 25be de5d 233e fe63 17bd
00000130: 46b5 0dbe 8c2a ec3d d0d9 3dbe 33f5 0abd
00000140: 2cca 16be 557a 5bbe 1df9 433e e592 ec3d
00000150: 21b2 1fbe a314 f7bd 83ad cc3d d351 463e
00000160: 1231 30be b5c2 d53d 4f39 15be e052 11bd
00000170: 8311 a6bd 134f 02be d44b c6bd 720f dabd
00000180: 04db 19be b7c2 bb3d f644 09be 84c4 4e3e
00000190: b083 4d3e aeba 5cbd 0b61 3d3e fde8 2f3e
000001a0: 947d f1bc 60e3 073d 1b1c 36bd 827c 1f3c
000001b0: f884 aebd 6543 b7bd 792e 863d e245 893c
000001c0: 1a5d 26be 027e d53c 89e1 03bd d7ee 553d
000001d0: 1a3f a13d af0e 33be b394 9abd 78de 863d
000001e0: fb41 72bd 302d 273e ebd3 9d3d 3127 5f3e
000001f0: e0ca 2d3e e192 543e 6f99 bfbd 1dc0 88bc
00000200: 9dad 3dbd 235e babb 1c90 2ebd 6983 423e
00000210: 9814 cebd 8234 36be eaed 4cbe df75 263e
00000220: 44ab 8fbb 42b9 d6bd 98f3 37be 72c6 37bd
00000230: 3002 44be 3528 683e f254 abbd afdf 4b3e
00000240: 7f27 983d c026 3d3e 28ee 4f3e eeac 82bd
00000250: 6601 303d a267 633e 5179 6c3d ad9c 12bd
00000260: 9402 f3bd c930 943d a109 58be 1feb 00be
00000270: 0ba8 13be ee48 9dbd 41a7 ef3b a98e 5d3d
00000280: 109b 413e 19d6 193e e20b fa3b f979 35be
00000290: 4402 9b3d 0639 93bd 920f 64be 269f ed3c
000002a0: 7980 2e3d 4008 603d 38a5 43be 42ed a5bd
000002b0: 03e3 153d f525 6cbc 37bf 003e 6e68 20be
000002c0: fab4 49be 33ed a33c 054a aebd 8639 3abe
000002d0: fe14 013c 7eee 833d 4633 603c 15aa 44bc
000002e0: 65d1 2d3d 809d 5a3e 92c2 1ebe d122 05be
000002f0: 845b cdbc 75aa 0bbd 820b 2cbe 4627 2c3e
00000300: 3949 60be 1c21 083e 6872 d6bd d1d1 223e
00000310: 4fd6 fabd 46d8 543e f816 01be a06c 153d
00000320: 9eeb 24bd 9eff 443d f091 2a3e 94ea 83bc
00000330: 9293 4c3e e46b d03c ef52 e83d 1878 863c
00000340: f502 123e 357e 023e 14eb e33d 9cd0 533e
00000350: 52f5 053e f99b 533d 99a8 2ebe d90d 0c3e
00000360: bb75 9f3d 2c51 9d3c 2a81 043c ff05 f6bd
00000370: 23d6 433d 266d ccbc 3663 16bd 0ff7 b23d
00000380: 1fc9 8abd cffc 1abe 1a20 533e 1228 5abc
00000390: abdd e9bd 49ab 21be e598 27bd 9191 f3bd
000003a0: 3663 50bd 8db4 983d 35b9 a6bd 2953 2dbe
000003b0: c1b6 86bd 09d9 8d3d 1d35 11be 041f 88bc
000003c0: 06a4 563e 36e3 4cbe e891 b1bd 114c 9cbd
000003d0: 3993 22be f80a 60be 4844 953d 68e0 fabc
000003e0: 74c6 21be 0f52 cfbd 4e26 27be 79e8 613e
000003f0: 4a92 45be c2c2 e43c 432d a33c 9a63 8d3d

onnx::LSTM_135 f4 [1, 512]
0.0014382406 -0.0016645299 0.008729857 -0.003165809 0.0052815066 0.007153397 -0.001820269 0.0024441732
-0.0048023732 -0.0012109823 -0.001796254 0.010247516 -0.007288703 -8.729209e-05 0.0057353713 0.0032502804
-0.0035379261 0.0010707554 -0.0020470615 0.008934461 0.002369286 0.0057837954 0.009215515 0.0037106583
-0.0010724628 -0.0016390177 -0.005569706 -0.004294769 -0.0003605244 0.0009304779 0.0049842633 0.0156134805
-0.005705053 -0.006943128 0.0046653664 0.003034811 -0.0066472273 0.0016102 0.0032926942 -0.008096513
0.0044618235 0.0062827147 0.0037464567 0.0035260112 -0.005019412 0.0032020863 -0.0032716014 0.0015155523
-0.0042980183 0.0033683009 -0.002887724 0.001631349 -0.0014470388 0.0038372257 0.004835404 0.009369941
-0.0006817311 -0.00022760712 -0.002795395 -0.004029409 0.002916313 -0.0010016047 0.0025707926 -0.0034438244
0.0011185112 -0.0027703827 0.0014297604 -0.006086513 0.00078587094 0.00071020774 -0.0017643819 0.0010319311
-0.002342836 0.002286885 -0.0045077326 0.0008751862 -0.0067221415 0.0034248233 0.00019622363 0.003708968
-0.0041974466 -0.0027326383 -0.004487019 -0.002831193 0.00019477803 0.0017341094 0.0049160183 -0.001633013
0.0024592553 -0.00085025874 -0.0019155276 -0.0048374766 0.0026085137 0.0016871602 -0.0036311273 0.009300428
-0.003439107 -0.0018726782 0.003945987 0.0033312093 0.00018217621 -0.0007281842 0.00082249404 -0.0038166628
-0.0010531739 0.0066380515 0.0013906421 0.0012141913 -0.0016522469 -0.0025918263 -0.006210307 0.0007796396
-0.00080063945 0.003010578 -0.0030615279 0.00038949514 -0.0039524315 -0.0015920388 0.0022062599 -0.006921998
-7.231258e-05 -0.0017911912 -0.0053312196 -0.005122085 -0.0033010629 -0.0043207793 0.0027957049 -0.0037996045
1.0026269 0.9996294 1.0013851 0.99349344 1.0025147 0.98321676 0.99777114 0.9963297
0.9985018 0.99877316 0.9961346 0.99766994 0.9919664 0.99929714 1.0004271 1.0012236
0.99870473 1.0024414 0.999976 1.0071361 1.0049449 1.0065318 1.0021458 1.0022856
1.0016396 0.99852395 0.9966359 0.9961943 0.99851376 1.0064094 0.99815065 0.9922316
1.0009247 0.9912719 1.0000058 1.0023186 1.0020466 1.0001882 1.0013614 0.99081916
1.0048304 1.0101427 1.0018318 1.0017996 0.9982299 1.0062639 0.9917621 0.99885863
0.9948477 1.0039194 0.9976698 1.0004764 0.99729 1.0037172 1.0055372 0.9965275
1.0015211 1.0003923 0.99733216 0.9971198 1.006176 0.99770975 1.0006791 0.99274695
-0.0069344025 -0.0010780427 0.0045543355 0.0015358862 0.0022853569 -0.0061880937 0.005222849 -0.0038552582
-0.006680621 -0.00032175533 0.0085763885 0.0016637166 0.0040731784 -0.0048197126 0.003475485 -0.005027963
-0.003546833 -0.0005142897 -0.002587136 0.006822754 -0.00064277416 0.002782664 -0.008791749 -0.0006233979
-0.0001857455 -0.007030294 0.003983814 -0.0022451023 0.0010200714 -0.0011674832 0.0059301103 0.004520905
0.0058958223 0.006081508 0.0045196237 0.005872996 0.0010241552 -0.0047487468 -0.006683957 0.0014544458
0.0047919126 0.0020977878 0.00074873195 -0.0029658356 0.005162024 0.00443348 0.0043873647 0.0052220346
-0.003931872 -0.0026594216 0.00070616795 -0.003102324 0.004722534 0.001956467 0.005901664 0.0041520726
-0.0036560828 0.0005295478 -0.009501705 -0.0015570779 -0.00027586002 -0.0074069696 -4.000035e-05 -0.0030172325
00000000: 5983 bc3a 5b2c daba ad07 0f3c 7679 4fbb
00000010: 7d10 ad3b 0b67 ea3b 1896 eeba 6c2e 203b
00000020: 3a5d 9dbb d3b9 9eba 4870 ebba 33e5 273c
00000030: 13d6 eebb 9510 b7b8 c8ef bb3b a802 553b
00000040: 8ddc 67bb 9758 8c3a fe27 06bb d861 123c
00000050: 0646 1b3b fe85 bd3b acfc 163c 842e 733b
00000060: e191 8cba 4fd4 d6ba 1582 b6bb 22bb 8cbb
00000070: c404 bdb9 51eb 733a 0853 a33b afcf 7f3c
00000080: 74f1 babb 2e83 e3bb eedf 983b aee3 463b
00000090: fcd0 d9bb 590d d33a 3eca 573b 3da7 04bc
000000a0: 7d34 923b 3bdf cd3b 1d87 753b a714 673b
000000b0: e179 a4bb 18da 513b 5d68 56bb 7fa5 c63a
000000c0: 64d6 8cbb b6be 5c3b f83f 3dbb fdd2 d53a
000000d0: 91aa bdba f779 7b3b 4f72 9e3b 6284 193c
000000e0: 33b6 32ba d2a9 6eb9 f232 37bb 2209 84bb
000000f0: 9d1f 3f3b 4748 83ba be7a 283b c9b1 61bb
00000100: 029b 923a 4f8f 35bb cc66 bb3a 5f71 c7bb
00000110: e802 4e3a 3c2d 3a3a d542 e7ba dd41 873a
00000120: 448a 19bb 90df 153b 9ab5 93bb c06c 653a
00000130: 6945 dcbb 0073 603b 61c1 4d39 2812 733b
00000140: bc8a 89bb 1016 33bb d807 93bb 898b 39bb
00000150: 543d 4c39 0e4b e33a 8d16 a13b d30a d6ba
00000160: 752b 213b e6e3 5eba 7112 fbba b283 9ebb
00000170: 99f3 2a3b b423 dd3a 35f8 6dbb d360 183c
00000180: a462 61bb a774 f5ba 574d 813b 6b50 5a3b
00000190: 8e06 3f39 9de3 3eba a49c 573a fa20 7abb
000001a0: a70a 8aba 0384 d93b 3546 b63a 8025 9f3a
000001b0: 3590 d8ba a1db 29bb d57f cbbb ba60 4c3a
000001c0: 01e2 51ba 1e4d 453b eaa3 48bb 2735 cc39
000001d0: 6683 81bb f5ab d0ba e696 103b eed1 e2bb
000001e0: 85a6 97b8 67c6 eaba 83b1 aebb 2ad7 a7bb
000001f0: a556 58bb 5395 8dbb 2538 373b c902 79bb
00000200: 1456 803f b6e7 7f3f 632d 803f 9655 7e3f
00000210: 6752 803f 18b4 7b3f ee6d 7f3f 770f 7f3f
00000220: d09d 7f3f 99af 7f3f ad02 7f3f 4c67 7f3f
00000230: 83f1 7d3f f0d1 7f3f ff0d 803f 1828 803f
00000240: 1dab 7f3f 0050 803f 6dfe 7f3f d6e9 803f
00000250: 09a2 803f 09d6 803f 5046 803f e54a 803f
00000260: ba35 803f 449f 7f3f 8823 7f3f 9706 7f3f
00000270: 999e 7f3f 06d2 803f cd86 7f3f e402 7e3f
00000280: 4d1e 803f ffc3 7d3f 3100 803f fa4b 803f
00000290: 1043 803f 2b06 803f 9c2c 803f 53a6 7d3f
000002a0: 489e 803f 5b4c 813f 063c 803f f83a 803f
000002b0: ff8b 7f3f 41cd 803f 1fe4 7d3f 33b5 7f3f
000002c0: 57ae 7e3f 6e80 803f 4a67 7f3f 9c0f 803f
000002d0: 664e 7f3f ce79 803f 71b5 803f 6d1c 7f3f
000002e0: d831 803f db0c 803f 2951 7f3f 3e43 7f3f
000002f0: 60ca 803f e869 7f3f 4116 803f aa24 7e3f
00000300: fc39 e3bb 1c4d 8dba 893c 953b ca4f c93a
00000310: edc5 153b 7ec5 cabb 6f24 ab3b 80a8 7cbb
00000320: 1ce9 dabb 45b1 a8b9 fb83 0c3c 1111 da3a
00000330: 4c78 853b aeee 9dbb f6c4 633b 9cc1 a4bb
00000340: fc71 68bb 66d1 06ba f18c 29bb 6991 df3b
00000350: d87f 28ba 5b5d 363b 450b 10bc 866b 23ba
00000360: aec4 42b9 615e e6bb a78a 823b 9122 13bb
00000370: ebb3 853a 3c06 99ba 5f51 c23b 1a24 943b
00000380: be31 c13b 6347 c73b 5a19 943b 4372 c03b
00000390: f23c 863a 609b 9bbb 1805 dbbb 1aa3 be3a
000003a0: 7a05 9d3b 0a7b 093b 8d46 443a 775e 42bb
000003b0: 3226 a93b ba46 913b e2c3 8f3b 9a1d ab3b
000003c0: efd6 80bb b149 2ebb 211e 393a 5c50 4bbb
000003d0: 7dbf 9a3b 1238 003b bf62 c13b 1c0e 883b
000003e0: e49a 6fbb 5ad1 0a3a 0aad 1bbc dd16 ccba
000003f0: 4ea1 90b9 2ab6 f2bb 0cc6 27b8 c3bc 45bb
