results/poc/Shootair/Shootair-16156.onnx (onnx, 493289 bytes, 15 tensors)

discrete_act_size_vector f4 [1, 2]
2.0 2.0
00000000: 0000 0040 0000 0040

network_body._body_endoder.seq_layers.0.weight f4 [128, 420]
0.023290545 -0.095023416 0.012997056 -0.03204692 0.09787856 0.0009793666 0.046526313 -0.013382015
0.059846304 -0.08240531 0.014998426 0.02647382 0.04475366 0.097615644 0.05330574 0.037342813
-0.0013566649 0.01673046 0.013779773 0.17651166 -0.025138525 -0.041408654 0.0065726317 0.05199421
-0.083076894 -0.0047316886 0.06709264 0.08299862 0.076059856 0.008506233 0.12223137 -0.0078456225
0.021091273 -0.037882697 -0.026360163 0.007885147 -0.03348582 0.026611643 -0.020068496 0.045595422
0.0126707265 -0.0010553151 0.038969766 -0.0403935 0.07815963 -0.042964254 0.02429525 0.017916825
-0.026967278 0.03180003 0.057406913 0.10780233 0.0656903 -0.014848101 -0.06074981 0.11828247
0.00013663065 -0.06760463 -0.0344663 0.048846826 0.056403838 -0.043721836 0.006612117 0.0010621502
-0.035484724 0.011288163 0.080156155 0.08742295 0.01795252 -0.048483364 0.018542495 0.03203173
0.13141198 0.124398515 0.0020313254 0.102157265 -0.0099512525 -0.009383993 -0.0053955354 0.097221
-0.01220318 0.06519181 -0.09429638 0.05223677 -0.012310444 0.025816403 0.037895504 -0.07990207
0.028938932 -0.0506847 -0.0009709864 0.06061507 -0.022654474 -0.01245549 -0.1279666 -0.019415485
-0.033554494 -0.015826581 0.046736255 0.016290091 0.100011766 -0.08291205 -0.0067490586 0.019704644
-0.11551696 -0.011415618 0.07558386 -0.09000758 0.018440586 -0.0068353643 0.050993644 0.02177269
-0.039920036 0.032578662 -0.004645875 0.018378546 -0.013500676 0.080373295 0.06611857 0.0500055
0.019654531 0.03495747 -0.032653905 0.057568043 0.066811875 0.104007974 -0.0770903 -0.029815702
0.12673375 -0.054033175 0.020368373 0.028685212 0.04751565 -0.045316394 0.006066418 0.014890026
0.035501055 -0.012360926 -0.0013348298 -0.013448647 0.020277686 0.07466875 -0.037078828 0.019938314
-0.00398917 0.033591997 -0.043639254 -0.060777687 -0.07818866 -0.02823658 -0.061442588 0.034701522
0.034307327 -0.016051266 -0.03575517 -0.034361426 -0.08063307 -0.1409526 -0.0014855999 -0.031162286
-0.027110415 0.08382722 -0.0059981025 0.07222012 -0.001533575 0.060722947 0.049742784 -0.017873494
0.05225113 -0.0047246013 -0.013027327 0.10020905 0.008422573 0.008835163 -0.016096877 0.058546152
0.11006837 -0.023873352 0.03185757 0.06636702 0.050900918 0.029712763 -0.0076727914 0.002232981
0.06862056 0.05911589 0.06435064 -0.012035324 -0.03395575 0.0013395327 0.024685182 0.006091017
0.028040547 0.07193321 0.014807543 0.03719222 -0.05946513 0.054649822 -0.029655993 0.07467936
0.062324446 0.058106422 -0.050912395 0.1335687 0.014258572 0.06869659 -0.0031347456 0.017913353
0.0372441 0.055688836 -0.00541091 0.0009953073 -0.014888256 -0.00972435 -0.057620443 -0.0070842574
0.07087541 0.0032981355 -0.04989206 0.045181263 0.004113253 -0.05708258 0.09055227 0.035800062
0.012374394 -0.0071386 0.016162118 0.035781004 0.034606524 -0.09792539 -0.038559068 0.030776486
0.030602815 0.018770223 0.005860571 -0.07789771 0.0676269 0.08493109 0.03862327 -0.05442109
-0.05103219 0.015944052 0.065366305 0.0050475923 0.01656924 0.015124479 0.04329438 0.027629543
-0.015192449 0.007334721 0.02511864 -0.09080309 -0.046145357 -0.009365001 -0.047984336 -0.07079862
00000000: d0cb be3c a39b c2bd 9bf1 543c a243 03bd
00000010: 8e74 c83d 175e 803a 6092 3e3d 3d40 5bbc
00000020: 6621 753d 1dc4 a8bd f5bb 753c a0df d83c
00000030: 9d4f 373d b6ea c73d 1f57 5a3d c7f4 183d
00000040: 1fd2 b1ba 510e 893c 8fc4 613c 79bf 343e
00000050: 4fef cdbc 1f9c 29bd 3b5f d73b e1f7 543d
00000060: 3824 aabd 480c 9bbb de67 893d 2efb a93d
00000070: 45c5 9b3d ba5d 0b3c 7154 fa3d ed8a 00bc
00000080: 9bc7 ac3c e32a 1bbd 45f1 d7bc b430 013c
00000090: 6d28 09bd a900 da3c b066 a4bc 44c2 3a3d
000000a0: e198 4f3c 8052 8aba c39e 1f3d a873 25bd
000000b0: 2812 a03d 49fb 2fbd d506 c73c 4ec6 923c
000000c0: 7bea dcbc c040 023d 8323 6b3d 78c7 dc3d
000000d0: a388 863d 7345 73bc cbd4 78bd 143e f23d
000000e0: 8344 0f39 4c74 8abd 892c 0dbd 9c13 483d
000000f0: b607 673d ab15 33bd 75aa d83b d937 8b3a
00000100: 6e58 11bd fdf1 383c e928 a43d ce0a b33d
00000110: 2a11 933c 7e96 46bd 6ee6 973c b433 033d
00000120: dd90 063e a6c4 fe3d fc1f 053b d437 d13d
00000130: 940a 23bc 52bf 19bc 08cd b0bb ce1b c73d
00000140: d9ef 47bc 4983 853d 761e c1bd 39f6 553d
00000150: bfb1 49bc ec7c d33c 5138 1b3d b2a3 a3bd
00000160: 5711 ed3c c39a 4fbd cb89 7eba 8247 783d
00000170: e095 b9bc 1d12 4cbc ad09 03be 390d 9fbc
00000180: 7070 09bd bfa6 81bc 846e 3f3d cc72 853c
00000190: f8d2 cc3d cbcd a9bd 3527 ddbb a26b a13c
000001a0: 2894 ecbd 9208 3bbc b6cb 9a3d e555 b8bd
000001b0: b610 973c 31fb dfbb b6de 503d a45c b23c
000001c0: 3183 23bd 3471 053d 6d3c 98bb 9b8e 963c
000001d0: f031 5dbc c19a a43d 2c69 873d 91d2 4c3d
000001e0: 8a02 a13c 902f 0f3d 1ac0 05bd 78cc 6b3d
000001f0: aad4 883d 2202 d53d 85e1 9dbd 0f40 f4bc
00000200: 7ec6 013e e451 5dbd 93db a63c 40fd ea3c
00000210: c59f 423d af9d 39bd cdc8 c63b 4cf5 733c
00000220: 8e69 113d 7b85 4abc 75f5 aeba b757 5cbc
00000230: 641d a63c eeeb 983d f8df 17bd ad55 a33c
00000240: 95b7 82bb c397 093d 13bf 32bd 06f2 78bd
00000250: 6021 a0bd 6650 e7bc 39ab 7bbd 2f23 0e3d
00000260: d785 0c3d f27d 83bc 0374 12bd 91be 0cbd
00000270: f322 a5bd e155 10be 76b8 c2ba 0d48 ffbc
00000280: a916 debc 9bad ab3d bb8b c4bb 24e8 933d
00000290: 3d02 c9ba a0b8 783d 17bf 4b3d 6f6b 92bc
000002a0: 4805 563d d4d0 9abb 9270 55bc 673a cd3d
000002b0: d5fe 093c 5cc1 103c 99dd 83bc 17ce 6f3d
000002c0: 876b e13d 0c92 c3bc 157d 023d 6feb 873d
000002d0: 7b7d 503d 2e68 f33c 0a6c fbbb 3457 123b
000002e0: f088 8c3d 8123 723d 45ca 833d cf2f 45bc
000002f0: 2f15 0bbd 4293 af3a 9438 ca3c 2797 c73b
00000300: 4ab5 e53c b851 933d 569b 723c df56 183d
00000310: b591 73bd 7ed8 5f3d 20f1 f2bc 7ef1 983d
00000320: eb47 7f3d 0001 6e3d 8489 50bd 3cc6 083e
00000330: c99c 693c ccb0 8c3d 4e70 4dbb 06bf 923c
00000340: 458d 183d fa19 643d 014e b1bb f974 823a
00000350: dfed 73bc e152 1fbc 6a03 6cbd 0f23 e8bb
00000360: 2127 913d 8825 583b 9e5b 4cbd fd0f 393d
00000370: 78c8 863b 6ccf 69bd 7873 b93d 16a3 123d
00000380: f8bd 4a3c ebea e9bb 6b66 843c 1a8f 123d
00000390: 92bf 0d3d 1b8d c8bd 1df0 1dbd f81e fc3c
000003a0: c1b2 fa3c 03c4 993c 080a c03b d688 9fbd
000003b0: f97f 8a3d 5af0 ad3d 6f33 1e3d a6e8 5ebd
000003c0: 2107 51bd 1a9d 823c c5de 853d 4666 a53b
000003d0: 37bc 873c aacc 773c 7355 313d 5a57 e23c
000003e0: c0e9 78bc 1958 f03b 9bc5 cd3c f8f6 b9bd
000003f0: ea02 3dbd a96f 19bc 398b 44bd defe 90bd

network_body._body_endoder.seq_layers.0.bias f4 [128]
-0.0058403043 -0.0024194713 0.022047848 -0.0075980197 -0.0020476528 0.0059177317 0.0051552467 -0.0041549182
-0.008789378 0.015349743 0.006909655 0.0103232525 0.01709864 0.011250462 -0.009989121 0.018149944
0.011443995 0.002164423 0.008446098 -0.003854589 -0.00020987634 0.018039644 0.01916743 0.0061214087
0.0018853908 0.018771492 0.03689943 0.0008676822 0.026517183 0.026119277 0.0019242181 -0.016322248
-0.0055315946 0.017816933 0.010792439 0.016210856 0.016169332 0.022301659 0.0008699418 0.00013644724
0.02020815 0.0108317835 -0.0077789216 0.00920953 0.017542096 -0.010205992 -0.010862983 0.023514422
0.011743445 0.006497657 0.0023127561 0.026291234 0.0045876233 -0.0061029457 -0.012195031 0.0036353176
0.0068766302 0.008242669 0.00478673 0.008288608 0.0095923105 0.010310054 0.036986746 -0.00558041
0.007885809 0.008557372 -0.0018794736 0.016522354 0.013626368 -0.019376917 -0.011256433 0.0132801905
-0.0059075765 -0.0013915545 0.0125334235 0.013456241 0.0047014393 0.00018741096 0.013807149 0.029270252
0.0066647106 0.015999747 0.013365144 0.00018005108 -0.008675303 0.005816877 0.009274699 0.015231423
0.0006736536 -0.013879401 0.0036383707 0.0076342155 -0.0020792168 0.008835643 -0.0013475537 -0.002215169
-0.0149278855 -0.013762071 -0.0064546536 0.01219477 0.017290557 0.020407708 0.015035856 -0.02281493
0.00022885429 0.00771764 0.003317223 0.018087186 0.013675033 0.024182318 0.030690981 0.016233804
0.013511453 0.0073166545 0.009343159 0.015271085 0.011496009 0.0028253973 0.012000087 -0.003593079
0.007439472 -0.0027349961 0.017620396 -0.000798376 0.010762018 0.012369856 0.006981188 0.008848827
00000000: 0660 bfbb fe8f 1ebb b09d b43c cff8 f8bb
00000010: ea31 06bb 88e9 c13b 58ed a83b fb25 88bb
00000020: 5301 10bc 7d7d 7b3c 636a e23b dc22 293c
00000030: 7212 8c3c dc53 383c 69a9 23bc 31af 943c
00000040: 987f 3b3c fed8 0d3b 8161 0a3c 469d 7cbb
00000050: 4012 5cb9 e0c7 933c 0405 9d3c 1996 c83b
00000060: 381f f73a acc6 993c db23 173d 2b75 633a
00000070: 903a d93c 18f8 d53c 0c36 fc3a 3cb6 85bc
00000080: 6142 b5bb d1f4 913c c5d2 303c a1cc 843c
00000090: 8c75 843c f8b1 b63c ce0c 643a 4713 0f39
000000a0: 908b a53c cb77 313c 53e6 febb 92e3 163c
000000b0: 71b4 8f3c 0837 27bc a7fa 31bc 51a1 c03c
000000c0: 9467 403c 4cea d43b 9c91 173b b760 d73c
000000d0: c653 963b 38fb c7bb abcd 47bc 823e 6e3b
000000e0: 5b55 e13b 420c 073c 00da 9c3b f1cc 073c
000000f0: 1129 1d3c 80eb 283c 6a7f 173d dfdb b6bb
00000100: 7b33 013c 3834 0c3c ab58 f6ba e359 873c
00000110: 2141 5f3c 57bc 9ebc e76c 38bc 2895 593c
00000120: 5894 c1bb d264 b6ba fd58 4d3c 9177 5c3c
00000130: 880e 9a3b bf83 4439 6137 623c 2bc8 ef3c
00000140: a563 da3b e711 833c 7af9 5a3c 18cc 3c39
00000150: dc22 0ebc 809b be3b e8f4 173c 388d 793c
00000160: 2198 303a 6d66 63bc bb71 6e3b 7128 fa3b
00000170: 7843 08bb 5fc3 103c 66a0 b0ba 5e2c 11bb
00000180: 1794 74bc 4f7a 61bc 8f81 d3bb 93cc 473c
00000190: eda4 8d3c 112e a73c f358 763c 60e6 babc
000001a0: 9bf8 6f39 42e4 fc3b c465 593b 942b 943c
000001b0: 3f0d 603c ff19 c63c a76b fb3c c1fc 843c
000001c0: 245f 5d3c 8cc0 ef3b 0d14 193c 9333 7a3c
000001d0: c259 3c3c 4d2a 393b 039c 443c dd79 6bbb
000001e0: d0c6 f33b 9f3d 33bb a658 903c 1b4a 51ba
000001f0: 2d53 303c f0aa 4a3c 73c2 e43b acfa 103c

network_body._body_endoder.seq_layers.2.weight f4 [128, 128]
0.0801194 0.07642436 0.13224256 -0.05198395 0.08817421 0.105815314 -0.0647061 -0.00044100962
0.157239 0.118677974 0.05901463 0.02003701 0.19730085 0.0100075295 -0.13070342 0.099156186
-0.0043395893 -0.06261174 -0.1284204 -0.03883561 0.11279735 0.038847573 -0.05948697 -0.075427346
-0.081622474 -0.015245624 -0.12307007 0.047454227 -0.01968166 0.09989488 0.06828366 -0.11829754
0.047433577 -0.049434133 0.016443226 0.10102031 0.10295778 0.1947287 0.038584672 -0.06983386
0.09043751 -0.04837267 -0.041008208 0.004726488 0.0072788824 0.043220572 0.07600569 0.023176355
0.0987468 -0.19608344 -0.06780137 0.19211483 0.10959108 0.064187355 0.13975784 -0.03324036
-0.058709797 0.045564435 -0.06616497 -0.18331525 0.086516865 -0.08950221 -0.105659865 0.043134283
0.045031667 -0.040702544 -0.055185504 -0.041723073 0.079318345 0.09719256 0.06756768 0.24107906
0.09611768 -0.019295456 -0.0119970245 -0.16966954 -0.044876836 -0.025565222 0.073626064 -0.064797856
-0.02842677 -0.07165374 -0.03405385 0.052526575 0.011465092 -0.02638115 0.029073332 0.04452804
0.042907152 -0.050424013 -0.07244925 0.035148714 -0.02773549 0.031707473 -0.14173286 0.12274476
0.049567327 -0.11960286 -0.21162051 0.010653697 0.13865428 -0.0807508 0.06295219 -0.11665607
0.15305811 0.117578045 0.08243428 0.100704454 -0.011366365 -0.15850495 0.19485378 -0.018822042
-0.086808376 -0.0041455496 -0.051002637 0.112006485 0.09716691 0.0033936352 -0.050911233 -0.07785599
0.1160325 -0.046755366 0.029432733 0.17486332 -0.042721566 -0.06576162 -0.06678606 -0.0483085
0.022669205 -0.038176417 0.059736818 -0.0661676 0.03572459 -0.004713061 -0.1883212 0.1550422
-0.014572879 -0.05532775 0.1201859 0.008715606 0.1257876 0.012387986 0.003051224 0.029754052
0.056226946 -0.1152728 0.09386188 -0.044143137 -0.03937796 0.086185254 -0.007666222 -0.049998138
-0.053681485 0.11788855 0.17305288 -0.08714082 0.051256604 0.10792227 0.033432063 0.048135728
0.08196538 -0.102753475 -0.0010008487 -0.049011923 -0.086842015 -0.016043749 -0.07061565 -0.1557158
-0.033691198 0.12281728 0.07156827 -0.038536973 -0.14605333 0.13452159 -0.017909054 0.06928907
-0.10526382 -0.05218709 0.073975176 0.024182038 0.1383273 0.099167496 0.028222298 -0.06324302
0.07332497 -0.03203643 -0.0049710735 0.012409926 -0.070858195 0.04133556 0.032590836 0.0035238396
-0.06543899 0.0059588226 0.032725878 0.005382402 0.03155163 -0.0996634 0.05644509 -0.1812809
0.023425566 0.037916586 -0.005317392 0.0009780241 0.050009172 -0.12013121 -0.08396874 -0.15295313
0.01184837 0.010466472 0.13808936 -0.008950592 0.122776166 0.09490559 0.17196178 0.25898927
0.033891074 0.04323047 0.07060637 -0.07297794 -0.038927678 -0.1180213 0.05027411 0.031951312
-0.10092361 -0.054763444 0.14557292 0.06280875 0.19336508 0.08782613 0.015197399 0.075949825
-0.030505765 0.10403268 -0.029654598 -0.14849639 0.12507619 -0.048912033 0.01325861 0.17193031
0.011346059 0.05418476 0.22677252 0.044268798 -0.06554971 0.123803794 -0.07190927 -0.005145297
0.03738125 0.058367252 0.031042656 -0.036870018 -0.0019552163 0.07072605 0.16191728 0.09832557
00000000: a415 a43d 6084 9c3d 986a 073e 1fed 54bd
00000010: ae94 b43d b3b5 d83d a284 84bd 4f37 e7b9
00000020: 4303 213e 700d f33d 53b9 713d a824 a43c
00000030: 3c09 4a3e 9ff6 233c 1ed7 05be 6612 cb3d
00000040: 1d33 8ebb 953a 80bd a380 03be 1712 1fbd
00000050: 4c02 e73d a21e 1f3d 9ca8 73bd a779 9abd
00000060: af29 a7bd c8c8 79bc 290c fcbd 5d5f 423d
00000070: 6f3b a1bc b095 cc3d 4ed8 8b3d fb45 f2bd
00000080: b649 423d 727b 4abd f2b3 863c bce3 ce3d
00000090: 87db d23d f666 473e f60a 1e3d 0e05 8fbd
000000a0: 4d37 b93d 6c22 46bd 39f8 27bd a8e0 9a3b
000000b0: b183 ee3b 0e08 313d dfa8 9b3d 57dc bd3c
000000c0: c33b ca3d 19ca 48be 72db 8abd c0b9 443e
000000d0: 4a71 e03d a974 833d ae1c 0f3e 0b27 08bd
000000e0: af79 70bd c6a1 3a3d 8081 87bd feb6 3bbe
000000f0: c12f b13d ef4c b7bd 3364 d8bd 93ad 303d
00000100: 2073 383d b6b7 26bd 320a 62bd d0e5 2abd
00000110: a871 a23d e50c c73d ec60 8a3d 6edd 763e
00000120: 59d9 c43d 8111 9ebc 2b8f 44bc dabd 2dbe
00000130: c6d0 37bd 286e d1bc 43c9 963d bdb4 84bd
00000140: 42df e8bc 32bf 92bd 0d7c 0bbd 1b26 573d
00000150: 15d8 3b3c 481d d8bc 322b ee3c 0963 363d
00000160: 69bf 2f3d 6989 4ebd 4660 94bd 19f8 0f3d
00000170: 8a35 e3bc b2df 013d 6b22 11be 9b61 fb3d
00000180: 1c07 4b3d 58f2 f4bd 0cb3 58be d88c 2e3c
00000190: 63fb 0d3e ad60 a5bd 14ed 803d 61e9 eebd
000001a0: 44bb 1c3e c2cc f03d 4ed3 a83d 233e ce3d
000001b0: fd39 3abc 1f4f 22be c087 473e af30 9abc
000001c0: 97c8 b1bd 64d7 87bb 24e8 50bd a863 e53d
000001d0: 72ff c63d c067 5e3b 4c88 50bd f672 9fbd
000001e0: 73a2 ed3d 8e82 3fbd ea1c f13c 5f0f 333e
000001f0: cffc 2ebd 07ae 86bd 21c7 88bd 22df 45bd
00000200: c5b4 b93c e05e 1cbd 98ae 743d e182 87bd
00000210: f353 123d 0570 9abb 46d7 40be 62c3 1e3e
00000220: 16c3 6ebc 5a9f 62bd 0624 f63d e7cb 0e3c
00000230: 77ce 003e fbf6 4a3c 0bf7 473b c5be f33c
00000240: 3a4e 663d 2514 ecbd a83a c03d 6fcf 34bd
00000250: c94a 21bd e581 b03d ee34 fbbb d9ca 4cbd
00000260: 1ee1 5bbd 8d6f f13d c634 313e e376 b2bd
00000270: 72f2 513d 5a06 dd3d 0ff0 083d f829 453d
00000280: 77dd a73d 6a70 d2bd e92e 83ba bac0 48bd
00000290: 3ada b1bd 2e6e 83bc f09e 90bd f673 1fbe
000002a0: c8ff 09bd a087 fb3d 6392 923d f2d8 1dbd
000002b0: 018f 15be 07c0 093e 02b6 92bc 6ee7 8d3d
000002c0: 8f94 d7bd 21c2 55bd 4c80 973d 6919 c63c
000002d0: aca5 0d3e 5418 cb3d 7332 e73c 8e85 81bd
000002e0: 672b 963d a238 03bd 63e4 a2bb 0153 4b3c
000002f0: 1a1e 91bd 7a4f 293d f87d 053d 38f0 663b
00000300: e104 86bd 3a42 c33b 920b 063d dc5e b03b
00000310: 483c 013d 531c ccbd f732 673d b3a1 39be
00000320: f9e6 bf3c 6c4e 1b3d 843d aebb 0b31 803a
00000330: 6bd6 4c3d 5a07 f6bd cef7 abbd bf9f 1cbe
00000340: aa1f 423c 917b 2b3c 4c67 0d3e 81a5 12bc
00000350: 1272 fb3d dd5d c23d c016 303e 3e9a 843e
00000360: 5ed1 0a3d 6f12 313d 139a 903d 7575 95bd
00000370: a172 1fbd 27b5 f1bd 3aec 4d3d 61df 023d
00000380: 0ab1 cebd a24f 60bd 1111 153e e0a1 803d
00000390: 7f01 463e 30de b33d 83fe 783c 958b 9b3d
000003a0: 3ae7 f9bc 160f d53d 33ee f2bc 700f 18be
000003b0: f913 003e fc57 48bd a43a 593c 800e 303e
000003c0: d2e4 393c d7f0 5d3d 0e37 683e 3353 353d
000003d0: ed3e 86bd d88c fd3d 2b45 93bd e199 a8bb
000003e0: 151d 193d 8012 6f3d 2b4d fe3c 0405 17bd
000003f0: 1623 00bb d2d8 903d a5cd 253e eb5e c93d

network_body._body_endoder.seq_layers.2.bias f4 [128]
0.020492543 0.011064524 0.009258077 -0.0029916249 0.00858429 0.023018379 0.013268579 0.0039086994
-0.009600708 -0.034301437 -0.0031084893 0.001643312 0.003287069 -0.01361727 0.009358215 0.0048627774
0.01823245 0.025030335 -0.0051199845 0.013465605 -0.036214348 0.01353866 -0.024591627 -0.0006223836
-0.0010356446 0.0040309746 0.013904479 0.028520882 -0.014046721 -0.0014490495 -0.024369633 0.029013373
0.022141503 0.022197781 -0.022867234 0.002539876 0.02157338 0.017286181 -0.031106977 0.0019400748
0.009938255 -0.008665689 0.013079017 0.026729634 -0.014135489 -0.01364402 0.014122254 -0.0050032903
-0.011484433 -0.009639297 0.023640165 0.010861216 -0.008554116 0.017020173 0.009094381 -0.0006900786
0.034689177 0.010574094 0.0039073844 0.023025552 0.036674313 0.021452636 -0.0066605704 -0.01190038
0.0075679813 0.027343523 0.01796392 0.004541017 0.004098928 0.0012400997 -0.012490984 -0.03939579
-0.020233858 0.003604298 -0.013475751 -0.0004844313 0.010877633 0.002377519 0.0068524084 0.0034934771
0.004494918 -0.0049696136 0.010169605 -0.009190725 -0.013792367 -0.004525304 0.04698914 -0.013681769
-0.0024698945 -0.0047360687 -0.016435282 0.002922093 -0.013285019 0.0011564135 -0.009530148 0.02390162
-0.012983682 0.019733448 -0.003796839 -0.0058487235 0.0027004322 0.014004947 0.011305547 0.038488187
-0.009180279 8.6294465e-05 0.01685142 -0.008881907 -0.016178114 -0.011555109 0.006242765 -0.0023202358
-0.007964379 0.011970494 0.011290897 -0.0056873537 -7.8568235e-05 0.010373437 -0.009499305 0.01383434
0.011498765 0.0020600124 0.0018368546 0.04198281 -0.027694246 0.010013262 0.023490664 0.0077318037
00000000: fadf a73c fa47 353c 30af 173c 230f 44bb
00000010: 1fa5 0c3c 0a91 bc3c 7464 593c 8c14 803b
00000020: 4a4c 1dbc aa7f 0cbd ccb7 4bbb 6764 d73a
00000030: de6b 573b f81a 5fbc 3353 193c ef57 9f3b
00000040: 385c 953c 6b0c cd3c 8bc5 a7bb d79e 5c3c
00000050: 7f55 14bd 41d1 5d3c 6174 c9bc 7527 23ba
00000060: 77be 87ba 4416 843b 9dcf 633c a0a4 e93c
00000070: 3824 66bc 08ee bdba d3a2 c7bc 74ad ed3c
00000080: 1962 b53c 1fd8 b53c 1154 bbbc 0c74 263b
00000090: a8ba b03c c09b 8d3c 0fd4 febc 1c4a fe3a
000000a0: 10d4 223c 89fa 0dbc 6049 563c 1bf8 da3c
000000b0: 8a98 67bc 2b8b 5fbc 0761 673c a4f2 a3bb
000000c0: 3429 3cbc 24ee 1dbc 05a9 c13c 3ef3 313c
000000d0: 9026 0cbc e46d 8b3c 9900 153c 64e6 34ba
000000e0: 3d16 0e3d f73e 2d3c 8409 803b 15a0 bc3c
000000f0: ce37 163d 70bd af3c ea40 dabb d0f9 42bc
00000100: d4fc f73b 86ff df3c 1229 933c d0cc 943b
00000110: 4d50 863b d78a a23a fca6 4cbc 7b5d 21bd
00000120: 7ac1 a5bc 1636 6c3b 65c9 5cbc 45fb fdb9
00000130: 1938 323c 26d0 1b3b 2b8a e03b d2f2 643b
00000140: 1b4a 933b 24d8 a2bb 6a9e 263c b294 16bc
00000150: 61f9 61bc 0049 94bb af77 403d 8029 60bc
00000160: f4dd 21bb 0631 9bbb 49a3 86bc 9680 3f3b
00000170: 69a9 59bc cc92 973a 5624 1cbc 55cd c33c
00000180: 82b9 54bc 0aa8 a13c 63d4 78bb a6a6 bfbb
00000190: bcf9 303b 0175 653c e73a 393c caa5 1d3d
000001a0: e268 16bc fdf8 b438 fd0b 8a3c 6b85 11bc
000001b0: f787 84bc a451 3dbc 1c90 cc3b 190f 18bb
000001c0: 077d 02bc e41f 443c 74fd 383c fb5c babb
000001d0: 00c5 a4b8 59f5 293c f9a2 1bbc 6da9 623c
000001e0: 5165 3c3c 4601 073b 9dc2 f03a 2bf6 2b3d
000001f0: 0bdf e2bc aa0e 243c 7e6f c03c 125b fd3b

action_model._continuous_distribution.log_sigma f4 [1, 2]
-0.0069818464 -0.0730014
00000000: f9c7 e4bb c281 95bd

action_model._continuous_distribution.mu.weight f4 [2, 64]
0.060966752 0.008685234 0.0009434775 -0.014354506 -0.0097918315 0.02275721 -0.045114007 0.010103475
0.009144838 0.031371742 -0.016008733 0.025467433 0.024352666 0.042400748 -0.03585512 0.038632665
0.03016809 0.022414086 0.051822543 -0.041802403 -0.036429964 0.0044713216 0.03422661 -0.014866288
-0.03710705 -0.010512667 0.015006863 0.060504362 0.02024142 -0.038337078 -0.05124749 -0.015205543
0.0067312405 -0.03864103 0.03258947 -0.008213535 -0.018132286 -0.02945465 -0.008839226 0.030274997
-0.0003726861 -0.036085587 -0.04417806 -0.045972876 -0.03743015 -0.03896717 -0.037184805 -0.030224444
-0.036431402 0.069947846 -0.009224038 0.024634924 0.005353086 0.049398083 -0.0057895514 -0.007896686
0.01874541 -0.00899109 -0.014238305 0.0056323814 0.03397277 0.00036415757 0.03984895 0.040189352
0.028707244 -0.0019056214 0.01876076 -0.028051058 -0.018046096 0.021035286 0.013016637 -0.049384553
0.028307732 0.025485937 0.032612193 0.033573624 0.02186514 0.00971312 0.03897574 0.011646955
0.014148098 -0.060089737 0.011574347 0.0017257625 0.004395969 0.065445825 0.0061746845 0.018823396
-0.020568913 -0.034138106 0.020897252 -0.036025845 0.047683876 -0.009742209 -0.04187048 -0.042290848
0.020969616 -0.040105183 0.03632043 0.046587776 -0.003864073 -0.033900924 -0.06418515 0.02742728
0.06401746 -0.049900018 -0.008009848 0.009084066 -0.011497416 0.010916466 -0.03494158 0.024794746
-0.067012176 0.054007445 -0.016745066 0.0305211 0.06140681 0.017707072 0.042156916 0.058163907
0.02220733 0.058779497 -0.02295394 -0.00084603997 0.04521378 0.013472817 0.021765055 -0.018433427
00000000: 46b8 793d 834c 0e3c b453 773a 292f 6bbc
00000010: eb6d 20bc 546d ba3c 77c9 38bd 0c89 253c
00000020: 3bd4 153c a87f 003d bf24 83bc 14a1 d03c
00000030: 3e7f c73c 68ac 2d3d d1dc 12bd 493d 1e3d
00000040: 1223 f73c bf9d b73c e043 543d ff38 2bbd
00000050: 9637 15bd 2a84 923b 3431 0c3d bb91 73bc
00000060: 90fd 17bd 523d 2cbc 58df 753c 6cd3 773d
00000070: 56d1 a53c 5707 1dbd e3e8 51bd ab20 79bc
00000080: bd91 dc3b 0f46 1ebd 897c 053d 1092 06bc
00000090: 298a 94bc e14a f1bc 67d2 10bc 4503 f83c
000000a0: 1565 c3b9 7bce 13bd 0ef4 34bd 0e4e 3cbd
000000b0: 5b50 19bd 0a9c 1fbd 184f 18bd 4199 f7bc
000000c0: 1839 15bd d140 8f3d 6b20 17bc 2ecf c93c
000000d0: f168 af3b a555 4a3d 47b6 bdbb 1a61 01bc
000000e0: f98f 993c 5d4f 13bc c847 69bc d78f b83b
000000f0: 0827 0b3d 67ec be39 a738 233d 979d 243d
00000100: 742b eb3c 0bc6 f9ba 2ab0 993c 55cb e5bc
00000110: 68d5 93bc 3152 ac3c bc43 553c 7547 4abd
00000120: 9ee5 e73c e2c7 d03c 5d94 053d 7f84 093d
00000130: 861e b33c c723 1f3c 07a5 1f3d dfd2 3e3c
00000140: 6dcd 673c a820 76bd 54a2 3d3c fb32 e23a
00000150: 100c 903b 7608 863d 0255 ca3b 8633 9a3c
00000160: 2380 a8bc 66d4 0bbd b730 ab3c d68f 13bd
00000170: 2b50 433d c99d 1fbc 6180 2bbd 2b39 2dbd
00000180: 79c8 ab3c 5545 24bd bbc4 143d d3d2 3e3d
00000190: 633c 7dbb b2db 0abd 8173 83bd 2daf e03c
000001a0: 961b 833d f663 4cbd bd3b 03bc 56d5 143c
000001b0: a85f 3cbc fada 323c e71e 0fbd 5a1e cb3c
000001c0: ae3d 89bd e936 5d3d f32c 89bc 6307 fa3c
000001d0: b585 7b3d 6c0e 913c bbac 2c3d 473d 6e3d
000001e0: 26ec b53c c5c2 703d e709 bcbc c8c8 5dba
000001f0: 1632 393d 17bd 5c3c a14c b23c b301 97bc

action_model._continuous_distribution.mu.bias f4 [2]
0.0063225934 0.031192955
00000000: c22d cf3b 5e88 ff3c

action_model._discrete_distribution.branches.0.weight f4 [2, 64]
0.0029323031 -0.007519745 0.0316926 -0.0010168157 -0.023183817 0.046107627 -0.010082182 0.014705202
-0.0056115473 0.02140594 -0.003283398 -0.014245767 0.011093309 0.013114577 -0.007401758 -0.038937055
0.033377092 -0.036050525 -0.02665579 -0.021045113 0.013034345 -0.011635994 -0.0540496 0.0043517854
0.0018130392 0.029768284 0.009927192 0.04616185 0.018045025 -0.07050314 -0.04288055 0.008661446
0.032468107 -0.013861088 -0.00362493 0.017411485 -0.019222112 -0.01972186 -0.024129761 -0.01447685
-0.016896112 -0.0017849664 -0.005878375 0.008513749 -0.0070740394 0.010161093 0.0034669046 -0.024019167
-0.010450948 0.01593807 -0.02304543 -0.012059315 0.0076857717 0.012691739 -0.0079148635 -0.02357906
0.055822875 -0.028225958 -0.020118423 0.00021760575 0.074460156 0.0033974422 -0.018716276 0.0126666
0.012387226 0.00073354086 -0.04047202 0.014197692 0.018643223 -0.0091334535 -0.0059340773 -0.016943462
0.01212398 0.009166041 -0.003007874 0.01729146 -0.01466925 0.0047142273 0.0013448914 0.0058298735
-0.016698992 0.015612488 0.011811368 0.018448258 -0.0120514715 0.024425058 0.021223255 0.0064921
-0.01998646 -0.03101029 -0.0049470956 -0.024257729 -0.018006992 0.03318045 0.033822652 0.00047852637
0.00048054333 0.02204007 0.010425196 -0.013749736 0.00033623105 0.016646782 0.0070251953 -0.018468553
0.018165683 -0.014242083 -0.022620996 0.009374634 0.0045859125 0.009210863 -0.0053146617 0.015427286
0.019780973 -0.029870361 0.0031321833 -0.024784815 0.011831731 -0.030263277 -0.0075655263 -0.0023875998
-0.029260255 0.009639411 0.019952102 -0.03710605 -0.05938866 0.016268583 0.057668783 -0.0027766076
00000000: e22b 403b 3168 f6bb 1ad0 013d ac46 85ba
00000010: fdeb bdbc 5adb 3c3d bc2f 25bc 16ee 703c
00000020: 12e1 b7bb 835b af3c 472e 57bb 1467 69bc
00000030: b6c0 353c 86de 563c 728a f2bb 767c 1fbd
00000040: 6bb6 083d b7a9 13bd 3e5d dabc cd66 acbc
00000050: 018e 553c e5a4 3ebc 1d63 5dbd 6c99 8e3b
00000060: 80a3 ed3a 9edc f33c a9a5 223c 3514 3d3d
00000070: 29d3 933c f363 90bd 84a3 2fbd bde8 0d3c
00000080: 47fd 043d 9e19 63bc 3c90 6dbb 88a2 8e3c
00000090: b177 9dbc bd8f a1bc c7ab c5bc 4f30 6dbc
000000a0: b769 8abc 89f5 e9ba 629f c0bb 407d 0b3c
000000b0: 58cd e7bb b77a 263c 0235 633b d8c3 c4bc
000000c0: 743a 2bbc 8e90 823c c5c9 bcbc 6f94 45bc
000000d0: edd8 fb3b 03f1 4f3c 58ad 01bc df28 c1bc
000000e0: 87a6 643d 203a e7bc 64cf a4bc 192d 6439
000000f0: 917e 983d 9fa7 5e3b e052 99bc 9287 4f3c
00000100: cbf3 4a3c 184b 403a fdc5 25bd 709d 683c
00000110: acb9 983c 7ba4 15bc a672 c2bb 04cd 8abc
00000120: a8a3 463c 2a2d 163c c01f 45bb d2a6 8d3c
00000130: 4b57 70bc ce79 9a3b 1147 b03a 8608 bf3b
00000140: 53cc 88bc 85cb 7f3c 7884 413c cd20 973c
00000150: 8973 45bc 0f17 c83c 64dc ad3c afbb d43b
00000160: a5ba a3bc 4b09 febc 3f1b a2bb 25b8 c6bc
00000170: 6683 93bc 39e8 073d 9f89 0a3d b9e2 fa39
00000180: 6ff1 fb39 608d b43c 71ce 2a3c 9346 61bc
00000190: 2b48 b039 d55e 883c 9c33 e63b 5d4b 97bc
000001a0: 33d0 943c a057 69bc ab4f b9bc 1198 193c
000001b0: 6c45 963b 29e9 163c 9d26 aebb bac2 7c3c
000001c0: b50b a23c b0b2 f4bc 5145 4d3b 8609 cbbc
000001d0: e0d9 413c b1ea f7bc 3ce8 f7bb 4779 1cbb
000001e0: 34b3 efbc 9fee 1d3c 9772 a33c 83fc 17bd
000001f0: 8641 73bd b145 853c 1a36 6c3d bff7 35bb

action_model._discrete_distribution.branches.0.bias f4 [2]
0.0010148515 -0.0010148432
00000000: c404 853a 7d04 85ba

action_model._discrete_distribution.branches.1.weight f4 [2, 64]
-0.0066658836 0.05290706 0.022156129 -0.014795763 -0.01781346 0.029165441 -0.015947543 -0.03171742
-0.0022069 0.02707925 -0.0038421154 0.04931372 0.031468835 -0.0063143447 -0.0110975 0.015083167
-0.05347747 0.032312416 0.01635151 -0.024036767 -0.017874092 0.010682043 0.042884212 0.031780936
-0.021365518 -0.004706794 -0.019206807 0.014119552 0.06385209 0.05199634 0.023675552 -0.015769627
0.035190944 0.027318858 0.028452402 -0.017034115 -0.063106485 -0.01711102 0.016675476 0.013704903
0.0057392484 0.04096136 -0.04582444 -0.029967 -0.0130929705 -0.033037115 0.0007190491 -0.026871305
-0.0043928227 0.012575933 -0.048519183 -0.029928315 -0.020972542 0.014219943 -0.021609051 0.018528627
-0.07316323 -0.001245239 -0.04850784 0.041241415 -0.01222044 0.005112475 0.02646598 0.037392497
-0.0054752557 -0.027078817 -0.01647852 0.007507 0.009512107 -0.037710756 0.011146101 0.008515181
0.0047877054 -0.0021174445 0.014065742 -0.01887649 -0.020732155 0.0062428545 -0.004486 -0.001967094
0.03624862 -0.03712517 -0.020517573 0.009892966 0.016081017 -0.010600407 -0.04316368 -0.008462381
0.021801071 -0.010641318 -0.0017328666 0.0063009793 -0.044066824 -0.018066019 0.0011650337 0.036092103
-0.031185534 -0.020064108 -0.018021977 0.0042247716 0.026571086 0.042256042 0.0088544525 -0.016432822
0.0011951929 -0.0059811203 0.023116536 -0.0021961746 0.037578493 0.034396805 -0.018366864 0.020064594
-0.012836285 -0.0028154473 0.07372487 0.008085282 0.025597086 -0.025736568 0.0076812464 -0.033031926
0.051988345 0.008799168 0.037934113 -0.024632595 0.032858267 -0.0017692392 0.01500017 -0.020877656
00000000: 7c6d dabb 13b5 583d c580 b53c ee69 72bc
00000010: 89ed 91bc 5dec ee3c 6ca4 82bc 20ea 01bd
00000020: a3a1 10bb 4ed5 dd3c 00cc 7bbb 2ffd 493d
00000030: 77e5 003d 90e8 cebb 4ad2 35bc 631f 773c
00000040: 310b 5bbd 065a 043d 9af3 853c c1e8 c4bc
00000050: b06c 92bc bc03 2f3c 5ba7 2f3d ba2c 023d
00000060: bd06 afbc 733b 9abb 9857 9dbc b255 673c
00000070: e2c4 823d 1dfa 543d 3bf3 c13c 4e2f 81bc
00000080: 6124 103d cccb df3c 0315 e93c 218b 8bbc
00000090: f93d 81bd 692c 8cbc 029b 883c 888a 603c
000000a0: 4e10 bc3b 19c7 273d 68b2 3bbd 5b7d f5bc
000000b0: e683 56bc ed51 07bd 917e 3c3a 3621 dcbc
000000c0: abf1 8fbb 490b 4e3c 0dbc 46bd 3a2c f5bc
000000d0: 9cce abbc c4fa 683c 7705 b1bc 59c9 973c
000000e0: 9bd6 95bd 4a37 a3ba 28b0 46bd c2ec 283d
000000f0: 3e38 48bc 8c86 a73b 2fcf d83c e028 193d
00000100: c669 b3bb 65d4 ddbc f6fd 86bc 48fd f53b
00000110: abd8 1b3c 9876 1abd 239e 363c 4283 0b3c
00000120: 2fe2 9c3b d3c4 0abb ff73 663c dea2 9abc
00000130: 7bd6 a9bc dc90 cc3b 4cff 92bb 5cea 00bb
00000140: 6f79 143d 9010 18bd 7814 a8bc 1b16 223c
00000150: 56bc 833c 54ad 2dbc 66cc 30bd cca5 0abc
00000160: 2998 b23c ec58 2ebc 5b21 e3ba 7278 ce3b
00000170: 6a7f 34bd 30ff 93bc 0bb4 983a 50d5 133d
00000180: ce78 ffbc 7c5d a4bc d3a2 93bc f46f 8a3b
00000190: 9bab d93c ac14 2d3d 4412 113c 209e 86bc
000001a0: 05a8 9c3a 46fd c3bb e45e bd3c b2ed 0fbb
000001b0: e8eb 193d aae3 0c3d 1b76 96bc 815e a43c
000001c0: 484f 52bc 5e83 38bb 11fd 963d 2178 043c
000001d0: fbb0 d13c 7fd5 d2bc f7b2 fb3b 7c4c 07bd
000001e0: bbf1 543d 632a 103c cd60 1b3d 4cca c9bc
000001f0: 6496 063d d1e5 e7ba 46c3 753c 9e07 abbc

action_model._discrete_distribution.branches.1.bias f4 [2]
-0.0024367347 0.0024367287
00000000: a0b1 1fbb 86b1 1f3b

onnx::LSTM_133 f4 [1, 256, 128]
0.16190854 0.022041112 -0.05050938 0.09889607 0.08544328 -0.09582252 0.039330907 0.16051675
-0.048352603 0.109350175 0.05747516 -0.012236326 -0.18193506 0.07556205 0.12181682 0.03328232
0.07028572 -0.10947123 0.071871914 0.080464445 -0.13834937 -0.047316488 0.16791217 0.090933934
-0.09213818 -0.027512554 -0.1997577 0.12063671 0.18158893 -0.16564085 0.057691783 -0.13346268
-0.07044558 -0.046123516 -0.13949224 -0.10309417 0.095192716 0.015998948 -0.0074939313 -0.027569419
0.15078187 -0.04341289 0.12190468 0.079932384 -0.092631266 -0.06890681 0.1445069 -0.07935086
0.11401632 -0.042749528 -0.16040751 0.16793814 -0.066246845 0.118296064 0.1774257 -0.04362314
0.14281651 0.041333243 -0.020982392 -0.14099987 -0.022288065 0.14151669 0.05197108 -0.06995777
0.065228656 -0.04857926 -0.074338146 -0.087115236 -0.005260316 -0.08406323 -0.09409142 0.1932576
0.06586808 -0.0017382768 0.060055844 -0.11320543 -0.13876134 -0.06968276 -0.101651296 0.16879395
0.042713154 0.063768506 0.10477842 0.15750909 -0.15354088 0.16762504 -0.0001327937 0.03692325
0.003207439 -0.046854854 0.13968678 -0.19849473 0.009053899 0.11386832 -0.14072008 0.17577411
0.11928115 -0.03809306 0.12950213 0.057150554 0.042212028 -0.11319302 0.12485541 -0.098687604
0.16336505 0.15611294 0.09547346 -0.016783979 -0.013950068 -0.07310583 0.097301416 0.03607329
-0.15844491 0.14044227 -0.1465958 0.16628914 0.019405631 -0.09804908 -0.022284519 0.15802515
0.13155015 -0.08263515 -0.12520358 0.16392054 0.16267271 0.16127652 -0.10472878 0.12179565
0.13827176 -0.1853936 -0.03140464 0.1460754 -0.053662684 0.102542445 0.015133352 0.11603636
0.029349681 0.15282752 0.022494543 -0.05473716 0.044659063 0.18149145 -0.12392982 0.1419836
0.06685981 0.09690921 0.10553438 0.107157856 -0.08389467 -0.17304015 0.018009303 -0.12393644
-0.059930127 -0.10403321 -0.047431238 0.026125388 -0.16243616 -0.014446531 0.052889828 0.11219356
0.07386334 0.06878737 0.11805499 -0.16454662 -0.06795489 -0.017176498 -0.12533888 -0.08263836
-0.11995015 0.06560003 0.019799203 0.13740097 0.05201369 -0.06854719 -0.09848644 -0.13149591
0.15783036 -0.087825455 -0.09801515 -0.09561583 -0.12691192 -0.15743087 0.1882301 -0.12002245
0.12863111 -0.15447257 -0.016703025 -0.021619976 -0.037519734 0.07338251 0.17090939 0.0054263948
0.14545664 0.06255847 0.15196729 0.08230691 0.06280388 -0.016387753 -0.041518837 -0.0327937
0.108855516 -0.06210663 -0.036366746 0.09075977 -0.030967422 0.10607177 0.03839465 -0.07970365
-0.16959779 -0.14071889 -0.010933591 0.14275496 -0.078614764 0.07192702 0.008878934 -0.105613716
-0.15758434 0.127323 0.17721537 0.13462621 0.16863614 0.045952015 0.030383568 0.16356646
-0.1587373 -0.082155816 -0.026763275 0.13062312 -0.081041925 0.11447822 0.016718108 0.13458128
-0.12119062 -0.03839661 0.07330483 0.13656943 0.014078798 -0.13516188 0.10225714 -0.15122528
0.16133508 0.16281319 -0.15747431 -0.046727642 0.15643981 0.119482495 -0.005925871 0.059498258
-0.1561925 0.057890873 -0.08555755 0.08874998 -0.12595484 -0.079524174 0.11745736 0.038500573
00000000: 5acb 253e 908f b43c ece2 4ebd 068a ca3d
00000010: e3fc ae3d 993e c4bd 7219 213d 815e 243e
00000020: 610d 46bd fcf2 df3d 136b 6b3d df7a 48bc
00000030: 2f4d 3abe 47c0 9a3d 197b f93d 0b53 083d
00000040: f6f1 8f3d 7432 e0bd 9531 933d 8bca a43d
00000050: 75ab 0dbe efce 41bd 2bf1 2b3e 923b ba3d
00000060: f1b2 bcbd 0262 e1bc 488d 4cbe 6110 f73d
00000070: 73f2 393e c19d 29be 384e 6c3d 71aa 08be
00000080: c645 90bd 03ec 3cbd 0ed7 0ebe 0923 d3bd
00000090: 66f4 c23d 3a10 833c a78f f5bb 43d9 e1bc
000000a0: 9066 1a3e b7d1 31bd 29a9 f93d 97b3 a33d
000000b0: 76b5 bdbd 031f 8dbd 9ef9 133e b482 a2bd
000000c0: 6381 e93d 211a 2fbd de41 24be faf7 2b3e
000000d0: 6dac 87bd 3545 f23d 15af 353e 2dae 32bd
000000e0: 7e3e 123e 0c4d 293d 44e3 abbc 4562 10be
000000f0: 7695 b6bc c0e9 103e a1df 543d 0546 8fbd
00000100: 9a96 853d 0cfb 46bd 993e 98bd 7969 b2bd
00000110: bb5e acbb 5829 acbd 01b3 c0bd 52e5 453e
00000120: d8e5 863d e4d6 e3ba 1efd 753d 40d8 e7bd
00000130: 7417 0ebe d6b5 8ebd 8e2e d0bd 52d8 2c3e
00000140: fdf3 2e3d 1099 823d 1196 d63d 104a 213e
00000150: d239 1dbe e6a5 2b3e 8a3e 0bb9 d53c 173d
00000160: e633 523b e0ea 3fbd 0d0a 0f3e 3442 4bbe
00000170: ce56 143c cb33 e93d ed18 10be 21fe 333e
00000180: ad49 f43d 7807 1cbd 359c 043e b316 6a3d
00000190: 85e6 2c3d bed1 e7bd 31b4 ff3d ba1c cabd
000001a0: 2b49 273e 12dc 1f3e 9787 c33d 8e7e 89bc
000001b0: d38e 64bc 82b8 95bd f745 c73d 96c1 133d
000001c0: 623f 22be 19d0 0f3e 361d 16be b347 2a3e
000001d0: 8ff8 9e3c f5cd c8bd 068e b6bc 58d1 213e
000001e0: 15b5 063e 9e3c a9bd 5e35 00be c9da 273e
000001f0: ad93 263e ac25 253e 0b7c d6bd ff6f f93d
00000200: 1d97 0d3e d2d7 3dbe 27a2 00bd ca94 153e
00000210: 67cd 5bbd c601 d23d e1f1 773c 79a4 ed3d
00000220: be6e f03c d17e 1c3e 7a46 b83c 1334 60bd
00000230: 6cec 363d e5d8 393e ebce fdbd 2664 113e
00000240: cced 883d 5678 c63d 6922 d83d 9475 db3d
00000250: f8d0 abbd 7031 31be 3f88 933c 63d2 fdbd
00000260: 4b79 75bd 5d0f d5bd 4247 42bd e904 d63c
00000270: aa55 26be 25b1 6cbc 01a3 583d bdc5 e53d
00000280: aa45 973d 65e0 8c3d d1c6 f13d e97e 28be
00000290: ef2b 8bbd bab5 8cbc d658 00be 4d3e a9bd
000002a0: 6da8 f5bd 4f59 863d f031 a23c d7b2 0c3e
000002b0: 4f0c 553d 7862 8cbd 42b3 c9bd dda6 06be
000002c0: 489e 213e d5dd b3bd 2bbc c8bd 3bd2 c3bd
000002d0: 33f5 01be 8f35 21be 64bf 403e 55ce f5bd
000002e0: e0b7 033e 0f2e 1ebe c8d4 88bc 601c b1bc
000002f0: 4bae 19bd 9249 963d df02 2f3e e6cf b13b
00000300: 96f2 143e a81e 803d 509d 1b3e 8690 a83d
00000310: 529f 803d 9c3f 86bc a80f 2abd b052 06bd
00000320: a4ef de3d 8663 7ebd 4cf5 14bd 42e0 b93d
00000330: 64af fdbc 283c d93d b543 1d3d ab3b a3bd
00000340: 0bab 2dbe 9d18 10be ce22 33bc 5b2e 123e
00000350: c700 a1bd 794e 933d f378 113c 014c d8bd
00000360: ca5d 21be f660 023e f277 353e 74db 093e
00000370: f4ae 2c3e 2e38 3c3d f6e6 f83c f77d 273e
00000380: 088c 22be 4f41 a8bd a83e dbbc 11c2 053e
00000390: 4ff9 a5bd 8f73 ea3d 6af4 883c adcf 093e
000003a0: ca32 f8bd c445 1dbd d820 963d dbd8 0b3e
000003b0: c2aa 663c e067 0abe 316c d13d cdda 1abe
000003c0: 0635 253e 80b8 263e f240 21be 7c65 3fbd
000003d0: c231 203e 3db3 f43d cf2d c2bb 72b4 733d
000003e0: edf0 1fbe fb1e 6d3d cc38 afbd 8dc2 b53d
000003f0: 4efa 00be 92dd a2bd 7c8d f03d c7b2 1d3d

onnx::LSTM_134 f4 [1, 256, 64]
-0.08776904 0.24539831 -0.22682233 -0.14604573 0.0507963 -0.22483549 -0.0869335 -0.047221072
0.25002885 0.04317669 0.13694501 0.027827473 -0.18144862 0.23701115 0.041617893 0.24485376
0.18341285 -0.18617536 0.066206954 0.14201786 -0.07706162 -0.13063289 0.12402654 -0.1360819
-0.19043657 -0.13003255 0.16409309 0.015249055 0.14229065 -0.16129099 -0.19265404 0.20533995
0.08892948 -0.12168056 0.09260039 0.10297814 -0.15019292 0.027107747 0.13041133 -0.07849443
-0.0062009157 0.14258002 0.011599222 0.036974758 0.08872107 0.03712171 -0.24500832 -0.072105855
0.17224614 -0.1099826 -0.041559506 0.078763045 0.1736348 -0.14178854 -0.08279821 0.09368431
0.16476157 0.15521544 -0.042474158 0.006890581 0.03412366 -0.06702869 0.06443265 0.22676784
0.012810558 -0.08749863 -0.064726874 0.14368573 -0.1698178 0.012418689 -0.19761683 -0.13624
0.062311783 -0.17331181 0.1711521 -0.040352277 -0.14448573 0.12079863 -0.18210424 -0.040272437
-0.13034956 -0.24294482 0.19277054 0.13675229 -0.13825694 -0.12592478 0.08998336 0.18848309
-0.16681123 0.11377014 -0.13794614 -0.04206859 -0.08503996 -0.1343563 -0.10326622 -0.10458689
-0.16597332 0.08806867 -0.14079802 0.21011414 0.20092991 -0.054886036 0.1850903 0.16871767
-0.029419797 0.0351488 -0.031825677 0.023843221 -0.07573002 -0.072095565 0.06685791 0.030528886
-0.15492953 0.014643216 -0.020543024 0.06415146 0.084957145 -0.18136661 -0.07845264 0.05830593
-0.035321552 0.16239752 0.093976155 0.20993918 0.19855852 0.19984232 -0.102810375 -0.035753123
0.022806449 0.06131618 -0.06852778 0.12768687 -0.096866116 -0.15594013 -0.18895745 0.09413344
0.05352229 -0.044769607 -0.13757092 0.011949966 -0.124113426 0.26856366 -0.037001897 0.2644645
0.10269964 0.22040316 0.27373388 -0.04852427 -0.018989766 0.28605467 0.08825305 -0.07822773
-0.19285288 0.012827794 -0.17162995 -0.1748794 -0.11862481 -0.06493694 0.019986643 -0.0016805872
0.20919245 0.1021179 0.05759724 -0.13139828 0.075614884 -0.12785682 -0.25827116 0.09241425
0.105672374 0.000579529 -0.252141 -0.12625928 -0.02364742 -0.0723978 0.061327543 -0.11824351
-0.25324798 0.081008725 -0.1233952 -0.13830471 0.06784974 0.11591511 0.06784591 0.049998015
0.06569293 0.27665666 -0.21512067 -0.08900825 -0.08060327 -0.066992655 -0.10047014 0.2230538
-0.22445637 0.13954577 -0.10377962 0.14574018 -0.12373222 0.20918189 -0.14698501 0.036523476
-0.041565847 0.040044975 0.15758348 -0.0024085983 0.19588487 0.017751507 0.12040697 0.013188712
0.13358755 0.11730712 0.1244087 0.1980494 0.13899727 0.04861992 -0.17671123 0.13598923
0.07858427 0.026762158 0.0021260632 -0.10206081 0.061009448 -0.012410948 -0.06048859 0.07629055
-0.0732879 -0.16501315 0.21157403 -0.010778125 -0.11932841 -0.16486724 -0.033878554 -0.12573922
-0.048032157 0.07914058 -0.080828026 -0.16235304 -0.06365369 0.072750546 -0.13523257 -0.01762119
0.21579617 -0.20355815 -0.09238967 -0.08225425 -0.15271619 -0.22416824 0.06650444 -0.0375435
-0.16457148 -0.103994094 -0.15413663 0.22233017 -0.1943804 0.025724433 0.018178074 0.07995455
00000000: 41c0 b3bd b249 7b3e 1d44 68be 038d 15be
00000010: c80f 503d 463b 66be 310a b2bd e26a 41bd
00000020: c803 803e 0ada 303d 503b 0c3e 71f6 e33c
00000030: abcd 39be 0db3 723e 8677 2a3d f2ba 7a3e
00000040: 94d0 3b3e c1a4 3ebe 8397 873d 216d 113e
00000050: 7cd2 9dbd a1c4 05be a001 fe3d 0e59 0bbe
00000060: ce01 43be 4127 05be 0508 283e 2cd7 793c
00000070: a4b4 113e 7729 25be 1a47 45be a344 523e
00000080: a920 b63d a833 f9bd 46a5 bd3d 34e6 d23d
00000090: 2ccc 19be 1111 de3c 8c8a 053e b0c1 a0bd
000000a0: 0d31 cbbb 7f00 123e aa0a 3e3c d872 173d
000000b0: 64b3 b53d ef0c 183d 76e3 7abe 3cac 93bd
000000c0: 4b61 303e 8f3e e1bd 4d3a 2abd 854e a13d
000000d0: 52cd 313e 0431 11be 1c92 a9bd 8fdd bf3d
000000e0: 42b7 283e ccf0 1e3e 62f9 2dbd 62ca e13b
000000f0: 40c5 0b3d 5646 89bd 44f5 833d d435 683e
00000100: 60e3 513c 7b32 b3bd 868f 84bd 5a22 133e
00000110: b8e4 2dbe c277 4b3c 115c 4abe 8082 0bbe
00000120: a43a 7f3d a778 31be 7f42 2f3e 6e48 25bd
00000130: 11f4 13be 4665 f73d 8979 3abe b6f4 24bd
00000140: 5b7a 05be 87c6 78be a465 453e cb08 0c3e
00000150: 3a93 0dbe 6df2 00be 3249 b83d b601 413e
00000160: 90d0 2abe 5200 e93d c141 0dbe 1d50 2cbd
00000170: 6e29 aebd b394 09be 3d7d d3bd a731 d6bd
00000180: e9f4 29be 595d b43d 5b2d 10be 2928 573e
00000190: 92c0 4d3e 2ed0 60bd 5088 3d3e 53c4 2c3e
000001a0: c901 f1bc 30f8 0f3d a45b 02bd dc52 c33c
000001b0: 5718 9bbd d7a6 93bd cdec 883d b717 fa3c
000001c0: d9a5 1ebe 19ea 6f3c d849 a8bc d761 833d
000001d0: 03fe ad3d 2bb8 39be c7ab a0bd 33d2 6e3d
000001e0: 55ad 10bd 894b 263e 9276 c03d 4cfa 563e
000001f0: ed52 4b3e 77a3 4c3e 3f8e d2bd de71 12bd
00000200: 97d4 ba3c ad26 7b3d 4b58 8cbd 59c0 023e
00000210: be61 c6bd c5ae 1fbe 107e 41be 08c9 c03d
00000220: 303a 5b3d 5660 37bd 64df 0cbe cac9 433c
00000230: 2e2f febd 2d81 893e 4d8f 17bd e467 873e
00000240: 3054 d23d 5eb1 613e d926 8c3e 63c1 46bd
00000250: 6d90 9bbc c275 923e 04be b43d dc35 a0bd
00000260: 3a7b 45be ab2b 523c c3bf 2fbe 9613 33be
00000270: 90f1 f2bd a9fd 84bd 07bb a33c 2647 dcba
00000280: 8c36 563e 3123 d13d 15eb 6b3d 458d 06be
00000290: fadb 9a3d e6ec 02be 1e3c 84be af43 bd3d
000002a0: c26a d83d 88eb 173a a018 81be 1d4a 01be
000002b0: 3cb8 c1bc 4c45 94bd 9732 7b3d a729 f2bd
000002c0: b8a9 81be e7e7 a53d 9fb6 fcbd c09f 0dbe
000002d0: cef4 8a3d e764 ed3d ccf2 8a3d b8ca 4c3d
000002e0: 048a 863d f1a5 8d3e 9848 5cbe f549 b6bd
000002f0: 5413 a5bd 7233 89bd 4ac3 cdbd 3768 643e
00000300: e4d7 65be 16e5 0e3e 698a d4bd ea3c 153e
00000310: 5167 fdbd c733 563e 3d83 16be a499 153d
00000320: f340 2abd 3306 243d 905d 213e 93d9 1dbb
00000330: 0b96 483e 9c6b 913c ee97 f63d 7815 583c
00000340: 2dcb 083e b73e f03d fdc9 fe3d 76cd 4a3e
00000350: 4d55 0e3e ae25 473d caf3 34be c340 0b3e
00000360: caf0 a03d 503c db3c 6c55 0b3b 4205 d1bd
00000370: 0be5 793d 4a57 4bbc e2c2 77bd 383e 9c3d
00000380: f717 96bd 35f9 28be dda6 583e bc96 30bc
00000390: 7462 f4bd f5d2 28be 3dc4 0abd c8c1 00be
000003a0: 5ebd 44bd 7514 a23d 2a89 a5bd e03f 26be
000003b0: de5c 82bd 3dfe 943d 687a 0abe 505a 90bc
000003c0: acf9 5c3e 8c71 50be cc36 bdbd eb74 a8bd
000003d0: a261 1cbe 5c8c 65be 7b33 883d 37c7 19bd
000003e0: 6d85 28be dbfa d4bd fed5 1dbe 85aa 633e
000003f0: a80b 47be 0cbc d23c 2fea 943c 36bf a33d

onnx::LSTM_135 f4 [1, 512]
-0.00058446074 -0.0072493693 0.040275022 -0.010647486 -0.014195124 0.021912128 -0.0045166584 0.009850476
0.01702899 -0.010748323 0.020991793 0.00989724 0.008288279 0.010491028 0.030333385 0.0020739886
0.001051857 0.020795548 0.00028391887 0.015304723 -0.01752077 0.03577333 -7.5818214e-05 -0.0036798955
0.011596005 0.013196232 -0.015636416 0.022010887 0.016381705 0.014296674 0.0009784088 0.028509784
-0.0029529494 -0.0118068755 0.0019293344 0.009159514 -0.020634722 -0.0024515314 0.0034353654 -0.016170321
0.046184357 0.027011158 0.015220443 0.011515721 -0.0047139497 0.007920378 0.0059569776 0.018490674
0.014803423 0.0136858085 0.025457943 0.0073112515 0.03500691 0.017623432 0.032638136 0.040371582
0.046917178 0.029939959 0.004697412 -0.014207913 0.009445537 -0.034942783 0.0046230564 0.009889531
0.0041269944 -0.013076683 0.011428908 -0.02091242 -0.021416318 0.00399727 -0.021046767 0.005695566
-0.011817814 0.0020055848 -0.0050000004 0.010048706 -0.0015937748 0.0036974705 0.0014736257 9.1697444e-07
0.008149727 0.010381924 -0.009396324 -0.0039154547 0.0014214009 0.018160462 0.005168739 -0.013143022
0.0031388502 0.0007158907 -0.014708837 0.016102523 0.01778245 0.012845696 -0.011464428 0.01574519
-0.0019956792 0.0112115275 -0.0016738261 0.0017568194 0.0041675353 0.00043603807 0.0053824848 -0.0135264555
0.0074642035 0.019568652 0.003700559 0.004008234 -0.008121637 -0.0072453087 0.0038166195 0.008598626
0.023421692 0.026556958 0.02919257 -0.004752296 0.010357203 0.0022125144 0.0029313893 0.0036504364
0.03595036 0.0029952703 0.0006325356 -0.023390222 0.002766559 -0.027861428 0.011786916 0.0026952461
1.0074872 0.9831309 1.0145843 0.9836429 1.0037415 0.97769594 0.9876241 0.9769887
1.0112206 0.9940214 1.0050832 0.99645656 0.9764615 0.9904144 1.021734 1.00066
1.0080107 0.9868668 1.0161698 0.99420166 1.0110165 1.016179 0.9921001 1.0081497
1.0212339 0.9914152 0.9909365 0.9937631 1.0226464 1.0085145 1.0048534 0.98244894
1.0090708 1.0078008 0.9975693 0.9890055 1.015481 1.0003711 1.0031981 1.0035756
1.0164319 1.0298504 0.98929393 0.9703754 0.9843227 0.98928887 1.0109866 0.985634
1.0013016 1.0062317 0.9931794 0.99761766 0.9901849 1.0051593 1.0147933 1.0024475
1.0124669 1.0029665 1.0015818 0.98178184 0.996006 0.998129 1.0379691 0.96570987
0.021666216 -0.00078514096 0.019255407 -0.0045172195 -0.010773139 0.024001999 -0.0032825281 -0.005054626
0.0033180646 0.02097268 0.026214248 0.023995351 0.023191435 0.0035046549 0.009123725 0.0081388
0.015102382 -0.013070709 0.014885015 -0.018983869 -0.010659095 0.027902173 0.0034706143 -0.00978499
-0.016465174 -0.023726685 0.02069455 0.0003268454 0.01509113 -0.0016200462 -0.018809244 -0.0057592713
0.026120864 -0.018412272 0.020329976 0.028878381 -0.029138753 -0.030527234 -0.021284781 0.016442703
0.03643889 -0.031827416 -0.010103078 -0.006578655 -0.022311505 0.006243353 -0.011366848 -0.0021385027
-0.024529576 0.01818007 -0.033815272 0.018235786 0.023758264 0.016203267 0.026152937 0.028759629
0.023130193 0.023614492 -0.026566444 0.012978701 0.025079757 -0.017214146 0.01078608 -0.0032513533
00000000: 7f36 19ba 1e8c edbb 6cf7 243d cb72 2ebc
00000010: aa92 68bc 1081 b33c 7a00 94bb e463 213c
00000020: 6180 8b3c bc19 30bc fbf6 ab3c 0928 223c
00000030: 90cb 073c 90e2 2b3c b87d f83c c1eb 073b
00000040: 77de 893a 6d5b aa3c f2da 9439 a9c0 7a3c
00000050: b887 8fbc 0e87 123d 9800 9fb8 672a 71bb
00000060: 2cfd 3d3c 0235 583c f117 80bc 2d50 b43c
00000070: ed32 863c 993c 6a3c f43d 803a 5a8d e93c
00000080: 4586 41bb a071 41bc b8e1 fc3a c911 163c
00000090: 260a a9bc dfa9 20bb de23 613b 9f77 84bc
000000a0: cf2b 3d3d 8146 dd3c 2a5f 793c 6fac 3c3c
000000b0: 7a77 9abb 79c4 013c c032 c33b c179 973c
000000c0: 0e8a 723c 713a 603c 2d8d d03c 3993 ef3b
000000d0: 6863 0f3d 045f 903c 91af 053d ac5c 253d
000000e0: 3a2c 403d a544 f53c bfec 993b 4ec8 68bc
000000f0: 74c1 1a3c 2a20 0fbd 027d 973b b307 223c
00000100: bd3b 873b 953f 56bc 5140 3b3c 8650 abbc
00000110: 4671 afbc 88fb 823b 456a acbc dfa1 ba3b
00000120: 819f 41bc 2170 033b 0bd7 a3bb 54a3 243c
00000130: 35e6 d0ba 4351 723b ac26 c13a 0126 7635
00000140: 6f86 053c f218 2a3c 0af3 19bc 374d 80bb
00000150: 4d4e ba3a 40c5 943c 865e a93b d455 57bc
00000160: 2bb5 4d3b 9daa 3b3a 55fd 70bc 70e9 833c
00000170: 80ac 913c c176 523c 4cd5 3bbc 0ffc 803c
00000180: f1c9 02bb 8eb0 373c 4964 dbba 1445 e63a
00000190: d28f 883b 0a9c e439 8e5f b03b 119e 5dbc
000001a0: 4796 f43b 704e a03c 1485 723b 8157 833b
000001b0: 9d10 05bc 0e6a edbb 4020 7a3b 40e1 0c3c
000001c0: d9de bf3c fa8d d93c 4225 ef3c 26b9 9bbb
000001d0: 42b1 293c d5ff 103b 8d1c 403b 293c 6f3b
000001e0: af40 133d 4c4c 443b bfd0 253a da9c bfbc
000001f0: 284f 353b a63d e4bc e91d 413c baa2 303b
00000200: 57f5 803f 77ae 7b3f e6dd 813f 05d0 7b3f
00000210: 9a7a 803f 484a 7a3f efd4 7c3f ee1b 7a3f
00000220: ad6f 813f 3078 7e3f 91a6 803f c717 7f3f
00000230: 62f9 793f cc8b 7d3f 2ec8 823f a015 803f
00000240: 7f06 813f 4da3 7c3f da11 823f 0084 7e3f
00000250: fd68 813f 2712 823f 46fa 7d3f 0d0b 813f
00000260: cbb7 823f 63cd 7d3f 04ae 7d3f 4267 7e3f
00000270: 14e6 823f 0117 813f 099f 803f c681 7b3f
00000280: 3b29 813f 9eff 803f b460 7f3f 772f 7d3f
00000290: 48fb 813f 290c 803f cc68 803f 2a75 803f
000002a0: 711a 823f 23d2 833f 5e42 7d3f 866a 783f
000002b0: 93fc 7b3f 0942 7d3f 0268 813f 8352 7c3f
000002c0: a72a 803f 33cc 803f 0141 7e3f df63 7f3f
000002d0: c27c 7d3f 0fa9 803f bfe4 813f 3350 803f
000002e0: 8498 813f 3561 803f d533 803f 0e56 7b3f
000002f0: 40fa 7e3f 6285 7f3f 2cdc 843f c338 773f
00000300: 597d b13c ebd1 4dba 84bd 9d3c 2f05 94bb
00000310: d281 30bc d79f c43c af1f 57bb 47a1 a5bb
00000320: e373 593b e6ce ab3c 43bf d63c e691 c43c
00000330: f7fb bd3c 5aae 653b ad7b 153c 9a58 053c
00000340: fb6f 773c 8726 56bc 47e0 733c 0f84 9bbc
00000350: 7ca3 2ebc 1993 e43c 3f73 633b 3951 20bc
00000360: f9e1 86bc 775e c2bc 9e87 a93c 725c ab39
00000370: c940 773c bb57 d4ba d815 9abc 45b8 bcbb
00000380: 6cfb d53c 55d5 96bc 0d8b a63c 5b92 ec3c
00000390: 65b4 eebc 4014 fabc 6c5d aebc d9b2 863c
000003a0: f240 153d 775d 02bd 6187 25bc c291 d7bb
000003b0: 9ec6 b6bc 0a95 cc3b 043c 3abc 1f26 0cbb
000003c0: 40f2 c8bc 5fee 943c e281 0abd 3763 953c
000003d0: b1a0 c23c b7bc 843c af3e d63c 5099 eb3c
000003e0: 887b bd3c 2e73 c13c dfa1 d9bc 9ea4 543c
000003f0: 1074 cd3c ae04 8dbc 19b8 303c a814 55bb
