results/poc/Shootair/Shootair-11500.onnx (onnx, 493289 bytes, 15 tensors)

discrete_act_size_vector f4 [1, 2]
00000000: 0000 0040 0000 0040
2.0 2.0

network_body._body_endoder.seq_layers.0.weight f4 [128, 420]
00000000: 9107 a339 d67e a7bd 9bf1 543c 1d2b 4bbd
00000010: 8de6 993d 1096 673c 6092 3e3d 0771 fdbc
00000020: e528 163d 8298 8dbd f5bb 753c aafe 0f3c
00000030: 7a91 1f3d 1406 af3d 1f57 5a3d ef54 2a3c
00000040: 2396 44bc 6dd3 d83b 8fc4 613c 58f8 1d3e
00000050: c69b 12bd d535 50bd 3b5f d73b a1d5 d73c
00000060: 3824 aabd 9512 8abc de67 893d 0ab8 783d
00000070: a37f a43d e258 abbb 7154 fa3d 1a1c 10bd
00000080: 9bc7 ac3c fa5a 4cbd 45f1 d7bc 8678 65bc
00000090: 0d65 fbbc 173b 6e3c b066 a4bc 84be af3c
000000a0: e198 4f3c d4a0 4dbc c39e 1f3d 150f 7dbd
000000b0: 1a8b 273d d874 ddbc d506 c73c 1b7d 6d3b
000000c0: 7bea dcbc a884 9c3c 8323 6b3d 387c ae3d
000000d0: 00b1 9d3c aff3 0b3c cbd4 78bd 6c45 e23d
000000e0: 8344 0f39 5b50 a4bd 892c 0dbd a32e d63c
000000f0: 8c03 273d a8a7 55bd 75aa d83b 5ea9 92bc
00000100: 6e58 11bd 90c7 4bba e928 a43d 85d7 843d
00000110: 013c 1a3c e6c5 71bd 6ee6 973c dd0d 2c3c
00000120: dd90 063e 92f5 e53d fc1f 053b a412 a23d
00000130: a36b a3bb e1d4 cbbc 08cd b0bb 8886 953d
00000140: d9ef 47bc e599 633d 761e c1bd 2429 f83c
00000150: 27fb 4cbd b84a 1a3d 5138 1b3d 88eb d0bd
00000160: 5711 ed3c ddc1 3ebd cb89 7eba 4096 073d
00000170: eddf b4bc 483e 6cbb ad09 03be 9b57 26bd
00000180: 7070 09bd 4050 13bb 846e 3f3d fbe0 26bc
00000190: c850 d83d c03a b3bd 3527 ddbb 0964 9d3c
000001a0: 2894 ecbd b782 72bc b6cb 9a3d 9b5d e5bd
000001b0: 223a 12bb 11e0 28bc b6de 503d 9ff7 ab3c
000001c0: 3183 23bd 886b f53c 6d3c 98bb 8c8a 51bb
000001d0: a0c5 2ebc a6f1 693d 2c69 873d b163 383d
000001e0: 8a02 a13c 379b eb3c 1ac0 05bd 6dbd 0a3d
000001f0: 4694 263d d176 f83d 85e1 9dbd b534 1ebd
00000200: 3a93 cf3d dea1 16bd 93db a63c 000f a13c
00000210: 2078 aa3c 5658 e5bc cdc8 c63b 301e d23b
00000220: 013d 223d e51e c1bc 75f5 aeba 77d8 0fbd
00000230: 7c58 9f3c 8aa1 7f3d f8df 17bd 118d 16b8
00000240: 60b4 65bc 84ca d33c 13bf 32bd 9f32 a5bd
00000250: 6021 a0bd 0336 27bd 39ab 7bbd 9109 833c
00000260: d07d 2a3d bf79 0abd 0374 12bd 7f32 72bd
00000270: f322 a5bd 3cd8 1cbe 76b8 c2ba 94b9 49bd
00000280: d0fc a2bc f5c0 8a3d bb8b c4bb 846d 4e3d
00000290: 3d02 c9ba f935 483d 17bf 4b3d 1ddd 11bd
000002a0: 8a50 023d 27de 313c 9270 55bc 06fa b03d
000002b0: d5fe 093c 24d1 56bb 99dd 83bc 46e2 263d
000002c0: 270e 9e3d 83ce 7c3a 157d 023d 38ce 7d3d
000002d0: 7b7d 503d 233f 913c 0a6c fbbb 9f9a 7ebc
000002e0: 6342 013d 1139 7a3d 45ca 833d e841 bcbc
000002f0: 2f15 0bbd 10c2 25bc 9438 ca3c 5c71 3cbc
00000300: 605d 7b3b 4d3f 883d 569b 723c b49e c23c
00000310: b591 73bd 9ba3 303d 20f1 f2bc aa77 683d
00000320: d389 7f3d 483e 303d 8489 50bd eed7 e93d
00000330: c99c 693c a485 603d 4e70 4dbb 39bc 49bb
00000340: e0db c0bb 5249 8d3d 014e b1bb cea5 29bc
00000350: dfed 73bc 7db4 84bb 6a03 6cbd e6dc e7bc
00000360: 0e0e 2e3d 5424 593c 9e5b 4cbd f5b3 fb3c
00000370: 78c8 863b aff7 51bd 7873 b93d 1abb 213c
00000380: e9f4 7c3c 1d5c 78bc 6b66 843c 2cbe 053d
00000390: 92bf 0d3d dbe0 d7bd 1df0 1dbd 472c 183c
000003a0: 398b dc3c 1e80 613c 080a c03b b938 a6bd
000003b0: f97f 8a3d 2009 a83d 6f33 1e3d 73e3 94bd
000003c0: e005 4abd 0e5f 433c c5de 853d e62f dd3a
000003d0: 37bc 873c f3bb 203c 7355 313d 1cc9 0d3c
000003e0: b2fe 07bd 0d9f 2bbc 9bc5 cd3c fd29 9ebd
000003f0: a187 6bbd 6bb7 0bbd 398b 44bd b18b 74bd
0.0003109542 -0.08178489 0.012997056 -0.049601663 0.07514677 0.014134899 0.046526313 -0.030937685
0.036660094 -0.06913854 0.014998426 0.008788744 0.038957097 0.08546081 0.05330574 0.010396226
-0.011998686 0.006617001 0.013779773 0.15426767 -0.03579309 -0.05083259 0.0065726317 0.026346983
-0.083076894 -0.016854564 0.06709264 0.06072239 0.08032157 -0.0052291015 0.12223137 -0.03518305
0.021091273 -0.04989145 -0.026360163 -0.014005786 -0.030687833 0.014540455 -0.020068496 0.02145315
0.0126707265 -0.012550551 0.038969766 -0.06178196 0.040904142 -0.027033255 0.02429525 0.0036237899
-0.026967278 0.019106224 0.057406913 0.085197866 0.01924944 0.008541985 -0.06074981 0.110483974
0.00013663065 -0.08023139 -0.0344663 0.026145285 0.040774867 -0.052161843 0.006612117 -0.017903026
-0.035484724 -0.00077735726 0.080156155 0.064864196 0.00941372 -0.05902662 0.018542495 0.010501352
0.13141198 0.112284794 0.0020313254 0.07913712 -0.0049871965 -0.024881782 -0.0053955354 0.073010504
-0.01220318 0.055566687 -0.09429638 0.030293055 -0.050044205 0.037668914 0.037895504 -0.10201174
0.028938932 -0.0465716 -0.0009709864 0.033102274 -0.022079432 -0.0036047865 -0.1279666 -0.04061089
-0.033554494 -0.0022478253 0.046736255 -0.010185475 0.10562283 -0.0875144 -0.0067490586 0.01921274
-0.11551696 -0.014801673 0.07558386 -0.111994945 -0.0022312482 -0.010307328 0.050993644 0.020992098
-0.039920036 0.029958501 -0.004645875 -0.003197345 -0.010667235 0.05711522 0.06611857 0.045016948
0.019654531 0.028760536 -0.032653905 0.033872057 0.04066875 0.121320374 -0.0770903 -0.038624484
0.10135503 -0.036775462 0.020368373 0.019660473 0.020809233 -0.027996223 0.006066418 0.00641229
0.03960896 -0.023574302 -0.0013348298 -0.035118546 0.019451372 0.062409915 -0.037078828 -3.5894165e-05
-0.0140200555 0.025853403 -0.043639254 -0.08066296 -0.07818866 -0.040822994 -0.061442588 0.015995773
0.04162389 -0.033807512 -0.03575517 -0.059130188 -0.08063307 -0.15316862 -0.0014855999 -0.049249247
-0.019895941 0.06775085 -0.0059981025 0.05039741 -0.001533575 0.048879597 0.049742784 -0.03561126
0.03181509 0.010856188 -0.013027327 0.08641438 0.008422573 -0.0032778466 -0.016096877 0.040743135
0.07717543 0.000964381 0.03185757 0.061964244 0.050900918 0.017730301 -0.0076727914 -0.015539794
0.031557452 0.06108958 0.06435064 -0.022980645 -0.03395575 -0.010117069 0.024685182 -0.011501636
0.0038355216 0.06652699 0.014807543 0.023757316 -0.05946513 0.043124776 -0.029655993 0.056754746
0.0623873 0.043028146 -0.050912395 0.114181384 0.014258572 0.05481495 -0.0031347456 -0.0030782355
-0.005885586 0.0689875 -0.00541091 -0.010354472 -0.014888256 -0.004049836 -0.057620443 -0.028303575
0.042493872 0.01325329 -0.04989206 0.030725459 0.004113253 -0.0512616 0.09055227 0.009871269
0.0154392505 -0.01515868 0.016162118 0.032652065 0.034606524 -0.10540935 -0.038559068 0.0092879
0.026921855 0.013763456 0.005860571 -0.08116288 0.0676269 0.082048655 0.03862327 -0.07269945
-0.04932201 0.011924518 0.065366305 0.0016875237 0.01656924 0.009810436 0.04329438 0.008653905
-0.03320188 -0.010474932 0.02511864 -0.077228524 -0.057502393 -0.034110468 -0.047984336 -0.059703533

network_body._body_endoder.seq_layers.0.bias f4 [128]
00000000: c7d7 b13a a80c 47bc 3165 be3c 9701 caba
00000010: 3b78 503c 9d24 233c eaee 5f3c 326c 063b
00000020: 3055 a53b 7359 ab3c 1101 623c 4ba8 813b
00000030: e4e6 a63c 6b27 723c f6b0 8d3a acab 9b3c
00000040: 15fe 30bc 9454 42bc 2531 823c 4c43 a6bc
00000050: dabd 9f3b 913a 223c ea83 bd3b 25d5 a7bb
00000060: 1fff 493c 10cc 633c cc4e 0d3d 70f8 3fb9
00000070: ab4e 1a3c 4114 e43b 8110 29bb 57ef ccbc
00000080: 343d 87ba e3b5 9d3b e919 563b 6383 403c
00000090: 77c4 d33c 02fe 06ba 50a3 153c 46b1 eebb
000000a0: 0e45 5e3c 1164 81bb c9d4 a3bc c9ee 853c
000000b0: 723c 6dbb 1603 3cba a790 8abc 9630 f43b
000000c0: edab 953c d7c6 923b 29d4 6d3c e3bd b63c
000000d0: 655f 1c3c 5903 88bc ba12 48bc d1fe 553c
000000e0: e206 4d3c af7c c03c d324 833c 1ccf 8c3c
000000f0: 2fbb ab3b b99f 77bb 1107 ab3c 71f1 8cbc
00000100: 1cc2 903c 618f 893c 8d0c 69bc 4e0b a13c
00000110: 7c87 7cbc 11ec 69bc 7d79 52bc 526f 1f3c
00000120: f245 dbbb ef95 e2ba d29b ba3c 2d51 dd3a
00000130: 38d4 7f3c 1810 923c 76d4 923b ee98 703c
00000140: 0480 8e3b 04fd 363c 91cf 913b b53b 19bb
00000150: f5b4 963a 151c 8a3c 5b51 b13c c88a d73c
00000160: 94fa 50bc cec6 debb 487f 033a 94ea 303b
00000170: 870b 45bc c6eb 523c c627 54bc c354 57ba
00000180: 14a7 a2bc c106 c3bb b4c3 32bc 7e8b b53c
00000190: c0a7 8b3c 8250 c63c 4e76 af3c ff36 dfbc
000001a0: baa4 83ba 7356 023b 3f57 503c 1832 0ebc
000001b0: c744 133c 5e88 103c d96f 863c 8613 673b
000001c0: 0fc3 e8bc 1ffa dab9 9e15 ec3b 4157 4b3c
000001d0: fcfd 5d3c 308b 9f39 c55c c73c 2fe8 6cbc
000001e0: 5ce7 b939 8de6 24bc f883 24bc 6995 d03b
000001f0: 9edb 853c f524 6a3c 9d4b 7d3c 0d52 4b3c
0.0013568335 -0.012149014 0.023241611 -0.0015411851 0.012723978 0.00995746 0.013667801 0.0020511267
0.0050455555 0.020916676 0.0137942 0.0039568297 0.02037377 0.014779906 0.0010810185 0.019002758
-0.010802765 -0.011860985 0.015892575 -0.020295762 0.004874927 0.009901659 0.0057835476 -0.0051218444
0.012328892 0.013903633 0.034498975 -0.0001830773 0.00941817 0.0069604223 -0.002579719 -0.02501647
-0.0010317923 0.0048129424 0.0032669252 0.011750075 0.025850518 -0.00051495444 0.009133175 -0.0072843162
0.013566269 -0.0039486964 -0.019998925 0.016349213 -0.0036199358 -0.00071720907 -0.016914679 0.007452081
0.018270457 0.00447927 0.014515915 0.022307342 0.009544228 -0.016603159 -0.012211496 0.013061241
0.012513848 0.023496954 0.01600877 0.017188601 0.00524082 -0.003778441 0.020877393 -0.017204972
0.017670684 0.016792001 -0.014224184 0.01965871 -0.015413161 -0.014277474 -0.012846348 0.009731131
-0.0066916877 -0.0017287115 0.022779379 0.0016885154 0.015614562 0.01782994 0.0044808937 0.014684899
0.0043487567 0.011168722 0.0044497927 -0.0023381535 0.0011498021 0.016859094 0.021645239 0.026311293
-0.012755055 -0.0067986017 0.000501622 0.0026995288 -0.012026674 0.012873596 -0.012948936 -0.00082142296
-0.01985506 -0.005951733 -0.010910917 0.022161242 0.017047763 0.024208311 0.021418717 -0.027247904
-0.0010043599 0.0019887954 0.012716114 -0.0086789355 0.008988566 0.008821575 0.016410755 0.003525944
-0.028413324 -0.00041766555 0.0072047254 0.01241094 0.013549324 0.00030430546 0.024336228 -0.014459654
0.00035458326 -0.010064733 -0.010041229 0.0063654673 0.016340073 0.014291038 0.015459922 0.012409699

network_body._body_endoder.seq_layers.2.weight f4 [128, 128]
00000000: 037d 963d 7b1d cd3d a1d0 fc3d 75f9 08bd
00000010: da89 873d 6288 a93d 7c5a 82bd b935 593c
00000020: 616e 1d3e 3063 e83d c003 513d a4b5 e33b
00000030: 1f46 3f3e 1391 fcbb 0f1b 06be 897c b53d
00000040: fb11 8cbc 7870 aabc aaae f8bd e8d7 77bd
00000050: 0bcb 0b3e 03fa 233d 9508 4fbb d60e 8bbd
00000060: 6da6 aabd a905 36bd 85c9 e2bd 8a2f 083d
00000070: 9e91 a7bc dc01 b73d e358 373d af65 f8bd
00000080: 1753 073c b90e 73bd 9089 e73b cbc1 aa3d
00000090: 9529 f93d 9bc2 583e d6c2 773d 8e88 4dbd
000000a0: f8a8 bf3d 0284 2ebd 77a3 12bd 4e0b aebb
000000b0: 65a7 9d3b 6e7a bc3c 1ed4 9a3d b46e 8e3b
000000c0: f7a0 cd3d c91a 15be 5cfc 94bd 583b 373e
000000d0: 2547 ff3d 0bdc 953d 86f0 093e 99c0 39bd
000000e0: 4aa0 9bbd e26e 463d 97b7 8abd 8b2b 57be
000000f0: 4ee0 773d 2275 babd 14ac e4bd 3d62 223d
00000100: 923a 553d b444 30bd 47f5 57bd 699d 4ebd
00000110: e355 cf3d 0216 c93d eb37 953d 1fa0 7c3e
00000120: bcad b83d 90b3 e7bc ab90 bdbc 1c76 0ebe
00000130: 9a24 12bd 649f 5cbd afee 503d d897 70bd
00000140: 2134 d7bb 9b99 91bd 8a13 49bd be17 143d
00000150: 5994 9e3c fa3c 0abd f64f 3d3c 234f 2b3d
00000160: b56e 043d 928b 6cbd d975 b8bd 8c23 f03c
00000170: 751c 39bd 7be0 043d 8fa1 10be 1cf3 033e
00000180: b114 783d 7976 08be 2ac2 7fbe 3c57 c83c
00000190: ca83 0f3e 6f97 7cbd cf14 6e3d ae38 efbd
000001a0: 13bc 1d3e 36a7 d83d 3098 b33d 31e5 d43d
000001b0: cf6a 32bc 86c0 32be 44c1 233e aab4 aabc
000001c0: 4103 b6bd 70be bc3c 08b0 55bd a93e af3d
000001d0: daaa a53d 0de3 93bb 7b32 7abd 4162 a2bd
000001e0: 8840 ae3d a8a1 1dbd f526 e63c 1e3f 373e
000001f0: f887 4bbd 7eb7 a9bd 6e1e 87bd b906 6dbd
00000200: 0388 043d cf0e f8bc 713d 5d3d 7fef 89bd
00000210: 7136 263d 0e19 29bc 8b4f 39be d617 1a3e
00000220: 2414 cdbc bc71 6bbd a9ad cf3d 8551 1f3c
00000230: 0700 033e 0144 083c 5bb2 59ba ab8d 013d
00000240: 4875 3b3d 97dc cebd 71cd ca3d 84e4 1ebd
00000250: c9ad 81bd 5481 bd3d b7ef 523c e9c6 40bd
00000260: 8bd6 60bd ca5c e43d 2190 433e c8e3 c9bd
00000270: 6ac9 8b3d 4c74 f63d 62dd 2b3d 6cd6 333d
00000280: 5ff6 a33d 40a3 abbd 796f 503c 9aca 4fbd
00000290: 360e 97bd c420 bebc c297 98bd 9930 f7bd
000002a0: 6c08 9cbc 1e4c e73d 5139 903d 425d f8bc
000002b0: d6dd 00be a0d1 083e 1b55 1fbc f83c cf3d
000002c0: f265 d1bd 6e36 29bd d7d2 9b3d d374 b93c
000002d0: c7e6 0c3e 7739 023e 2404 163d eb99 69bd
000002e0: 7322 9a3d 304a 09bd 229d 9c3b 39de 0a3c
000002f0: 8aa1 b2bd bd6a 143d 6bf0 0e3d e3ae 82b8
00000300: 5fed 94bd f03b 3a3c 0cde eb3c 489f b43b
00000310: 943c 353d d068 d1bd 53d6 973d 38cb 3ebe
00000320: 23dd 893b c7db e83c 95cd dbbb 1226 313c
00000330: 94b6 7f3d 4fb3 e1bd 763c bcbd 9652 16be
00000340: bb7c eebb 44f4 293b 13a4 133e b0de 88bc
00000350: eb70 003e 2ec9 c93d 1155 303e e769 873e
00000360: df6b 413d a370 213d 63c8 653d 8777 78bd
00000370: 0e9e eebc 437f e4bd 5b8b 3e3d 0fa5 833c
00000380: f595 f5bd 9213 8bbd 2045 273e 82c5 843d
00000390: e4f9 4d3e 1955 ab3d a754 6e3c 7254 943d
000003a0: 199f 6abc fcda e43d 1ecc a1bc be98 05be
000003b0: d11d fd3d ac84 1bbd e5c2 353c 3290 2b3e
000003c0: 8924 933c 5a0f 583d 4f10 613e 9d83 1b3d
000003d0: aeae 7bbd 0b94 f03d 8570 8ebd 8f6e b1bc
000003e0: 53f3 0e3d 6e93 a43d 2da4 433d 502a 01bd
000003f0: 2b68 0cbb 544e 953d 4dca 253e 2f5b aa3d
0.07348063 0.100153886 0.1234448 -0.033441026 0.0661809 0.08277966 -0.06364915 0.013257437
0.15374137 0.113470435 0.051028967 0.0069491435 0.18679093 -0.007707724 -0.1309626 0.08861644
-0.017098418 -0.020805582 -0.121426895 -0.06050864 0.13651673 0.04003335 -0.0031590809 -0.06789939
-0.083325244 -0.04443899 -0.11073593 0.03324846 -0.020455178 0.089359015 0.044762503 -0.121287696
0.008259556 -0.059340212 0.0070659593 0.08337744 0.12166134 0.21167986 0.060488544 -0.050179057
0.093584 -0.04260636 -0.035800423 -0.005311406 0.0048112147 0.023007598 0.075599894 0.004346693
0.10040467 -0.14560999 -0.07274696 0.17893732 0.124647416 0.073173605 0.13470659 -0.04534969
-0.07598932 0.04844559 -0.06773298 -0.21012704 0.060516648 -0.091043726 -0.11165634 0.03964447
0.05205781 -0.04303427 -0.05272415 -0.050443087 0.101238035 0.09818651 0.07286056 0.24670456
0.09017512 -0.028283864 -0.023140272 -0.13912243 -0.035679437 -0.053862944 0.051008876 -0.05873856
-0.0065674935 -0.07109376 -0.0490909 0.036155455 0.019357847 -0.033749558 0.011554709 0.041823518
0.03233214 -0.057750292 -0.09006853 0.029313825 -0.045193154 0.032440644 -0.1412413 0.12885708
0.060566608 -0.13326444 -0.24976411 0.02445566 0.14015117 -0.061667856 0.058125313 -0.11680733
0.15403776 0.10578768 0.08769262 0.10395277 -0.010889723 -0.17456254 0.15991694 -0.0208381
-0.088873394 0.023040026 -0.05216983 0.08556873 0.08089228 -0.0045131505 -0.0610833 -0.07928897
0.08508402 -0.038484246 0.028094748 0.17895171 -0.049690217 -0.082869515 -0.06597601 -0.05786774
0.032356273 -0.030280499 0.054013673 -0.067351334 0.040579263 -0.010320915 -0.1809675 0.15048155
-0.025034018 -0.057481512 0.10140545 0.009724026 0.12792979 0.008316995 -0.000830447 0.031629246
0.045766145 -0.10100668 0.09902466 -0.03879215 -0.06331975 0.09253183 0.012874535 -0.047064696
-0.054892104 0.111505106 0.1909795 -0.09857899 0.06825526 0.120339006 0.041959174 0.04390566
0.08005976 -0.08380747 0.01272189 -0.050730325 -0.073757574 -0.023208983 -0.074508205 -0.12069816
-0.019046985 0.11293815 0.07042182 -0.030317906 -0.12584624 0.13361216 -0.009724881 0.10119051
-0.10224523 -0.041311674 0.07608574 0.022638714 0.1375991 0.12717234 0.036625043 -0.057031553
0.07526102 -0.033518016 0.004779474 0.008475834 -0.087222174 0.036234606 0.03489725 -6.231458e-05
-0.072718374 0.011366829 0.028792404 0.005512152 0.044247225 -0.102250695 0.07413926 -0.1863221
0.0042072698 0.02842511 -0.006707857 0.010812299 0.06242998 -0.110205285 -0.091912195 -0.14679942
-0.0072780526 0.0025932947 0.14418058 -0.016707748 0.12543075 0.09852825 0.1721995 0.26447985
0.047222015 0.03941406 0.056099307 -0.060660865 -0.0291281 -0.11157086 0.04651962 0.016069917
-0.11991493 -0.06790842 0.16334963 0.06482984 0.20114857 0.083658405 0.01454655 0.07242669
-0.014320158 0.111745805 -0.019750651 -0.13046548 0.12359203 -0.037968323 0.01109383 0.16754225
0.017961757 0.052749015 0.21978877 0.037967313 -0.061445884 0.11746987 -0.06955055 -0.021659164
0.03490002 0.080359325 0.047763992 -0.031534493 -0.0021424394 0.072903305 0.16190453 0.08318173

network_body._body_endoder.seq_layers.2.bias f4 [128]
00000000: 3e24 9b3c f645 843c 7295 fc3b 4f52 f9bb
00000010: 194b 143c 61ac 673b f4ae 08bc 77bf 9f3c
00000020: 7e25 fbbb a3af 0abd 890f dc3b 1157 bb3b
00000030: 0982 4e3c bd17 65bc 84ae 03bc f718 4d3c
00000040: 12ba 823c d4fa 193c 5ea1 45bc 9351 173c
00000050: 9767 0ebd c4ae 8f3c 8f1f 10bd af0f 86bb
00000060: f98f c7bb 7f57 3ebb f50d 2c3c 4fd3 f83c
00000070: 7d10 82bc 867f 81bb cde8 cbbc f152 f73c
00000080: b84c ae3c 3c89 b23c 3994 b9bc 92e7 38bc
00000090: 301a ea3b eafc 243c c34f babc 7891 14bc
000000a0: 195f 8d3c c8e7 5abc 121e b43c 171b 49ba
000000b0: 0be4 edbc d542 84bc 9d97 b13c 5502 babc
000000c0: 5646 a1bc 0dd2 6dbc 47b4 f43c b425 d53b
000000d0: fb76 f7bb 5bf1 d13c 707e 5f3b 4057 1a3c
000000e0: c5dd 0e3c d6a3 a03b 298f adba c5e9 de3c
000000f0: 8f4c d63c 3e40 893b cf9c 74bc 3434 4abb
00000100: b449 cb3b c476 003c 4176 823b 0855 fc3b
00000110: c058 113c 8c11 21bd 4895 d7bc a4a2 02bd
00000120: acae dfbc 1dea bd3b 5959 aabc 67f7 fe3b
00000130: c69a 24bc 0e35 83bc c9f1 483b 7001 91bc
00000140: 5387 643c 32d3 4bbc d2a6 63bc 00f1 43bc
00000150: 266e b8bc c4e2 9abc db77 103d 403e c4bc
00000160: cabb 0d3b b87e 93bc 1186 17bd bb37 1b3c
00000170: 0025 aebc 0e80 4f3b 1d2f b2bb 4876 843c
00000180: 225c 5aba f63a 6f3c a004 e4bb b7fe 88bb
00000190: 0093 93ba 08dc a33c d849 3e3c 97d5 c33c
000001a0: b089 abbc 8906 263c 8452 c83c a100 86bc
000001b0: c661 9bbc 0880 8abc 1bab 363a 06f8 cfbc
000001c0: d81e c73b d4ea 3b3c d6cc ad3b 8a9d babc
000001d0: 4fa7 33ba e22c 4f3c e8cc b3bc 071d 17bc
000001e0: 537c 2c3c be1b 2abb 5b9c 28bb a10a e53c
000001f0: 0797 ffbc 851a aa3b e6fc 0e3d b864 143c
0.01893818 0.016146641 0.007708245 -0.007608689 0.009051108 0.0035350549 -0.008342493 0.019500477
-0.0076643815 -0.033858906 0.006715719 0.0057171662 0.012604245 -0.01398271 -0.008037213 0.012518159
0.015957866 0.009398181 -0.012062399 0.009235757 -0.03476676 0.01753939 -0.035186347 -0.004091225
-0.006090161 -0.002904385 0.0105013745 0.030374197 -0.015877003 -0.0039519696 -0.024891282 0.030190917
0.021276817 0.021793954 -0.022653686 -0.011285679 0.007144235 0.010070065 -0.022743111 -0.009067886
0.01725726 -0.013360925 0.021986995 -0.0007671578 -0.029039403 -0.01614515 0.02167874 -0.02270619
-0.01968686 -0.014515412 0.02987112 0.0065047387 -0.0075520254 0.025627783 0.0034102462 0.009420216
0.008719866 0.0049023433 -0.0013241518 0.02721108 0.026159553 0.0041885665 -0.014929964 -0.003085387
0.0062038545 0.007840816 0.003981382 0.007700566 0.008871257 -0.039323375 -0.0263163 -0.031893387
-0.02730497 0.0057957307 -0.020794557 0.0077809575 -0.0100466665 -0.01601651 0.0030661693 -0.01770088
0.013948279 -0.01244049 -0.0138947535 -0.011959314 -0.02251346 -0.018906958 0.035270553 -0.023955464
0.0021626824 -0.01800476 -0.03699309 0.009473736 -0.021257877 0.003166202 -0.0054377452 0.016169682
-0.0008329769 0.01460146 -0.006958559 -0.004180755 -0.0011259019 0.02000238 0.011614285 0.023905559
-0.020939678 0.010133394 0.024453409 -0.016357722 -0.01896752 -0.016906753 0.0006968246 -0.025386821
0.006076675 0.011469562 0.0053039594 -0.022780199 -0.0006853239 0.012644978 -0.021948293 -0.009223229
0.010527688 -0.0025956477 -0.002572796 0.02795917 -0.031199945 0.0051911497 0.03490915 0.009057216

action_model._continuous_distribution.log_sigma f4 [1, 2]
00000000: 7976 ac3d 7e72 a2bb
0.08421034 -0.004957496

action_model._continuous_distribution.mu.weight f4 [2, 64]
00000000: a000 363d d067 c7bb 939a 2f3c 1bce 11bc
00000010: c4b7 90bc fc9c 9a3c 71e3 35bd 7be4 863c
00000020: 29fa 2bbb 13d0 ba3c 0059 89bc 3fb8 823b
00000030: 8a45 973c 63b4 233d 3371 26bd 6686 ba3c
00000040: 7e4a 0f3d 1090 6e3c 466f 143d 15f0 23bd
00000050: 45f5 d8bc a1f9 60bb 3671 db3c e596 9a3a
00000060: 1105 bebc 789d f1ba 207f 953c 8830 793d
00000070: 89dd b63c c0c8 30bd 90c1 67bd 3000 71bc
00000080: 28b2 ca3b ae08 f4bc 1cc1 903c 883d 00bc
00000090: 59fc 8ebc e965 b9bc 220d 44b9 96df aa3c
000000a0: 6df1 2abc 006c b8bc 7100 02bd 4eaf 0ebd
000000b0: a69f 0abd 7221 06bd 23a9 f7bc fbd9 06bd
000000c0: d164 f3bc bf05 703d d569 42bc 7b79 a93c
000000d0: 4ce5 77bb 1b24 1e3d 7d55 6cbc 057b 46bc
000000e0: 1c4b 8b3c 4fe3 8abc e93f 15bb eaa7 c53b
000000f0: c017 273d f16c 323c 4fac 7f3c adab ea3c
00000100: 3a51 be3c 2af1 7bbc 8882 003c d756 93bc
00000110: 7006 03bb 26b7 773c 71f5 b13c 1d44 24bd
00000120: da2a a33c 0205 ad3c 06a6 0d3d f30a 063c
00000130: 7c74 4e3c 4383 d23a d2a1 0b3d e526 0f3c
00000140: a2b3 cb3c 6180 8cbd 5107 15ba 968e b73b
00000150: 159c 3a3c ed35 6c3d bbe2 8f3a 0625 babb
00000160: ea3e 41bc f096 10bd b205 c33c 2762 0ebd
00000170: 1b30 0e3d 3f26 99bc 4564 f4bc b600 f9bc
00000180: baef 983b 589e dabc 5e0f ee3c 9f53 333d
00000190: 5459 8dbb aa09 ddbc ce58 60bd 15f7 9f3c
000001a0: 8bad 6f3d cce4 23bd 82bf 27bb e832 873c
000001b0: 5208 6bbb 7e9f bb3c d9cb fabc 6aae f03c
000001c0: e954 65bd 727b 2d3d 6eaf 57bb c63e 023d
000001d0: ea9e 603d f278 993b 09ca 1e3d e3f3 4e3d
000001e0: 1d5d 123d 1e9f 603d 77e1 2fbc 50ab afbb
000001f0: e356 3b3d a7f3 62bb 9500 923c ed18 f1bc
0.04443419 -0.0060853735 0.010718006 -0.008899237 -0.017665751 0.018873684 -0.04440636 0.01646637
-0.0026241636 0.022804296 -0.016766071 0.003989249 0.018465776 0.039966952 -0.0406353 0.022769164
0.03498315 0.014560714 0.03623893 -0.040023882 -0.026484141 -0.0034328478 0.026787382 0.0011794238
-0.023195775 -0.001843377 0.018249094 0.0608373 0.022322433 -0.0431602 -0.05658108 -0.014709517
0.0061857887 -0.029789295 0.017670207 -0.00782717 -0.017454313 -0.022631602 -0.00018696909 0.020858567
-0.010433537 -0.022512436 -0.031738702 -0.034835152 -0.03384366 -0.03274674 -0.030232018 -0.032922726
-0.029711159 0.05859923 -0.011866053 0.02068781 -0.003782588 0.03860865 -0.014424679 -0.012114291
0.017003588 -0.016954092 -0.002277369 0.00603198 0.040794134 0.0108902315 0.015605046 0.028646315
0.023232091 -0.015377322 0.007843621 -0.017985744 -0.001999285 0.01511935 0.02172348 -0.04010402
0.019917894 0.021120552 0.03458216 0.008181321 0.012601014 0.0016060848 0.03408987 0.0087373005
0.024865929 -0.06860424 -0.0005684989 0.0056017144 0.011389752 0.057668615 0.0010977605 -0.005680683
-0.011794785 -0.035300195 0.023806427 -0.034761574 0.034713846 -0.018694995 -0.029832968 -0.030395847
0.0046672495 -0.026686832 0.029060062 0.04378092 -0.0043136273 -0.026982147 -0.05477219 0.019526998
0.058515113 -0.04001312 -0.0025596325 0.016503766 -0.0035863114 0.0229032 -0.03061478 0.029380042
-0.05598918 0.042354055 -0.003291096 0.031798147 0.054839052 0.0046836073 0.038766894 0.050525557
0.03573333 0.054839246 -0.010734907 -0.005360998 0.04573716 -0.0034630091 0.017822543 -0.02943083

action_model._continuous_distribution.mu.bias f4 [2]
00000000: b907 0ebc 07ec d33c
-0.008668833 0.025869383

action_model._discrete_distribution.branches.0.weight f4 [2, 64]
00000000: 2028 753c fff5 32bc e7dd ac3c 5cac bebb
00000010: 6a40 8fbc 92f6 043d 5eee f6bb 1a1b b83a
00000020: 22c5 073c 1210 043d 8fe8 063b 9171 b13b
00000030: 98db 803c 4411 a53c b8df f33a ca64 bebc
00000040: 4892 0a3d 8db2 19bd 9fb2 40bc 9aa2 44bc
00000050: 9893 433c b9b1 843b c077 57bd d484 4b3c
00000060: 3361 2bbc 4528 9db8 5c2f 9f3c a1c6 133d
00000070: 8554 2f3c b7b2 78bd 988d cebc 783f 523b
00000080: 98f1 d33c dd6b 72bc d010 243c e03d b53c
00000090: 3174 3f3c 2448 c1bc c181 3cbd 5ecf 2abb
000000a0: e190 7e3b da46 d1bc 992d cabb e2a6 563b
000000b0: f899 1e3b 0f58 783c 166a 58bc d8c6 0bbc
000000c0: d5e6 93bc 2d40 b33c c638 b5bc f737 0f3b
000000d0: aced 9e3c fb50 4f3c 1eae 883b 4f98 0cbc
000000e0: eaec 493d d498 6ebc c8dc a9bc 5e04 9cbc
000000f0: 1fe3 573d 6925 0c3c 464a 553b e400 233c
00000100: 40d4 ba39 4f8d 873b bdc9 f4bc 67a5 9b3c
00000110: 481c 543c b6dd 933b f8f1 0abc 7ebd 6ebb
00000120: 4390 e8ba 79e1 daba a8cd 08bc e848 1bbb
00000130: e426 9ebc 061c 18bb 51b8 01bc bfa3 21bc
00000140: 5b84 8cbc 90f7 8b3c 4b0d 4abb 9f16 1a3c
00000150: 1a79 33bc 7130 0f3c ce05 a23c 95d2 ceba
00000160: cbbe fcbb cdf8 98ba bfc6 6cbc c239 68bc
00000170: 02b5 2ebc 25a6 bf3c e959 843c a45f c23b
00000180: bee2 e73b 8536 bc3c a899 52bb 9a3e 97bc
00000190: 9b70 fabc 3517 a83c c2e4 ec3c 9089 f8bc
000001a0: 515d 2bbb 6cf7 1b3c 11ec b6bc 9a6b 6f3c
000001b0: e8d4 a0bb c617 8a3b 0924 3a3c e625 7eb8
000001c0: 6655 e03c 17b1 12bd 93bd 103b 6edd 1fbd
000001d0: 588c f538 b49a f7bc 3efc a0bc ce6b 8ebc
000001e0: 0d40 babc 7dd9 83bb fa7f a83c 562c 92bc
000001f0: 8d27 1abd ec0f 363c ff37 123d 6533 77b8
0.01496318 -0.010922908 0.021101905 -0.0058188867 -0.01748677 0.03246171 -0.00753574 0.0014046163
0.008286746 0.03224189 0.0020585393 0.0054151495 0.01572971 0.020149834 0.0018606102 -0.02324142
0.03383091 -0.037523795 -0.011761337 -0.012001658 0.011937045 0.0040495065 -0.052604437 0.012421805
-0.010460186 -7.493844e-05 0.019431762 0.0360781 0.010701303 -0.06071731 -0.025214002 0.0032081287
0.025872037 -0.014796224 0.010013774 0.02212423 0.011685417 -0.02359397 -0.04602218 -0.0026063542
0.0038843679 -0.02554648 -0.0061699864 0.0032753279 0.002420066 0.015157714 -0.013208887 -0.008531295
-0.018054405 0.021881187 -0.022121798 0.0021853426 0.01940044 0.012653585 0.004171147 -0.008581235
0.049298204 -0.014562804 -0.02073516 -0.019045051 0.052706834 0.008553841 0.003254549 0.009948943
0.00035634823 0.0041367183 -0.029881353 0.018999768 0.012946196 0.004512514 -0.008480541 -0.0036428864
-0.0017743189 -0.0016699276 -0.0083498135 -0.0023694579 -0.019305654 -0.0023210063 -0.00791748 -0.0098657
-0.017152956 0.01708582 -0.0030830677 0.009404807 -0.010954166 0.008739577 0.019778159 -0.0015779311
-0.007713174 -0.0011670828 -0.014451682 -0.014173927 -0.010663273 0.023394654 0.016156154 0.0059318114
0.0070765903 0.022975216 -0.0032135043 -0.018462468 -0.030571273 0.020518878 0.028917674 -0.030339032
-0.002614815 0.009519439 -0.022329362 0.014613057 -0.004908193 0.00421426 0.0113611305 -6.0593615e-05
0.027384471 -0.035813417 0.0022085651 -0.03902953 0.000117086514 -0.030225135 -0.019651528 -0.01738539
-0.02273562 -0.0040237294 0.020568836 -0.017843407 -0.037635375 0.0111121945 0.035697933 -5.8937254e-05

action_model._discrete_distribution.branches.0.bias f4 [2]
00000000: 1979 aa3b 0779 aabb
0.0052024242 -0.005202416

action_model._discrete_distribution.branches.1.weight f4 [2, 64]
00000000: bde4 19bc 7ed6 f43c 4cb1 9c3a 2c94 3e3b
00000010: 75cb 633b a8cd 223b 7064 34bb 5976 a2bc
00000020: 9f48 e6bb 58c2 653c ca96 d53a 2c60 ba3c
00000030: 81ce 6d3c 7298 3abc 3d7c 60bc 6089 4b3c
00000040: fdb8 48bd 4702 b53c 2346 0c3c d761 edbb
00000050: 4d39 b6bb f53a 6f3b e3f2 143d 3287 593c
00000060: ba64 9ebb a6e0 6fbc 68c6 55bc b846 0b3c
00000070: 595a bd3c e5ab 383d dc53 e83c dd82 053c
00000080: 8b71 033c 9097 e23c ee63 ea3b ff9b 76bc
00000090: 479f 29bd b4fe 1b3c 75be 833c e46f efbb
000000a0: 11eb 02bc 60b0 2a3d 18d6 12bd 91ee a4bc
000000b0: 913c 993b 15d1 7ebc c081 883b d89a 85bc
000000c0: e062 ab3b d88c 7abb 2e1b 10bb 2051 fcbc
000000d0: 67d2 dfbc 13b5 d93a 51c6 aabc 56c1 913b
000000e0: 44ba 7abd 968f 71bb d868 83bc df1e 6e3c
000000f0: 1523 4abc 809d 123b 40af 173d 6fd2 9a3c
00000100: 3a1b 34bb f102 85bb e7de 923b 5c10 27bc
00000110: 4ef5 40bc ffb4 34bc 6146 06bb c7e1 5cbb
00000120: fb6c 1d3c d436 333c 29ce 0c3c 39dd fb3b
00000130: 1696 77bb 976c 393c 05ad f6ba afb6 353a
00000140: 4227 023d 636f dcbc c087 50bc e114 e2bb
00000150: 6bef 763b 81e1 69bb f117 16bd af85 243c
00000160: 75aa ac3b ee5e 39ba f74c 01bc 1f4b 433c
00000170: c62c 5abb 8dc5 36bc 69ab 66bb 7773 473c
00000180: 90a2 83bb 4829 a7bc 21c9 563b bcf6 123b
00000190: 14ca 9f3b 4efb 7f3c 5ccb 1a3c 590c 963b
000001a0: 3888 743c 1547 dbbb b84c 573c 0119 45bc
000001b0: d746 a23c 078c 8a3c 99b2 b2bc 6db0 1b3c
000001c0: c0fc b7bc 908d 5e3c 9d7f e03c f4c1 123c
000001d0: 60da 023d 0be7 57bc 09b6 e23b df3f 9bbc
000001e0: d1fe 233d 4327 383c 6728 b33b a1fd 073b
000001f0: 3011 073d 33f9 903a ea48 913b e543 1cbb
-0.009392914 0.029887434 0.0011954694 0.0029080017 0.003475872 0.002484182 -0.0027525686 -0.019831823
-0.0070277 0.014023386 0.0016295549 0.022750936 0.014514566 -0.011388885 -0.013701496 0.0124228895
-0.049004544 0.022095812 0.008561644 -0.0072443294 -0.00556103 0.0036503647 0.036364447 0.013276862
-0.004833785 -0.014640963 -0.013047792 0.008500747 0.02311437 0.045085806 0.0283603 0.008148876
0.008022676 0.027660161 0.007153026 -0.015051841 -0.041411664 0.009521175 0.016082028 -0.0073070396
-0.0079906145 0.04167211 -0.035848707 -0.020133289 0.0046764095 -0.015552779 0.004165858 -0.016309187
0.0052302927 -0.0038230922 -0.0021988857 -0.030800402 -0.027322007 0.001660975 -0.020846518 0.0044480963
-0.061212793 -0.0036859266 -0.016041204 0.014533727 -0.012337466 0.002237171 0.037032366 0.01889917
-0.0027482049 -0.0040591885 0.0044821384 -0.0101967715 -0.011777235 -0.011029481 -0.0020488726 -0.003370391
0.0096085025 0.010938365 0.008594074 0.007686284 -0.0037778667 0.011317394 -0.0018819874 0.0006931824
0.03177572 -0.026908582 -0.012727678 -0.0068994616 0.0037679325 -0.003568739 -0.036643926 0.010041638
0.0052693435 -0.00070713356 -0.007891885 0.011919766 -0.0033290847 -0.011155498 -0.0035197383 0.012173525
-0.0040171817 -0.020405427 0.003277369 0.0022424897 0.0048763845 0.015623881 0.009447899 0.0045791087
0.014925055 -0.0066918232 0.01314085 -0.012029887 0.01980917 0.016912473 -0.021813678 0.009502512
-0.022459388 0.013583556 0.0274046 0.008957375 0.03194654 -0.0131776435 0.006918673 -0.018951355
0.040037934 0.0112398295 0.005467463 0.002075054 0.032975376 0.0011060595 0.004433741 -0.002384418

action_model._discrete_distribution.branches.1.bias f4 [2]
00000000: b04e 96bc ab4e 963c
-0.018348068 0.018348059

onnx::LSTM_133 f4 [1, 256, 128]
00000000: fbcf 2b3e dce4 c03c 84ee 25bd 7d68 e33d
00000010: 1cb7 aa3d 7615 f5bd 243b 423d 43aa 213e
00000020: e4c7 65bd 7fe9 ec3d 7704 823d 60fc c6bc
00000030: 1d63 35be f8a4 ab3d ef4f 083e d34c d13c
00000040: 10e5 af3d df1a dabd a382 563d 9363 bd3d
00000050: 3102 0abe 75ef 51bd 381d 2b3e d76f ae3d
00000060: d85b f5bd 9d73 aabc c649 45be 9bad 013e
00000070: 1c13 263e 3e76 29be 46da 793d 7f29 01be
00000080: bf50 8fbd 0975 52bd 0810 17be ce0c c6bd
00000090: 28b6 be3d b169 a83c 0d3e 5ebc 4d56 bebc
000000a0: 909f 183e e209 60bd 3c68 ee3d a094 ad3d
000000b0: 21f2 c3bd 4686 88bd 4d21 143e e3b1 a1bd
000000c0: 2eb6 eb3d 28eb 5bbd ccbb 2fbe fcec 1d3e
000000d0: c97d 6ebd b4ca f43d a250 363e 5b1b 3ebd
000000e0: cbe5 1a3e fbcc 323d c324 1bbd d537 0cbe
000000f0: c579 7bbc d13a 173e 518d 0f3d 934a abbd
00000100: 8e3a 8c3d e850 29bd 674c 95bd 7839 a0bd
00000110: 996a 18bc 5c07 adbd 0a31 c8bd eb81 233e
00000120: 289b 8c3d 2996 6f3c 9f4c 8d3d bdc8 f5bd
00000130: 2707 0bbe 3ba4 60bd 3666 cabd cefd 393e
00000140: 8775 2b3d 3cfe 873d 1e02 f83d 5b50 213e
00000150: 31dc 1fbe 0619 2b3e d485 a13c e9b3 133d
00000160: 8a68 3a3c 815b 34bd 7ec9 153e 6546 38be
00000170: 85f1 d93b acc5 f03d ed84 25be 6597 423e
00000180: fb9b d73d 5777 1cbd 293b 0b3e 0bc7 373d
00000190: 60cb 4c3d 9c77 e5bd c627 1b3e c810 cfbd
000001a0: 8f7b 283e 2cda 213e 986a e03d 266d 87bc
000001b0: 7af6 85bc a30c 82bd 5ad8 e23d 5159 1b3d
000001c0: 7eaa 2ebe 4a0f 193e 7716 28be 7a5d 223e
000001d0: 8c5c b93c 76c3 afbd 072c 1abd 9a30 283e
000001e0: 9f83 0a3e 1825 a5bd 5d73 09be adbb 3a3e
000001f0: b462 143e 3f34 3c3e 6182 c4bd c0d2 0c3e
00000200: 307b 0d3e a6bc 41be c9bc c5bc 0e0f 0e3e
00000210: eda9 7ebd 6e6a f33d 931c a83c 9fac cf3d
00000220: cc0d 873c 0d95 2e3e 544f a83c a7ce 39bd
00000230: 4110 283d 27cb 453e c176 edbd f3e0 0c3e
00000240: 1d53 3b3d ab31 b73d dc14 e23d 6416 de3d
00000250: e702 90bd 5117 3fbe 7a44 c93c 4f38 03be
00000260: 9070 49bd 5d0c f1bd 470f 85bd f361 8e3c
00000270: 32fa 23be ff4a 59bc 96c1 7b3d 6de1 d73d
00000280: 2299 7a3d 3d9d 833d d22a 053e 02b3 27be
00000290: 041e 94bd 73c7 bbbc ba45 f5bd bc53 95bd
000002a0: 5be8 f8bd 3981 933d a9d9 eb3c 5937 083e
000002b0: 81e8 843d 1aab 76bd ced1 eebd 9a69 04be
000002c0: 6eff 223e d6e0 b5bd 3729 e2bd c7e3 c5bd
000002d0: a598 01be 7591 2cbe 7b34 413e cf49 ecbd
000002e0: a542 183e 1ee4 29be ee74 163c 263c f8bc
000002f0: c922 eebc 7f4e 8c3d 4c54 333e e26f 85bc
00000300: 4962 1d3e 0852 493d f0c0 233e a51b a73d
00000310: b42f 6d3d 4231 a23b f100 e6bc 194d 33bc
00000320: f743 e63d 2564 51bd 8a0a b2bc 3e92 b33d
00000330: 759d 02bd 2c6c 013e 4ad5 c23c 7bc5 96bd
00000340: ad2b 3abe f4c4 11be bfb9 963c cbcd 2f3e
00000350: a999 91bd 5fd8 a63d 021e 183c e0e5 b7bd
00000360: 499c 18be a87e 083e 8e70 413e 7f42 f83d
00000370: 3c83 2d3e 97a1 6e3d 05d7 633d cdd7 1c3e
00000380: f424 26be 578e b8bd 4614 10bd 2596 013e
00000390: b5c0 a1bd 70d8 d83d 0475 723b 8fee 0a3e
000003a0: 1b6b f2bd 8736 edbc 9492 8d3d e986 1d3e
000003b0: 9328 303d bb7a 0cbe 02c8 b63d c186 0cbe
000003c0: 1744 263e bd4b 163e 346c 0abe c8c2 c3bc
000003d0: 1dec 183e 2d2b df3d 98c7 693c 8fa1 803d
000003e0: b892 1cbe 96b0 4e3d fe68 c2bd d083 c63d
000003f0: dec1 eabd d156 e9bd 5053 cf3d 75a6 7d3c
0.16778557 0.023546629 -0.04051067 0.11103914 0.083357066 -0.11966984 0.047419682 0.15787606
-0.056098834 0.11567973 0.06348508 -0.024290264 -0.1771359 0.08381075 0.13311742 0.025549328
0.08588612 -0.106496565 0.05237068 0.09247508 -0.13477398 -0.051253755 0.16710365 0.085174255
-0.119804084 -0.020807082 -0.19266424 0.12663881 0.16218227 -0.16549012 0.060999177 -0.12613486
-0.06997823 -0.051381145 -0.14752209 -0.09670411 0.09312087 0.02055821 -0.013564599 -0.02323451
0.14904618 -0.054696925 0.11640975 0.084756136 -0.09567667 -0.066662356 0.14465828 -0.07895257
0.115093574 -0.05369106 -0.17161483 0.15422434 -0.058225427 0.11952725 0.17804196 -0.046412807
0.15126722 0.043652516 -0.037876856 -0.13693173 -0.015348856 0.1476853 0.03504688 -0.08363833
0.06847106 -0.041336924 -0.07289963 -0.07823461 -0.009302759 -0.08448669 -0.097749785 0.15967529
0.06865531 0.014623203 0.0689938 -0.120011784 -0.13576947 -0.054844122 -0.098827764 0.18163225
0.04186013 0.06640288 0.12109779 0.1575331 -0.1561134 0.16708764 0.019717135 0.036060248
0.011377463 -0.044032577 0.14627644 -0.17995603 0.006651106 0.11756453 -0.16163988 0.19003065
0.10527798 -0.03819975 0.13596787 0.044867557 0.04999864 -0.11204454 0.15151891 -0.10110623
0.16453384 0.15805882 0.10957831 -0.016531538 -0.01635288 -0.063500665 0.11076422 0.037926976
-0.17057225 0.14947239 -0.1641482 0.15855971 0.022627138 -0.08582203 -0.037639644 0.1642479
0.13526772 -0.08063716 -0.13422914 0.18235655 0.14490777 0.18379305 -0.0959518 0.1375227
0.13816524 -0.1891962 -0.024137871 0.1387293 -0.062173773 0.11885534 0.020521438 0.10140347
0.016486071 0.17049046 0.02054564 -0.045363095 0.041031126 0.19315778 -0.11594916 0.13757686
0.04573356 0.0894502 0.11039135 0.108441144 -0.070318036 -0.18661238 0.024568785 -0.12814449
-0.049179614 -0.11769936 -0.064970545 0.01738069 -0.1601341 -0.013262509 0.061463915 0.105410434
0.061181195 0.06426475 0.13004616 -0.1637688 -0.072322875 -0.022922253 -0.1197619 -0.07291362
-0.12153693 0.07202382 0.028790312 0.13302363 0.06489659 -0.06022177 -0.11661111 -0.12930909
0.15917751 -0.08880775 -0.11043017 -0.09662586 -0.12655886 -0.16852362 0.18867676 -0.11537515
0.14869173 -0.16590926 0.009183152 -0.030302119 -0.029069321 0.068509094 0.17512625 -0.016288701
0.15369524 0.049150497 0.15991569 0.0815957 0.05790682 0.0049497196 -0.02807662 -0.0109436745
0.11243432 -0.051120896 -0.021733541 0.08768128 -0.031888444 0.1263892 0.023783345 -0.07361885
-0.18180723 -0.14235288 0.018399118 0.17168348 -0.071093865 0.08146738 0.009284498 -0.08979392
-0.14903368 0.13329566 0.18890592 0.12122058 0.16944593 0.058259573 0.05562498 0.15316696
-0.16225034 -0.09011524 -0.035175584 0.12654932 -0.07898084 0.10588157 0.0036996016 0.13567565
-0.11836835 -0.028956665 0.06912723 0.15383495 0.043007445 -0.13718693 0.08924867 -0.1372328
0.16236912 0.1467733 -0.13517839 -0.02389659 0.1493382 0.10896907 0.014268778 0.06280815
-0.15290344 0.050461374 -0.09492682 0.0969311 -0.114627585 -0.11393512 0.101233125 0.015481581

onnx::LSTM_134 f4 [1, 256, 64]
00000000: 768e d5bd 2350 5c3e 19d5 5dbe fd2d f4bd
00000010: f900 883c 4708 5fbe 13f2 7fbd 2da8 e6bc
00000020: 24e1 623e 1e8d 033d b081 043e 799a 703c
00000030: 05d2 55be 98c1 5d3e cd1c 2d3d 8192 5b3e
00000040: f757 343e fc84 49be c203 1c3d 0eee 1d3e
00000050: cc6b 67bd 1893 16be ef22 cb3d ab01 cfbd
00000060: 40e2 22be 37f8 f2bd 58f4 143e 53d9 e23b
00000070: 782e 0c3e 0321 3bbe 02e9 2cbe e1bc 5d3e
00000080: 333c aa3d fc64 e4bd 3c11 8f3d c266 c83d
00000090: e1d8 0fbe 34d0 653d b412 153e d962 b3bd
000000a0: 2cf5 0abd 4036 293e 72f4 313d 3a70 4f3d
000000b0: b72a dd3d 0c63 a13d 9bde 5ebe 03cc adbd
000000c0: cbf3 403e cc2a 08be 0e29 05bd cb13 343d
000000d0: 64a7 143e 2825 2fbe 4364 cfbd fcd4 b03d
000000e0: a33c 263e 886a 0a3e 289e 17bd 678a 0c3b
000000f0: 196f 293d 0cd9 3abd ec43 123d d10b 553e
00000100: 19db be3c 7fe9 98bd 8556 78bd 1a1d 123e
00000110: 017a 35be 45b4 e33c 1633 52be c1d1 07be
00000120: f7f1 693d 6d79 28be 975e 203e 2ab0 0ebd
00000130: feae 10be cb8f e53d fa61 3abe 56b9 18bd
00000140: d195 18be 0ed9 5ebe 183b 473e 2034 e83d
00000150: 383c 19be 7bce fbbd 3d85 c83d 3cbc 453e
00000160: ea2a 2cbe 5b83 de3d 65d0 18be 4d7a 04bd
00000170: 8143 99bd 2a47 ffbd 1b22 cabd 563c e0bd
00000180: 0e1d 1abe 2a5d ba3d 5b93 0bbe c671 4f3e
00000190: 82bb 4f3e acc0 57bd 04b9 403e fab8 2c3e
000001a0: 84cd 06bd 6639 153d 48cd 2dbd 583a 523c
000001b0: 3902 acbd f456 abbd 3cc9 903d 089f 833c
000001c0: f609 23be 2099 bd3c 7498 17bd 2129 403d
000001d0: d697 9f3d 032a 36be c33d a1bd 56bc 833d
000001e0: 846e 7ebd 04e1 243e 395a a03d 620b 633e
000001f0: 1909 2f3e 54a4 523e 0a86 c6bd bcbf 8abc
00000200: e9f9 39bd 267d 48bc 179a 2cbd 287f 3a3e
00000210: 5888 d4bd f442 37be 3ec3 4dbe 4616 243e
00000220: cb80 80bb a3b4 d7bd 4142 35be 571d 2cbd
00000230: d250 47be 1f28 693e b60e aabd 6b29 4f3e
00000240: 64c4 9b3d e541 333e 0888 523e 1097 85bd
00000250: 1d55 433d 5a98 643e 3113 6e3d 6691 18bd
00000260: c344 f1bd f217 963d ed06 57be da41 03be
00000270: 3d7a 13be 094c 9bbd 5954 ca3b a0e9 523d
00000280: 48e0 433e 5c8a 183e 5d6c c73b 539f 2dbe
00000290: cd6f 993d 2098 91bd 1fa9 63be 86c8 033d
000002a0: 6515 363d ece6 543d ed48 41be 9d4d a1bd
000002b0: 4c49 1e3d a6dc 56bc edcf 003e 8ea0 1bbe
000002c0: 19d1 48be 90a9 a33c ae4e a9bd d1d5 34be
000002d0: b3c0 0b3c 0fc8 883d 0eea 563c 5be0 3bbc
000002e0: 78f0 383d 31fd 5b3e db87 1dbe 28d1 05be
000002f0: 42a6 b4bc 0016 06bd c00f 2dbe d1e7 263e
00000300: e6c7 65be 24d0 013e ef95 ccbd dc42 1b3e
00000310: f712 03be 1fa3 5b3e 4ab1 08be 6fa1 263d
00000320: 011d 43bd 8966 283d cc42 233e fb5c 16bc
00000330: 255f 433e d65c 843c b38c f73d 61f4 213c
00000340: 0b6e 083e d3aa f43d 9f18 f13d a04d 4e3e
00000350: 97a2 0e3e 0770 3f3d e37a 35be 5b89 0d3e
00000360: d4bc b13d 7129 e13c 44ba 993a e161 eebd
00000370: 47f8 763d b92a 96bc 9382 26bd 8ea4 a23d
00000380: 012b 93bd 9993 25be b6e9 4d3e e454 4ebc
00000390: ba77 edbd 73e5 1bbe cc43 04bd 8f97 05be
000003a0: e20d 74bd 8a04 a83d a4f7 97bd 69f8 25be
000003b0: b0c9 71bd bcb5 a73d 7716 08be cb77 a0bc
000003c0: 86a1 5e3e 566e 53be 7475 bdbd 9689 afbd
000003d0: 1efa 26be 6e79 67be c424 863d 5f4c 11bd
000003e0: c0da 27be 5042 dabd faf5 1fbe 0568 643e
000003f0: b013 3fbe 6d80 d23c 4d38 513c 8b20 923d
-0.10427563 0.21514945 -0.21663322 -0.11922834 0.016602026 -0.21780501 -0.06248672 -0.028156364
0.22156197 0.032117 0.12940097 0.014685267 -0.20880897 0.21655881 0.042263795 0.21442606
0.17611681 -0.19679636 0.03808952 0.15422842 -0.056499287 -0.1470455 0.099187724 -0.1010774
-0.1590662 -0.118637495 0.14546335 0.0069228797 0.13689601 -0.18274312 -0.1688576 0.21654083
0.08312263 -0.11152074 0.06985709 0.097852245 -0.14047576 0.05610676 0.14557916 -0.08759088
-0.03392522 0.16524601 0.04344601 0.050644137 0.10799163 0.0788022 -0.21764605 -0.08486178
0.18843 -0.13297576 -0.032509856 0.04396419 0.1451698 -0.17104018 -0.10126545 0.086343735
0.16234069 0.13517201 -0.037016064 0.00214448 0.041365717 -0.04561715 0.035709307 0.20805289
0.023297833 -0.07466411 -0.060629386 0.14268914 -0.17722322 0.02779592 -0.205273 -0.13263609
0.05711552 -0.1645257 0.15661083 -0.034835972 -0.14129254 0.11209067 -0.18201438 -0.037286125
-0.149009 -0.21762487 0.19456136 0.11338067 -0.14964378 -0.122952424 0.09791038 0.19310087
-0.16813245 0.10864898 -0.14923246 -0.032343198 -0.074835785 -0.12464745 -0.09869786 -0.10949008
-0.15050146 0.09099801 -0.1363043 0.20258245 0.20286372 -0.05267398 0.18820578 0.16867438
-0.03291084 0.036431693 -0.0424321 0.012831293 -0.083988614 -0.08366194 0.070696324 0.016067043
-0.15921769 0.023144305 -0.037010625 0.046914224 0.07792632 -0.17789464 -0.07873108 0.064324066
-0.062117115 0.16101462 0.078297086 0.22172311 0.17093314 0.20570499 -0.09693535 -0.01693713
-0.04540435 -0.012236869 -0.04213914 0.18212569 -0.10377568 -0.17896634 -0.2009401 0.16024122
-0.0039216033 -0.105325006 -0.17701055 -0.04202017 -0.19464424 0.22769211 -0.08303587 0.20230643
0.07605818 0.17505606 0.20559704 -0.065229535 0.047688592 0.22323743 0.05812377 -0.037248038
-0.117806934 0.07328786 -0.20998736 -0.12818089 -0.14402099 -0.07582862 0.006174606 0.051492333
0.19128525 0.1489653 0.006085916 -0.16955309 0.074920274 -0.07109094 -0.22232483 0.032173656
0.044453997 0.051978037 -0.18875475 -0.07876132 0.03864412 -0.01311413 0.12579317 -0.15197966
-0.19611014 0.019978315 -0.0826696 -0.1765969 0.00852983 0.06678783 0.013117326 -0.011467065
0.045151204 0.21483304 -0.15383856 -0.13068068 -0.022051934 -0.032735825 -0.1690054 0.16299368
-0.22439536 0.12677056 -0.09989535 0.15162224 -0.12800203 0.21448945 -0.1334888 0.0406813
-0.047635082 0.04111341 0.1594345 -0.009177442 0.19079264 0.016157549 0.12087383 0.009884925
0.13323228 0.11946645 0.11772274 0.20146799 0.1392921 0.046737697 -0.17722659 0.13821928
0.08678594 0.027485581 0.0011728485 -0.11639763 0.06029537 -0.018330919 -0.04065187 0.079415426
-0.07185937 -0.16169585 0.20108685 -0.012593482 -0.11595102 -0.15224247 -0.03229122 -0.13046096
-0.059583552 0.08203991 -0.074202806 -0.16208042 -0.059030235 0.0818896 -0.1328982 -0.019588372
0.21741304 -0.20647559 -0.09250918 -0.08571164 -0.1630635 -0.22604915 0.06549981 -0.035473224
-0.1639204 -0.10657179 -0.15621176 0.22305305 -0.18659854 0.025696004 0.012769771 0.07135113

onnx::LSTM_135 f4 [1, 512]
00000000: ee5b 8dbb 8a08 82bc 935d cf3c 0f24 2cbc
00000010: 547e 41bc 18c0 873b 490b 82bb b07c 003b
00000020: 188f 793c a6d6 efbb 66af ca3c 0be1 4bbb
00000030: 028f 2f3b 6cbd 023c 3021 f63c d4c0 25bc
00000040: 5094 b23b 94c9 d73c 46e1 a5bc 6948 4f3c
00000050: c198 53bc 640e d73c 148d 1dbc be2a 77bc
00000060: 60ca 9ebb bc7a b03b 74cd 6cbb a7b8 623c
00000070: fc28 45bc 718f 4b3c 136d 8ebb 2409 833c
00000080: 2bfd 8cbc eee5 54bc 34bf 9abb 4090 313c
00000090: 11a2 b4bc 18ae 1bbc 2c77 c73b 4e15 bcbc
000000a0: 5f95 2d3d e369 c73c 42ce 803b 9a2e 513c
000000b0: 0ed2 48bc d55e 873b f1c4 df3b 6640 7f3c
000000c0: c4c0 263c 05e2 1a3c 034c 20bc 9128 5e3c
000000d0: ce28 033d beb8 5e3c 689c 0d3d e834 df3c
000000e0: d4e9 0e3d 54aa ca3c f513 38bc 8909 bfbc
000000f0: 2214 423c 4f1e a9bc 79fa 72bc ef05 1c3b
00000100: 2288 363a 9f88 9fbc 5db5 bfbb 0721 b2bc
00000110: 773d 51bc 320b 61bc a57c 34bc 099f 3ebb
00000120: 3fec 68bc 9c8a 9b3b 2669 313a d73f b4bc
00000130: 21f2 2bbc 6d4d 9f3b f1b5 473a e402 12bc
00000140: 82aa 393c fd2d 5b3c 31d6 95bc e909 edbb
00000150: 05bd 8b3b c7f3 d73b ff24 f1ba 7776 88bc
00000160: 4ea9 12bc 7581 92bb 70d5 25bb 445e 293c
00000170: 6630 33bc 7a43 833c 3603 85bc 08c2 d7b9
00000180: d1cc aebc 6dc3 203c 39fa f2bb b890 173b
00000190: d2b2 00bb 86c6 8cbb 306c fe3b 849a 86bc
000001a0: c19a b93b e8cc 833c 9c02 d4bb 7bad fb3a
000001b0: 9f4c 67bc 292c 29bc cc5d 743b 18c3 943b
000001c0: 756f 823c 9f78 9c3c 9b1d 92bc f80d 5c3b
000001d0: 8195 1f3c 091e afbb f9bc 9e3b 0163 7abb
000001e0: eb44 f13c e672 323a 1f8e 4cbc df1f e2bc
000001f0: 4fef 43bb 8f42 80bc 9f5b 16bc e85c 7bbb
00000200: 6083 803f 018c 7f3f d98f 803f 22bd 7b3f
00000210: b14e 803f e429 7b3f 21de 7e3f 81bd 7c3f
00000220: d828 803f fc30 803f 4235 803f a96c 7f3f
00000230: 19ae 7f3f e92f 803f 72f2 7f3f 3b2b 803f
00000240: 2ba8 7f3f 1346 803f cbc2 803f 5d5b 813f
00000250: 03bb 803f 603c 813f 1241 803f 967e 803f
00000260: c959 803f d3fb 7f3f d835 803f 9155 7f3f
00000270: 8aa4 7f3f e93a 813f e8c7 7e3f 58d1 7e3f
00000280: 2e40 803f ddb2 7e3f aae9 7f3f 5b88 7e3f
00000290: d427 813f bfd7 7f3f 9739 803f 19d4 7d3f
000002a0: f1dc 803f 2efe 813f ca51 803f c96d 803f
000002b0: 18b3 7f3f 8d44 803f b1f3 7e3f 14d7 7f3f
000002c0: f1af 7e3f e3a4 803f 4ed8 7f3f f811 7f3f
000002d0: 7326 7f3f 680e 813f aaf4 803f 2b5c 7f3f
000002e0: 3c6c 803f 573e 803f c481 7f3f 0818 7e3f
000002f0: a3f3 803f c04e 803f 0460 803f fe27 7c3f
00000300: d1c8 2d3c d63a 70bc 9816 a53c 16ef 04bc
00000310: 9640 de3a cd58 3b3c 25ed 563c 44d7 0abc
00000320: 6979 953c f1fd 193c 7294 fd3c 28a2 953c
00000330: e97c b93c 92a1 b53a 8a2e c13c 9505 423a
00000340: d733 bb3c 91c5 fabc 289d 8bba 17ef c7ba
00000350: 14e8 1b3c 2203 ed3c 7c82 41bc 7167 c4bb
00000360: 8a46 52bc 12bf aebc ac32 ab3c 74f3 42bc
00000370: afeb 103c 1903 05bc f335 84bc 7a37 13bc
00000380: cad2 a53c 1efb 8abc 2925 6b3c 5ce5 f33c
00000390: 26cc dcb9 dd77 a0bc f1f4 b8bc 7e55 dd3b
000003a0: 60e3 133d 04c5 f4bc 2a94 893b d9d5 d33b
000003b0: 900f b2ba 98e1 953c 1929 03bc 0905 893c
000003c0: e5a0 e3bc 9788 353c e548 5cbc 9fd7 ae3c
000003d0: e599 063d 9bce af3b 0c14 0c3d e1a9 cc3c
000003e0: d16c 0c3d 7405 cc3c 39ef b2bc bf6a 17bb
000003f0: 01a9 9e3c 8356 52bc cab0 b83b c9e3 60bc
-0.0043139374 -0.015873212 0.025313174 -0.010506644 -0.011809904 0.0041427724 -0.0039686305 0.001960557
0.01523187 -0.0073192893 0.02474184 -0.0031109478 0.002678812 0.007979732 0.030045122 -0.010116775
0.005449809 0.026341237 -0.02024902 0.012651541 -0.012914837 0.02625198 -0.009616155 -0.015085874
-0.0048459023 0.005385725 -0.0036133202 0.01383797 -0.012033697 0.012424336 -0.0043464988 0.01599557
-0.017210564 -0.012994273 -0.0047225 0.010837615 -0.022049936 -0.009501956 0.0060872044 -0.022959378
0.04237878 0.024342483 0.003930838 0.012767458 -0.012257112 0.004131178 0.006828897 0.015579319
0.010177795 0.009453301 -0.009783748 0.0135594765 0.032021336 0.013593851 0.03457299 0.027246907
0.034890965 0.024739422 -0.011235227 -0.023319976 0.01184562 -0.020644335 -0.014830225 0.0023807248
0.00069630344 -0.019474326 -0.0058504776 -0.021744264 -0.012771002 -0.013735579 -0.011016046 -0.0029086492
-0.014216482 0.004746748 0.00067676825 -0.022003097 -0.01049474 0.004861525 0.0007618359 -0.008911822
0.011332156 0.013377664 -0.018290611 -0.0072338474 0.0042644762 0.00659034 -0.0018397867 -0.016658051
-0.008951498 -0.004470999 -0.002530422 0.010337416 -0.010936832 0.016023386 -0.016236883 -0.0004115256
-0.021337898 0.009812218 -0.007415083 0.002312703 -0.0019637835 -0.004296127 0.007764362 -0.0164311
0.0056642 0.016088918 -0.0064700376 0.0019201481 -0.014117389 -0.01032547 0.0037287353 0.0045398585
0.015922287 0.019100485 -0.017836383 0.0033577662 0.009740234 -0.0053441566 0.0048443046 -0.0038205984
0.029451808 0.00068072823 -0.012485056 -0.027603088 -0.0029897278 -0.015656738 -0.009177118 -0.0038354937
1.0040092 0.99823004 1.0043899 0.9833547 1.0024015 0.98110795 0.9955769 0.9872666
1.0012465 1.0014949 1.0016253 0.9977518 0.99875027 1.0014621 0.9997932 1.0013193
0.9986598 1.0021385 1.0059446 1.0106007 1.0057071 1.009655 1.0019858 1.0038631
1.00274 0.9999363 1.0016432 0.9973994 0.9986044 1.0096103 0.9952378 0.99538183
1.0019586 0.99491674 0.9996592 0.9942681 1.009028 0.9993858 1.0017575 0.9915176
1.0067426 1.0155694 1.002496 1.0033504 0.9988265 1.002092 0.99590594 0.9993756
0.99487215 1.005032 0.9993943 0.99636793 0.99668044 1.0082521 1.0074666 0.9975001
1.003303 1.0019025 0.9980738 0.9925542 1.0074352 1.0024033 1.0029302 0.98498523
0.01060696 -0.014662465 0.020152375 -0.008113643 0.0016956504 0.011434746 0.013118063 -0.008474175
0.01824637 0.009398923 0.030954573 0.018265799 0.02264257 0.0013857356 0.023581762 0.00074013445
0.022851868 -0.030611785 -0.0010651695 -0.001525375 0.009515781 0.028932158 -0.011810895 -0.0059937765
-0.012834201 -0.021331344 0.020898186 -0.011898864 0.008845254 -0.008118414 -0.016139006 -0.008985395
0.020242114 -0.016965445 0.014352121 0.029772453 -0.00042113772 -0.019588405 -0.022577735 0.006754576
0.036105514 -0.0298791 0.0041985707 0.0064647016 -0.001358496 0.018296048 -0.008005404 0.016726034
-0.027786681 0.011079929 -0.013445114 0.02134305 0.03286161 0.0053652055 0.034198806 0.024983348
0.034283463 0.024904944 -0.021842586 -0.0023104397 0.019367697 -0.012838009 0.0056363093 -0.013726183
