results/test_env/Shootair/Shootair-75288.onnx (onnx, 493289 bytes, 15 tensors)

discrete_act_size_vector f4 [1, 2]
0	0x40000000	2.0
1	0x40000000	2.0

network_body._body_endoder.seq_layers.0.weight f4 [128, 420]
0	0x3cc55c6f	0.024091927
1	0xbc98764a	-0.018611092
2	0x3dcb6963	0.0993221
3	0x3ded1c3f	0.11577653
4	0xbcfc5632	-0.03080282
5	0x3d4fc8cb	0.0507286
6	0x3c10403f	0.00880438
7	0x3d527011	0.051376406
8	0x3d7b0129	0.061280403
9	0xbddb8578	-0.107188165
10	0x3c6a9e74	0.014320005
11	0xbd9deede	-0.07711576
12	0x3d67673b	0.056494933
13	0x3c869b72	0.016431544
14	0x3cba36eb	0.022731265
15	0x3d8b9373	0.06815233
16	0xbd76fb41	-0.06029821
17	0x3d684459	0.056705806
18	0xbd913b8c	-0.07091436
19	0x3d6faa12	0.0585118
20	0x3c852297	0.016251845
21	0x3d5b9368	0.053607374
22	0x3cc862b3	0.024461126
23	0x3cb9db5f	0.022687612
24	0x3d07991f	0.033105012
25	0x3d8e4b6c	0.06947979
26	0xbc6fdcd4	-0.014640052
27	0xbd5b64dd	-0.053562988
28	0x3cea74b6	0.028620105
29	0xbc941901	-0.018078329
30	0xbd36afd0	-0.04460126
31	0xbd924634	-0.071422964
32	0x3a4ba9ed	0.00077691564
33	0x3cc6c3d5	0.024263302
34	0x3b26588a	0.0025382363
35	0xbc8aa6d6	-0.016925257
36	0xbd0b1d0b	-0.033963244
37	0xbd367970	-0.044549406
38	0xbcf92c34	-0.030416586
39	0x3d999614	0.07499328
40	0x3a80f631	0.0009838996
41	0x3d0a9c39	0.03384039
42	0xbc783303	-0.015148881
43	0xbcf26a8a	-0.029591817
44	0xbd55b234	-0.0521719
45	0x3d08d64f	0.033407506
46	0x3d66a838	0.05631277
47	0x3d90944e	0.07059537
48	0x3cb7f805	0.022457132
49	0xbc7f4f06	-0.0155828055
50	0x3d9532da	0.0728509
51	0x3d029527	0.031880524
52	0x3b18efaf	0.0023336222
53	0xbcbae855	-0.022815863
54	0xbd35c171	-0.044373933
55	0xbd066a7a	-0.032816388
56	0x3d14cac4	0.036326185
57	0xbc31b40c	-0.010846149
58	0xbd86233c	-0.06549689
59	0x3db41fcc	0.08795127
60	0xbdcb79e9	-0.09935362
61	0x3d4d729f	0.05015814
62	0xbda72e7b	-0.08163162
63	0xbd2df63b	-0.04247115
64	0xbd74c2de	-0.059756152
65	0xbda08e69	-0.078396626
66	0x3b40dbff	0.0029428003
67	0xbd82204b	-0.06353816
68	0x3d954d5a	0.07290144
69	0xbb2c0a38	-0.0026251208
70	0xbd192303	-0.037386905
71	0xbd1cd561	-0.03828943
72	0xbc27ac7e	-0.010233996
73	0x3cdae776	0.026721697
74	0x3ca00421	0.019533219
75	0x3d6894be	0.056782477
76	0x3c4bc0c8	0.012436099
77	0x3cc5e114	0.024155177
78	0xbcf169e6	-0.029469442
79	0x3d9aa4e5	0.075509824
80	0xbd00e8b0	-0.031471908
81	0x3c0d3327	0.008618153
82	0x3cdd41da	0.02700894
83	0xbcf857b7	-0.030315263
84	0xbd5b230a	-0.053500213
85	0x3ce15d14	0.027510203
86	0xbb80dba1	-0.003932432
87	0xbcb5c5ea	-0.0221891
88	0xbdfde35d	-0.12396882
89	0x3d0fdddc	0.03512369
90	0xbcfee029	-0.031112747
91	0xbd89cb45	-0.06728224
92	0x3c83b3ed	0.016077006
93	0x3d94f702	0.072736755
94	0x3d8677ba	0.06565805
95	0x3cc67e25	0.024230072
96	0x3d9a6f8b	0.075408064
97	0xbcc554b3	-0.02408824
98	0x3cc5d500	0.024149418
99	0x3b843f4a	0.004035865
100	0xbe14eca2	-0.14543393
101	0x3d065dc5	0.03280427
102	0x3c33d5c8	0.010976262
103	0x3cf67a4b	0.03008761
104	0x3c898a54	0.016789593
105	0xbd54d8f0	-0.0519647
106	0xbcaf1202	-0.021370891
107	0xbcc33bda	-0.02383225
108	0xbce27248	-0.027642384
109	0x3cead189	0.028664367
110	0xbd8f65f7	-0.0700187
111	0xbcea7468	-0.02861996
112	0xbdd5c7ea	-0.10438521
113	0x3b868984	0.0041057486
114	0xbd59e2c2	-0.05319477
115	0xbb7743d3	-0.0037729635
116	0xbce826e2	-0.028338853
117	0x3d8b5b17	0.068044834
118	0x3d026b2f	0.0318405
119	0x3c117895	0.008878847
120	0xbcb44b4a	-0.022008557
121	0x3e04675f	0.12930058
122	0x3cfebf76	0.031097155
123	0x3bef0e79	0.0072954264
124	0xbca7d179	-0.020485627
125	0xbce78cdd	-0.028265411
126	0x3d8baeb2	0.0682043
127	0x3d720103	0.059082996
128	0x3d049b86	0.03237488
129	0xbaa03294	-0.0012222105
130	0xbd501ca7	-0.050808575
131	0xbcb62be1	-0.02223772
132	0x3d65c716	0.056098066
133	0x3d960e1a	0.073269084
134	0xbd355705	-0.04427244
135	0x3d919606	0.07108693
136	0x3cba2285	0.022721538
137	0xbc987d79	-0.018614518
138	0xbdadf784	-0.084944755
139	0xbdd32e29	-0.10311539
140	0x3dad20e4	0.08453539
141	0xbd3e4d6c	-0.046460554
142	0x3dd5f21b	0.104465686
143	0x3d0effdd	0.03491198
144	0xbc61e26d	-0.013786894
145	0xbb73f147	-0.003722267
146	0x3babc2e9	0.005241741
147	0xbc7ae937	-0.015314392
148	0x3da1378b	0.07871922
149	0xbda75812	-0.08171095
150	0x3db97d40	0.09057093
151	0x3d9d876a	0.07691844
152	0xbcdf0f7d	-0.027229065
153	0x3d75c46b	0.060001772
154	0xbaa0af2e	-0.0012259239
155	0xbcb74c14	-0.022375144
156	0xbd10cde9	-0.03535262
157	0xbd52d7ee	-0.051475458
158	0x3cc2abd1	0.02376357
159	0xbd67449e	-0.056461923
160	0xbdb91878	-0.0903787
161	0x3d4517cf	0.04811841
162	0x3c6e6f64	0.014552925
163	0xbc10d8ec	-0.008840781
164	0x3c91f274	0.017815806
165	0xbd894818	-0.06703204
166	0xbcfee763	-0.031116193
167	0x3d7e358d	0.06206279
168	0x3bda491d	0.006661548
169	0xbe2030f3	-0.15643673
170	0xbdbf770c	-0.09348878
171	0xbd230049	-0.039795194
172	0x3c6b25f4	0.01435231
173	0xbddd39ef	-0.108020656
174	0x3b457d14	0.0030134367
175	0x3d6425cd	0.055700112
176	0x3a780fae	0.00094627857
177	0xbc87bbc9	-0.016569035
178	0x3c798c4f	0.015231206
179	0x3bda110d	0.0066548646
180	0xbd074604	-0.033025756
181	0xbc7c5e71	-0.015403376
182	0xbbffb23e	-0.0078032305
183	0xbd23f6ee	-0.040030412
184	0x3cd5f69a	0.026118565
185	0x3d43dbaa	0.04781691
186	0x3cab7a31	0.020932289
187	0xbcada61d	-0.021197373
188	0x3ddb0518	0.10694331
189	0x3d408a97	0.04700717
190	0x3cc1aed6	0.023642939
191	0xbc9d63f9	-0.01921271
192	0xbd175420	-0.036945462
193	0x3cbf45cc	0.023348711
194	0x3c97cc9e	0.018530186
195	0xbccbea46	-0.024891984
196	0x3d10d500	0.035359383
197	0xbd2fa910	-0.04288584
198	0xbd1c27aa	-0.038123764
199	0xbd267894	-0.040642336
200	0x3bde4f29	0.006784339
201	0x3c6b2296	0.014351508
202	0x3c2c9633	0.010533857
203	0xbc3e7164	-0.011623714
204	0x3d53ae5e	0.05167996
205	0x3b27c52e	0.0025599706
206	0x3b9a9140	0.004717022
207	0xbd33fee1	-0.043944243
208	0x3c191da8	0.0093454495
209	0xbd23a3b9	-0.03995106
210	0x3ce49745	0.027904162
211	0x3d5c002a	0.053711094
212	0x3b8462aa	0.004040082
213	0x3d76c3e4	0.06024541
214	0xbcb898f4	-0.022533871
215	0x3c772c8c	0.015086304
216	0x3de8235d	0.1133487
217	0xbe0ea1d7	-0.13928925
218	0xbcf335c1	-0.029688718
219	0xbd01b879	-0.031670067
220	0xbb0cd0cf	-0.0021486764
221	0x3d8ca5d8	0.0686757
222	0xbdc940cd	-0.09826813
223	0xbe00bdd5	-0.12572415
224	0x3dc38e87	0.09548669
225	0x3ccfe0aa	0.025375683
226	0x3c5ff70e	0.013669742
227	0x3cd11909	0.025524633
228	0xbd741834	-0.059593394
229	0xbcd73730	-0.026271433
230	0xbd30e762	-0.043189414
231	0xbd1db3f8	-0.03850171
232	0xbc19fa6f	-0.009398087
233	0xbd8e308e	-0.06942855
234	0x3e12878e	0.14309523
235	0xbda2211b	-0.079164706
236	0xbd1acf69	-0.037795458
237	0xbc180196	-0.009277722
238	0x3d14ef6c	0.036361143
239	0xbd891c76	-0.066948816
240	0xbdc6017b	-0.09668251
241	0xbdacf108	-0.084444106
242	0xbc79b06c	-0.015239816
243	0xbae59d12	-0.0017518124
244	0xbddf2ddb	-0.10897418
245	0x3da918f1	0.0825671
246	0xbcb205d3	-0.021731293
247	0x3a788117	0.0009479685
248	0x3dc61ddf	0.09673666
249	0x3d9a01bf	0.07519864
250	0xbd0948d0	-0.033516705
251	0x3d17adb4	0.03703089
252	0xbc013d51	-0.007888154
253	0x3c0e5449	0.008687087
254	0x3c57c677	0.013169876
255	0x3cc52259	0.02406423

network_body._body_endoder.seq_layers.0.bias f4 [128]
0	0x3c3f5145	0.011677091
1	0x3d2c4d8e	0.04206615
2	0x3ce0fbed	0.027463878
3	0x3cfc7a71	0.030820103
4	0x3d7459f9	0.059656117
5	0x3cdeee84	0.027213342
6	0xbc8e180c	-0.01734545
7	0x3d426a5c	0.047464713
8	0x3d4ebd91	0.050473753
9	0x3b9ff742	0.0048817704
10	0x3cd98705	0.02655364
11	0x3d536afd	0.051615704
12	0x3d71a21f	0.0589925
13	0x3c80d685	0.01572729
14	0x3d03c1de	0.032167308
15	0x3d60408c	0.054749057
16	0x3d1dde61	0.038542155
17	0x3d6954b3	0.05696554
18	0x3d3f1812	0.046653815
19	0x3cf0bcd3	0.029386913
20	0x3d7e27b2	0.062049575
21	0xbbad274c	-0.0052842256
22	0x3d861c54	0.06548372
23	0x3d332e4a	0.043745317
24	0xbae186f0	-0.0017206352
25	0x3b016aa9	0.0019747412
26	0xbc543e9f	-0.012954383
27	0x3cf7a158	0.030228302
28	0x3d09e9ed	0.033670355
29	0xbc2a7e61	-0.010406108
30	0x3cccb176	0.024986964
31	0x3ccce864	0.025013156
32	0x3c543155	0.012951215
33	0x3cf364de	0.029711183
34	0x3beb38a7	0.0071783843
35	0x3bbe5673	0.0058086454
36	0x3ca7f1dd	0.020501072
37	0x3cb7a451	0.02241722
38	0x3cab5eac	0.020919167
39	0x3d1d7836	0.03844472
40	0xba3c1192	-0.0007174249
41	0x3cd9593b	0.026531806
42	0x3d261899	0.040550802
43	0x3c588690	0.013215676
44	0x3d19ac3f	0.037517782
45	0x3cda7ee3	0.026671832
46	0x3b8a2990	0.0042163804
47	0x3ce4b042	0.027916078
48	0x3c9c0098	0.019043252
49	0x3a56df74	0.0008196749
50	0x3d9775c5	0.0739551
51	0x3c32c13b	0.010910328
52	0x3d0d90ce	0.034561925
53	0x3c93a00a	0.018020649
54	0xbb206068	-0.0024471525
55	0x3c42dcda	0.011893475
56	0x3cec9d6b	0.028883656
57	0x3d3bc480	0.045841694
58	0x3d0ec402	0.034854896
59	0x3c5531a2	0.013012322
60	0x3d202230	0.039095104
61	0xbc18c85e	-0.009325115
62	0x3d366423	0.04452909
63	0x3c86486d	0.016391957
64	0x3cb4ecc3	0.022085553
65	0x3cdb2e28	0.026755407
66	0x3ca4a1a0	0.0200966
67	0x3d46b98f	0.048516806
68	0x3cd3ea68	0.02586861
69	0xbc74255e	-0.014901487
70	0x3d71af89	0.059005294
71	0x3d17e769	0.037085924
72	0x3d09605a	0.033539154
73	0x3c5b39d5	0.013380487
74	0x3d3a15a0	0.04543078
75	0x3b978937	0.0046245116
76	0x3d4eb84c	0.050468728
77	0x3ca2f8ec	0.019894086
78	0xbca14e54	-0.01969067
79	0x3d17bf5e	0.037047736
80	0x3ce4bc7e	0.027921911
81	0x3ca7d7dd	0.020488674
82	0x3d268a02	0.04065896
83	0x3c758b95	0.014986892
84	0x3d2c196b	0.042016428
85	0x3ccaecb7	0.024771078
86	0x3d199ea0	0.037504792
87	0x3d0a3727	0.033744004
88	0x3d255b52	0.040370293
89	0x3d38a1e6	0.045076273
90	0x3b3003e9	0.00268578
91	0x3d4e3c65	0.050350565
92	0x3cebba7f	0.028775452
93	0xbb86a08f	-0.0041084955
94	0x3d0b69e5	0.034036536
95	0xba92f045	-0.0011210522
96	0x3cc2dbb5	0.023786405
97	0x3d325b05	0.043543834
98	0x3d04368f	0.032278594
99	0x3cc1152a	0.023569662
100	0x3d87d607	0.06632619
101	0x3c54fef7	0.0130002415
102	0x3cd30e62	0.025763694
103	0x3d4e3776	0.05034586
104	0x3d198612	0.037481375
105	0x3cd4e1ca	0.02598657
106	0x3c1077a7	0.00881759
107	0x3d08d248	0.033403665
108	0x3cd62af9	0.026143538
109	0x3ce4c538	0.027926072
110	0x3ca19653	0.019725
111	0x3d1181d3	0.0355242
112	0x3c98144b	0.018564364
113	0xba1eefad	-0.0006062936
114	0x3bfb6e5c	0.007673068
115	0xbb4be5f4	-0.0031112405
116	0x3c3e7346	0.011624163
117	0x3c80264d	0.015643263
118	0x3bf3b1c4	0.007436963
119	0x3c91822a	0.017762262
120	0x3c9f18e4	0.019421048
121	0x3cf7b7d7	0.030239029
122	0x3c579ae5	0.013159488
123	0x3d104428	0.03522125
124	0xbb9c72ca	-0.004774426
125	0x3d270792	0.040778704
126	0x3d6d511b	0.057938676
127	0x3cc8bfcf	0.024505524

network_body._body_endoder.seq_layers.2.weight f4 [128, 128]
0	0x3e109fcb	0.14123456
1	0x3e311272	0.17292193
2	0x3c9e19b0	0.019299358
3	0xbd92b77e	-0.071639046
4	0x3e6ef52c	0.23335713
5	0x3e645d20	0.2230115
6	0x3dc06b60	0.0939548
7	0xbd84ccd2	-0.06484379
8	0x3da1b7d7	0.07896393
9	0x3e01ef87	0.12689029
10	0x3e54b359	0.2077154
11	0x3d6cca37	0.057810035
12	0xbbaf64ff	-0.005352616
13	0xbdeb6066	-0.11492996
14	0x3ea45c0f	0.32101485
15	0x3e15cd8e	0.14629194
16	0x3e13f515	0.1444896
17	0xbd64052e	-0.055669002
18	0xbdf22088	-0.11822611
19	0x3de773ca	0.11301382
20	0xbc87b169	-0.016564088
21	0x3e420cb2	0.18950155
22	0x3e3ddaee	0.18540546
23	0x3d8d23aa	0.06891568
24	0xbe2c456d	-0.16823359
25	0x3e69897f	0.22806357
26	0x3dd7a974	0.105303675
27	0xbe04063f	-0.12893008
28	0x3dbe0544	0.09278348
29	0xbbd7c176	-0.0065843416
30	0x3e3524a7	0.17689763
31	0x3d5788a4	0.052620545
32	0x3df773e5	0.12082652
33	0x3dc7eda7	0.097621255
34	0x3e5a99f9	0.21347798
35	0xbdc5202f	-0.09625279
36	0xbdf5b22c	-0.11996874
37	0x3e70a89b	0.23501818
38	0xbdcc2652	-0.099682465
39	0xbe1259a2	-0.14292005
40	0x3dfd5005	0.12368778
41	0x3d2ee750	0.042701066
42	0xbd529ed0	-0.051420987
43	0x3cfcad5c	0.030844383
44	0x3d0f5955	0.034997303
45	0x3e4fde3e	0.20299622
46	0xbd597910	-0.05309397
47	0xbe642cfc	-0.22282785
48	0x3e1e5a63	0.15464167
49	0xbc5126c4	-0.01276559
50	0x3d8211d1	0.063510545
51	0x3db79438	0.08963817
52	0x3d78c237	0.060732093
53	0x3d9941a8	0.07483226
54	0x3decd996	0.11564939
55	0x3e015f65	0.12634046
56	0x3e09cb95	0.13456567
57	0x3d62c05c	0.05535923
58	0x3e874cdb	0.26425824
59	0xbc9a78e1	-0.018856468
60	0x3e6e37ff	0.23263548
61	0x3ab449e7	0.0013754935
62	0x3e2e5ebb	0.17028324
63	0x3db54737	0.08851474
64	0x3e4f0941	0.20218374
65	0xbc75c1f0	-0.014999852
66	0x3e28ee64	0.16497189
67	0xbe108bd6	-0.14115843
68	0x3e0cf759	0.1376623
69	0x3e1c00f1	0.15234734
70	0x3e1e3ba5	0.1545244
71	0xbe893166	-0.267955
72	0xbd321771	-0.043479387
73	0x3dbc4a8d	0.09193907
74	0x3c679b5b	0.014136161
75	0x3e292e45	0.16521557
76	0xbe48163f	-0.19539736
77	0xbd2f2f25	-0.04276957
78	0x3e67997a	0.2261714
79	0x3ca95406	0.020669948
80	0x3e123ccc	0.14281005
81	0x3e28383e	0.16427705
82	0xbe3d9e27	-0.18517362
83	0x3dcfaf46	0.10140853
84	0xbb01db29	-0.0019814468
85	0xbdb54466	-0.088509366
86	0x3d5efb65	0.054438967
87	0xbdda6862	-0.10664441
88	0x3daa520c	0.083164304
89	0x3e22db40	0.1590395
90	0x3d7a7920	0.06115067
91	0xbdd009fb	-0.101581536
92	0x3e4e38af	0.2013881
93	0x3e246e4a	0.16057697
94	0x3d56fe58	0.052488655
95	0xbde6180d	-0.11235056
96	0x3c34727d	0.011013624
97	0xbe08fbc8	-0.13377297
98	0xbdf8077b	-0.12110802
99	0xbd0d782d	-0.034538437
100	0x3d2ecc5c	0.04267536
101	0xbddb6aab	-0.10713705
102	0x3e14324d	0.14472313
103	0xbd2ec9a6	-0.042672776
104	0x3d2d3d5b	0.04229484
105	0xbd0b7b0e	-0.0340529
106	0xbd40dd61	-0.047086123
107	0x3dfc818a	0.12329395
108	0x3e4cf37b	0.20014755
109	0x3e91c97c	0.28474033
110	0x3dcefbe7	0.1010664
111	0xbdb07cd4	-0.08617559
112	0x3e7f22c2	0.24915603
113	0x3d865a40	0.065601826
114	0x3e8860ea	0.2663644
115	0x3e37f149	0.17963137
116	0x3e0c8259	0.13721599
117	0x3df837e6	0.12120037
118	0xbce2b84f	-0.027675776
119	0x3e47096a	0.19437185
120	0x3d6b016c	0.057374403
121	0x3d9b686e	0.07588278
122	0xbbfb6898	-0.0076723807
123	0x3d1c11e5	0.038103003
124	0x3d723755	0.0591348
125	0xbdac09a2	-0.08400275
126	0xbdad5dbf	-0.08465146
127	0x3dc85fe9	0.097839184
128	0xbcc297e6	-0.023754071
129	0x3d96e7d8	0.073684394
130	0x3de71b13	0.11284461
131	0xbd94fa5c	-0.07274315
132	0x3e1c28a2	0.15249875
133	0xbd18bd41	-0.03728986
134	0x3c70b4e4	0.014691565
135	0x3e13a732	0.14419249
136	0x3e0c9d81	0.13731958
137	0x3d8f089a	0.069840625
138	0xbc46e79e	-0.012140183
139	0xbc98f53f	-0.01867163
140	0x3e909abc	0.28243053
141	0xbe09ef5d	-0.13470216
142	0xbc83566b	-0.016032418
143	0x3e532c0c	0.20622271
144	0x3e0cfc89	0.1376821
145	0x3e29ab90	0.16569352
146	0x3e02611a	0.12732354
147	0x3e238389	0.15968145
148	0x3d6fe001	0.058563236
149	0xbc320845	-0.010866229
150	0x3de51ebd	0.111875035
151	0x3e075716	0.13216814
152	0xbd0cbcfe	-0.034359924
153	0x3db3042c	0.0874103
154	0xbdb584d3	-0.08863225
155	0x3ca85ea5	0.020552943
156	0x3df9bcde	0.12194227
157	0xbd738eb4	-0.059462264
158	0xbea0ddad	-0.31419125
159	0xbd8122bd	-0.06305454
160	0xbc9c30eb	-0.019066295
161	0x3e18061b	0.14846079
162	0xbb19cb2b	-0.0023467045
163	0xbd39e649	-0.045385633
164	0xbde80ab6	-0.11330168
165	0xbb8b0e61	-0.0042436575
166	0xbd9a3351	-0.07529319
167	0x3db03c26	0.086052224
168	0x3d5570a3	0.052109372
169	0xbd2a23d9	-0.041538093
170	0xbd3576b2	-0.04430265
171	0xbdff95fc	-0.12479779
172	0x3d01a949	0.031655584
173	0x3cba0344	0.022706635
174	0xbc74a6cf	-0.014932348
175	0xbe0666a5	-0.13125093
176	0x3c8fad44	0.017538674
177	0xbca08bfb	-0.019597998
178	0xbc9b3de2	-0.018950406
179	0xbe411bab	-0.1885821
180	0x3def46ae	0.11683403
181	0xbd85c2da	-0.065313056
182	0xbe0c4fe1	-0.13702346
183	0x3e5f3fcd	0.21801682
184	0x3d261a46	0.0405524
185	0x3db44e7c	0.08804032
186	0x3e4dacfd	0.20085521
187	0xbe0ea606	-0.1393052
188	0xbb31bc93	-0.0027120456
189	0xbd605340	-0.054766893
190	0x3d50ca81	0.050974373
191	0xbbd3b8ac	-0.0064612236
192	0xbdbb6e7d	-0.09151933
193	0x3e61fa9d	0.22068258
194	0x3d851a86	0.064991996
195	0x3d1b63ac	0.03793685
196	0x3e33f9ce	0.17575762
197	0x3d03a62b	0.032140892
198	0x3e418444	0.18898112
199	0xbd4be9ef	-0.049783643
200	0xbdf23741	-0.11826945
201	0x3d2882b8	0.041140288
202	0x3d87516a	0.066073254
203	0x3dcb755d	0.09934495
204	0x3d923efb	0.07140919
205	0xbdf4869f	-0.119397394
206	0x3e43b424	0.19111687
207	0x3d8db45c	0.069191664
208	0x3e348df0	0.1763227
209	0x3d895027	0.06704741
210	0x3e4095af	0.188071
211	0x3de6393e	0.11241387
212	0x3e50c5cd	0.20387955
213	0x3ca0d5f8	0.019633278
214	0xbdf19d32	-0.11797561
215	0xbe9c0442	-0.30471998
216	0x3e292c6a	0.16520849
217	0xbc17df51	-0.009269551
218	0x3c4e26fe	0.012582539
219	0x3e228f47	0.15874968
220	0xbd1dd3c5	-0.038532037
221	0x3d756c5b	0.05991779
222	0xbb80522e	-0.0039160466
223	0x3ca88a99	0.020573901
224	0xbd16f814	-0.03685768
225	0xbdb88e38	-0.09011501
226	0xbd9bc3ad	-0.076056816
227	0x3e33fc42	0.17576697
228	0x3e411e60	0.18859243
229	0x3d913e64	0.07091978
230	0x3dbecf89	0.09316928
231	0xbcaaad35	-0.020834545
232	0x3eb364fb	0.3503798
233	0x3d38666d	0.045019556
234	0xbe1d84b0	-0.15382648
235	0x3cc03bda	0.02346604
236	0xbdd28ff7	-0.10281365
237	0x3d6c98d8	0.05776295
238	0xbe3f93f1	-0.18708779
239	0x3d1f1ab8	0.03884384
240	0x3d01597a	0.031579472
241	0xbe6cf099	-0.23138656
242	0xbd76e860	-0.060280204
243	0xbdaa00a3	-0.08300903
244	0x3d43ec42	0.047832735
245	0x3d3d6068	0.04623452
246	0xbdca79d9	-0.09886522
247	0xbd1ec8fe	-0.0387659
248	0x3dbed1a8	0.093173325
249	0xbc954963	-0.01822347
250	0xbe14d13e	-0.14532945
251	0xbc38b5f0	-0.011273846
252	0x3d3df836	0.04637929
253	0x3d1bb0ba	0.038010336
254	0x3e0f3415	0.13984711
255	0x3e3fcb0e	0.18729803

network_body._body_endoder.seq_layers.2.bias f4 [128]
0	0x3db61681	0.08891011
1	0x3d811b85	0.06304077
2	0xbd547c0b	-0.05187611
3	0x3c444db7	0.011981419
4	0x3cb1732b	0.021661362
5	0x3ca790ba	0.020454753
6	0xbd275a1f	-0.04085743
7	0x3d42ac76	0.047527753
8	0x3d32c7f6	0.04364773
9	0x3d08fd19	0.033444498
10	0x3d138e5c	0.036024436
11	0x3cad20d5	0.02113382
12	0x3d7cfdb0	0.061765373
13	0xbc9f373f	-0.019435523
14	0x3d943f63	0.072386526
15	0x3c9e561e	0.019328173
16	0x3d6eeb08	0.058329612
17	0x3da2f315	0.079565205
18	0x3d15ab61	0.036540393
19	0x3d9bd858	0.07609624
20	0xbc35c33a	-0.011093909
21	0x3cf513ba	0.029916633
22	0x3d58d2b2	0.05293531
23	0x3c9177d8	0.017757341
24	0x3d08a146	0.033356927
25	0xbcc1524a	-0.023598809
26	0xbdbf3b08	-0.09337431
27	0x3d849945	0.06474546
28	0xbbea8a63	-0.0071576103
29	0x3d0455db	0.03230844
30	0xbbfadac7	-0.007655475
31	0x3d5f370a	0.05449585
32	0xba4896c1	-0.00076518586
33	0x3d1a3528	0.03764835
34	0x3ceee964	0.029164024
35	0x3db1797f	0.08665752
36	0x3c967421	0.018365921
37	0x3ce9951a	0.02851348
38	0x3d8b502f	0.06802403
39	0x3cf776fd	0.030208105
40	0x3cbdc3e6	0.0231647
41	0x3d0395f2	0.03212542
42	0x3cb3fcfa	0.021971215
43	0x3c767110	0.015041605
44	0x3d4d3127	0.050095703
45	0x3cb427be	0.021991607
46	0x3c897bb4	0.016782619
47	0x3d0931c7	0.033494737
48	0x3d85362a	0.065044716
49	0x3d23c2f6	0.03998085
50	0x3d75b0fc	0.05998324
51	0x3d57f998	0.052728266
52	0x3d388cc3	0.045056116
53	0x3d102406	0.035190605
54	0x3d10923d	0.035295714
55	0x3d81a0ac	0.06329474
56	0x3ce9c8f4	0.028538205
57	0x3d573181	0.052537445
58	0xbbdc564c	-0.0067241546
59	0x3ce24b42	0.027623776
60	0x3d3936a7	0.045218136
61	0x3cedb119	0.02901511
62	0x3ccd77c6	0.025081526
63	0x3d2433fe	0.040088646
64	0xbb4b4575	-0.0031016741
65	0x3d4d7349	0.050158773
66	0x3d316cbe	0.043316595
67	0xbd67ab2e	-0.056559734
68	0x3d140d0d	0.03614526
69	0x3d0e60a3	0.03476013
70	0x3b8f507a	0.004373607
71	0x3ca54114	0.020172633
72	0x3d1632c4	0.036669508
73	0x3cf46178	0.029831633
74	0x3d035be4	0.032070056
75	0x3d12dc51	0.03585464
76	0x3d207a8d	0.039179374
77	0x3d22b85f	0.03972661
78	0x3a4523d5	0.0007520293
79	0xbc0948ed	-0.008379203
80	0xbbea3b0c	-0.007148152
81	0x3cdb4dfd	0.026770586
82	0xbd34eadd	-0.044169296
83	0x3cd01d23	0.025404518
84	0x3b6f9790	0.0036558844
85	0x3dd0ef97	0.10201948
86	0x3dcc58a5	0.09977845
87	0x3ce68834	0.028141119
88	0xbb1eff02	-0.0024260883
89	0x3d916acd	0.07100449
90	0x3d0c2623	0.034216058
91	0x3d9453f2	0.07242574
92	0x3b662482	0.0035116975
93	0x3c0a4de0	0.008441418
94	0x3c646efe	0.013942478
95	0xbc8d085e	-0.017215904
96	0x3cdac730	0.026706308
97	0x3dd8a3f2	0.10578145
98	0x3d7bd0dd	0.061478484
99	0x3deb8643	0.11500218
100	0x3d496daa	0.04917685
101	0x3d453c00	0.048152924
102	0x3cb471a1	0.022026839
103	0x3d3ab91a	0.045586683
104	0x3dbf3a9b	0.0933735
105	0x3d5a743c	0.053333506
106	0x3d760112	0.060059614
107	0x3d6e7a66	0.058222197
108	0x3d25d175	0.040482957
109	0xbcd57c42	-0.026060227
110	0xbc5ae079	-0.0133591825
111	0x3d119a7c	0.03554772
112	0xbaf9ffad	-0.001907339
113	0xbb514ded	-0.0031937317
114	0x3cd68a1e	0.026188906
115	0x3d4ef8bf	0.05053019
116	0x3b8e4608	0.0043418445
117	0x3d0f5c03	0.03499986
118	0xbbaba17a	-0.0052377554
119	0x3d5ce318	0.05392751
120	0x3da5d739	0.08097691
121	0x3d9003b0	0.07031953
122	0xbc36ad48	-0.011149712
123	0x3d23c890	0.039986193
124	0x3d57ea4c	0.052713677
125	0x3d281883	0.041039
126	0x3d6885f2	0.056768365
127	0x3d549b62	0.051905997

action_model._continuous_distribution.log_sigma f4 [1, 2]
0	0x3e0869a8	0.13321555
1	0x3e967b40	0.29390907

action_model._continuous_distribution.mu.weight f4 [2, 64]
0	0x3e6ee651	0.23330046
1	0xbd665692	-0.056234904
2	0xbda7b821	-0.08189417
3	0xbe343198	-0.17597044
4	0xbe5fc47a	-0.21852294
5	0xbe0a85e5	-0.13527639
6	0xbcdb56ce	-0.02677479
7	0xbdd10aec	-0.10207161
8	0xbe109de3	-0.14122729
9	0xbe1b6ceb	-0.15178268
10	0x3dfb405f	0.12268137
11	0x3dd0168b	0.1016055
12	0xbdce542d	-0.10074649
13	0x3df6fdc6	0.12060122
14	0x3e62dd42	0.22154716
15	0x3dcadf94	0.099059254
16	0xbdeb8087	-0.11499124
17	0x3d806f03	0.06271174
18	0xbe4e54a7	-0.2014948
19	0xbe2b68f1	-0.1673925
20	0xbe28a170	-0.16467834
21	0x3e68e3dc	0.22743171
22	0xbe654fad	-0.22393675
23	0x3dccb788	0.09995943
24	0x3e7e1ebb	0.2481641
25	0xbe656e25	-0.22405298
26	0x3dc0d566	0.094157025
27	0xbe0312a8	-0.12800086
28	0x3e894ac0	0.26814842
29	0x3e504b08	0.20341122
30	0x3e57e86f	0.2108476
31	0x3e35a2d4	0.17737895
32	0xbddba53f	-0.107248776
33	0x3e10a94b	0.1412708
34	0x3d823ceb	0.063592754
35	0x3e52843c	0.20558256
36	0x3e7e6807	0.24844371
37	0xbe46c0f9	-0.1940955
38	0x3dc75a60	0.097340345
39	0x3d6fcfdb	0.058547836
40	0x3e316291	0.17322756
41	0xbe1882f3	-0.14893703
42	0xbe256aae	-0.16153976
43	0xbcb33afb	-0.02187871
44	0x3dd659b3	0.104663275
45	0x3cb17f36	0.021667104
46	0x3e2805ee	0.16408512
47	0x3e81d228	0.2535565
48	0x3e0dba35	0.13840564
49	0xbe00e949	-0.12588991
50	0xbe218b2f	-0.1577575
51	0xbe1ec332	-0.15504149
52	0xbe4e8015	-0.20166047
53	0xbe25a35a	-0.16175595
54	0x3e214cee	0.15752003
55	0xbe17585d	-0.14779802
56	0x3e2926e5	0.16518743
57	0x3e495dca	0.19664684
58	0x3d8e5d00	0.06951332
59	0xbca15cdf	-0.019697605
60	0x3e1e00b8	0.15429962
61	0x3e47a034	0.19494706
62	0xbc081eb1	-0.008308099
63	0xbd9b1971	-0.07573212
64	0x3c138b25	0.009005343
65	0x3e6effc2	0.23339751
66	0xbd08e597	-0.03342208
67	0xbd26f786	-0.0407634
68	0xbc249879	-0.010046118
69	0xbc960ecc	-0.018317603
70	0xbe883872	-0.26605564
71	0xbb329480	-0.0027249157
72	0x3d433e75	0.047666986
73	0x3ddc6472	0.10761346
74	0x3d2272b6	0.039660178
75	0xbbdc4ac2	-0.006722779
76	0xbd938b2b	-0.072042786
77	0x3b9ee233	0.0048487424
78	0x3d46aa03	0.04850198
79	0xbe230c0f	-0.15922569
80	0x3dd68349	0.104742594
81	0xbca187a6	-0.019718003
82	0xbab521f2	-0.0013819321
83	0xbc967d41	-0.018370273
84	0xbdb79251	-0.089634545
85	0x3d4dcabb	0.050242167
86	0x3c65b718	0.014020704
87	0xbbaddda8	-0.0053059645
88	0x3d81d250	0.06338942
89	0xbdc9f12a	-0.098604515
90	0x3e103a42	0.14084724
91	0x3d5b4199	0.053529356
92	0xbcf8bd61	-0.03036374
93	0xbe08c4e8	-0.13356364
94	0x3d3929da	0.04520593
95	0xbd9c8192	-0.07641901
96	0xbc214fa3	-0.009845647
97	0x3d843eeb	0.06457313
98	0x3ddf3b5e	0.10899995
99	0xbdcf26ca	-0.1011482
100	0x3c789ef7	0.015174619
101	0xbdf53517	-0.11973017
102	0xbd45122c	-0.048113033
103	0xbe6a79ed	-0.22898073
104	0xbd2634ca	-0.040577687
105	0xbd69305e	-0.056930892
106	0x3d65a3b4	0.056064323
107	0xbe403f7f	-0.18774222
108	0x3e6c7276	0.23090538
109	0x3cbcb825	0.023037026
110	0x3cb992ef	0.022653071
111	0xbc966264	-0.018357463
112	0xbd4c8f10	-0.049941123
113	0xbaaefa26	-0.0013349697
114	0x3d0193aa	0.031634964
115	0xbd06afb8	-0.032882422
116	0xbc29bdd0	-0.010360196
117	0xbc3d1214	-0.011539955
118	0xbd29e48f	-0.041477736
119	0x3e81e090	0.2536664
120	0xbe04337b	-0.12910263
121	0x3e91d41b	0.28482136
122	0x3c6351e0	0.013874501
123	0x3b03a43b	0.0020086903
124	0xbe12cd2f	-0.14336084
125	0xbd8751a7	-0.06607371
126	0xbc3e8ea9	-0.0116306925
127	0xbd96ce5f	-0.07363581

action_model._continuous_distribution.mu.bias f4 [2]
0	0xbdeca2bc	-0.115544766
1	0xbbd0b7ff	-0.0063695903

action_model._discrete_distribution.branches.0.weight f4 [2, 64]
0	0xbd9241d3	-0.07141461
1	0xbb292279	-0.00258079
2	0xbe2f6ea5	-0.17132051
3	0x3cd3cb36	0.025853734
4	0x3cd86522	0.026415411
5	0xbd924c36	-0.07143442
6	0xbcfa0190	-0.030518323
7	0xbe104208	-0.14087689
8	0x3dbbf739	0.09178013
9	0x3d78a157	0.06070074
10	0x3d00925b	0.031389575
11	0x3d7e0b6c	0.06202261
12	0xbd8ecf5a	-0.06973143
13	0x3e025a43	0.12729745
14	0xbd9f8313	-0.07788672
15	0xbc355655	-0.011067946
16	0xbc2c38d7	-0.010511599
17	0x3bcbebfe	0.006223201
18	0x3e47630f	0.19471382
19	0xbe223423	-0.15840201
20	0x3a18264c	0.00058040465
21	0xbd9c54b2	-0.07633342
22	0x3d94866e	0.07252203
23	0x3dbdf450	0.092751145
24	0xbdb715fe	-0.089397416
25	0xbdb5d0ae	-0.08877693
26	0x3d5f44de	0.054509036
27	0xbccf8442	-0.02533162
28	0x3d049646	0.032369874
29	0xbd114ef8	-0.0354757
30	0xbd7ee4d8	-0.06222996
31	0x3c1d3315	0.009594698
32	0xbdbb6390	-0.091498494
33	0x3e0f29d1	0.13980795
34	0x3e61ebaa	0.22062555
35	0xbdd5bd51	-0.104365
36	0xbcf6a9d3	-0.030110275
37	0x3e0d6a29	0.13810028
38	0x3e23b3d1	0.15986563
39	0xbd3b4566	-0.04572048
40	0x3d407f47	0.04699638
41	0x3bd56b16	0.00651301
42	0xbc907abd	-0.017636651
43	0xbdcd952b	-0.10038217
44	0x3d6d1b7c	0.05788754
45	0x3d882835	0.06648294
46	0xbdcd057f	-0.10010814
47	0xbd923efe	-0.07140921
48	0xbc9b6235	-0.018967727
49	0xbe245f94	-0.16052085
50	0x3cdc62a7	0.02690251
51	0xbdf1f4e0	-0.11814284
52	0x3d82d95d	0.06389115
53	0x3d0be09f	0.034149762
54	0xbda462bf	-0.08026647
55	0xbbdc5818	-0.006724369
56	0xbc88a25b	-0.01667898
57	0xbd8d01d6	-0.06885116
58	0xbe9374be	-0.28800005
59	0x3e82491b	0.254464
60	0xbe609235	-0.21930774
61	0xbe00a04d	-0.1256115
62	0xbdade2d5	-0.084905304
63	0xbe1858ae	-0.14877579
64	0x3dcfc73f	0.10145425
65	0xbc98fe60	-0.018675983
66	0x3e303cce	0.17210695
67	0xbd4a7d1b	-0.049435716
68	0xbcecfef6	-0.028930169
69	0x3d3901ed	0.045167852
70	0x3d1358f5	0.035973508
71	0x3e093e8a	0.13402763
72	0xbd671e1a	-0.05642519
73	0xbd71f294	-0.05906923
74	0xbd219076	-0.03944441
75	0xbd9ad6ed	-0.07560525
76	0x3db9c3eb	0.090705715
77	0xbe0884b7	-0.13331877
78	0x3dae633a	0.0851502
79	0x3c0125bc	0.007882532
80	0xbc0ac569	-0.008469918
81	0xbc5f458c	-0.013627421
82	0xbe318802	-0.17337039
83	0x3e081c40	0.13292027
84	0xbcabd8b6	-0.02097736
85	0x3d9cd72e	0.0765823
86	0xbd78ce9a	-0.060743906
87	0xbdbef4ad	-0.09324012
88	0x3dc22a4b	0.09480723
89	0x3d913574	0.070902735
90	0xbcb8c338	-0.022554025
91	0x3c744363	0.014908644
92	0xba9aba87	-0.0011804857
93	0x3d76f0f1	0.060288373
94	0x3d75091a	0.059823133
95	0xbcd64104	-0.026154049
96	0x3dc61cb4	0.096734434
97	0xbdca6ceb	-0.09884056
98	0xbe5970e6	-0.21234474
99	0x3e05aa4f	0.13053249
100	0x3c9595f3	0.018259978
101	0xbde3ec56	-0.11129062
102	0xbdfb76d4	-0.12278524
103	0x3d295d1e	0.04134857
104	0xbcbb95fe	-0.02289867
105	0xbd10f7ec	-0.035392687
106	0x3c8dcbcd	0.017309094
107	0x3df5b4ce	0.119973764
108	0xbd1b774b	-0.037955564
109	0xbd8bec39	-0.06832165
110	0x3deaad16	0.11458795
111	0x3dba7f09	0.09106261
112	0xbc094dbe	-0.008380352
113	0x3dfe60e7	0.124208264
114	0xbcb9d066	-0.02268238
115	0x3e054874	0.1301592
116	0xbd80ddf4	-0.06292334
117	0xbcc9e481	-0.024645092
118	0x3da3698c	0.07979116
119	0xbca81b77	-0.020520909
120	0x3bccd17e	0.0062505594
121	0x3d2a8658	0.041632026
122	0x3e88560b	0.26628146
123	0xbe8b3974	-0.2719227
124	0x3e527fc8	0.20556557
125	0x3dc5a2ca	0.0965019
126	0x3dd531fb	0.10409924
127	0x3e13b4f6	0.144245

action_model._discrete_distribution.branches.0.bias f4 [2]
0	0x3d75d74f	0.060019787
1	0xbd75d750	-0.06001979

action_model._discrete_distribution.branches.1.weight f4 [2, 64]
0	0xbc0f1254	-0.008732397
1	0xbcbcf4f3	-0.02306602
2	0x3dbf2c6c	0.09334645
3	0xbd323065	-0.043503184
4	0x3dad044a	0.08448084
5	0x3c0b28b6	0.008493593
6	0xbd327da8	-0.043576866
7	0xbd9a1ade	-0.07524656
8	0xbd7754ca	-0.060383596
9	0xbcfc35c9	-0.030787366
10	0xbad79f15	-0.0016450608
11	0x3d9cca45	0.07655767
12	0x3db3974e	0.087690935
13	0x3da62438	0.08112377
14	0xbc102c92	-0.008799689
15	0x3ba7803c	0.0051117223
16	0xbe1d191d	-0.15341611
17	0x3da27fd3	0.07934537
18	0x3d1fc9fa	0.03901098
19	0xbd1287f6	-0.035774194
20	0x3de07344	0.10959485
21	0x3a4fdbad	0.00079291576
22	0xbcd1f2f6	-0.025628548
23	0x3dca5c89	0.09880931
24	0xbd8fcd5e	-0.070215926
25	0xbd8770d0	-0.06613314
26	0xbd879d63	-0.06621816
27	0x3d251408	0.040302306
28	0xbd7f8810	-0.06238562
29	0xbd4aa227	-0.049471047
30	0xbce5f354	-0.02807013
31	0xbd8477ee	-0.06468187
32	0x3dfd3cbf	0.12365102
33	0xbdc4f100	-0.096162796
34	0xbda549d8	-0.08070725
35	0x3ce8d672	0.028422568
36	0xbdc11e72	-0.09429635
37	0x3e4caffd	0.19989009
38	0x3cf9d9b7	0.030499322
39	0x3e269fe8	0.16271937
40	0xbd9f9f99	-0.07794113
41	0xbd3a7b09	-0.04552749
42	0xbd3cd4cd	-0.04610138
43	0x3dbfbaed	0.09361825
44	0xbe1032d1	-0.14081885
45	0x3ea2d9d9	0.3180683
46	0x3dc37686	0.09544091
47	0xbc66cf9b	-0.014087583
48	0xbda16046	-0.07879691
49	0x3b8a7810	0.0042257383
50	0x3dc7aab7	0.09749358
51	0xbd90bd1e	-0.07067321
52	0xbcac65de	-0.021044668
53	0x3d919913	0.07109275
54	0x3e0cc681	0.13747598
55	0x3d13b412	0.0360604
56	0x3dbdfc7f	0.092766754
57	0xbd930bc5	-0.07179979
58	0xbdf91fd7	-0.12164276
59	0x3dc8aadc	0.09798214
60	0x3d5d57f5	0.05403896
61	0xbd2ed46f	-0.04268306
62	0xbe46ad79	-0.19402112
63	0x3d9a4871	0.07533348
64	0x3c5b25da	0.013375724
65	0x3c222903	0.009897473
66	0xbdb5aceb	-0.08870872
67	0x3d93b949	0.07213075
68	0xbdc8b477	-0.09800046
69	0xbd044afb	-0.03229807
70	0x3ca68e65	0.02033157
71	0x3daaadc0	0.083339214
72	0x3d78383b	0.0606005
73	0x3ce5b365	0.028039644
74	0xbc78d9d1	-0.01518865
75	0xbd80d08d	-0.06289778
76	0xbdcd97a2	-0.10038687
77	0xbd74bec1	-0.05975223
78	0x3ad70ca8	0.001640697
79	0xbd4e742e	-0.050403766
80	0x3e33ea06	0.17569742
81	0xbdc0b1d1	-0.09408916
82	0xbcdf1c8d	-0.027235294
83	0x3c41f3d3	0.011837917
84	0xbdf11094	-0.1177074
85	0x3c860484	0.016359575
86	0x3ca65dfc	0.020308487
87	0xbdbdf5d0	-0.09275401
88	0x3cf1b4a1	0.029505076
89	0x3db14a62	0.086567655
90	0x3d9c3833	0.07627907
91	0xbd86a513	-0.06574454
92	0x3d815cfc	0.063165635
93	0x3db21e51	0.08697189
94	0x3ca44632	0.020053003
95	0x3d6e51de	0.058183543
96	0xbdf97610	-0.12180722
97	0x3dd88346	0.105719134
98	0x3d89b5e3	0.06724145
99	0xbc9484d9	-0.018129753
100	0x3dbfde70	0.093685985
101	0xbe5ae326	-0.21375713
102	0xbce62ae9	-0.028096633
103	0xbe3799cf	-0.17929767
104	0x3de08aa1	0.10963941
105	0x3d09b895	0.033623297
106	0x3d8dae56	0.069180176
107	0xbd9a02f0	-0.075200915
108	0x3e014327	0.12623273
109	0xbe98e68f	-0.29863402
110	0xbdfe99ea	-0.124317005
111	0x3c445ea6	0.011985457
112	0x3d8d43e5	0.068977155
113	0x3c5b9300	0.013401747
114	0xbdf588b5	-0.119889654
115	0x3d94c10f	0.072633855
116	0x3ce60de6	0.0280828
117	0xbd568969	-0.05237714
118	0xbe1dd8bb	-0.15414707
119	0xbd695691	-0.05696732
120	0xbd89aa32	-0.06721915
121	0x3d875d93	0.06609645
122	0x3df59e1f	0.1199305
123	0xbdac0d27	-0.08400946
124	0xbd546fdf	-0.0518645
125	0x3caddcee	0.021223512
126	0x3e318a5f	0.1733794
127	0xbd6462b3	-0.05575819

action_model._discrete_distribution.branches.1.bias f4 [2]
0	0x3cbb2d7c	0.022848837
1	0xbcbb2d80	-0.022848845

onnx::LSTM_133 f4 [1, 256, 128]
0	0x3c2d07ce	0.010560943
1	0x3e001d0a	0.12511078
2	0x3dfaef62	0.1225269
3	0x3d3b9fd1	0.04580671
4	0xbd641eb9	-0.055693362
5	0x3d0c81ca	0.034303464
6	0xbe53704b	-0.20648305
7	0x3c839938	0.016064271
8	0xb6d64ce3	-6.386648e-06
9	0xbe14cecb	-0.1453201
10	0xbe143421	-0.1447301
11	0x3d4a3fc0	0.049377203
12	0xbbd0ce92	-0.0063722814
13	0xbc47ac28	-0.012187041
14	0x3de5cc94	0.11220661
15	0xbd09df71	-0.033660356
16	0x3e308022	0.17236379
17	0xbdae6d53	-0.08516946
18	0x3da4be45	0.080441035
19	0x3e25a85f	0.1617751
20	0xbcd62d91	-0.026144775
21	0x3e69979a	0.22811738
22	0xbd30316e	-0.04301589
23	0xbe0b3776	-0.13595375
24	0x3e97372d	0.29534283
25	0x3e061314	0.13093215
26	0xbd8d08ea	-0.06886466
27	0x3d66ad99	0.0563179
28	0xbe02964a	-0.12752643
29	0xbd114380	-0.035464764
30	0xbdcdf612	-0.100567
31	0x3d3aba09	0.045587573
32	0xbd4f01ac	-0.050538704
33	0x3e51876c	0.20461816
34	0x3dabd7de	0.08390783
35	0x3e1ddcb6	0.15416226
36	0x3db83c11	0.08995832
37	0x3dd8e4c1	0.10590506
38	0x3e4f12c5	0.20222004
39	0xbd52d3a4	-0.051471367
40	0xbda3ed25	-0.08004216
41	0xbd52772e	-0.05138319
42	0x3d7acdac	0.0612313
43	0xbde95143	-0.113924526
44	0x3caff608	0.021479622
45	0x3cef3db4	0.029204227
46	0x3d148c3b	0.036266547
47	0xbde95360	-0.11392856
48	0x3e45a54a	0.19301334
49	0x3d620a6b	0.055185717
50	0xbcf532cf	-0.029931454
51	0xbc0950bb	-0.008381064
52	0xbcbdd433	-0.023172474
53	0xbe3293d9	-0.17439212
54	0xbe016f29	-0.1264006
55	0x3ddc4d85	0.10756973
56	0xbdc11b14	-0.09428993
57	0xbd5ba329	-0.0536224
58	0xbcb6f842	-0.022335175
59	0x3e5a5af9	0.21323766
60	0xbe4780e0	-0.19482756
61	0xbdafebec	-0.085899204
62	0x3d9dffa3	0.077147745
63	0x3e8c6607	0.2742159
64	0xbd94ec41	-0.07271624
65	0x3d633078	0.055466145
66	0x3daadd72	0.083430186
67	0x3d3a9532	0.04555244
68	0xbe710183	-0.23535733
69	0xbd7d9d3a	-0.06191752
70	0xbdb3b671	-0.08775032
71	0xbd5ab543	-0.05339552
72	0x3cd70466	0.026247215
73	0x3e815902	0.2526322
74	0x3e8426a6	0.25810736
75	0x3dc358a9	0.09538395
76	0xbddabe9e	-0.106808886
77	0xbe46820e	-0.1938555
78	0xbe03ebd8	-0.12882936
79	0xbd9e8cce	-0.077417
80	0x3ceb2e8f	0.028708724
81	0x3d6811e9	0.056657705
82	0xbe3f4ed6	-0.18682417
83	0xbdbf235d	-0.09332917
84	0xbdb0712d	-0.086153366
85	0x3e50a9e3	0.20377307
86	0x3e43bc22	0.19114736
87	0x3e57dfe6	0.21081504
88	0xbdc5ec38	-0.09664196
89	0x3b77344e	0.0037720385
90	0xbd9096b9	-0.07059998
91	0x3e6b6755	0.22988637
92	0x3c2e3d9c	0.010634806
93	0x3d836ebe	0.06417607
94	0xbeb1081d	-0.34576502
95	0xbe62cefb	-0.2214927
96	0xbe439acd	-0.1910202
97	0xbdd102da	-0.10205622
98	0xbd5c6327	-0.053805497
99	0x3d928d99	0.07155914
100	0xbdecc2d8	-0.11560601
101	0x3c9b3d3d	0.0189501
102	0xbd905e1c	-0.070492
103	0xbe9af8af	-0.30267856
104	0x3c8b4a31	0.01700315
105	0xbe0f2cc2	-0.13981918
106	0xbdea8267	-0.114506535
107	0xbdf5ce90	-0.12002289
108	0x3d195262	0.037432082
109	0xbe755a85	-0.23960312
110	0xbdf0ec2a	-0.11763795
111	0xbdb5548b	-0.08854016
112	0x3e47f0d3	0.19525461
113	0x3d9a4a1e	0.07533668
114	0x3db3ca02	0.08778764
115	0x3e1f3c90	0.15550447
116	0xbd8a2959	-0.06746168
117	0x3e3f610f	0.18689369
118	0x3cb0772a	0.021541197
119	0xbdadc357	-0.08484524
120	0xbe3d739f	-0.18501137
121	0xbe18e54b	-0.14931218
122	0xbd65aedc	-0.056074962
123	0x3e6111c3	0.21979432
124	0x3e52f3c7	0.20600806
125	0x3d90e9ab	0.07075819
126	0x3e867a7b	0.2626532
127	0x3c6a4ef5	0.014301051
128	0x3d8478f5	0.06468383
129	0x3dda0e27	0.106472306
130	0xbc7ac891	-0.015306608
131	0x3e0316e7	0.12801705
132	0xbe5608cf	-0.20901798
133	0x3d36595b	0.04451881
134	0x3e60f66b	0.21969001
135	0x3e247f97	0.16064297
136	0xbe3edec7	-0.1863967
137	0x3e2c2768	0.16811907
138	0xbd2df397	-0.042468634
139	0x3e9d9c2b	0.3078321
140	0x3e7e0f0c	0.24810427
141	0x3d3a921e	0.045549504
142	0xbc52c1c8	-0.012863584
143	0xbd008230	-0.031374156
144	0x3dab2d4a	0.083582476
145	0xbd5bf7d7	-0.053703155
146	0x3d5a0c13	0.05323417
147	0x3dff6f93	0.12472453
148	0x3dffd2e7	0.12491398
149	0xbdc8e11a	-0.0980856
150	0x3e204c88	0.15654194
151	0x3e32ba89	0.1745397
152	0x3cb56093	0.022140777
153	0x3e4ccfdd	0.20001169
154	0xbde81e2c	-0.1133388
155	0x3dc56254	0.09637895
156	0xbe01902b	-0.12652652
157	0x3d95f0f2	0.07321347
158	0x3ce7aa8d	0.028279567
159	0x3e90ea2c	0.2830366
160	0xbe3c4763	-0.18386607
161	0x3e82b764	0.2553054
162	0x3bd8e207	0.0066187414
163	0x3ea23389	0.31679943
164	0xbe00a916	-0.12564501
165	0xbe35c435	-0.17750628
166	0x3dc3385e	0.095322356
167	0xbe51a5cd	-0.20473404
168	0x3db0bba1	0.086295374
169	0xbe06b0ac	-0.13153332
170	0xbcbb5abd	-0.022870416
171	0x3dc715a3	0.09720924
172	0x3c9f4f83	0.019447094
173	0xbe177bcc	-0.14793319
174	0xbe42abf4	-0.19010907
175	0xbd73f52a	-0.05955998
176	0xbd9cfe04	-0.07665637
177	0xbd5aa939	-0.05338404
178	0xbd21f969	-0.039544497
179	0x3e5e7090	0.21722627
180	0x3caa03c7	0.020753754
181	0x3de44fde	0.11148046
182	0x3e422f78	0.1896342
183	0x3ebfc3e5	0.37454143
184	0xbe8898be	-0.26679033
185	0xbe170816	-0.14749178
186	0x3c6eb036	0.014568379
187	0x3e2b903a	0.16754237
188	0x3d206b88	0.03916505
189	0x3d8a3cc0	0.067498684
190	0xbe207373	-0.1566904
191	0xbe416b00	-0.18888474
192	0x3ee1ea84	0.44124234
193	0x3e8d5828	0.2760632
194	0x3ea3fb8d	0.32027856
195	0x3df00b0a	0.117208555
196	0x3d9e4449	0.07727868
197	0x3d666b54	0.0562547
198	0xbd5a464e	-0.053289704
199	0x3cb34857	0.02188508
200	0x3d50b85f	0.05095708
201	0xbc7d7b19	-0.015471243
202	0xbdaf3627	-0.085552506
203	0x3d32ac8f	0.043621596
204	0xbd414bf8	-0.04719159
205	0x3e82af43	0.2552434
206	0x3e3d00b0	0.18457294
207	0x3d9b5fdf	0.07586645
208	0x3dd589c8	0.1042667
209	0xbca273e5	-0.019830653
210	0xbda9e192	-0.08294977
211	0xbc3361fd	-0.010948655
212	0x3e19230b	0.14954774
213	0x3e584f40	0.21123981
214	0x3d0879a0	0.033319116
215	0x3e8b14f4	0.27164423
216	0x3eb03385	0.34414306
217	0xbba1475e	-0.0049218377
218	0x3e6a1b2b	0.22861926
219	0x3dd4ee13	0.103969716
220	0xbdef01e5	-0.11670283
221	0x3d99d3f9	0.07511134
222	0x3df357cb	0.118819796
223	0x3e84f3d6	0.25967282
224	0x3d2dcebe	0.042433493
225	0xbdf66b99	-0.120322414
226	0xbccbc2e2	-0.0248732
227	0x3d6f5113	0.058426928
228	0x3d8893f4	0.06668845
229	0x3e2d79db	0.16941015
230	0x3df59b44	0.11992505
231	0x3cbed057	0.023292704
232	0x3dde1c8b	0.10845288
233	0xbcb50dde	-0.022101339
234	0x3e9503f1	0.2910457
235	0x3e378e48	0.1792537
236	0xbcccc3fa	-0.024995793
237	0x3e341bf1	0.17588784
238	0x3e1f5efb	0.15563576
239	0xbe16f943	-0.14743523
240	0xbbc7df97	-0.006099652
241	0x3d2b7a92	0.04186494
242	0x3e4dda73	0.20102863
243	0x3c62b0b5	0.013836076
244	0xbe937062	-0.2879668
245	0xbe5b73c0	-0.21430874
246	0x3da8c3c0	0.08240461
247	0x3c3f7af5	0.01168703
248	0x3eb691c0	0.35658073
249	0xbd9f61c8	-0.07782322
250	0xbe11d920	-0.14242983
251	0xbe57392e	-0.21017906
252	0x3dabbc26	0.08385496
253	0xbe1adfa3	-0.15124373
254	0xbca71221	-0.020394387
255	0x3dea7640	0.11448336

onnx::LSTM_134 f4 [1, 256, 64]
0	0x3d4c9ea1	0.049955968
1	0xbbed8cd8	-0.007249456
2	0xbdd12bd6	-0.10213439
3	0xbe595553	-0.21223955
4	0x3b4995f5	0.0030759547
5	0x3e2c192f	0.16806482
6	0xbe1f795e	-0.15573642
7	0xbd0b4bf7	-0.034007993
8	0xbd6174bb	-0.055042963
9	0x3db7a96e	0.08967863
10	0xbe864f52	-0.26232392
11	0xbe2ef8ec	-0.17087144
12	0x3d7eed9d	0.062238324
13	0xbcde2e33	-0.027121639
14	0x3e2a46f2	0.16628626
15	0x3e63cbfe	0.22245786
16	0xbd305d34	-0.043057635
17	0xbd82e045	-0.06390432
18	0xbdb99b78	-0.090628564
19	0xbb434418	-0.0029795226
20	0x3e132b21	0.14371921
21	0x3dd44d57	0.10366314
22	0x3dbf277c	0.09333703
23	0xbdea3244	-0.11435369
24	0x3e3dcd4d	0.18535347
25	0x3e1f8e1f	0.15581559
26	0xbd4a7b6c	-0.04943411
27	0x3dedb269	0.11606295
28	0x3dc32085	0.09527687
29	0xbda343ec	-0.079719394
30	0xbcf19802	-0.029491428
31	0xbd9bed6c	-0.07613644
32	0xbe77a855	-0.24185307
33	0xbd86649e	-0.0656216
34	0xbe80bc05	-0.25143448
35	0x3db46747	0.08808761
36	0xbdc90a1e	-0.09816383
37	0xbd8f1f39	-0.06988377
38	0xbe3524fd	-0.17689891
39	0x3e855acc	0.26045835
40	0x3e6b21bb	0.22962086
41	0x3e319464	0.17341763
42	0x3e58f3c1	0.21186735
43	0x3e10bc22	0.14134267
44	0x3d605be1	0.054775123
45	0x3e7ac874	0.2449053
46	0xbe0f9806	-0.14022836
47	0xbe0a37f6	-0.1349791
48	0xbdaf9870	-0.08573997
49	0xbd1e6f7b	-0.038680535
50	0xbd6a148e	-0.05714851
51	0xbca24ce3	-0.019812053
52	0xbdc1953a	-0.09452291
53	0x3dc958a4	0.0983136
54	0xbe72f9d7	-0.23728119
55	0xbe181df2	-0.14855173
56	0x3e1ecf3c	0.15508741
57	0xbb902a0f	-0.004399545
58	0x3e6c9560	0.23103857
59	0xbd362fec	-0.044479296
60	0xbdde717f	-0.108614914
61	0xbe0a47c6	-0.13503942
62	0xbda536b7	-0.08067077
63	0xbb025c5e	-0.001989148
64	0xbe2c27b5	-0.16812022
65	0x3d959593	0.0730392
66	0x3e0af4c7	0.13569938
67	0x3d906ddf	0.07052206
68	0xbe74da37	-0.23911367
69	0xbcd50ea6	-0.026007961
70	0x3e1ea80e	0.15493795
71	0xbe28d720	-0.16488314
72	0x3c6582aa	0.0140082035
73	0xbe577c5e	-0.21043536
74	0xbe05d773	-0.13070469
75	0xbdc508f8	-0.09620851
76	0xbd8652c8	-0.06558758
77	0x3d1773aa	0.03697554
78	0x3d95b111	0.07309163
79	0x3c9102ab	0.017701467
80	0xbdfbbbff	-0.12291717
81	0x3e25c9d5	0.16190274
82	0xbe11c056	-0.14233527
83	0xbbb4c445	-0.005516561
84	0x3d140a1c	0.036142454
85	0x3e4861e6	0.19568595
86	0x3e2ef17a	0.17084303
87	0x3df1408e	0.11779891
88	0x3e4b6be2	0.19865373
89	0xbddfac67	-0.10921555
90	0xbdb5714f	-0.088595025
91	0x3df6fe95	0.120602764
92	0xbc4e6895	-0.0125981765
93	0x3d574e72	0.052565046
94	0xbe45776b	-0.19283836
95	0x3e541920	0.2071271
96	0x3e3c3980	0.1838131
97	0xbd6c276a	-0.057654776
98	0x3e2583c7	0.1616355
99	0xbd592633	-0.053014945
100	0xbceb4324	-0.028718539
101	0xbdd87d36	-0.10570757
102	0xbe135a5b	-0.14389937
103	0xbd893461	-0.066994436
104	0x3d56c13a	0.05243037
105	0x3e0cd1c8	0.137519
106	0x3e0a8972	0.13528994
107	0x3d3200fd	0.043457974
108	0x3e0b7208	0.13617718
109	0xbda1bbad	-0.078971244
110	0xbe198685	-0.14992721
111	0xbdd438d1	-0.10362399
112	0xbdd5a16a	-0.10431178
113	0xbd07e24b	-0.033174794
114	0xbe1ceee3	-0.15325503
115	0x3c7820d5	0.0151445465
116	0xbe19c58e	-0.15016767
117	0xbd4b91b2	-0.049699493
118	0x3d8cdcec	0.06878075
119	0x3cbb4a1b	0.022862485
120	0x3e6a47d6	0.22878966
121	0x3cd7a903	0.026325708
122	0x3d791524	0.060811177
123	0xbe2be70a	-0.16787353
124	0xbd948ffe	-0.07254027
125	0xbe725773	-0.23666172
126	0x3e5d3db8	0.21605575
127	0x3e3144ce	0.17311403
128	0x3d49ccfc	0.049267754
129	0x3e258c5f	0.16166829
130	0xbc52897e	-0.0128501635
131	0x3c4aa8d8	0.012369357
132	0x3e0596a8	0.13045752
133	0xbe1c7682	-0.15279582
134	0xbe180fdb	-0.14849798
135	0x3d28269a	0.04105244
136	0xbd5de69e	-0.05417501
137	0xbd752ad2	-0.05985529
138	0xbe5d35f1	-0.21602608
139	0x3e166011	0.14685084
140	0x3e4a8f40	0.19781208
141	0xbc9f498c	-0.01944425
142	0x3c04ac68	0.0080977455
143	0xbbebf7ea	-0.0072011845
144	0xbd8ea3a1	-0.069648035
145	0x3dcf7de8	0.101314366
146	0x3e578ca1	0.2104974
147	0x3e3ceecf	0.18450473
148	0x3bec9095	0.007219384
149	0x3e124dc7	0.14287482
150	0x3cd0770d	0.025447393
151	0x3d97067b	0.07374283
152	0xbca344ab	-0.019930204
153	0xbe6c0939	-0.23050393
154	0xbe16ec58	-0.14738595
155	0x3e459632	0.19295576
156	0xbdec798e	-0.11546622
157	0xbe57bfc3	-0.21069245
158	0x38e7e387	0.000110573186
159	0x3df1874e	0.117933854
160	0x3dc739ea	0.09727843
161	0x3e4389e3	0.19095568
162	0xbdacc59a	-0.08436127
163	0x3e3f879b	0.18704073
164	0xbd05e001	-0.03268433
165	0xbdbf4148	-0.09338623
166	0x3e130f9d	0.14361425
167	0x3df8134d	0.12113056
168	0x3df265cf	0.11835825
169	0x3de9175b	0.11381408
170	0x3e460e63	0.19341426
171	0x3c1a7492	0.009427207
172	0xbe47507c	-0.19464296
173	0xbd14032e	-0.036135845
174	0xbc9ab5cb	-0.018885514
175	0xbe3d6e06	-0.18499002
176	0xbd83870b	-0.06422242
177	0x3cfc8e6c	0.03082963
178	0x3d003cf1	0.03130812
179	0x3d49dab7	0.04928085
180	0x3e6be7f0	0.23037696
181	0xbdd133e2	-0.10214974
182	0x3e499332	0.19685057
183	0xbdec8777	-0.11549275
184	0xbdeb4e08	-0.11489493
185	0x3c8fba66	0.017544936
186	0xbe627bda	-0.22117558
187	0x3d979c11	0.07402814
188	0xbc58b479	-0.013226622
189	0xbe2e3248	-0.17011368
190	0xbe1d65e5	-0.15370901
191	0xbe66c49f	-0.22535942
192	0x3e73eb9a	0.23820344
193	0xbd227b1e	-0.039668195
194	0xbda9d017	-0.08291643
195	0x3e19068e	0.14943907
196	0x3d789d9e	0.06069719
197	0x3dbdd504	0.09269145
198	0xbd232ba5	-0.039836545
199	0x3e3d3e8e	0.18480894
200	0xbe2a244d	-0.1661541
201	0x3e57ebe3	0.21086077
202	0x3e0e8303	0.13917165
203	0x3d08de8c	0.033415362
204	0x3e27df96	0.16393885
205	0x3bc641b5	0.0060503134
206	0x3e5edf02	0.21764758
207	0x3dc28380	0.09497738
208	0xbd37f12f	-0.044907745
209	0xbd9747e7	-0.07386761
210	0x3d84629c	0.06464121
211	0xbe0d87d0	-0.1382134
212	0x3e1cee30	0.15325236
213	0x3df37586	0.1188765
214	0xbe0ed9fd	-0.13950343
215	0xbe453c96	-0.19261393
216	0xbdb26413	-0.08710494
217	0xbd54ff01	-0.052001003
218	0x3e2e190c	0.17001742
219	0xbe0e5137	-0.13898169
220	0xb9cdf385	-0.00039282083
221	0xbe22d204	-0.15900427
222	0xbd40e745	-0.047095556
223	0xbe136c62	-0.14396814
224	0x3e14326e	0.14472362
225	0xbe098773	-0.13430576
226	0x3e04c35d	0.1296515
227	0xbdcc8ed6	-0.09988181
228	0xbdd0f40d	-0.10202799
229	0xbe55ccee	-0.20878956
230	0xbb9f7346	-0.0048660366
231	0x3e102462	0.14076379
232	0xbe0c1337	-0.13679205
233	0x3dc1d943	0.094652675
234	0xbe18cbad	-0.14921446
235	0x3e58f26b	0.21186225
236	0x3be2c3bc	0.006920306
237	0x3ccc52f8	0.024941906
238	0x3c27985a	0.010229195
239	0xbe56eb13	-0.20988111
240	0x3d95b5bd	0.073100545
241	0x3e396df3	0.18108349
242	0x3e0e3510	0.13887429
243	0xbcc1af29	-0.023643093
244	0xbc0b09b2	-0.008486198
245	0xbe358ca7	-0.17729436
246	0xbdf3e02a	-0.1190799
247	0xbe80ebf5	-0.2518002
248	0x3e4686f1	0.19387414
249	0x3cfd730f	0.030938653
250	0xbe2cc1c7	-0.16870795
251	0x3dd5e351	0.10443748
252	0xbe62e349	-0.22157015
253	0x3d688cc3	0.056774866
254	0x3e686963	0.22696452
255	0xbce23768	-0.02761431
