results/test_env/Shootair/Shootair-34652.onnx (onnx, 493289 bytes, 15 tensors)

discrete_act_size_vector f4 [1, 2]
000000 00 00 00 40 00 00 00 40
       2.0 2.0

network_body._body_endoder.seq_layers.0.weight f4 [128, 420]
000000 41 98 72 3c 12 64 d7 bc 63 69 cb 3d a9 12 cf 3d
       0.014806808 -0.026292834 0.0993221 0.10110981
000010 dc d0 16 bd 68 98 2c 3d 3f 40 10 3c 7b b9 25 3d
       -0.036820278 0.042137533 0.00880438 0.04046009
000020 c7 30 96 3d b5 9a ed bd 74 9e 6a 3c a9 c8 b8 bd
       0.07333522 -0.11601774 0.014320005 -0.09022648
000030 da f2 74 3d 2d ff dc 3b eb 36 ba 3c b8 a3 74 3d
       0.059801914 0.0067442865 0.022731265 0.059726447
000040 e5 24 81 bd 39 2a 45 3d 8c 3b 91 bd b3 5a 64 3d
       -0.06305865 0.04813597 -0.07091436 0.05575056
000050 f0 f9 86 bb 8d fb 3d 3d b3 62 c8 3c 82 a0 e6 3b
       -0.0041191503 0.046382476 0.024461126 0.007038177
000060 e9 36 b9 3c 94 49 79 3d d4 dc 6f bc 1c 8c 66 bd
       0.022609191 0.060861185 -0.014640052 -0.056285962
000070 e6 59 4e 3c e6 fe e2 bc d0 af 36 bd 4b 8d bc bd
       0.012594676 -0.027709436 -0.04460126 -0.09206637
000080 19 08 d1 bb 50 94 81 3c 8a 58 26 3b 8e 8d b9 bc
       -0.006379139 0.015817791 0.0025382363 -0.022650506
000090 b7 bc 79 bc 62 89 67 bd 34 2c f9 bc 41 1c 57 3d
       -0.015242747 -0.056527503 -0.030416586 0.05251718
0000a0 62 84 3d bc 08 8a da 3c 03 33 78 bc 29 b7 21 bd
       -0.011567207 0.026677147 -0.015148881 -0.039481316
0000b0 79 0b aa bc 04 8b a3 3c 38 a8 66 3d 07 34 3e 3d
       -0.020757424 0.019963749 0.05631277 0.046436336
0000c0 44 08 3f 3c cc 3e a1 bc da 32 95 3d b9 98 dc 3c
       0.0116596855 -0.019683264 0.0728509 0.026928293
0000d0 eb 06 00 3d f5 fc 11 bd 71 c1 35 bd 29 56 80 bd
       0.031256597 -0.03564163 -0.044373933 -0.06266434
0000e0 60 11 20 3d b5 49 ca bc 3c 23 86 bd e0 27 a2 3d
       0.03907907 -0.02469335 -0.06549689 0.07917762
0000f0 bd 1b c9 bd 0f 9f 27 3d 7b 2e a7 bd ea 3c 87 bd
       -0.09819744 0.040923174 -0.08163162 -0.06603415
000100 08 03 3a bd e5 66 be bd ff db 40 3b cf ee 94 bd
       -0.045413047 -0.09296969 0.0029428003 -0.072721116
000110 8c e5 7b 3d 94 b8 7f bb 03 23 19 bd b8 5a 77 bd
       0.06149821 -0.003901993 -0.037386905 -0.06038925
000120 b9 c0 4a 3c 44 36 08 3c 21 04 a0 3c 2b 20 31 3d
       0.01237505 0.008313719 0.019533219 0.04324357
000130 5a eb 9f 3c 2c a3 9d 3c e6 69 f1 bc d3 f7 90 3d
       0.019521404 0.019242845 -0.029469442 0.07078519
000140 29 da a9 bc 64 01 d1 bb da 41 dd 3c 91 1d 47 bd
       -0.02073391 -0.0063783396 0.02700894 -0.04861218
000150 c1 86 47 bd e0 9f 88 3c a1 db 80 bb c8 c3 1b bd
       -0.048712496 0.016677797 -0.003932432 -0.03802851
000160 16 91 e9 bd d3 45 88 3c 29 e0 fe bc 61 fd b7 bd
       -0.11404626 0.016634857 -0.031112747 -0.08983875
000170 b4 f5 88 3d 6d ea 56 3d ba 77 86 3d 68 c9 01 3c
       0.06687489 0.05246966 0.06565805 0.007921554
000180 ba 4b 03 3d 7f 6c 02 bd 00 d5 c5 3c e6 56 67 38
       0.03205464 -0.03184175 0.024149418 5.5155622e-05
000190 e0 9d e3 bd b4 c7 81 3c c8 d5 33 3c 34 29 b3 3c
       -0.11114097 0.015842296 0.010976262 0.021870233
0001a0 e0 18 94 3d e0 72 98 bd 02 12 af bc 5c 79 09 bd
       0.07231307 -0.07443786 -0.021370891 -0.033563003
0001b0 6e 39 0c bd ff a7 a0 3c f7 65 8f bd c6 a4 af bc
       -0.034234457 0.019611357 -0.0700187 -0.021440875
0001c0 9e e8 90 bd 13 9e 5f bc c2 e2 59 bd b6 76 65 bc
       -0.07075618 -0.013648528 -0.05319477 -0.014005354
0001d0 90 fc 92 bb 34 65 57 3d 2f 6b 02 3d b9 52 b4 3c
       -0.004485674 0.05258675 0.0318405 0.022012101
0001e0 e6 e4 56 bc 04 7a f1 3d 76 bf fe 3c 20 a6 11 3a
       -0.013116097 0.11790851 0.031097155 0.00055560656
0001f0 32 ab 7a bc 6a 86 99 bc b2 ae 8b 3d 5a f1 36 3d
       -0.015299605 -0.018740851 0.0682043 0.044663765
000200 4a 4f 08 3d da c2 3c 3c a7 1c 50 bd 60 4a 3c bc
       0.03327874 0.011521066 -0.050808575 -0.011492342
000210 4e a0 1c 3d 99 55 af 3d 05 57 35 bd 29 67 a8 3d
       0.038238816 0.08561248 -0.04427244 0.08222801
000220 e6 0a 8b 3c e5 37 40 bb 84 f7 ad bd 97 4d aa bd
       0.01697297 -0.002933019 -0.084944755 -0.0831558
000230 85 70 41 3d 81 6f e8 bc 1b f2 d5 3d c3 f9 59 3d
       0.047226448 -0.028373482 0.104465686 0.053216707
000240 31 a5 8d bb 0c ef ca 3b e9 c2 ab 3b 47 3c 0c bc
       -0.004322671 0.0061930474 0.005241741 -0.008559293
000250 8d d0 65 3d 33 e4 82 bd 40 7d b9 3d 74 7f cb 3d
       0.056107093 -0.06391182 0.09057093 0.09936419
000260 94 75 df bc 75 8a 96 3d 2e af a0 ba 94 c7 68 bc
       -0.027277745 0.07350627 -0.0012259239 -0.014207739
000270 d7 4b 79 bd ca 3b 0d bd d1 ab c2 3c 06 09 04 bd
       -0.060863342 -0.034480847 0.02376357 -0.032235168
000280 e1 92 a4 bd 41 75 71 3d 64 6f 6e 3c 35 41 fd ba
       -0.080358274 0.058949713 0.014552925 -0.0019321801
000290 25 4b d0 ba 2a d7 4f bd 63 e7 fe bc 39 f8 a9 3d
       -0.0015891535 -0.050742306 -0.031116193 0.08299298
0002a0 ba 86 1e 3c 1a b6 13 be 0c 77 bf bd 89 23 de bc
       0.009675676 -0.14424935 -0.09348878 -0.027116554
0002b0 6d 0b 8e 3a bd bb be bd 14 7d 45 3b ac 5b 9a 3d
       0.0010837145 -0.09313152 0.0030134367 0.07537016
0002c0 c4 48 43 bd cd fa f7 3b 4f 8c 79 3c d1 45 04 3d
       -0.047676817 0.0075677396 0.015231206 0.032293145
0002d0 d6 ff 6b bd f9 5d a0 3a 3e b2 ff bb 93 57 b0 bc
       -0.05761703 0.0012235037 -0.0078032305 -0.021526134
0002e0 82 ce 1a bd 13 b2 9b 3d 31 7a ab 3c 32 c5 62 bb
       -0.037794597 0.07602324 0.020932289 -0.00346024
0002f0 f0 26 9e 3d 5e 96 84 3d d6 ae c1 3c 5b 6a 35 bc
       0.077222705 0.06473993 0.023642939 -0.01107272
000300 29 dd a4 bd ac 74 95 3c 9e cc 97 3c 8c d2 8b bc
       -0.080499955 0.01824411 0.018530186 -0.01706817
000310 a9 5b f5 3c 8f f3 e6 bc aa 27 1c bd e0 c5 23 bd
       0.029950934 -0.02819231 -0.038123764 -0.03998363
000320 55 cd b3 3c f0 bf 48 bb 33 96 2c 3c 8e bd 2e bc
       0.021948496 -0.0030631982 0.010533857 -0.010665311
000330 94 37 8a 3d c5 64 4a 3c 40 91 9a 3b 08 29 14 bd
       0.06748882 0.012353127 0.004717022 -0.036171943
000340 9b 61 2d bd 3e 6a 82 bc 45 97 e4 3c ae c7 98 3d
       -0.042329412 -0.0159198 0.027904162 0.07459961
000350 6a fc 0b 3d 4d 38 85 3d f4 98 b8 bc cb 45 a7 3c
       0.034176268 0.06504879 -0.022533871 0.020419022
000360 0b e6 a1 3d 45 64 f1 bd c1 35 f3 bc 95 bb 41 bc
       0.07905205 -0.11786703 -0.029688718 -0.011824508
000370 88 19 97 3c 10 a4 9a 3d cd 40 c9 bd 0a 7d fd bd
       0.018444791 0.07550824 -0.09826813 -0.12377365
000380 2a 8a c3 3d 6b 9d 1b 3d 0e f7 5f 3c 8d f6 fe 3c
       0.09547837 0.037991922 0.013669742 0.031123424
000390 b5 02 f4 bc 9e 12 a3 bc 62 e7 30 bd 0e 7d 0e bd
       -0.029786447 -0.019906338 -0.043189414 -0.03478723
0003a0 a1 b0 3a 3b 6f 49 6d bd 8e 87 12 3e f4 6c c4 bd
       0.0028486627 -0.05793136 0.14309523 -0.09591094
0003b0 4c 0c 9c bc e6 bd 01 39 6c ef 14 3d 78 9b 91 bd
       -0.019048832 0.00012373141 0.036361143 -0.071097314
0003c0 31 b1 8d bd 64 41 9f bd 6c b0 79 bc 32 79 c3 bb
       -0.06918562 -0.07776144 -0.015239816 -0.0059653753
0003d0 ce 67 a7 bd 73 c2 b5 3d d3 05 b2 bc 66 c2 1c 3b
       -0.08174096 0.08874979 -0.021731293 0.0023919581
0003e0 95 99 d1 3d 62 ae 89 3d d0 48 09 bd c9 f6 87 3c
       0.102343716 0.06722714 -0.033516705 0.016597169
0003f0 dd c5 06 bd 2c 7d 6e 3b 77 c6 57 3c 5a 0d 0d 3b
       -0.03290354 0.0036390526 0.013169876 0.002152285

network_body._body_endoder.seq_layers.0.bias f4 [128]
000000 16 22 48 3b f8 ed 17 3d ba a5 39 3d 9a af cc 3c
       0.0030537895 0.03709218 0.045324065 0.024986077
000010 3a 7c 71 3d 7b 8d 91 3c 09 7b 97 bb cd 06 16 3d
       0.058956362 0.017767658 -0.004622821 0.03662758
000020 89 33 ee 3c 0c a3 14 3c 69 df 22 3d 4a 13 54 3d
       0.029077308 0.0090720765 0.03976384 0.051776208
000030 12 31 66 3d 5b 64 77 3c ce 8b aa 3c 2a 8d 17 3d
       0.05619914 0.01509961 0.020818617 0.03699986
000040 eb 3b af 3c 51 46 46 3d cf ab 2b 3d 63 24 45 3c
       0.021390876 0.048406903 0.041911896 0.012032601
000050 6a 58 7e 3d 89 67 45 3b 98 aa 10 3d 60 c3 e7 3c
       0.062096037 0.0030121526 0.03531894 0.028291404
000060 fe 37 9d 3a c7 d7 c5 b9 90 9b cb bb 12 44 ad 3c
       0.0011994836 -0.00037735535 -0.006213613 0.021150623
000070 bd 08 eb 3c b6 08 44 bc 08 79 0a 3d 05 ec d3 3c
       0.02869069 -0.0119649675 0.03380683 0.025869379
000080 e2 cd a8 3c e2 63 0c 3c 9b 32 3e 3b 1e 50 9f 3c
       0.020605985 0.008568736 0.0029021862 0.019447383
000090 4e 9b 20 3d d1 66 b8 3c 9c 2c f6 3c ef 7e 72 3c
       0.03921061 0.022509964 0.030050568 0.014800771
0000a0 fc c3 ae bb 7f 07 4d 3d 09 69 fc 3c f5 21 a5 3c
       -0.0053334218 0.050055977 0.030811803 0.020157794
0000b0 03 ff 9a 3c 0e 68 bb 3c 63 fa 78 3b c7 73 0c 3d
       0.018920427 0.022876766 0.003799104 0.0342901
0000c0 04 73 f9 3a b0 b1 1a 3c 84 87 2c 3d 68 ba 20 ba
       0.001903147 0.009441778 0.042121425 -0.00061312923
0000d0 1a 48 8f 3c 70 b1 33 3c 0b cf 3a 3c 0b 51 a1 3c
       0.017490435 0.010967597 0.011401902 0.019691965
0000e0 3f fe c4 3c ad 53 19 3d 5f 09 a2 3c 63 3a 87 3c
       0.024047015 0.037433315 0.01977986 0.016507333
0000f0 1d 99 cc 3c 6b 99 56 bc 01 e3 e0 3c 6b 94 b6 3c
       0.024975354 -0.013098101 0.027451994 0.022287568
000100 01 5c 83 3c 23 d1 d2 3c 7e 7d de 3c b4 7d 37 3d
       0.016035082 0.02573449 0.027159449 0.044797614
000110 2d 1d f2 3c a1 49 14 bc 2c 58 3d 3d d5 f8 01 3d
       0.029554928 -0.009050758 0.046226665 0.031731445
000120 f3 08 36 3d 38 82 12 ba b0 62 8b 3c d6 9b 76 3c
       0.04444213 -0.0005588862 0.017014831 0.015051803
000130 68 a7 48 3d e3 24 21 3c dc 6e 30 bc 5a 3a 45 3d
       0.048987776 0.009835455 -0.010768618 0.04815135
000140 38 28 01 3d 4e d0 bb 3c 08 53 15 3d 4f 3b 89 3c
       0.031532496 0.022926476 0.036456138 0.016751913
000150 8e e5 67 3c b2 33 75 3c 20 df b2 3c 67 eb 5e 3c
       0.014153851 0.014965938 0.02183491 0.013605929
000160 39 ba f0 3c 35 dd 27 3d 50 48 09 3c e6 60 3d 3d
       0.029385673 0.040982444 0.008379057 0.046234988
000170 6f be f6 3c 56 c8 ed 3c 7d a9 e3 3c 92 95 2d 3c
       0.030120103 0.029026192 0.02779078 0.010594742
000180 c1 73 a9 3c 90 97 41 3d f1 27 0f 3d 66 7d f3 3a
       0.020685079 0.047263682 0.0349502 0.00185768
000190 81 27 52 3d 6e 8e a2 ba c3 1a 04 3d ac e8 5b 3d
       0.051307205 -0.0012402066 0.032252084 0.05368869
0001a0 b7 78 11 3d 24 c3 8d 3c 0d 06 ff 3b d3 f3 16 3d
       0.035515513 0.017304964 0.0077827037 0.036853623
0001b0 d8 ca f1 3c d3 84 cc 3c f7 2b c3 3c 33 52 20 3d
       0.029515669 0.02496568 0.023824675 0.03914089
0001c0 00 a7 93 3c 8e d9 6d 3c 1c 97 86 3c 3e fd 56 bc
       0.018023968 0.014517201 0.016429476 -0.013121901
0001d0 52 95 20 3c 0d ad 87 3c 7c 20 d8 3c bd 06 a9 3c
       0.009801226 0.01656201 0.026382677 0.020633096
0001e0 61 ef 74 3c d3 37 4e 3d 39 18 87 3c d0 bd 0b 3d
       0.0149496505 0.050346207 0.016491042 0.034116566
0001f0 f8 15 2e 3c 29 1e d1 3c 83 4e 48 3d 7d ef a8 3c
       0.010625355 0.025527077 0.048903 0.02062201

network_body._body_endoder.seq_layers.2.weight f4 [128, 128]
000000 9c 88 e0 3d 21 14 1a 3e 13 d8 c6 3d c4 bb 47 bd
       0.10963556 0.15046741 0.09709182 -0.04876305
000010 ff d9 6f 3e f8 8f 3e 3e 3b fb a2 3d 1d e5 7c bd
       0.23423003 0.18609607 0.07958075 -0.061741937
000020 5a 9a 82 3d 45 63 b5 3d 56 54 34 3e 85 c1 b4 3d
       0.063770965 0.08856825 0.17610297 0.088259734
000030 1e 90 21 bb 47 75 da bd 60 bc 8f 3e 2a 1b 01 3e
       -0.002465255 -0.106669 0.28073406 0.12608019
000040 50 11 27 3e f6 ba 19 bd 67 b9 00 be 12 23 d0 3d
       0.16315198 -0.037531815 -0.12570725 0.10162939
000050 4c 3c 33 bd 63 03 1e 3e 4a bd 40 3e f5 a4 13 3d
       -0.043758675 0.1543098 0.18822208 0.036045987
000060 7a 6b 84 be fd 18 28 3e c3 71 8c 3d 74 a9 87 bd
       -0.25863248 0.16415782 0.06857636 -0.066241175
000070 55 1a bd 3d b9 47 c4 bd ed 01 ee 3d d5 17 21 3d
       0.09233538 -0.095839925 0.11621461 0.03932937
000080 6e 0a e5 3d 47 c0 08 3e 18 de 4b 3e e9 95 00 be
       0.1118363 0.13354598 0.19908941 -0.12557186
000090 8c ba 2d be 89 e8 43 3e 7f 32 e4 bd 68 49 22 be
       -0.16965693 0.19131674 -0.11142444 -0.15848315
0000a0 0c ab ab 3d e9 da 62 bc 9a 69 1f 3c 11 71 49 bc
       0.08382234 -0.013846138 0.009729767 -0.012295024
0000b0 e1 9a 6f 3c 54 1a 77 3e 3a 82 41 bc b9 c5 7d be
       0.014624328 0.24131137 -0.011810834 -0.24782456
0000c0 40 38 0c 3e 26 60 80 bd be 1d 67 3d 7a 6e 2d 3d
       0.13693333 -0.06268339 0.05642485 0.042341687
0000d0 3a 04 25 3d da 80 9d 3d 1c bb 4e 3d 54 c1 ed 3d
       0.040287234 0.07690592 0.05047141 0.1160914
0000e0 7d 70 fe 3d 2a 9c 85 3c d0 f7 85 3e 54 63 b0 bd
       0.12423799 0.016309816 0.26165628 -0.08612695
0000f0 c8 d1 4f 3e 3a da eb 3c ab bc 0f 3e 90 e2 9b 3d
       0.20294869 0.028790582 0.14036815 0.07611573
000100 6f 95 49 3e 2e 33 c0 bc c9 c7 2e 3e f2 a0 a6 bd
       0.1968591 -0.023461904 0.170684 -0.08136167
000110 03 4f 23 3e 26 c9 01 3e 5f ac 15 3e f5 b9 83 be
       0.1594811 0.12674388 0.14616536 -0.2572781
000120 3d 4a f7 bd 86 5a 90 3d 0b c8 3b 3d eb cd 3f 3e
       -0.12074707 0.07048516 0.045845073 0.18730895
000130 94 0d 0e be f3 51 cb bd c8 04 6b 3e 67 e9 2e bc
       -0.13872367 -0.0992774 0.22951043 -0.010675765
000140 5b 96 ce 3d 26 3e be 3d 24 1d 0e be 9d e9 d0 3d
       0.10087272 0.092891976 -0.13878304 0.10200808
000150 4f 94 6a 3c 6b 5a 87 bd 83 ba b1 3d c9 da d8 bd
       0.014317586 -0.06609043 0.086781524 -0.10588605
000160 e4 5a db 3d 78 57 33 3e d2 f7 72 3c 10 5b a3 bd
       0.107106954 0.17513835 0.014829593 -0.07976353
000170 1b c1 2b 3e de 59 e9 3d b0 03 bf 3d b5 e2 e3 bd
       0.16772883 0.11394094 0.09326875 -0.11127225
000180 83 c4 e3 bc 01 67 1a be 39 0f ec bd b1 46 a8 bc
       -0.027803665 -0.15078355 -0.11526341 -0.02054152
000190 14 23 d0 3c 40 c4 91 bd 53 04 0a 3e 34 a4 75 bd
       0.025407352 -0.0711751 0.13478212 -0.05997105
0001a0 b6 ad 31 3d 43 21 9f bb 9a dc 0d ba 32 ec 89 3d
       0.043378554 -0.00485626 -0.00054115953 0.06734504
0001b0 32 01 28 3e 3d 3e 87 3e e1 cd 61 3d 6e 48 f7 bd
       0.16406706 0.26414672 0.055127982 -0.12074362
0001c0 9f 10 51 3e d5 50 98 3b 0b eb 7b 3e ab 99 dc 3d
       0.20416497 0.004648308 0.2460138 0.10771497
0001d0 85 7f db 3d 42 9b 1b 3d 3f 94 b7 bd 25 a8 36 3e
       0.10717682 0.037989862 -0.089638226 0.1783758
0001e0 19 d7 89 3c 4f 70 cf 3d d7 ef da 3c 13 e6 0a 3d
       0.0168262 0.10128843 0.026725693 0.033910822
0001f0 6a 90 e9 3d e6 34 e0 bc cf f3 c4 bd 28 fb 3e 3d
       0.11404498 -0.027368974 -0.09616815 0.04662624
000200 b9 38 06 bd cd f7 58 3d a6 e7 03 3e 3d de c9 bd
       -0.03276894 0.052970696 0.12881336 -0.09856842
000210 18 1e 10 3e d0 b1 19 bd d4 75 5f 3c 15 33 04 3e
       0.1407398 -0.03752309 0.013638932 0.12910111
000220 c2 fc e3 3d 1d 68 52 3d 5d 0a cc bc 4a bf 10 bd
       0.11132194 0.05136882 -0.024907285 -0.035338677
000230 8f 1b 88 3e 4b d5 13 be bf 9b 17 bd c0 aa 43 3e
       0.26583526 -0.14436834 -0.037013765 0.19108105
000240 e2 e8 02 3e 23 c5 14 3e 19 be ea 3d 5c 9c 10 3e
       0.1278415 0.14528327 0.114620395 0.14122146
000250 12 e7 f8 3c a8 16 05 bd 49 6b ac 3d 89 1f de 3d
       0.03038362 -0.03249231 0.084189005 0.108458586
000260 fe 64 62 bd bd da bf 3d f6 06 b9 bd 0b 4e 88 bb
       -0.055272095 0.09367893 -0.09034531 -0.004159694
000270 7e ca fb 3d fe 33 42 bd 6f fd a4 be c2 c5 95 bd
       0.12294482 -0.047412865 -0.32224604 -0.0731311
000280 35 51 b2 bc 19 06 09 3e cb e9 30 bc f1 ba 26 bd
       -0.021767238 0.13381232 -0.010797928 -0.040705625
000290 2f 90 e4 bd 36 ce 82 bc e1 1f 94 bd 46 3b 96 3d
       -0.11160313 -0.01596747 -0.07232643 0.07335524
0002a0 c6 c4 4a 3d c7 c4 1d bd 36 d0 a3 bd 3b 83 00 be
       0.049504064 -0.03851774 -0.079986975 -0.1255006
0002b0 27 27 c0 3c ba 40 c0 3b cb 58 de bc bf c6 df bd
       0.02345617 0.005867091 -0.02714195 -0.1092658
0002c0 df 54 8d 3c 7c 6a f0 bc 38 2a 46 bd c7 db 44 be
       0.017252384 -0.02934765 -0.048380107 -0.19224463
0002d0 42 9d c0 3d 95 58 86 bd 95 e7 0e be 26 55 68 3e
       0.094049945 -0.065598644 -0.13955529 0.22688732
0002e0 f3 f1 ea 3c ed 23 87 3d cc e2 44 3e e5 83 01 be
       0.028679824 0.06598649 0.19227141 -0.1264797
0002f0 28 fd bb bc d9 d4 3d bc b3 8b de 3c 13 19 90 bc
       -0.022947863 -0.011586391 0.027166223 -0.017590081
000300 ea 6b c6 bd 6b 58 4b 3e a2 4e 58 3d af ef 2f 3d
       -0.09688552 0.19857948 0.052809365 0.04295319
000310 15 e1 23 3e a3 f4 16 3d 34 c3 38 3e ae 4c ec bc
       0.1600383 0.036854398 0.18043214 -0.028845157
000320 81 04 08 be 6b c8 0b 3d 5e 5c a5 3d 98 33 b7 3d
       -0.13282968 0.03412668 0.08074258 0.089453876
000330 27 21 a7 3d 1f 4a 11 be d1 7a 47 3e de 9f 34 3d
       0.0816062 -0.14188431 0.19480444 0.044097774
000340 8d de 2e 3e 63 18 85 3d ab 33 3d 3e 96 69 cc 3d
       0.17077084 0.06498792 0.18476741 0.099810764
000350 c6 24 34 3e 30 19 13 3b 1c 6d 0c be 43 1e 99 be
       0.17592153 0.0022445433 -0.13713497 -0.299059
000360 01 2f 16 3e 9f c2 ce 3b ca ee 53 3c d4 10 19 3e
       0.14666368 0.0063098217 0.01293535 0.14947826
000370 5b ae 3f bd 9d f7 4e 3d 33 d7 17 bd 3e 23 43 3c
       -0.046797138 0.05052911 -0.037070464 0.011910258
000380 51 ea be bc e9 9f d5 bd 81 58 aa bd 79 95 0e 3e
       -0.02330509 -0.10430891 -0.08317662 0.13924207
000390 2a 41 23 3e dc 5f 09 3c 8e ef a3 3d 76 a8 41 bc
       0.15942827 0.008384671 0.08004676 -0.011819949
0003a0 08 44 ad 3e 4e fb 11 3d 10 c0 ed bd d7 5f c3 3c
       0.33840966 0.035640053 -0.11608899 0.023849411
0003b0 1e 2f db bd 6b 1a 1c 3d 33 df 2b be 1a 98 af 3c
       -0.10702346 0.03811113 -0.16784362 0.021434832
0003c0 a1 e4 0d 3d b6 c2 7a be 13 33 78 bd 24 9c d0 bd
       0.034641866 -0.24488339 -0.060595583 -0.101860315
0003d0 b8 5f 30 3d 4d e4 d4 3c e0 47 c1 bd fd 50 55 bd
       0.043060035 0.025987769 -0.09437537 -0.05207919
0003e0 b1 91 c4 3d 2f a2 79 bc 64 39 01 be cd 75 40 bc
       0.09598101 -0.0152364215 -0.12619549 -0.011746836
0003f0 5f 8d 83 3d 1a da 3a 3d 51 7d 02 3e 83 1e 39 3e
       0.06423449 0.045618154 0.12743117 0.18078046

network_body._body_endoder.seq_layers.2.bias f4 [128]
000000 4f 56 80 3d 00 d1 48 3d 16 ac c8 bc 7a 72 61 3c
       0.06266462 0.049027443 -0.02449612 0.0137602035
000010 ea 5d 28 3d ca 50 0f 3c d7 01 77 3c 86 7a 21 3d
       0.04110519 0.008747289 0.015076122 0.039423488
000020 36 4d dc 3c f1 5f 06 3d 89 fe af 3c 5d 42 a8 3c
       0.026892286 0.03280634 0.021483677 0.020539457
000030 8f 7a 29 3d a5 34 8c bc 10 ee 7b 3d cc d2 c2 3c
       0.041376647 -0.017114947 0.06150633 0.023782156
000040 54 4c 0f 3d 23 c0 a3 3d 3e 37 af ba 03 8c cd 3d
       0.0349849 0.079956315 -0.0013367904 0.10036471
000050 2f 2b 80 bb 80 2f 3d 3d df e8 83 3d 71 63 b9 3c
       -0.003911398 0.046187878 0.06440901 0.022630425
000060 20 ea 85 3c 51 77 89 3d 68 5c 94 bd 39 00 41 3d
       0.016346991 0.06712211 -0.072441876 0.047119353
000070 9d e1 b1 bc 9b 5f 53 bc c6 b5 c5 3a 57 89 c4 3c
       -0.021714026 -0.012901212 0.001508408 0.02399127
000080 55 fc 0d bc 70 43 0c 3d 64 55 03 3d 48 c7 9e 3d
       -0.008666118 0.034244 0.032063857 0.07752854
000090 eb 59 16 bc 82 3b 44 3d 37 d8 98 3c 0b a5 f4 3c
       -0.009176712 0.047908314 0.018657787 0.029863855
0000a0 45 0a bf 3c b7 4e 78 bb de 6d 07 3c fa e9 59 3d
       0.023320327 -0.0037888715 0.0082659405 0.053201653
0000b0 99 52 01 3d f3 99 01 3d 8c 1d ee 3c 74 43 1c 3d
       0.031572912 0.031640958 0.029066823 0.038150266
0000c0 98 0a 71 3d 59 70 5c 3d 1e da 96 3d 08 26 05 3d
       0.058847994 0.05381808 0.07365821 0.032506973
0000d0 0e 6e c3 3c a1 d6 1e 3d a6 f8 f9 3c 2a 4d 0b 3d
       0.02385619 0.038778905 0.030514073 0.034009136
0000e0 ec f7 29 bb 95 a6 d6 3c 41 45 be 3c 41 99 e6 3c
       -0.0025935126 0.02620248 0.023226382 0.028149249
0000f0 67 7e c5 3c 12 1b bb 3c b2 7d fe 3c 7e d1 2f 3d
       0.024108125 0.022840057 0.031065796 0.042924397
000100 d9 10 8c bc f5 fc 27 3d da 0b 1f 3d a2 97 2b bd
       -0.017097877 0.041012723 0.038829662 -0.041892655
000110 b5 fd c4 3c 71 3f 77 3c 78 81 ad 3c 78 a4 13 3d
       0.024046758 0.015090809 0.0211799 0.03604552
000120 c0 19 14 3d c8 c1 0b 3d b6 cf 29 3d 47 99 0a 3d
       0.03615737 0.03412035 0.041457854 0.033837583
000130 fc 62 9b 3c 13 54 4d 3d 25 c2 17 3d 25 96 04 bb
       0.018968098 0.050129008 0.037050385 -0.0020231095
000140 68 9d 39 bc 31 db dd 3c 52 06 01 bd 1c ab 9d 3c
       -0.0113290325 0.027082058 -0.03150017 0.01924663
000150 45 1b d0 3c dc 34 99 3d 47 e9 65 3d a4 43 5c 3d
       0.025403628 0.07480785 0.056130674 0.053775445
000160 ae 5a 5c bc 97 bf 88 3d 79 03 c4 3c a5 82 81 3d
       -0.013449354 0.06677168 0.023927437 0.063237466
000170 2e 3e 90 3c 33 aa 0d bb 4b 6d 1d 3c f4 1f af 3a
       0.017607775 -0.002161634 0.009608577 0.0013360963
000180 64 1b ab 3c 68 8d 5b 3d b5 c1 cc 3c cc 24 b6 3d
       0.020887084 0.053601652 0.02499471 0.08893737
000190 28 00 e9 3c 10 4b 24 3c 95 44 36 3d 0c 55 2a 3d
       0.028442457 0.010027662 0.044499 0.041585013
0001a0 2f 98 72 3d db 68 d0 3c 1c 89 a5 3d f6 55 ac 3c
       0.059227165 0.025440624 0.08082792 0.021037083
0001b0 18 d8 e6 3c c6 fc fa bc c6 2f 95 bc 63 2a f6 3c
       0.028179213 -0.03063811 -0.018211257 0.030049508
0001c0 6c 57 0c 3c 77 64 73 3c 0e e8 22 3c 7c b8 20 3d
       0.008565765 0.014855496 0.009943021 0.039238438
0001d0 b5 ed 21 3c b6 80 1c 3d 45 14 fb 3c 76 57 14 3d
       0.009883334 0.038208686 0.030649314 0.03621622
0001e0 6c 20 82 3d a9 21 83 3d ba 3f 9d bb 14 eb 2a 3d
       0.0635384 0.064029045 -0.0047988566 0.041728094
0001f0 1f 0f 93 3c f6 f1 03 3d 6b af 3c 3d 16 05 1a b8
       0.017951546 0.032213174 0.04606573 -3.6721198e-05

action_model._continuous_distribution.log_sigma f4 [1, 2]
000000 9d 2a b1 be 7c 43 1b be
       -0.34602824 -0.15162462

action_model._continuous_distribution.mu.weight f4 [2, 64]
000000 d3 74 4c 3e e2 e7 5e bd 85 80 40 bd dd a1 20 be
       0.1996644 -0.05442036 -0.046997566 -0.15686746
000010 be c1 52 be 9b 4b da bd ad 5e b4 bc c4 fc 89 bd
       -0.2058172 -0.10658952 -0.022017801 -0.06737664
000020 05 8a ea bd 91 40 e4 bd 15 f0 c3 3d ae e8 4b 3d
       -0.114521064 -0.111451276 0.095672764 0.049782448
000030 23 a5 8f bd ff fe c4 3d 19 64 49 3e 94 c0 d5 3d
       -0.07013919 0.09618949 0.1966709 0.10437122
000040 4e dd 96 bd 0a 39 9f 3d b5 b9 50 be ac 8e da bd
       -0.07366429 0.07774551 -0.20383342 -0.10671744
000050 a0 49 15 be 63 1b 4d 3e af 84 54 be a8 9e a9 3d
       -0.14578867 0.20029978 -0.2075374 0.082822144
000060 88 d1 54 3e 13 90 53 be ac 70 c4 3d b0 93 ff bd
       0.20783055 -0.20660429 0.09591803 -0.12479341
000070 ac b5 7f 3e 67 f3 62 3e 99 51 3e 3e 55 91 1e 3e
       0.24971646 0.22163163 0.18585815 0.15485127
000080 7e 0d c0 bd 5d 3c 0f 3e 26 44 e2 3d 15 b1 35 3e
       -0.093775734 0.1398787 0.110481545 0.17743333
000090 04 9f 61 3e 96 79 1b be 18 37 a9 3d 6e f0 f7 3c
       0.22033316 -0.151831 0.082624614 0.030266013
0000a0 94 b0 50 3e 8b 27 07 be 98 76 12 be ba f8 26 3d
       0.20379859 -0.13198678 -0.14303052 0.040764548
0000b0 e6 f6 24 3e fb 75 19 3d 94 19 24 3e b3 7b 45 3e
       0.1610981 0.03746603 0.16025382 0.19285469
0000c0 76 bb a9 3d ea 89 ca bd b1 c5 1a be 1a 1a b4 bd
       0.082877085 -0.09889586 -0.15114476 -0.08794041
0000d0 86 1f 3c be d8 69 0f be 18 82 df 3d 29 27 14 be
       -0.183714 -0.1400522 0.10913485 -0.14468063
0000e0 dd 67 15 3e 0c a4 5c 3e d0 e5 21 3c ca 21 aa 3c
       0.14590402 0.21546954 0.009881452 0.020768065
0000f0 04 a5 ee 3d 82 d5 3a 3e c0 9c 24 bd a3 76 72 bd
       0.11652568 0.1824551 -0.04018855 -0.059195172
000100 99 bd ad 3c b3 97 29 3e 27 d0 b6 bb d0 fd 01 bd
       0.021208571 0.16561775 -0.005579013 -0.031736195
000110 91 81 f2 bc 1c 50 b3 bb 46 74 63 be 71 51 0b bc
       -0.029602798 -0.0054721963 -0.22212324 -0.008503304
000120 79 e2 75 3c 39 17 98 3d a3 51 25 3d e8 d3 e0 bc
       0.015007609 0.07426304 0.040361058 -0.027444795
000130 be 1f 87 bd 46 a5 45 3d b1 9b 52 3d 79 86 29 be
       -0.06597851 0.04825332 0.05141801 -0.16555203
000140 7f a5 bd 3d 19 d5 51 3c 7f 47 37 bb c7 47 e4 bc
       0.092600815 0.012807154 -0.00279662 -0.027866257
000150 47 f8 9c bd 8e 97 39 3d 87 47 76 3c 9b 33 b4 bc
       -0.07664543 0.04531055 0.015031702 -0.021997264
000160 e5 02 8c 3d 7f 59 47 bd 02 5b fd 3d cb 22 fa 3c
       0.068364896 -0.048669335 0.12370874 0.030534169
000170 54 5b 36 bc de 8a 02 be 18 e0 7d 3d 19 6d 99 bd
       -0.011130173 -0.12748286 0.06198129 -0.07491512
000180 5e a6 a6 bc a1 73 71 3d 0c cc d3 3d 59 c2 9d bd
       -0.020343002 0.058948163 0.10341653 -0.077030845
000190 5b fe f0 3c 04 f3 37 bd bd c2 ca bc 1c 3f 5d be
       0.029418161 -0.044909492 -0.024751062 -0.21606106
0001a0 cf e7 4d bd b8 d4 3a bd 93 aa 3f 3d b4 e2 1e be
       -0.050269898 -0.04561302 0.04679353 -0.15516168
0001b0 ce 9d 73 3e f6 40 9b bc 97 2e 92 3c 71 6a 0e bc
       0.23790666 -0.018951874 0.017844481 -0.00869237
0001c0 8d fd c3 bc ea dd 04 bb f1 0d a0 3c d1 42 8c bd
       -0.023924613 -0.0020273873 0.019537898 -0.06848682
0001d0 96 59 fc bb 02 bb ec bc 9c fc fa bc 53 19 36 3e
       -0.007701109 -0.028897766 -0.030638032 0.17783098
0001e0 db 8b 85 bd 14 cc 68 3e 42 8f b3 3c c9 cf 99 3b
       -0.06520816 0.227341 0.021918897 0.0046939594
0001f0 a4 14 34 bd 8c 69 8d bd 68 8f 81 bd da 4f 36 bd
       -0.043964997 -0.06904897 -0.06326181 -0.044509746

action_model._continuous_distribution.mu.bias f4 [2]
000000 16 2f d4 bd 68 70 e7 bb
       -0.103605434 -0.0070629604

action_model._discrete_distribution.branches.0.weight f4 [2, 64]
000000 ae db 27 bd 57 91 0a bc 29 49 dd bd 7a 55 d7 3b
       -0.040980987 -0.008457503 -0.1080497 0.006571469
000010 c8 5b 7b bc 27 22 c9 bd 98 79 d8 bc 14 b2 32 be
       -0.015341707 -0.09820967 -0.026425168 -0.17450744
000020 08 28 93 3d 13 77 ad 3c a5 2d 61 3d ab 9c d4 3d
       0.0718537 0.021174943 0.05497517 0.103814445
000030 6c b8 96 bd b9 a0 f3 3d 2a 8d 3c bd af 9b 6c 3c
       -0.073593944 0.1189589 -0.046033062 0.014441415
000040 26 60 11 bd 4f bd 2b 3d 0c 70 ee 3d bb 14 2e be
       -0.035492085 0.041928586 0.11642465 -0.17000096
000050 b4 b9 4f bd cb c4 46 bd 0d 08 34 3d bd 93 04 3e
       -0.05071421 -0.04852752 0.04395299 0.12946983
000060 10 83 56 bd bf 0d 9e bd 1d a4 b8 bb 21 90 0f bd
       -0.052371085 -0.077174656 -0.005634798 -0.03504956
000070 84 a3 5d 3d c2 cc 28 3b af a9 1f bd 07 e8 53 3c
       0.05411102 0.002575681 -0.038980182 0.012933738
000080 02 64 0a be d0 0d 16 3e d9 c3 14 3e 71 5c 34 bd
       -0.13514712 0.14653707 0.14527835 -0.04403347
000090 62 5f 04 bc e2 6e 37 3e f0 39 37 3e f2 a5 46 bd
       -0.008079382 0.17913392 0.17893195 -0.0484981
0000a0 10 1e a5 ba fd 58 f7 bc 23 0c 12 bc 58 7f 10 be
       -0.001259746 -0.0301938 -0.008914026 -0.14111078
0000b0 5f d8 d4 3c 0d 67 db 3d f6 d9 c5 bd a8 e9 7f bd
       0.02598208 0.10713015 -0.096607134 -0.06247869
0000c0 54 13 64 3b 7e 42 31 be 50 1d 12 3d 15 af 0b be
       0.003480156 -0.17310521 0.035672486 -0.13641007
0000d0 b9 68 f6 3c 3f 14 b5 bb 64 c8 a8 bd d8 77 df bc
       0.030079233 -0.005526095 -0.082413465 -0.027278826
0000e0 52 82 17 3b 29 6b 21 bd 46 9a 66 be 4b b1 06 3e
       0.0023118448 -0.039408837 -0.22519788 0.1315357
0000f0 dd 39 6e be 9f 62 d6 bd 22 db a0 bd 35 0c 36 be
       -0.2326426 -0.10468029 -0.07854296 -0.17778094
000100 7d 73 91 3d 30 b4 51 bc 7d e5 de 3d 3e 05 f7 bc
       0.07102106 -0.012799308 0.10883615 -0.030153867
000110 f9 27 52 3c bd 56 93 3d e7 94 02 3d 99 ae 2b 3e
       0.012826913 0.071942784 0.031880286 0.16765822
000120 9a 7f 15 bd 9b 19 a0 bc c7 15 81 bd 03 6e f0 bd
       -0.036498643 -0.01954346 -0.06302982 -0.11739733
000130 f6 ac c1 3d f1 f5 ff bd 88 4d 5a 3d 39 66 90 bc
       0.09456818 -0.124980815 0.053296596 -0.017626869
000140 37 41 87 3c 84 11 4a bd 16 ba c2 bd d9 fc 13 3e
       0.016510589 -0.04933311 -0.09508149 0.14451922
000150 c9 5b f8 3c c5 c9 47 3d 17 ca 03 bd ec 13 05 be
       0.030317204 0.048776407 -0.03217515 -0.12995881
000160 b8 ab 6c 3d 2d e5 72 3d d2 f7 19 3d 7d bd c9 3c
       0.05778095 0.05930059 0.037589855 0.024626488
000170 9f c6 bb bc 80 2a b6 3c 0b ce 15 3d 8b 9b f1 bc
       -0.022921858 0.022237062 0.03657345 -0.029493114
000180 a2 c0 0f 3e 9a 34 d8 bd 15 49 0c be a3 c5 8f 3d
       0.14038327 -0.10556908 -0.13699754 0.07020118
000190 60 21 77 bb e1 fa 1b be 70 41 11 be b1 bd 34 3d
       -0.0037709102 -0.15232421 -0.14185119 0.044126216
0001a0 54 ba cf 3c 11 38 ac 3a 38 ae 0c 3c 30 8f 24 3e
       0.025357403 0.0013139268 0.008586459 0.16070247
0001b0 c9 40 c6 bb 2f 2b df bd 8f 81 e3 3d c8 34 a8 3d
       -0.0060502035 -0.108969085 0.11108696 0.08213192
0001c0 25 8b fc bc 49 13 0c 3e 46 d4 00 bd 1b fd 17 3e
       -0.030828068 0.13679232 -0.03145244 0.14842646
0001d0 09 7b ee bc ac 43 76 3c 2e cf a7 3d 3a 8b 0c 38
       -0.029111402 0.015030783 0.08193813 3.3508266e-05
0001e0 48 bc 50 bc c9 b7 47 3c d8 5c 50 3e ed 91 18 be
       -0.012740202 0.012189814 0.20347917 -0.14899416
0001f0 62 27 60 3e 5d c4 9a 3d 57 2a c8 3d 85 68 31 3e
       0.21890023 0.075569846 0.09773701 0.17325027

action_model._discrete_distribution.branches.0.bias f4 [2]
000000 d8 ad a3 3c e0 ad a3 bc
       0.019980356 -0.019980371

action_model._discrete_distribution.branches.1.weight f4 [2, 64]
000000 f6 75 46 bd 26 2f e5 bb 7b e6 d3 3d 96 e8 9c bc
       -0.04845234 -0.006994146 0.10346695 -0.019153874
000010 df 02 03 3e ca 39 12 3d cf 0d 13 bd c1 2a 90 bd
       0.12794064 0.035699643 -0.03590184 -0.07039405
000020 86 83 6e bc db 3b b1 3c cb 14 07 bd 52 4e 6d 3d
       -0.014557725 0.021634987 -0.032978814 0.05793602
000030 5f 6a f6 3d be 3a 11 3d 0c 22 22 bd 89 7c 6b 3c
       0.120320074 0.03545641 -0.03958325 0.014372953
000040 44 7f 03 be 26 b1 9c 3c 44 e5 cf 3d 39 60 4d bc
       -0.12841517 0.01912744 0.10151151 -0.012535148
000050 3f 7f e5 3d d7 65 a0 bd ea cb 8b 3c 1d 80 b9 3c
       0.11205911 -0.078319244 0.017065007 0.022644097
000060 8f ce ac bd 43 c8 c3 bb 4c 5c c3 bc 2c d8 86 3d
       -0.084378354 -0.005974801 -0.023847722 0.065842
000070 e2 45 e7 bd c7 c3 ca bd 35 7d 62 bd 84 75 ce bd
       -0.11292626 -0.09900623 -0.055295188 -0.10081008
000080 5c e5 1f 3e c9 0d 77 bd 3e 3a e8 bc 25 99 f0 3a
       0.15614837 -0.06031588 -0.028348085 0.0018356188
000090 38 49 d5 bd 77 0c 27 3e be 17 16 3c 6b 93 c1 3d
       -0.10414356 0.16313349 0.009160934 0.09451946
0000a0 7e d1 a7 bd a0 1d 4f bc 00 77 89 bc da c7 f1 3d
       -0.08194254 -0.0126413405 -0.016780376 0.11805697
0000b0 56 45 f0 bd 52 66 59 3e 18 5a a9 3c a4 67 1f bd
       -0.11731975 0.21230438 0.020672843 -0.0389172
0000c0 06 9a 8f bd 98 d3 b0 3c a0 1b ac 3d e8 30 d0 bc
       -0.070117995 0.02158527 0.084037066 -0.025413945
0000d0 1a 35 09 3d 5d cf c1 3d 56 ce ef 3d dc 94 0f 3d
       0.033497907 0.094633795 0.11709277 0.035054073
0000e0 65 c4 8f 3d 6d 0f 04 be 29 80 d1 bd 36 62 34 3d
       0.07019881 -0.1289651 -0.10229523 0.044038974
0000f0 69 ee 9b 3d 58 55 d1 bd a1 76 10 be 26 e1 81 3d
       0.076138325 -0.10221356 -0.14107753 0.06341772
000100 a9 7a 59 3d 81 52 ca bb 00 67 ca bd 5d b6 43 3d
       0.053095493 -0.006174386 -0.09882927 0.047781337
000110 fd da 10 be 67 ba 73 bd 82 5d 4f 3c a9 bd a0 3d
       -0.14146037 -0.05950394 0.012656571 0.07848675
000120 60 11 72 3c 2e be c7 bc f1 42 84 3c e3 5a 35 bd
       0.01477465 -0.024382677 0.016145201 -0.04427613
000130 57 35 08 be e5 c4 66 bc 44 cf 04 3d 6d 63 74 bd
       -0.13301598 -0.014085029 0.032424226 -0.059665132
000140 2e 50 1a 3e a8 bc 0a bd 5c c7 b7 bd b5 cb 3a bc
       0.15069649 -0.033871323 -0.08973572 -0.011401107
000150 93 1c f6 bd a4 86 c3 3d d3 60 b7 bc 4f e5 87 bc
       -0.12017169 0.09547165 -0.022385037 -0.016588835
000160 f5 dc 32 3d 3d 58 d8 3c b9 e3 0a 3d 6d f3 ba bd
       0.043667752 0.026409263 0.03390858 -0.09128461
000170 de de e8 3d 8d c8 0b 3e 7a a6 41 3d 84 26 c1 3d
       0.113706335 0.13650723 0.047277905 0.094311744
000180 fd 01 1e be 23 19 8f 3d 54 d4 73 3c 48 90 0a 3c
       -0.15430446 0.06987216 0.014882166 0.008457251
000190 2e 09 d4 3d 9e 3f 35 be 34 74 dd bb 23 87 e3 bd
       0.103533134 -0.1770005 -0.0067582373 -0.1110976
0001a0 a2 bc e8 3d b7 40 41 3a 66 43 23 3d e7 0f cc bd
       0.11364104 0.0007372009 0.039859198 -0.09963971
0001b0 0c 66 d2 3d d0 7f 45 be 7a f3 4a bd 64 cb 16 3d
       0.1027337 -0.19287038 -0.049548604 0.036815062
0001c0 63 fb 76 3d 85 b0 81 bb c4 f9 d9 bd 55 40 e0 3c
       0.060298335 -0.0039578103 -0.10643342 0.027374426
0001d0 0c c2 d8 bc 17 7b 9b bd 8d f9 08 be 53 37 65 bd
       -0.026459716 -0.07591837 -0.13376446 -0.055960964
0001e0 39 e4 36 bd 7d 70 fc 3d 73 fe cd 3d 38 4d f6 bc
       -0.044651244 0.12326143 0.10058298 -0.030066118
0001f0 57 7a 97 bd 3b 62 a5 3d 3b a7 f6 3d 0d 94 33 bd
       -0.07396381 0.080753766 0.120436154 -0.043842364

action_model._discrete_distribution.branches.1.bias f4 [2]
000000 78 8d 6e 3d 7c 8d 6e bd
       0.058240384 -0.0582404

onnx::LSTM_133 f4 [1, 256, 128]
000000 a3 7c 7b 3c d1 9c 4f 3e b7 1f f9 3d 11 a4 3e 3d
       0.01534954 0.20274664 0.12164252 0.046543185
000010 1c 15 93 bc 76 a5 15 3d 76 e5 e9 bd 35 29 1f 3c
       -0.017954402 0.03653475 -0.11420719 0.009714414
000020 cc ac 40 3c b0 9d 0b be 56 7f 15 be 08 31 67 3d
       0.011759948 -0.13634372 -0.14599356 0.056443244
000030 ce dd 11 3d b5 d4 82 3c 66 41 ed 3d e1 75 23 bd
       0.03561192 0.015970567 0.115847394 -0.03990734
000040 8f 0a 46 3e 20 a3 83 bd 7d 48 dc 3d ee c8 31 3e
       0.19339965 -0.06427598 0.107560135 0.17361805
000050 a5 d5 2d bb f8 0d 77 3e 7c 87 ee bc 4b f0 0d be
       -0.0026525047 0.24126422 -0.029117338 -0.13861196
000060 de 85 85 3e f6 22 67 3e 37 c4 aa bd 94 e2 9f 3d
       0.26078695 0.2257193 -0.08338206 0.07806888
000070 e0 e5 a8 bd a6 ca 02 3d 55 4e e7 bd 96 c1 8b 3d
       -0.0824697 0.03193154 -0.112942375 0.06824033
000080 3f ff d3 bc 94 a4 4e 3e 92 95 b8 3d 00 a1 1f 3e
       -0.025878547 0.20179969 0.09012903 0.1558876
000090 d1 66 c3 3d 55 6b d3 3d 4a ae 5e 3e b8 39 82 bd
       0.09541095 0.10323206 0.21746174 -0.06358665
0000a0 00 52 a0 bd 5f 64 42 3d 3c 1f 82 3c a2 70 9c bd
       -0.0782814 0.047459003 0.015884034 -0.076386705
0000b0 96 1b 24 bd 13 47 31 3c c5 21 28 3d 12 b8 68 bd
       -0.04006537 0.010820168 0.04104783 -0.056816168
0000c0 29 d1 42 3e 90 9d 4c 3d ad 98 0f bc bb ee d0 bb
       0.19025101 0.04995495 -0.008764428 -0.006376115
0000d0 4e 5d 15 3c 7b 29 1f be fc ff f1 bd 2d 6f fd 3d
       0.009116484 -0.15543167 -0.11816403 0.12374721
0000e0 57 25 e8 bd 21 a8 70 bd 90 b9 f9 3c 6d 1e 5d 3e
       -0.11335247 -0.05875409 0.03048399 0.21593638
0000f0 32 28 1f be e8 17 8b bd 96 af b5 3d 25 3d 34 3e
       -0.15542677 -0.06791669 0.08871381 0.1760145
000100 1d 22 05 3c 22 47 a6 3d c0 c0 da 3d 38 8b 9c 3d
       0.008125809 0.08119036 0.106812954 0.07643741
000110 e2 75 45 be 82 0e c4 3b 2e 73 9d bd da da 97 bd
       -0.1928325 0.005983175 -0.076879844 -0.074147895
000120 c7 ab c8 3c f8 47 81 3e 90 ff 5e 3e 40 3f b9 3d
       0.024495972 0.2525022 0.21777177 0.09045267
000130 e2 f8 f4 bd ba 5a 3c be a4 eb f5 bd e6 28 9b bd
       -0.11961533 -0.18393984 -0.120078355 -0.0757616
000140 63 c3 d7 3c 36 f2 9e 3d 2c 70 3f be e9 39 30 bd
       0.026338285 0.07761042 -0.18695134 -0.043023977
000150 4b 0b 46 bd 3b 3d 53 3e c8 4b 54 3e 6b 5b 5f 3e
       -0.048350614 0.20628826 0.20732033 0.21812217
000160 e0 c1 5e bd 28 47 1b 3b 2b 16 09 bd 12 88 6a 3e
       -0.054384112 0.0023693535 -0.033468407 0.22903469
000170 3e 86 94 3c 43 cf d4 3d 10 92 99 be 7e 51 3a be
       0.018130418 0.103910945 -0.2999425 -0.1819515
000180 35 12 3c be 16 cd af bd b2 1b 0c bd e1 05 95 3d
       -0.1836632 -0.08584039 -0.0342061 0.07276512
000190 f7 10 bf bd 9e 4a 32 3d 7c f2 5c bd af df 8a be
       -0.09329408 0.04352819 -0.05394219 -0.27123782
0001a0 73 59 f8 3c 8a 3a 01 be 9a 18 a3 bd 08 47 c1 bd
       0.03031609 -0.12619987 -0.07963677 -0.09437376
0001b0 31 a2 d7 3c c7 04 81 be 82 ea 19 bd b3 51 c0 bd
       0.026322456 -0.25198957 -0.03757716 -0.09390583
0001c0 7c 07 53 3e 9b e2 84 3d 82 7f 43 3e 39 c2 17 3e
       0.20608324 0.06488534 0.19091609 0.14820184
0001d0 e2 dc 12 be 59 42 4c 3e 19 b7 40 3d 9c ca 04 be
       -0.14342073 0.19947185 0.047049616 -0.12967914
0001e0 ce 7f 33 be d3 f2 0c be 83 ed 86 bd 99 91 60 3e
       -0.17529222 -0.13764505 -0.065882705 0.21930541
0001f0 64 8b 12 3e 92 01 9a 3b 66 71 6e 3e 98 1b 60 bb
       0.14310986 0.004699894 0.23285446 -0.0034196135
000200 d0 ae ee 3d fd 74 0a 3e 98 75 49 bd 02 b6 0d 3e
       0.116544366 0.1352119 -0.04918441 0.13838962
000210 54 e5 26 be 45 0a 85 3c 9d fb 4a 3e eb 27 4a 3e
       -0.16298419 0.016240248 0.19822545 0.1974179
000220 db c3 37 be 94 7c 90 3d e0 6b 98 bc f9 11 82 3e
       -0.17945807 0.070550114 -0.018606126 0.25404337
000230 7e 5c 60 3e bc 55 cd 3c 9f 00 48 3d aa 57 dc bd
       0.21910283 0.025065295 0.048828717 -0.10758908
000240 cf 09 32 3c f9 43 0e bc 63 5e 62 3d 8c c8 34 3e
       0.010866596 -0.008683198 0.055265795 0.17654628
000250 f1 c4 ac 3d 76 e0 92 bd b6 2a 93 3d 24 52 50 3e
       0.08436001 -0.07171719 0.07185881 0.20343834
000260 1f 40 c9 3d 8c 34 4b 3e 36 b9 0a be 4e 16 fe 3d
       0.09826683 0.19844264 -0.13547215 0.12406598
000270 c7 ea d1 bd d7 41 91 3d f4 51 a5 3c 63 31 86 3e
       -0.10249858 0.07092636 0.02018068 0.26209554
000280 d2 4f 66 be a0 ba 47 3e e0 d5 8a 3d 98 ba a4 3e
       -0.22491387 0.19504786 0.06779075 0.3217361
000290 95 e1 00 be 32 1f 09 be 79 f1 e8 3d 34 2e 19 be
       -0.12586053 -0.13390806 0.11374182 -0.14959031
0002a0 ba e5 cc 3d 48 95 52 be bb ab 99 3d 3f f5 96 3d
       0.10004754 -0.20564759 0.07503458 0.07370996
0002b0 5b 82 00 bd 01 61 90 bd 8f 32 14 be ee f8 91 bd
       -0.031374317 -0.07049752 -0.14472412 -0.07127558
0002c0 f2 f6 27 bc 54 ea a9 3b 52 b2 97 3a e0 bb 53 3e
       -0.010251747 0.005185405 0.0011573529 0.20677137
0002d0 e9 9a 02 bb ca c5 16 3e 88 61 01 3e 83 53 b8 3e
       -0.001992876 0.14723888 0.12634861 0.36001214
0002e0 d4 8f 6e be 30 38 ca bd 29 f0 06 bd 07 55 18 3e
       -0.23297054 -0.09873998 -0.03294388 0.14876185
0002f0 13 af c0 bc 13 d5 48 3c 79 2e fa bd 78 21 15 be
       -0.023520982 0.012257832 -0.12215895 -0.14563549
000300 d4 43 a3 3e ea 0d 7f 3e 87 58 9d 3e 23 6e ba 3d
       0.31887686 0.24907652 0.30731604 0.09103038
000310 37 26 dd bb bc f0 db 3c 58 34 65 bc d9 de b5 3d
       -0.0067489403 0.02684819 -0.0139895305 0.088803954
000320 d1 9e 3a bb 03 48 70 3d 00 88 4f bc 8c 25 a5 3d
       -0.002847601 0.058662426 -0.012666702 0.08063802
000330 7e 71 df bc 62 6b 6c 3e cd f2 13 3e 36 c7 44 bb
       -0.027275797 0.23087838 0.1444809 -0.0030025966
000340 d3 5c be 3d 29 06 e9 3c 4e 59 c6 bd de e9 87 bd
       0.092950486 0.02844532 -0.09685002 -0.066364035
000350 ea 96 e6 3d d5 5f 69 3e b0 8b a8 3d 96 9f 70 3e
       0.11259253 0.22790463 0.08229768 0.23498377
000360 2c 2a 8c 3e a3 15 10 3d 4f b2 2a 3e bd 9b 1d 3e
       0.27375925 0.035176884 0.16669582 0.1539144
000370 d3 6d ac bd d9 1d 9b 3d 98 3c cd 3d 44 ac 83 3e
       -0.08419385 0.07574052 0.10021323 0.25717366
000380 26 00 47 3d 10 51 9b bd fc 48 90 3b 05 69 f4 3d
       0.048584126 -0.07583821 0.0044032317 0.119340934
000390 d2 43 d5 3d 39 60 ea 3d d6 5e 06 3e 7b df 12 3c
       0.10413326 0.11444134 0.13122115 0.008964415
0003a0 bd 59 09 3e 11 fd f8 3c b1 05 74 3e 04 cf 57 3e
       0.13413139 0.030394109 0.23830296 0.21075064
0003b0 16 27 01 3d de 9e be 3d bb f8 05 3e 1a 8a 6f bd
       0.031531416 0.09307645 0.13083164 -0.058481313
0003c0 d5 85 89 3c 4f 92 cc 3d b0 22 f3 3d 64 ba 77 3d
       0.016787449 0.09988844 0.118718505 0.06048049
0003d0 25 ca 75 be da 6a 27 be de ea 4a 3d 16 d8 14 bd
       -0.24002893 -0.16349354 0.049540393 -0.036338888
0003e0 fd b4 9e 3e f1 ee 1f bd 3b 40 c7 bd 11 9a 1e be
       0.30997458 -0.03904623 -0.09729048 -0.15488459
0003f0 93 ae 7c 3b 8e 00 d9 bd b7 a6 2c 3d f3 a8 2b 3e
       0.0038556203 -0.10595809 0.04215118 0.16763668

onnx::LSTM_134 f4 [1, 256, 64]
000000 6d b5 a8 3b 33 f0 dd 3c 64 21 1f be 76 29 44 be
       0.0051485808 0.027092075 -0.15540081 -0.19156441
000010 7d c6 85 3c 99 25 63 3e 30 4d 5e be f5 53 c2 bd
       0.016329998 0.22182311 -0.21709132 -0.0948867
000020 31 49 29 bc e6 40 0e 3e e3 bf 69 be b0 1e 69 be
       -0.010332392 0.13891944 -0.22827105 -0.22765613
000030 80 32 86 3d 6f 7c 75 bd a6 9e 15 3e b5 d9 4e 3e
       0.06552601 -0.059933122 0.14611301 0.20200236
000040 63 9e f1 bb c1 57 d6 bd a5 7d 46 bd 59 7e 5f 3d
       -0.0073736175 -0.104659565 -0.048459668 0.054563854
000050 ff 09 48 3e 94 5c 0a 3e 38 9e 06 3e b3 cd 03 be
       0.19535063 0.13511878 0.13146293 -0.12871437
000060 33 78 0d 3e 6c 4b 47 3e 39 2a 37 bc 81 41 e6 3d
       0.13815384 0.19462365 -0.0111795 0.11242963
000070 8c eb 4d 3d bd 8f e7 bd f1 20 8a bd e4 21 ed bd
       0.050273463 -0.11306713 -0.06744564 -0.1157873
000080 22 79 3a be 56 b9 16 be 78 97 5a be e8 d6 6e 3c
       -0.18210271 -0.14719138 -0.21346843 0.014577605
000090 5c 8e 12 be d3 37 d5 bd 9b 69 57 be dd 88 57 3e
       -0.14312118 -0.10411038 -0.21036379 0.21048303
0000a0 48 f9 3c 3e a9 8a 10 3e e0 a7 22 3e 98 17 2f 3e
       0.18454468 0.14115395 0.15884352 0.17098844
0000b0 bc 5f 8e 3d f7 dc 58 3e 5f d0 c6 bd c3 75 b5 bd
       0.06951854 0.21178041 -0.097077124 -0.08860352
0000c0 b6 03 28 bd 08 8e 1f bd a1 65 29 bd ef 6d 33 3c
       -0.041019164 -0.03895381 -0.041356687 0.010951503
0000d0 4c e0 b2 bd 43 c2 12 3e e9 2d 50 be 1d 96 d4 bd
       -0.087341875 0.14331917 -0.20330013 -0.10380194
0000e0 0c ba d4 3d 4c 8a 4e bd 60 16 1e 3e 1b 15 a3 bd
       0.10387048 -0.05042486 0.15438223 -0.0796301
0000f0 38 5f 8e bd 55 41 ae bd cb 4a 0d bd 95 7e 14 bd
       -0.06951755 -0.08508555 -0.034495156 -0.03625353
000100 a5 58 33 be b5 5d b2 3d cb 04 e8 3d 4c c9 8b 3d
       -0.17514284 0.087092794 0.11329039 0.06825504
000110 e5 e2 65 be ba 7e d0 bc 4a 8c 14 3e 57 1a 27 be
       -0.22449835 -0.025451053 0.14506641 -0.16318642
000120 d9 72 bc 3c 35 ea 4f be 67 9f 0a be ab 42 db bd
       0.023003982 -0.20304187 -0.1353737 -0.10706075
000130 4a 57 6e bd bd 0a ec 3c a1 9e 84 3d d7 86 e2 3d
       -0.058188714 0.028813714 0.064755686 0.11060875
000140 46 cd ee bd 23 1f 04 3e a5 bc 07 be 2c f4 bc 3b
       -0.116602466 0.12902503 -0.13255556 0.0057664122
000150 f8 88 6d 3d 0a d7 35 3e f3 c0 36 3e 07 17 00 3e
       0.05799195 0.17757812 0.17847042 0.12508784
000160 98 ab 43 3e 64 c9 f4 bd ab 26 84 bd 9b 34 05 3e
       0.19108427 -0.11952475 -0.06452688 0.13008349
000170 78 5e a7 bc 45 ef 84 3d f2 1b 4e be 68 50 4a 3e
       -0.020430788 0.064909495 -0.20127848 0.19757235
000180 da 07 38 3e 2e 41 81 bd da 0c 3b 3e fa 23 3e bd
       0.17971745 -0.0631126 0.18266621 -0.04642103
000190 c5 1d 23 bd 3b d3 0f be b2 69 13 be 20 7e 94 bd
       -0.039823312 -0.14045422 -0.14395788 -0.07250619
0001a0 30 1c 39 3d 25 ea 14 3e 14 85 0a 3e 16 10 d3 3d
       0.045192897 0.14542444 0.13527328 0.103058025
0001b0 d2 04 0f 3e b9 a8 db bd 2a b7 0f be b5 52 b3 bd
       0.13966683 -0.10725541 -0.14034715 -0.087560095
0001c0 c6 5f c5 bd 08 93 11 bd ac 1a 25 be 4c 91 be 3c
       -0.09637408 -0.03554061 -0.16123456 0.023262642
0001d0 e2 4a 11 be 6a 3f 2c bd 28 c1 a3 3d bd 3a 37 3c
       -0.14188722 -0.042052664 0.07995826 0.011183438
0001e0 cd f3 66 3e 72 ec 23 3c 81 bd 03 3d d7 f3 2c be
       0.2255394 0.010005103 0.032163147 -0.16889893
0001f0 24 2b 83 bd 9e 55 53 be 1a 71 46 3e 1d 36 fc 3d
       -0.06404713 -0.20638129 0.19379082 0.12315009
000200 60 9d b4 3d 0d ae 18 3e 71 85 70 bc 6e ff dc bc
       0.088190794 0.14910145 -0.014680252 -0.026977267
000210 6d c4 bb 3d b5 2d 2d be e5 d4 0c be 6e ba 47 3d
       0.091683246 -0.16911967 -0.13753088 0.048761778
000220 14 9c bf bd fe 9e cb bd 1b fb 38 be d0 20 15 3e
       -0.093559414 -0.09942435 -0.18064539 0.14563298
000230 35 2f 22 3e c6 5a a3 3c 2e 6a 42 3d 3d 55 c2 bc
       0.1583832 0.019940745 0.047464542 -0.023722285
000240 78 bf df bd 25 96 b2 3d e0 a8 2f 3e 6f 1e 14 3e
       -0.10925192 0.08720044 0.17154264 0.14464734
000250 5f d5 fa bc 8e 2c 3a 3e 90 35 66 bc bf 5e f5 3d
       -0.030619321 0.18181059 -0.014050856 0.11980962
000260 33 f0 9f 3c 0c 1f 56 be 08 01 2c be f8 f0 1d 3e
       0.019523716 -0.20910281 -0.16797268 0.15423954
000270 9b dc 9b bd d4 c0 30 be 44 b4 21 3d 04 bd 20 3e
       -0.076104365 -0.17261058 0.039478555 0.15697104
000280 8c 58 b5 3d ba fc 37 3e e2 54 01 be c3 dd 50 3e
       0.088547796 0.17967501 -0.12630036 0.20397095
000290 76 8f ca 3b 2f 1a f8 bd 07 7c 2c 3e a8 5f ff 3d
       0.0061816527 -0.12114369 0.16844188 0.12469417
0002a0 8e 15 02 3e 6d c5 98 3d 3a fa 3d 3e af 1a 1f 3c
       0.12703535 0.07459531 0.18552485 0.009710952
0002b0 3c 33 3d be 54 dc c8 3a 82 d0 cf bc 10 30 46 be
       -0.18476576 0.0015324452 -0.025367979 -0.19354272
0002c0 73 6d 91 bd 1e 07 74 3c eb 6f 19 bc 23 93 1e 3c
       -0.07100954 0.014894275 -0.009365062 0.009678635
0002d0 69 7d 43 3e 3a ed 10 be 45 e2 40 3e 34 bb 03 be
       0.19090809 -0.14152995 0.18836315 -0.12864381
0002e0 d1 eb e5 bd 42 ca 47 3d a3 40 40 be e4 fd b7 3d
       -0.11226619 0.048776872 -0.18774657 0.08983973
0002f0 05 03 51 bd 9d 13 35 be 74 56 27 be 43 db 5f be
       -0.05102827 -0.17683263 -0.16341573 -0.21860985
000300 8e 6a 46 3e 04 f9 b9 bc 25 ab cc bd 88 38 0c 3e
       0.19376585 -0.022701748 -0.09993581 0.1369344
000310 7b 66 98 3d f6 8e ba 3d 6f c0 12 bd 9c b0 36 3e
       0.074414216 0.09109299 -0.03582805 0.17840809
000320 6f 73 f9 bd ab 2d 4a 3e dd fb 0e 3e f8 6c 1b 3d
       -0.1218022 0.19743983 0.13963266 0.037945718
000330 69 29 18 3e 8d a8 3a bc e7 b7 4b 3e f2 e8 bf 3d
       0.14859547 -0.011392725 0.19894372 0.09370603
000340 75 43 33 bd 2f 11 96 bd 3f 2f a4 3d b0 99 1b be
       -0.043765504 -0.07327496 0.08016824 -0.15195346
000350 17 5f 23 3e 2e eb c5 3d e4 dd 11 be b1 ca 29 be
       0.15954243 0.096639976 -0.14244801 -0.16581227
000360 63 aa 95 bd 9b b7 44 bd ec e0 3f 3e 0a 91 ca bd
       -0.07307889 -0.048026662 0.18738145 -0.09890945
000370 2d 9d 92 bc 75 1d 34 be f7 29 86 bd e9 b1 01 be
       -0.017897213 -0.17589362 -0.06550973 -0.12665524
000380 d9 dc fb 3d 12 a6 e4 bd 54 8c 16 3e 73 d5 87 bd
       0.12297983 -0.11164488 0.14701968 -0.06632509
000390 aa 13 16 be 2f 95 64 be 57 af 8e bc ef 95 23 3e
       -0.14655939 -0.22322534 -0.017417593 0.15975164
0003a0 32 c5 1d be fc 0b a6 3d 1d 29 1a be ac 36 4d 3e
       -0.15407255 0.081077546 -0.15054746 0.20040387
0003b0 dc 0f 31 bc 0d 36 04 3c 63 7f e2 3c 98 a7 45 be
       -0.010807004 0.008069527 0.027648633 -0.19302213
0003c0 33 5b b9 3d 88 0d 39 3e 0e 27 15 3e 36 6d 18 bd
       0.09050598 0.18071568 0.1456568 -0.037213527
0003d0 a2 a7 3d bc 06 c2 14 be 1f 0b d1 bd d3 f8 6f be
       -0.011575611 -0.14527139 -0.10207199 -0.23434763
0003e0 85 23 48 3e 4b 8b 64 3c 8f 2c 2b be b5 92 e7 3d
       0.195448 0.013949226 -0.16716217 0.11307279
0003f0 97 78 51 be b7 39 98 3d b3 41 68 3e 5b be 37 bd
       -0.20456158 0.07432883 0.22681312 -0.04485927
