results/test_env/Shootair/Shootair-230430.onnx (onnx, 493289 bytes, 15 tensors)

discrete_act_size_vector f4 [1, 2]
000000 00 00 00 40 00 00 00 40
       2.0 2.0

network_body._body_endoder.seq_layers.0.weight f4 [128, 420]
000000 78 25 53 3b e4 7f 17 bd 63 69 cb 3d 20 86 cc 3d
       0.0032218378 -0.0369872 0.0993221 0.0998652
000010 38 d8 14 bd da c9 ec 3c 3f 40 10 3c da 9d 05 3d
       -0.036339015 0.028904844 0.00880438 0.032621242
000020 0c a6 8f 3c 0d 80 f7 bd 74 9e 6a 3c 2e 2b cc bd
       0.017535232 -0.120849706 0.014320005 -0.09969173
000030 dc 23 18 3d 49 0f 23 bb eb 36 ba 3c 93 23 58 3d
       0.037143573 -0.0024880937 0.022731265 0.0527683
000040 a9 a4 b1 bd e9 78 22 3d 8c 3b 91 bd ef a4 01 3d
       -0.086739846 0.03966609 -0.07091436 0.031651434
000050 dd 29 f2 bb 6c 23 10 3d b3 62 c8 3c 2c f1 63 3b
       -0.0073902444 0.03519003 0.024461126 0.00347812
000060 fd d9 27 3c 31 71 53 3d d4 dc 6f bc ae 68 a9 bd
       0.010244844 0.05162162 -0.014640052 -0.08271919
000070 a1 61 9d 3c 41 d9 20 bd d0 af 36 bd 03 e2 c7 bd
       0.019211592 -0.03926969 -0.04460126 -0.09759905
000080 cb 4a 81 bc 5e a5 b9 3b 8a 58 26 3b ee 40 49 bd
       -0.015782734 0.0056654653 0.0025382363 -0.049134187
000090 1b 9e 3c bc cf 21 93 bd 34 2c f9 bc ab 72 32 3d
       -0.011512305 -0.07184183 -0.030416586 0.043566387
0000a0 0e 81 c6 bc 5d 67 97 3c 03 33 78 bc 71 19 73 bd
       -0.02423146 0.018481905 -0.015148881 -0.059350435
0000b0 b6 92 20 bd 2d c2 fc 3b 38 a8 66 3d 73 70 3b 3d
       -0.039202414 0.0077135772 0.05631277 0.045761537
0000c0 98 3a 19 bc 94 c0 e6 bc da 32 95 3d 23 f8 44 bc
       -0.009352349 -0.028168 0.0728509 -0.012022051
0000d0 3d c0 c2 3c 64 b1 4c bd 71 c1 35 bd e7 f3 7b bd
       0.023773307 -0.04997386 -0.044373933 -0.0615119
0000e0 7b 22 b5 3c 04 13 f7 bc 3c 23 86 bd a3 0c 31 3d
       0.022111168 -0.030160435 -0.06549689 0.043224942
0000f0 a1 fc 11 bd 73 1e 66 3c 7b 2e a7 bd f1 50 9f bd
       -0.035641316 0.014045346 -0.08163162 -0.0777911
000100 72 cf a7 bd b6 c2 c1 bd ff db 40 3b 4e 3d c2 bd
       -0.08193864 -0.09460966 0.0029428003 -0.09484349
000110 b3 8d 0f 3e d1 bb 24 bd 03 23 19 bd 3b e0 9f bd
       0.14018898 -0.04021818 -0.037386905 -0.078064404
000120 3f 46 e8 bc 5e d9 1e 3c 21 04 a0 3c 03 3c 2f 3d
       -0.028353808 0.009695379 0.019533219 0.04278184
000130 e6 66 98 3b 1f 4d 36 3b e6 69 f1 bc 45 d7 35 3d
       0.0046509383 0.0027816964 -0.029469442 0.04439475
000140 2a 53 73 bd 4d 08 ce bb da 41 dd 3c 36 cc 28 bd
       -0.059405483 -0.0062876106 0.02700894 -0.041210376
000150 8e 76 56 bd 45 ce 88 3b a1 db 80 bb 0d 41 79 bd
       -0.052359156 0.00417498 -0.003932432 -0.060853053
000160 5e a1 25 be 23 bf b3 3c 29 e0 fe bc c3 fb a6 bd
       -0.16174838 0.021941727 -0.031112747 -0.081534885
000170 17 23 57 bc 55 1c 6c 3d ba 77 86 3d 36 02 c5 bb
       -0.013130925 0.057644207 0.06565805 -0.0060122265
000180 9c 74 2a 3d f3 e5 1f bd 00 d5 c5 3c d2 4b 98 bc
       0.041615114 -0.039037656 0.024149418 -0.018590841
000190 11 c9 07 be 93 9a d1 3b c8 d5 33 3c 5a cd 76 bc
       -0.13260294 0.0063966005 0.010976262 -0.015063608
0001a0 54 b9 5d 3b 6c e3 92 bd 02 12 af bc e9 49 56 bd
       0.0033832388 -0.071722835 -0.021370891 -0.05231658
0001b0 f5 54 bc bb 0b 98 73 ba f7 65 8f bd 27 17 92 bd
       -0.0057474324 -0.00092923705 -0.0700187 -0.07133322
0001c0 30 07 e6 bd ab 8f 8c bc c2 e2 59 bd e7 d1 c6 bc
       -0.1123184 -0.01715835 -0.05319477 -0.024270011
0001d0 18 60 2e bd e9 5d 48 3d 2f 6b 02 3d c0 6d 71 bc
       -0.04257211 0.048917685 0.0318405 -0.014735639
0001e0 a6 6c 19 bc f1 44 d5 3d 76 bf fe 3c 19 bf e1 bb
       -0.009364283 0.1041354 0.031097155 -0.0068892357
0001f0 98 a5 f1 bc aa cf 3e bd b2 ae 8b 3d 15 6b 10 3d
       -0.029497907 -0.046584763 0.0682043 0.03525837
000200 8c dc 60 3c 6b 80 76 bc a7 1c 50 bd 4d 8c 18 bd
       0.0137244575 -0.015045266 -0.050808575 -0.037243176
000210 bc 5b 80 3d ab fa 51 3d 05 57 35 bd 8e 74 2d 3d
       0.06267497 0.051264446 -0.04427244 0.042347483
000220 69 3f 9d 3b 49 ed 0b bd 84 f7 ad bd e7 e0 04 be
       0.004798819 -0.03416184 -0.084944755 -0.12976418
000230 c3 9b dc 3d c3 ac 94 bd 1b f2 d5 3d 61 ac ca bb
       0.10771897 -0.07259514 0.104465686 -0.0061851
000240 b4 ec e1 bc ab 1a a5 bc e9 c2 ab 3b ae bf 2d bd
       -0.02757869 -0.020154318 0.005241741 -0.042419128
000250 fa ad 98 3d d8 bb cf bd 40 7d b9 3d 29 ac 3d 3d
       0.074550584 -0.1014325 0.09057093 0.046306763
000260 a5 e9 3a bd 1a 1d 3e 3d 2e af a0 ba 3f 52 49 bd
       -0.045632977 0.046414472 -0.0012259239 -0.0491507
000270 a8 18 0c bd a3 2d 93 bd d1 ab c2 3c a5 b4 b0 bd
       -0.0342032 -0.07186439 0.02376357 -0.08628205
000280 4e 1c 0d be fe 9f 2e 3d 64 6f 6e 3c 97 23 ac bc
       -0.13780329 0.04263305 0.014552925 -0.021013064
000290 95 cf 77 3d c5 41 bf bd 63 e7 fe bc 0f 15 f3 3c
       0.0605007 -0.093387164 -0.031116193 0.029673127
0002a0 21 1e 18 bd 19 08 28 be 0c 77 bf bd 09 f8 5e bd
       -0.03713811 -0.16409339 -0.09348878 -0.054435764
0002b0 3c 83 66 3d bb 15 0a be 14 7d 45 3b f0 e5 dd 3c
       0.0562775 -0.13484852 0.0030134367 0.027087182
0002c0 8d d8 1f bd 29 cf dc bc 4f 8c 79 3c 92 1f 8d bc
       -0.03902488 -0.02695425 0.015231206 -0.017226968
0002d0 aa 03 8e bb f2 76 27 bd 3e b2 ff bb 3c 56 92 bd
       -0.004333933 -0.04088492 -0.0078032305 -0.07145354
0002e0 d5 10 20 bc f1 24 16 3d 31 7a ab 3c 3b 8b f8 bc
       -0.009769638 0.036656324 0.020932289 -0.030339828
0002f0 9e 27 c7 3d f6 28 ee 3c d6 ae c1 3c d7 9a 0b bd
       0.09724353 0.029072266 0.023642939 -0.034083214
000300 0b 0e 89 bd 72 16 37 3c 9e cc 97 3c 4b e0 01 bd
       -0.066921316 0.011174785 0.018530186 -0.031708043
000310 ef c3 81 3d 6d 5a 8e bd aa 27 1c bd ae a0 6a bd
       0.063361995 -0.06950841 -0.038123764 -0.057282142
000320 ed 06 97 bc 17 57 b2 3a 33 96 2c 3c 7f 02 6c bc
       -0.01843592 0.0013606277 0.010533857 -0.014404892
000330 de 0d b6 3d 9c be db bc 40 91 9a 3b 50 d1 83 bd
       0.08889364 -0.026824288 0.004717022 -0.064364076
000340 2c 37 59 bc ef d6 5c bd 45 97 e4 3c 96 e9 2d 3d
       -0.013257783 -0.053915914 0.027904162 0.042459093
000350 26 7f 88 3b a4 4b 22 3d f4 98 b8 bc 14 b9 ea ba
       0.004165548 0.039622918 -0.022533871 -0.0017907941
000360 17 8b df 3d 73 85 22 be c1 35 f3 bc 3c 54 1f bd
       0.10915201 -0.1587122 -0.029688718 -0.03889869
000370 09 35 2c 3c b2 5e 37 3d cd 40 c9 bd 96 4a 18 be
       0.010510691 0.044768043 -0.09826813 -0.14872202
000380 c7 06 ad 3d 60 d8 fc 3b 0e f7 5f 3c 25 88 41 3c
       0.08448558 0.0077162236 0.013669742 0.011812245
000390 da 1b 76 bd e9 3a 40 bd 62 e7 30 bd 98 c5 96 bd
       -0.060085155 -0.04693118 -0.043189414 -0.07361907
0003a0 fc 7a 38 3c d9 25 c5 bd 8e 87 12 3e b2 27 df bd
       0.0112597905 -0.096263595 0.14309523 -0.10896243
0003b0 27 b4 45 bd 6b 4d dd bc 6c ef 14 3d 3e b4 e2 bd
       -0.04826751 -0.027014455 0.036361143 -0.11069535
0003c0 60 8d 77 bd d8 d0 ec bd 6c b0 79 bc 99 c1 db bc
       -0.06043756 -0.11563271 -0.015239816 -0.026825713
0003d0 ff f4 12 be c8 1e 90 3d d3 05 b2 bc 95 45 ee bc
       -0.14351271 0.07037121 -0.021731293 -0.029085914
0003e0 64 0e cd 3d d7 87 99 3d d0 48 09 bd e9 09 16 3d
       0.100125104 0.074966125 -0.033516705 0.036630545
0003f0 9c 6f b6 bb a6 28 0d 3c 77 c6 57 3c 2b 46 c4 3c
       -0.005567504 0.008615648 0.013169876 0.02395924

network_body._body_endoder.seq_layers.0.bias f4 [128]
000000 61 a9 45 3c 2a 0e 29 3d 04 3c e0 3c 18 1b f7 3c
       0.012064309 0.041273274 0.027372368 0.030164286
000010 a4 c8 73 3d af e6 d9 3c 1a 33 7d bc 20 14 41 3d
       0.059517518 0.026599256 -0.015454078 0.047138333
000020 ce 04 52 3d 38 86 a8 3b 12 4c e3 3c 57 e5 4e 3d
       0.051274113 0.0051429532 0.027746234 0.050511684
000030 8a c7 6e 3d 77 71 79 3c e4 cc 05 3d f2 4d 65 3d
       0.058295764 0.015224806 0.032666102 0.055982538
000040 63 ed 20 3d a5 4e 67 3d e2 25 3c 3d eb b8 f6 3c
       0.03928889 0.056471486 0.045934565 0.030117473
000050 43 0e 7a 3d b7 2c 8f bb f3 15 87 3d d6 26 33 3d
       0.061048757 -0.004369344 0.06595983 0.04373821
000060 4b 7a 94 ba d1 dc 15 3b 14 b5 48 bc 8d 5d f7 3c
       -0.001132795 0.0022867213 -0.012250204 0.030195976
000070 93 aa 15 3d 41 b8 22 bc 68 60 c7 3c 23 37 d8 3c
       0.036539625 -0.009931625 0.024337962 0.026393479
000080 f7 ba 4e 3c 86 94 fb 3c c1 42 f9 3b 69 da 92 3b
       0.012617818 0.03071047 0.0076068346 0.004481603
000090 12 e6 a4 3c b8 64 be 3c b6 75 a7 3c f6 ed 1a 3d
       0.020129237 0.023241386 0.020441871 0.037824593
0000a0 4f d5 1e 39 a6 4b d0 3c 4e 2c 22 3d 95 e4 66 3c
       0.00015147518 0.025426697 0.039593033 0.014092584
0000b0 63 b4 1a 3d d9 4a dc 3c a4 27 b4 3b 9b 8c d4 3c
       0.037769686 0.026891159 0.0054978896 0.025945952
0000c0 f4 3f a8 3c ce 8d 89 3a 79 27 99 3d 55 4e 2b 3c
       0.020538308 0.0010494532 0.07478232 0.0104556875
0000d0 52 e3 0b 3d cb 0c a1 3c d8 fc 3e bb be 82 54 3c
       0.034152336 0.01965942 -0.0029142406 0.0129706245
0000e0 0c e1 e7 3c f3 47 37 3d 89 12 12 3d d3 29 50 3c
       0.028305553 0.04474635 0.035662208 0.012705284
0000f0 fe 6f 20 3d 01 6a 1a bc 4a 98 37 3d f0 d5 85 3c
       0.039169304 -0.009424687 0.04482297 0.016337365
000100 63 07 c1 3c 07 c7 d3 3c f4 f1 b0 3c 4b d4 42 3d
       0.023563093 0.02585174 0.021599747 0.04756574
000110 50 8a e6 3c c1 00 5d bc c2 85 6f 3d 9c a4 11 3d
       0.028142124 -0.013488949 0.05847717 0.035557374
000120 ee d6 03 3d 6b 90 60 3c ef 8d 39 3d d7 55 d1 3b
       0.032187395 0.013706307 0.045301374 0.0063884067
000130 6d 2a 4a 3d a9 71 ad 3c b6 a3 9d bc fb a2 14 3d
       0.049356867 0.021172361 -0.019243103 0.036288243
000140 67 68 ec 3c ef c0 a8 3c 02 e3 1f 3d d4 b4 85 3c
       0.028858377 0.02059981 0.03903485 0.016321577
000150 dd 5c 2e 3d 03 cf c3 3c 41 cb 16 3d e3 dc 08 3d
       0.04256903 0.023902422 0.03681493 0.03341378
000160 a7 fe 26 3d 29 7d 35 3d 12 9a 32 3b 95 69 4a 3d
       0.0407702 0.044308815 0.0027252478 0.049417097
000170 77 be ef 3c e8 48 8b bb 58 58 09 3d b8 ce 38 ba
       0.029265625 -0.0042506345 0.033531517 -0.00070498465
000180 ed c1 bb 3c d4 17 2e 3d 50 7b fd 3c 5e dd bc 3c
       0.02291962 0.042503193 0.030942589 0.023054775
000190 76 92 86 3d bd 2a 5b 3c 99 a6 d0 3c 2e d9 46 3d
       0.06570904 0.013376889 0.025470065 0.048546962
0001a0 ff b7 15 3d 91 67 cd 3c aa cd 22 3c 8b 77 07 3d
       0.036552425 0.025073798 0.009936729 0.03307299
0001b0 e3 7e cb 3c 1a 82 ee 3c b2 a4 9f 3c 14 fa 0b 3d
       0.024840778 0.029114772 0.019487713 0.03417404
0001c0 cc 20 9c 3c 6d ef d2 ba d8 44 0c 3c 5d f5 44 bb
       0.019058608 -0.0016093083 0.0085613355 -0.0030053474
0001d0 23 df 47 3c 6d a9 7f 3c 51 de db 3b fd 39 9b 3c
       0.012199196 0.015604359 0.006709852 0.01894855
0001e0 12 08 a1 3c eb a1 f0 3c bb 58 40 3c f9 92 0d 3d
       0.019657169 0.029374084 0.011739905 0.034563992
0001f0 da 74 6f bb 90 02 24 3d 50 fd 69 3d 96 0b c3 3c
       -0.0036538155 0.040041506 0.057126343 0.023809236

network_body._body_endoder.seq_layers.2.weight f4 [128, 128]
000000 91 8b 0e 3e e2 22 33 3e 68 95 ab 3c f7 e0 8e bd
       0.13920428 0.17493775 0.020945266 -0.069765024
000010 8e 64 6f 3e a7 bd 61 3e a7 2a b1 3d 5c 01 82 bd
       0.23378202 0.22045003 0.086507134 -0.063479155
000020 fc e2 9c 3d 7d 30 01 3e 33 13 53 3e 3f 99 7c 3d
       0.07660481 0.12616153 0.20612793 0.061669584
000030 c9 5d 82 bb f0 8c ea bd b2 f4 a3 3e cf c7 14 3e
       -0.003978465 -0.11452663 0.32022625 0.14529346
000040 14 fb 12 3e e8 c3 61 bd 6e 58 ee bd 51 2f e7 3d
       0.14353591 -0.05511847 -0.116379604 0.11288322
000050 0b dc 7c bc 4f 66 40 3e 50 71 3c 3e 66 16 88 3d
       -0.015433322 0.18789028 0.184026 0.06644897
000060 a6 5e 2d be d9 ea 64 3e 4d a0 d0 3d 60 6e 04 be
       -0.16930637 0.22355212 0.10186825 -0.1293273
000070 c1 85 b0 3d 0e d5 35 bc c2 41 36 3e 26 10 45 3d
       0.086192615 -0.0110981595 0.17798522 0.048111103
000080 4b d9 fa 3d 53 b8 c3 3d 82 95 5a 3e 04 89 c8 bd
       0.122484766 0.095566414 0.21346095 -0.09791759
000090 7f 7e f2 bd 22 b5 6e 3e 23 c4 c7 bd 5f bc 11 be
       -0.118405335 0.23311284 -0.09754207 -0.14232014
0000a0 d0 d5 f4 3d 9c 9e 3c 3d af f1 46 bd a9 52 e6 3c
       0.11954844 0.0460497 -0.04857033 0.028115587
0000b0 7c 67 03 3d bd ca 4e 3e 8c ed 67 bd 70 28 62 be
       0.032081112 0.20194526 -0.056623027 -0.22085738
0000c0 1f 55 1f 3e 4c f2 43 bc a4 30 7d 3d 5d 28 bb 3d
       0.15559815 -0.011959624 0.061813965 0.09138558
0000d0 7c e0 7e 3d 65 d6 9a 3d 7b 3c f0 3d d3 4d f5 3d
       0.062225804 0.07560424 0.11730286 0.119777344
0000e0 55 50 0d 3e 4a 72 67 3d c5 bc 85 3e 65 25 b4 bc
       0.13800175 0.05650548 0.26120582 -0.021990487
0000f0 4b 55 6d 3e 3c 53 a1 3b 2f fa 2b 3e 45 ae b9 3d
       0.23177068 0.0049232524 0.16794656 0.090664424
000100 48 14 4d 3e 89 7a 47 bc 06 c6 23 3e 23 89 0e be
       0.20027268 -0.012175211 0.15993509 -0.13919501
000110 c2 6d 0b 3e 93 f8 12 3e 71 eb 1f 3e 90 ca 88 be
       0.13616088 0.14352636 0.15617158 -0.26717043
000120 ef ef 2e bd 9c 34 be 3d a9 65 83 3c dd 34 27 3e
       -0.042709287 0.09287378 0.016039686 0.1632876
000130 c9 3e 46 be 93 5c 33 bd 70 d5 65 3e ac 78 bd 3c
       -0.19359888 -0.043789458 0.22444701 0.02312883
000140 3f 5c 0f 3e 8c e6 24 3e 36 dd 3b be a2 55 c7 3d
       0.14000033 0.16103572 -0.18346104 0.0973313
000150 84 22 d1 bb a1 47 b0 bd 47 96 65 3d 49 b2 d3 bd
       -0.0063822884 -0.08607412 0.05605152 -0.103367396
000160 18 61 a7 3d 59 dd 21 3e a9 d1 74 3d cb da ce bd
       0.08172816 0.15807094 0.05977026 -0.10100325
000170 a9 0f 4e 3e 0b 5d 24 3e 9b ef 5d 3d f0 b4 e4 bd
       0.20123161 0.16051118 0.054183584 -0.111673236
000180 12 7d 4b 3c d5 3e 07 be 39 41 f3 bd 33 e2 09 bd
       0.012419956 -0.13207562 -0.118776746 -0.033662986
000190 a9 e5 36 3d f9 ef da bd 54 6e 14 3e cc ba 22 bd
       0.044652615 -0.106903024 0.14495212 -0.039728925
0001a0 63 23 33 3d e2 da 05 bd 08 7d 78 bd 0e 3d fa 3d
       0.04373492 -0.032679446 -0.060666114 0.122186765
0001b0 87 01 4f 3e ce 86 8e 3e fa b8 c3 3d cf ac ab bd
       0.20215426 0.27837223 0.09556766 -0.0838257
0001c0 4a 99 7d 3e fc ac 8c 3d 0f 3c 86 3e a2 2e 37 3e
       0.24765506 0.06868932 0.26217696 0.17888883
0001d0 11 6b 0a 3e 8d ae fa 3d 44 d8 cb bc 71 6d 48 3e
       0.13517405 0.12240324 -0.024883397 0.19572999
0001e0 69 1a 66 3d 91 90 a0 3d b0 1c ca bb b8 90 23 3d
       0.05617753 0.07840074 -0.0061679706 0.039932936
0001f0 be 02 57 3d ba a4 a8 bd 55 68 aa bd fa 67 ca 3d
       0.05249285 -0.08234544 -0.08320681 0.09883113
000200 33 29 c3 bc 50 f5 99 3d 3b 19 eb 3d c7 56 94 bd
       -0.023823356 0.07517493 0.11479422 -0.07243114
000210 ee 50 1c 3e 75 a9 14 bd 67 ec 46 3c e1 a1 16 3e
       0.15265247 -0.03629442 0.012141324 0.1471019
000220 30 ac 0a 3e 1d 08 93 3d ad 2a 79 bc 2d 69 88 bc
       0.13542247 0.07179282 -0.015207929 -0.016651714
000230 73 ad 91 3e 89 46 09 be 5e 26 76 bc 77 df 52 3e
       0.28452644 -0.13405813 -0.015023796 0.20593058
000240 ec 40 0e 3e 81 b5 28 3e 03 8d 03 3e 3d 51 23 3e
       0.13891953 0.16475488 0.1284676 0.15948959
000250 a3 1e 6f 3d 62 0c 32 bc 29 0d e3 3d ca 8f 04 3e
       0.058378827 -0.01086721 0.110864945 0.12945476
000260 98 cd 32 bd 63 ed b4 3d 47 4d ba bd 4c fc b5 3c
       -0.0436531 0.088343404 -0.09096771 0.022215031
000270 43 e3 f3 3d ba 8f 80 bd af f7 9f be 39 85 84 bd
       0.11908581 -0.06277414 -0.31243655 -0.06470723
000280 4c b9 91 bc b3 c4 16 3e 14 ac b0 ba 38 9b 47 bd
       -0.017788552 0.14723472 -0.0013479018 -0.048732013
000290 4f cb e7 bd b6 f3 47 bb 40 e4 96 bd 79 b2 ad 3d
       -0.11318075 -0.0030510253 -0.07367754 0.084813066
0002a0 8e b8 4f 3d 32 27 1c bd 58 34 2e bd 54 18 02 be
       0.050713114 -0.038123317 -0.042530388 -0.12704593
0002b0 78 4c 08 3d ab 7e be 3c f5 07 79 bc 30 36 05 be
       0.03327605 0.02325376 -0.015199651 -0.13008952
0002c0 43 41 99 3c 7f b1 a0 bc b0 d5 b6 bc 1e 04 42 be
       0.018707877 -0.019615887 -0.022318691 -0.18946883
0002d0 79 e7 f1 3d 1f 00 83 bd a9 e8 0a be b3 b1 5f 3e
       0.11811728 -0.063965075 -0.13565315 0.2184513
0002e0 2a 60 2f 3d 0a 9e b8 3d 27 e7 4e 3e 4b e3 0f be
       0.04281632 0.090145186 0.20205365 -0.14051549
0002f0 2c 23 39 bb cf 0b 53 bd c2 a2 4d 3d 8a 16 9e bb
       -0.0028249724 -0.051524933 0.050204046 -0.004824464
000300 43 80 be bd 0f c3 63 3e 09 56 7f 3d fa 87 25 3d
       -0.09301808 0.22242378 0.06233791 0.04041288
000310 df 3a 33 3e 30 61 c8 3c bb 66 42 3e 68 08 4e bd
       0.17502926 0.024460405 0.18984501 -0.050300986
000320 b3 f0 f1 bd 9d 89 2e 3d 36 9a 8a 3d 25 a3 c9 3d
       -0.11813488 0.042611707 0.06767695 0.098455705
000330 6f 60 94 3d e3 cb f5 bd ba bc 43 3e ea 4c 94 3d
       0.07244956 -0.12001779 0.19114962 0.07241233
000340 b0 84 34 3e c7 26 89 3d e1 95 41 3e 9f c6 e5 3d
       0.17628741 0.06696849 0.1890483 0.112195246
000350 7d c6 4d 3e 33 d1 ac 3c f4 ca f5 bd c7 ee 9b be
       0.20095249 0.021095848 -0.12001601 -0.3045561
000360 dc 9d 2c 3e 8e e2 ff bb e8 e8 48 3c 93 79 23 3e
       0.16857094 -0.00780899 0.01226256 0.15964346
000370 3f e9 16 bd 2a a0 73 3d ce 86 80 bb b4 54 b2 3c
       -0.036843535 0.059478916 -0.00392232 0.021768905
000380 14 a8 12 bd a8 1f b6 bd 4c 8d 9b bd de 5d 36 3e
       -0.035804823 -0.08892757 -0.075953096 0.17809245
000390 b8 c6 41 3e 67 bf 91 3d 8b 57 c0 3d 0a 78 9f bc
       0.18923461 0.07116585 0.093916975 -0.019466419
0003a0 fa 09 b4 3e 91 80 3e 3d fe b1 22 be 2a 2b d6 3c
       0.35163862 0.04650933 -0.15888211 0.02614363
0003b0 d0 19 ce bd e9 c9 63 3d 2e bc 40 be 73 16 25 3d
       -0.10063517 0.05561248 -0.18821785 0.040304612
0003c0 92 3a f6 3c 01 c0 68 be 13 de 79 bd e0 30 ab bd
       0.030057225 -0.22729494 -0.061002802 -0.083589315
0003d0 92 97 3e 3d 6f 8a 44 3d 03 9e c7 bd 09 cf 18 bd
       0.046531267 0.047983583 -0.09746935 -0.03730682
0003e0 b6 5c bf 3d 43 c8 8e bc 00 a9 14 be 58 31 1a bc
       0.09343855 -0.017429477 -0.14517593 -0.0094111785
0003f0 01 82 1f 3d bb 55 14 3d a8 fd 0f 3e be e9 41 3e
       0.03894234 0.03621457 0.14061606 0.18936822

network_body._body_endoder.seq_layers.2.bias f4 [128]
000000 d0 f7 b4 3d 42 5b 81 3d 67 d8 4f bd ad 75 3c 3c
       0.08836329 0.06316234 -0.050743487 0.0115026655
000010 86 cc b4 3c 42 01 9d 3c 35 f0 26 bd 20 44 43 3d
       0.02207018 0.019165639 -0.040756423 0.04767239
000020 6d e7 34 3d 97 4b ff 3c 64 a0 0c 3d 80 31 a9 3c
       0.044166017 0.031163974 0.034332648 0.020653486
000030 26 31 7a 3d 1b fe ab bc 7e ff 95 3d 3c 00 94 3c
       0.061082028 -0.02099519 0.07324122 0.018066518
000040 b9 d9 69 3d 93 f9 a0 3d b0 3c 1c 3d d5 38 9f 3d
       0.057092402 0.078601025 0.038143814 0.07774512
000050 52 e4 47 bc 99 57 ed 3c 3c 97 54 3d 88 4f 84 3c
       -0.012200432 0.028972434 0.05190204 0.016151205
000060 84 40 07 3d 0c 26 c5 bc fa 36 bf bd 27 ff 81 3d
       0.03302051 -0.024065994 -0.09336658 0.063474946
000070 13 c8 f7 bb 1f 1b 04 3d 62 c7 04 bc e8 18 5a 3d
       -0.0075616925 0.032252427 -0.008104177 0.05324641
000080 65 e8 c0 ba 31 6c 15 3d d4 a3 ef 3c d8 51 b0 3d
       -0.0014717696 0.036480132 0.029252924 0.086093605
000090 a5 fa 93 3c 5f fd f3 3c b1 3b 8b 3d cb 49 e5 3c
       0.018063853 0.029783903 0.067984946 0.027989289
0000a0 91 7a af 3c 0e 8d 06 3d ad 3e b2 3c f7 4a 66 3c
       0.021420749 0.032849364 0.021758402 0.014055959
0000b0 0d 58 4f 3d 5b d8 a8 3c 38 2f 88 3c 2e 22 18 3d
       0.05062108 0.020610979 0.016624078 0.03714197
0000c0 d9 be 85 3d c1 56 27 3d 56 48 7d 3d fc 23 51 3d
       0.06530542 0.04085422 0.061836563 0.051059708
0000d0 40 9e 36 3d 14 84 18 3d 8e ba 0b 3d 84 57 81 3d
       0.044584513 0.037235335 0.03411346 0.063155204
0000e0 d6 b6 fd 3c 21 a8 55 3d d1 79 f7 bb fc cc cc 3c
       0.030970972 0.052162293 -0.0075523634 0.025000088
0000f0 f6 d6 38 3d eb ac e8 3c 88 13 cf 3c 08 56 1c 3d
       0.045126878 0.028402766 0.025277868 0.038167983
000100 c4 bf 97 ba d3 19 4c 3d bb 59 30 3d 53 d6 6a bd
       -0.0011577536 0.049829315 0.043054324 -0.0573333
000110 a9 f4 1a 3d 95 08 0c 3d 01 3b a0 3b f9 91 a2 3c
       0.037830982 0.034187872 0.0048898463 0.019844996
000120 ed 89 14 3d 35 42 f3 3c 32 26 03 3d a3 94 14 3d
       0.03626435 0.029694656 0.032018848 0.036274564
000130 6d d4 1f 3d cc 74 20 3d 3f d2 81 ba 20 02 e7 bb
       0.039020944 0.039173886 -0.0009904577 -0.007049814
000140 f1 79 e7 bb dc 9f e1 3c 8e 11 3c bd 44 9a c8 3c
       -0.007064097 0.027542047 -0.04591518 0.024487622
000150 ea 90 40 3b 93 61 cf 3d ee 40 cd 3d cd 3c d7 3c
       0.002938325 0.10126033 0.1002215 0.02627411
000160 85 e8 39 bb 5d d3 91 3d c0 99 09 3d 70 35 95 3d
       -0.0028367352 0.071203925 0.033593893 0.07285583
000170 fb 11 46 3b 05 b3 04 3c e1 76 54 3c 1d 9a 82 bc
       0.003022312 0.008099322 0.012967796 -0.015942628
000180 75 4b d3 3c f1 d6 da 3d c5 cd 82 3d ed bf ea 3d
       0.025792817 0.10685528 0.06386904 0.11462388
000190 30 7a 46 3d 29 be 4b 3d 27 e1 b3 3c 6f 5f 42 3d
       0.04845637 0.049741898 0.021957947 0.047454294
0001a0 b0 b0 bd 3d e6 00 5d 3d e7 68 72 3d 6f fb 73 3d
       0.09262216 0.053955935 0.059182074 0.059565958
0001b0 d7 d2 2e 3d 5b f7 d3 bc fb 69 7f bc 70 f1 12 3d
       0.04268154 -0.025874784 -0.015589233 0.035874784
0001c0 78 0a 23 bb 84 ae 5a bb 4f b6 db 3c fa fe 53 3d
       -0.0024878066 -0.003336818 0.02682033 0.051756836
0001d0 22 68 5b 3b 8e a7 0c 3d dc fc 0c bb 1d 71 58 3d
       0.0033478816 0.03433948 -0.002151302 0.05284225
0001e0 4a 20 a2 3d a1 70 92 3d ad 6b 36 bc 37 4c 28 3d
       0.07916315 0.071503885 -0.01113407 0.04108831
0001f0 7a 63 62 3d a3 4d 1f 3d 65 bd 65 3d 5a c0 53 3d
       0.05527065 0.0388924 0.056088824 0.051697113

action_model._continuous_distribution.log_sigma f4 [1, 2]
000000 80 1a 29 3e 70 4b a7 3e
       0.16514015 0.32674742

action_model._continuous_distribution.mu.weight f4 [2, 64]
000000 74 11 6d 3e fd fb 68 bd c0 19 aa bd b9 a0 32 be
       0.23151189 -0.05688094 -0.08305693 -0.17444123
000010 83 cb 5e be d1 14 07 be 35 f9 d2 bc d7 6f d5 bd
       -0.21757321 -0.13191535 -0.025753597 -0.104217224
000020 dc c6 0e be c9 92 19 be d9 02 f4 3d 2f 7f d0 3d
       -0.13943046 -0.149974 0.11914606 0.10180508
000030 b1 05 cb bd 33 a6 f3 3d e7 3a 61 3e 35 d5 cb 3d
       -0.09913195 0.11896934 0.21995126 0.099527754
000040 a8 e3 e8 bd 69 92 80 3d 06 f9 4d be b8 fe 29 be
       -0.11371547 0.062779255 -0.20114526 -0.16601074
000050 4a 02 28 be 15 73 67 3e 0f d6 63 be 17 a0 ca 3d
       -0.16407123 0.22602494 -0.22249626 0.09893816
000060 7f 6e 7c 3e 9a a8 65 be d1 c0 c2 3d 23 85 01 be
       0.24651526 -0.22427598 0.09509433 -0.12648444
000070 a1 a3 88 3e 66 e2 4d 3e 17 c1 56 3e 3c de 34 3e
       0.2668734 0.20105895 0.20972095 0.176629
000080 aa 88 d8 bd 14 de 0c 3e 5d bf 84 3d 02 a6 53 3e
       -0.105729416 0.13756591 0.06481812 0.20668796
000090 f3 d8 7d 3e 78 3a 47 be e8 8b bf 3d 55 8b 70 3d
       0.24789791 -0.19455898 0.09352857 0.058726627
0000a0 86 f0 31 3e f2 f4 16 be 9d ca 24 be a0 44 ab bc
       0.17376909 -0.14741877 -0.16092916 -0.020906746
0000b0 e8 93 d6 3d a2 92 af 3c f8 60 29 3e 87 31 82 3e
       0.1047743 0.021432225 0.16540897 0.2542841
0000c0 7e f7 0e 3e 00 cb f0 bd f2 18 20 be 28 eb 1c be
       0.13961598 -0.11757469 -0.15634516 -0.1532408
0000d0 90 14 4d be 77 10 24 be 15 20 22 3e b4 51 19 be
       -0.20027375 -0.16021906 0.15832551 -0.14972574
0000e0 ea 6e 29 3e 8f a0 48 3e e9 53 8c 3d 69 d4 c1 bc
       0.16546217 0.19592498 0.06851942 -0.023660855
0000f0 c4 90 1f 3e 3a 32 49 3e 4e 68 0d bc 48 c7 8d bd
       0.15582567 0.19648066 -0.008630825 -0.069227755
000100 01 34 13 3c e4 f9 6f 3e 84 ef 08 bd 11 93 2b bd
       0.008984567 0.2343517 -0.033431545 -0.0418883
000110 4d 25 1f bc 06 f3 7e bc df e3 89 be f5 fb 73 bb
       -0.009713483 -0.015560871 -0.26931664 -0.0037229036
000120 f9 77 44 3d 5c 80 dc 3d b2 00 24 3d d3 45 1d bc
       0.047965977 0.1076667 0.040039726 -0.009599167
000130 cf ca 94 bd 91 b7 8b 3b 4f 75 45 3d 8c d6 22 be
       -0.07265245 0.004263826 0.048207577 -0.15902156
000140 b3 32 d7 3d f7 37 ab bc cb ee 53 ba a2 fa 9d bc
       0.10507717 -0.02090071 -0.0008084594 -0.01928455
000150 ee 11 b6 bd 45 5e 4e 3d e9 d7 6e 3c d5 27 b0 bb
       -0.088901386 0.05038287 0.014577844 -0.005375842
000160 09 74 81 3d 87 a1 ca bd 16 88 10 3e 6b 80 62 3d
       0.0632096 -0.0989409 0.14114413 0.05529825
000170 19 b2 fb bc ed 4e 0b be 25 e5 3c 3d 4e f9 9d bd
       -0.030724572 -0.13604327 0.046116967 -0.07713567
000180 5a b9 26 bc 86 38 7f 3d eb eb de 3d 1a 6c d3 bd
       -0.010176027 0.062309764 0.108848415 -0.10323353
000190 54 b9 6a 3c e3 71 01 be 85 52 4d bd 79 21 6b be
       0.014326412 -0.126411 -0.050127525 -0.22961988
0001a0 8d 4b 28 bd 5b b8 6d bd b3 dc 64 3d bb 89 3f be
       -0.041087676 -0.058037143 0.055874538 -0.18704884
0001b0 0a 05 6d 3e 3b 26 b1 3c e0 c1 b7 3c 99 65 9c bc
       0.23146453 0.021624675 0.022431314 -0.019091414
0001c0 52 43 4d bd fe dc 61 3a 39 7f fd 3c de 22 07 bd
       -0.05011303 0.0008615999 0.030944454 -0.032992236
0001d0 2b 1c 28 bc e3 07 35 bc 23 6b 26 bd d7 6f 82 3e
       -0.010260622 -0.011049244 -0.040629517 0.25475952
0001e0 09 e8 06 be 28 9f 91 3e 52 b3 64 3c 1f 27 c2 ba
       -0.13174452 0.2844174 0.013958769 -0.0014812684
0001f0 8b 98 12 be 8f c4 83 bd fa fc 32 bc d1 86 95 bd
       -0.14316003 -0.06433975 -0.010924572 -0.07301105

action_model._continuous_distribution.mu.bias f4 [2]
000000 85 ad ea bd d7 e2 ba bb
       -0.114588775 -0.005703311

action_model._discrete_distribution.branches.0.weight f4 [2, 64]
000000 d9 10 88 bd 86 26 08 3a 6a 52 2b be 2f f2 ba 3c
       -0.066438384 0.0005193729 -0.16730657 0.02282056
000010 cf bc aa 3c 68 b8 ce bd 30 10 c1 bc ce 03 03 be
       0.020841984 -0.100937665 -0.02356729 -0.1279442
000020 cb 88 b2 3d 86 dc 60 3d 78 af 35 3d 40 c3 96 3d
       0.087174974 0.054897808 0.044356793 0.0736146
000030 de af 98 bd 57 2e 09 3e 42 f5 95 bd 1c 6a 43 bc
       -0.07455419 0.13396583 -0.0732217 -0.011927154
000040 73 8b 94 bc 8d 13 06 3c fc 7f 46 3e 1f 2d 27 be
       -0.0181329 0.008183372 0.1938476 -0.16325806
000050 0f 0b a6 ba 13 ce 94 bd c5 c4 87 3d 2e 76 cf 3d
       -0.0012668091 -0.07265868 0.06629328 0.10129963
000060 58 7a a9 bd 4f bf b7 bd f1 e0 4b 3d 06 a2 01 bd
       -0.08275288 -0.08972036 0.049775068 -0.03164866
000070 c9 a2 17 3d 80 16 0c bd 86 8b 6a bd 51 fa 8b 3c
       0.03702048 -0.034201145 -0.057261966 0.017087134
000080 ef 63 d4 bd 7b e1 22 3e a8 6c 5d 3e 73 82 c8 bd
       -0.10370623 0.15906326 0.2162348 -0.09790506
000090 1e 63 d5 bc 3d e5 19 3e e8 1c 3c 3e 14 dd 31 bd
       -0.02604824 0.15028854 0.18370402 -0.043423727
0000a0 3f 57 52 3d a1 78 98 3b 96 cd 31 bc db 69 d1 bd
       0.051352736 0.004653052 -0.010852238 -0.102252685
0000b0 90 aa 5f 3d c3 2c 8b 3d f3 55 d8 bd a4 11 96 bd
       0.05460602 0.06795647 -0.105632685 -0.073275834
0000c0 35 78 c3 bc d4 08 52 be 3b 97 b7 3c 75 c7 fd bd
       -0.02386103 -0.2051118 0.02241098 -0.12391559
0000d0 0d 6c 66 3d a6 4b f0 3c 74 b3 b3 bd e8 bd a1 bb
       0.05625539 0.029332947 -0.08774462 -0.0049359687
0000e0 2f 8c 43 bc c4 38 83 bd 76 8e 91 be 48 7d 80 3e
       -0.011935278 -0.064073116 -0.28429002 0.25095582
0000f0 2e 4f 69 be 37 49 10 be 65 10 b0 bd dc a5 28 be
       -0.22784111 -0.14090429 -0.08596877 -0.1646952
000100 45 96 c5 3d ea 63 b2 bc 93 20 2c 3e ab 10 3e bd
       0.09647802 -0.021776158 0.16809301 -0.046402615
000110 a5 56 bf bc 41 ed 98 3d b0 c0 ed 3c 85 00 f8 3d
       -0.023356745 0.074671276 0.029022545 0.12109474
000120 1e 41 54 bd c3 2d 5a bd 94 ad 56 bd 77 94 b2 bd
       -0.051819913 -0.053266298 -0.05241163 -0.08719724
000130 6e a4 c3 3d cb 58 0f be 68 d5 a4 3d 81 39 0f 3c
       0.09552847 -0.13998716 0.080485165 0.008741737
000140 60 74 5e ba 1b 63 7f bc ef a4 30 be 3c 15 0d 3e
       -0.0008485969 -0.015587593 -0.17250417 0.13777632
000150 e7 b6 9c bc 8e 50 95 3d 6a 4b 5f bd 8b 76 d0 bd
       -0.019130183 0.07290755 -0.05451528 -0.1017886
000160 a5 8e b4 3d 15 24 93 3d 2f fb 91 bc 6a e1 ad 3c
       0.0881627 0.071846165 -0.017819969 0.02122565
000170 85 13 bf bb 79 b8 71 3d c8 af 60 3d d5 d0 09 bd
       -0.0058311843 0.059013817 0.054855138 -0.033646423
000180 13 1d df 3d 2f dc f1 bd e4 f1 54 be c6 19 fe 3d
       0.10894217 -0.11809575 -0.20795399 0.1240726
000190 56 9e 68 3c a5 e2 fc bd 79 24 16 be cc f4 1f 3d
       0.0141979065 -0.123479165 -0.1466235 0.039051816
0001a0 14 46 df bc b7 59 09 bd bf 6f 2c 3c 7f 89 f9 3d
       -0.027255096 -0.033532824 0.010524689 0.121844284
0001b0 5f 06 0e bd c5 f0 8e bd 8b fd f5 3d af 51 be 3d
       -0.034674045 -0.06979517 0.1201125 0.09292924
0001c0 71 86 64 bb b6 d9 2c 3e f8 04 95 bc c3 31 0b 3e
       -0.0034870172 0.16879925 -0.018190846 0.13593201
0001d0 39 75 62 bd eb 6e a2 bc 41 ba b2 3d fa c1 b6 bc
       -0.055287573 -0.01982828 0.08726931 -0.022309292
0001e0 ef 81 c5 3a 41 f4 16 3d c4 6f 86 3e a1 6d 89 be
       0.001506863 0.036854032 0.26257145 -0.26841453
0001f0 c0 3c 5b 3e c7 f4 e4 3d 8c 5f d7 3d 24 02 24 3e
       0.21409893 0.111795 0.10516271 0.16016442

action_model._discrete_distribution.branches.0.bias f4 [2]
000000 49 cb 63 3d 4a cb 63 bd
       0.05561379 -0.055613793

action_model._discrete_distribution.branches.1.weight f4 [2, 64]
000000 e9 b6 96 3a e6 c2 f0 bc 40 13 cb 3d 9e 57 4f bd
       0.0011498603 -0.02938981 0.09915781 -0.050620668
000010 ca 94 9a 3d b2 08 32 3b 3d 0f 32 bd 67 58 97 bd
       0.075479105 0.0027165827 -0.043471564 -0.07389908
000020 c2 66 8e bd 23 7f 24 bd 7d fb 4f 3c f8 30 aa 3d
       -0.06953193 -0.04016031 0.012694237 0.08310121
000030 b6 83 a3 3d bf 24 b8 3d 69 1e 31 3a eb 37 b5 3b
       0.07984106 0.08991384 0.00067565456 0.0055303476
000040 a5 23 27 be 53 71 a5 3d 95 dc 01 3d b0 a3 2f bd
       -0.16322191 0.080782555 0.031704504 -0.042880714
000050 9e 5b fe 3d e9 08 62 3c ab ab 13 bd a5 d9 d9 3d
       0.12419818 0.01379607 -0.036052387 0.106372155
000060 9b 0c 79 bd 8c 07 8a bd 64 3b 97 bd 26 c1 07 3d
       -0.060803037 -0.06739721 -0.07384375 0.033143185
000070 bd a4 5a bd 5d 42 35 bd 39 fe 96 bc 37 0b 6f bd
       -0.053379763 -0.044252742 -0.01843177 -0.058360305
000080 3b b7 f3 3d cb 4e cf bd 00 00 b4 bd 86 2f e4 3c
       0.11900183 -0.101224504 -0.087890625 0.027854692
000090 74 d3 b4 bd a2 1a 48 3e 27 e4 25 3d 20 cf 2b 3e
       -0.08829394 0.1954141 0.040500786 0.1677823
0000a0 04 d9 91 bd ab cb 57 bd 8b ee 57 bd 71 b5 bd 3d
       -0.071214706 -0.052684467 -0.052717727 0.09263123
0000b0 9b cc 10 be 96 a5 ab 3e 3a 7f b0 3d 55 d8 95 bc
       -0.14140551 0.3352477 0.086180165 -0.018291632
0000c0 e4 eb b6 bd 29 7b 90 b9 85 84 b3 3d 36 fe a0 bd
       -0.08931711 -0.00027557582 0.087655105 -0.07860987
0000d0 3a 07 00 bd 83 ea 7d 3d 57 59 0d 3e 8d e5 09 3d
       -0.03125689 0.061991226 0.13803612 0.033666182
0000e0 08 7d c2 3d 70 27 84 bd cd e0 02 be a2 d8 d2 3d
       0.09496504 -0.064528346 -0.12781067 0.10295226
0000f0 f4 db 3d 3d 55 98 4b bd 45 63 47 be ca 13 b4 3d
       0.04635234 -0.049705822 -0.19471462 0.08792837
000100 59 f2 64 3b 82 e2 84 3c bf 93 c1 bd dd 4c a2 3d
       0.003493449 0.016221289 -0.094520085 0.07924817
000110 f7 44 b6 bd a0 42 d9 bc 47 b1 a5 3c 49 eb a7 3d
       -0.08899873 -0.026521027 0.020226134 0.08199174
000120 7c d8 8e 3d f8 3d 19 3d 8c e4 f1 bc 40 37 8e bd
       0.06974885 0.037412614 -0.029527925 -0.06944132
000130 0a 84 bd bd e2 5f 8c bd e1 5c 00 bc 20 2b 50 bd
       -0.092537 -0.06854226 -0.007834644 -0.050822377
000140 8e f4 3d 3e 51 a3 c3 bd c0 41 a3 bc 7f 31 9b 3c
       0.18550321 -0.095526345 -0.019928813 0.0189445
000150 82 7c 07 be 9c f7 5b 3b 8b c2 fb 3c eb 72 cd bd
       -0.1323109 0.0033564335 0.030732414 -0.100316845
000160 7b 98 a4 3c 1e e1 b3 3d 34 d6 ab 3d 60 f7 6f bd
       0.02009224 0.08783172 0.083904654 -0.058585525
000170 b1 d6 5d 3d 73 6e a7 3d 1f a2 2a 3c 4d 6d 54 3d
       0.054159824 0.081753634 0.010414629 0.05186205
000180 8d f0 ef bd 11 e1 e2 3d 0b 6c 98 3d ed dd 8f bc
       -0.11715803 0.11078084 0.074424826 -0.017561877
000190 72 93 b3 3d cb 4d 56 be c7 0c 1c bd 07 c9 3c be
       0.08768357 -0.20928113 -0.038098123 -0.18436061
0001a0 0c c4 d2 3d 37 09 27 3d 31 3b 9b 3d 74 fd 97 bd
       0.10291299 0.040780272 0.07579649 -0.07421389
0001b0 f1 dc 01 3e 4c b2 a1 be 9d a2 eb bd e3 9f 84 3c
       0.12681939 -0.31581342 -0.115056254 0.016189521
0001c0 83 cf a2 3d 7d a9 92 3c 83 62 e1 bd 28 02 a5 3d
       0.07949736 0.017903084 -0.11005118 0.08057052
0001d0 47 db 1c 3d e1 41 31 bd 91 6b 1e be 0c 88 5f bd
       0.038295057 -0.043275718 -0.15470721 -0.054573104
0001e0 bb 2a 8e bd 6d f2 70 3d f7 1f 01 3e ed 3a b6 bd
       -0.06941744 0.058824945 0.1260985 -0.08897958
0001f0 de f3 34 bd ff 64 e7 3c 2b 40 32 3e cd fc 8b bd
       -0.044177882 0.0282464 0.1740729 -0.06835327

action_model._discrete_distribution.branches.1.bias f4 [2]
000000 57 f6 7c 3c 5f f6 7c bc
       0.015439591 -0.015439599

onnx::LSTM_133 f4 [1, 256, 128]
000000 35 91 2d 3c b8 f7 ff 3d 3a 5b fb 3d 4a 63 3f 3d
       0.010593702 0.124984205 0.122732595 0.04672555
000010 8a 2e 63 bd 7c cb 0a 3d 63 87 53 be 41 18 85 3c
       -0.055464305 0.033885464 -0.20657115 0.016246917
000020 60 fa fb 37 d3 ba 14 be 1b 32 14 be 15 df 47 3d
       3.0038122e-05 -0.14524393 -0.14472239 0.048796732
000030 0f 49 d6 bb 39 b7 57 bc b2 48 e6 3d a0 19 07 bd
       -0.006539471 -0.013166242 0.11244334 -0.032983422
000040 e9 26 31 3e 30 89 ae bd 29 87 a4 3d 20 a6 25 3e
       0.173 -0.0852226 0.08033592 0.16176653
000050 f9 d7 d9 bc e7 31 69 3e 55 1d 2c bd a6 be 0a be
       -0.026592242 0.22772942 -0.04202016 -0.13549289
000060 af 3d 97 3e b3 eb 05 3e c3 f2 8c bd db c2 66 3d
       0.29539248 0.13078193 -0.068822406 0.056338172
000070 6e e6 02 be 1f 40 10 bd 63 39 ce bd 3d df 3a 3d
       -0.12783214 -0.0352174 -0.100695394 0.045623053
000080 f1 4f 51 bd 93 89 51 3e 49 9c ab 3d f8 ec 1d 3e
       -0.05110163 0.20462637 0.083794184 0.15422428
000090 39 28 b8 3d f7 bd d8 3d f2 22 4f 3e f0 d8 54 bd
       0.08992047 0.10583108 0.20228174 -0.0519647
0000a0 b9 2b a4 bd 35 16 52 bd 92 1d 7a 3d 0e 86 e9 bd
       -0.08016152 -0.05129071 0.061063357 -0.11402522
0000b0 9b e4 b1 3c 82 e6 ef 3c d0 a3 13 3d 15 f9 e9 bd
       0.021715453 0.02928472 0.036044896 -0.11424462
0000c0 9d b5 45 3e 23 94 61 3d ac de f4 bc 27 8e 09 bc
       0.19307561 0.055072915 -0.029891334 -0.008395708
0000d0 6c 38 bb bc 27 75 32 be a1 91 01 be ad 81 dc 3d
       -0.022854052 -0.17427503 -0.1265321 0.10766921
0000e0 d9 3c c0 bd 0d 54 5a bd 0a a0 bb bc 11 70 59 3e
       -0.09386606 -0.053302813 -0.022903461 0.21234156
0000f0 27 e0 47 be 58 4d b1 bd 83 f5 9d 3d 34 97 8c 3e
       -0.19519101 -0.0865733 0.07712843 0.2745911
000100 91 3e 94 bd 71 3b 63 3d ce 83 aa 3d ac 59 38 3d
       -0.07238496 0.05547661 0.08325921 0.045007393
000110 59 d5 70 be e7 e6 7c bd b8 cd b3 bd 2c 20 5b bd
       -0.23518886 -0.061743643 -0.08779472 -0.05349748
000120 a6 3a d8 3c c7 3c 81 3e bd 23 84 3e 93 05 c3 3d
       0.026395153 0.25241682 0.25808516 0.095225476
000130 0f a4 da bd 61 85 46 be cb d8 04 be 9a c3 9d bd
       -0.10675823 -0.19386818 -0.12973325 -0.07703324
000140 af c6 eb 3c f1 b9 67 3d 05 5a 3f be b2 d6 bf bd
       0.028781263 0.056573812 -0.18686683 -0.09367122
000150 b5 bf af bd e1 ee 50 3e b7 bb 43 3e b1 40 57 3e
       -0.08581487 0.20403625 0.19114576 0.21020772
000160 9d b6 c5 bd 0b 6b 7c 3b 6d 54 90 bd 87 9f 6b 3e
       -0.09653971 0.003851595 -0.07047353 0.23010074
000170 18 aa 2e 3c 6b 8f 82 3d 2a 40 b1 be 2d 1b 63 be
       0.010660671 0.06375011 -0.34619266 -0.22178335
000180 7f c5 43 be 3d d0 d0 bd 8c 55 5c bd 6e ad 92 3d
       -0.19118308 -0.10195968 -0.05379252 0.07161985
000190 76 0e ed bd 2f fd 9c 3c 4e 61 90 bd c5 10 9b be
       -0.11575024 0.019163696 -0.070498094 -0.30286232
0001a0 ee a4 8c 3c 0f 2e 0f be dc 6a eb bd 1c cf f5 bd
       0.017168488 -0.13982414 -0.11494991 -0.120023936
0001b0 40 02 1a 3d b3 18 77 be 46 26 f4 bd 1f 10 b5 bd
       0.037599802 -0.24130516 -0.119213626 -0.088409655
0001c0 3f ec 47 3e 5d be 99 3d bc 17 b4 3d c5 05 1f 3e
       0.19523714 0.07507012 0.087935895 0.15529545
0001d0 d7 ed 88 bd a4 0c 3f 3e f4 42 b1 3c 14 3e ad bd
       -0.06685989 0.18657166 0.021638371 -0.08459106
0001e0 0d ef 3c be 44 f5 18 be 42 38 64 bd 05 b7 60 3e
       -0.18450566 -0.14937311 -0.055717714 0.21944816
0001f0 00 56 50 3e 27 36 93 3d b9 81 86 3e ea e0 68 3c
       0.20345306 0.07188063 0.26270846 0.01421378
000200 98 27 7e 3d a1 74 d3 3d d9 b2 78 bc ff 47 f4 3d
       0.06204948 0.103249796 -0.015179359 0.11927795
000210 25 5e 5b be 27 42 1e 3d 68 2c 60 3e bb 28 21 3e
       -0.21422632 0.038637307 0.2189194 0.15738194
000220 82 b2 3f be fe 15 2f 3e 1c c4 30 bd 2b b2 98 3e
       -0.18720439 0.17098233 -0.043155774 0.2982343
000230 ad a4 7e 3e c7 5b 43 3d 57 30 84 bc cd b0 0a bd
       0.24867506 0.047694948 -0.016136331 -0.033860017
000240 d1 6b a5 3d 32 9f 63 bd 4c e5 59 3d 15 a8 f8 3d
       0.08077205 -0.055571742 0.05319719 0.12141434
000250 75 9d 01 3e 2d 53 cb bd 05 39 1f 3e 80 71 28 3e
       0.12657721 -0.09927974 0.15549095 0.16449547
000260 f0 3f 98 3c f2 00 4d 3e 82 01 e9 bd 27 87 c1 3d
       0.018585175 0.20019892 -0.11377241 0.094496064
000270 41 93 03 be 77 0f 91 3d ad 89 f3 3c 35 65 90 3e
       -0.12849142 0.07083028 0.029728735 0.28202215
000280 8b f6 39 be 1e e7 82 3e a3 b6 8b 3b a4 7d a0 3e
       -0.18160455 0.25566953 0.0042637154 0.31345856
000290 01 fe 00 be 83 28 38 be 45 96 c0 3d 13 85 55 be
       -0.12596895 -0.17984204 0.09403662 -0.20851545
0002a0 e8 a4 b0 3d 2a 64 03 be 0e b4 e6 bc 2c 0c c8 3d
       0.08625203 -0.12831178 -0.028162029 0.097679466
0002b0 b3 a5 8b 3c 30 18 1a be c7 9c 44 be ae 2a 74 bd
       0.017046785 -0.1504829 -0.19200431 -0.059611015
0002c0 11 05 a3 bd 0c cd 66 bd 24 e5 26 bd 19 63 58 3e
       -0.07959951 -0.05634789 -0.04074587 0.21131553
0002d0 23 ea 94 3c 79 2b e2 3d 40 ac 41 3e 08 2a be 3e
       0.018178051 0.11043448 0.18913364 0.37141442
0002e0 3d 4d 8a be 2e d2 1a be 04 c1 66 3c ed 1e 2b 3e
       -0.27012053 -0.1511924 0.014084104 0.16711016
0002f0 36 83 21 3d 5f 85 84 3d 4d 43 21 be 59 12 49 be
       0.039431773 0.06470751 -0.1574833 -0.19635905
000300 10 a6 e2 3e fd 41 8e 3e 92 7c a4 3e 50 b9 ed 3d
       0.4426732 0.2778472 0.3212629 0.11607611
000310 94 eb a0 3d 51 31 6b 3d 03 c7 5b bd a3 9b 97 3c
       0.07857433 0.05742008 -0.05365659 0.01850683
000320 b5 d1 56 3d 75 7f 9b bc 03 fd b6 bd 27 8f 26 3d
       0.052446086 -0.018981675 -0.08934977 0.040663864
000330 3c 46 43 bd 75 8d 83 3e 67 98 3f 3e 52 ad a5 3d
       -0.047674403 0.2569386 0.1871048 0.08089699
000340 c5 1b d8 3d 3d d4 b6 bc 9e 92 a7 bd b2 18 1e bc
       0.105521716 -0.022318 -0.08182262 -0.0096494425
000350 4d 3c 19 3e 5b bd 54 3e 64 dd ff 3c 85 33 8c 3e
       0.14964409 0.20775358 0.031233497 0.27383056
000360 e2 5a b0 3e 91 ac f2 bb df c2 6a 3e 79 83 cd 3d
       0.34444338 -0.0074058254 0.229259 0.10034842
000370 19 d8 ed bd 50 f5 99 3d c2 c3 f3 3d 37 dc 84 3e
       -0.11613483 0.07517493 0.11902572 0.2594926
000380 ea a3 30 3d da 61 fa bd c8 48 dc bc b0 54 61 3d
       0.04312507 -0.12225695 -0.026890174 0.055012405
000390 87 fe 81 3d f3 e8 2a 3e 8f 61 f5 3d d1 7e c8 3c
       0.06347375 0.16690426 0.119814985 0.024474533
0003a0 12 6d d7 3d fd 7b c4 bc e0 87 95 3e f7 79 36 3e
       0.105188504 -0.023984903 0.29205227 0.17819963
0003b0 21 5b e5 bc 31 e2 21 3e e8 03 1f 3e da 33 1a be
       -0.027997555 0.15808941 0.15528834 -0.15058842
0003c0 49 fe cf bb 87 8d 24 3d fa 6b 4c 3e 02 91 20 3c
       -0.006347452 0.040174033 0.19963065 0.009800198
0003d0 85 63 9b be 87 12 5f be 81 94 9c 3d 69 fe f0 3b
       -0.30349365 -0.21784411 0.07645512 0.007354547
0003e0 0d 84 b4 3e 3d 84 a3 bd 2f 89 15 be 77 52 59 be
       0.35256997 -0.07984207 -0.14603113 -0.21222864
0003f0 97 ef be 3d 31 22 1d be f0 b2 be bc 8b 34 e4 3d
       0.09323042 -0.15345074 -0.023278683 0.11142834

onnx::LSTM_134 f4 [1, 256, 64]
000000 a8 c2 13 3d 70 53 61 3c 31 3b 0b be ea 08 87 be
       0.03607431 0.013752803 -0.13596798 -0.26373988
000010 ca 00 1c 3d 94 68 51 3e c7 f2 36 be a4 09 5a bd
       0.03808669 0.2045005 -0.1786605 -0.05323185
000020 4b d4 dc bc c4 a4 c0 3d 02 3a 88 be 53 b6 2e be
       -0.026956698 0.094064265 -0.26606756 -0.17061739
000030 62 a9 af 3d e9 e7 1a bd 15 c0 18 3e 4f 90 54 3e
       0.08577229 -0.037818823 0.14917023 0.20758174
000040 2b cc 29 3b a1 55 cc bd 3b 06 92 bd 38 10 4f 3c
       0.0025909047 -0.0997727 -0.071300946 0.012638144
000050 5b 1b 13 3e 6b fb 0a 3e 66 e3 e8 3d d8 33 c8 bd
       0.14365904 0.13572471 0.11371498 -0.097755134
000060 84 46 2b 3e cd 38 01 3e 72 e2 3e bc d4 10 1b 3e
       0.16726118 0.12619324 -0.011650668 0.15143138
000070 17 1b 94 3d 77 1d d8 bd 66 86 41 bd 7c a9 99 bd
       0.072317295 -0.10552495 -0.047247313 -0.0750303
000080 67 19 6c be fc 23 5d bd f4 9d 66 be 34 d0 a8 3d
       -0.23056565 -0.053989395 -0.22521192 0.082428366
000090 05 bf 03 be e0 73 b7 bd 8c f2 45 be 1d 91 85 3e
       -0.12865837 -0.08957648 -0.19330806 0.26087275
0000a0 f0 79 56 3e e0 70 45 3e f3 35 30 3e 4d cf 09 3e
       0.20944953 0.1928134 0.1720808 0.13457985
0000b0 96 1f 88 3c 88 a5 63 3e c8 1c e7 bd 23 28 d7 bd
       0.016616624 0.22231114 -0.112847865 -0.10505702
0000c0 7d b8 58 bd 56 f0 8e bd 71 42 cb bb c3 7b b5 bb
       -0.052910317 -0.06979434 -0.006202989 -0.005538435
0000d0 86 11 8d bd 33 fc e9 3d ec cd 68 be 01 29 df bd
       -0.06888108 0.11425056 -0.22734803 -0.10896493
0000e0 68 90 0e 3e 76 e9 49 bd de ba 3d 3e cf 97 9a bd
       0.13922274 -0.04929491 0.18528315 -0.075484864
0000f0 11 fb b8 bd 19 a0 cc bd 5d d1 2f bd 08 f8 38 bc
       -0.09032262 -0.09991474 -0.042924274 -0.011289604
000100 d0 ae 20 be d3 c6 4c 3d 62 9b 0a 3e 0c 29 80 3d
       -0.15691686 0.0499943 0.13535836 0.06257829
000110 dc fb 79 be c6 cd 06 bd 1e c3 19 3e c3 f2 1e be
       -0.24412483 -0.032911085 0.15015838 -0.15522294
000120 87 51 63 3b 9f 20 65 be 98 3c ee bd 76 d2 c0 bd
       0.0034686045 -0.22375725 -0.11632651 -0.09415142
000130 71 e3 9e bd 82 1e 47 3d 33 6b ad 3d 7f 0d 2d 3c
       -0.07758225 0.04861308 0.08467712 0.0105623
000140 d2 fa 06 be af 16 24 3e 6b 50 1f be 34 bc 74 bc
       -0.13181618 0.16024278 -0.15558021 -0.014937449
000150 c8 c8 10 3d dc 98 4e 3e 83 b5 25 3e 6b 68 05 3e
       0.03534773 0.20175499 0.16182522 0.13028114
000160 3d f2 56 3e 44 14 db bd 04 a9 c6 bd e3 9e e2 3d
       0.20990844 -0.10697225 -0.09700206 0.110654615
000170 0a 92 fa ba cd 36 56 3d dd 44 3b be 2b 14 5d 3e
       -0.0019117009 0.052298356 -0.18287988 0.21589725
000180 da 62 34 3e e1 2b 67 bd 89 97 20 3e 10 df 1a bd
       0.17615834 -0.05643833 0.15682806 -0.037810385
000190 fe 83 9a bc 3e b5 dd bd ba e5 14 be 6a ff 81 bd
       -0.018861767 -0.10825585 -0.14540759 -0.063475445
0001a0 5d 5d 6f 3d 3d 46 fb 3d bf 4a 0a 3e c2 de c9 3b
       0.058438648 0.12269256 0.13505076 0.006160588
0001b0 96 bf 17 3e 3c 16 6e bd f2 e7 21 be b3 89 e0 bd
       0.14819178 -0.058126673 -0.15811136 -0.10963764
0001c0 a1 99 e3 bd 28 1d d6 bc ad 2d 27 be ae 1c 7e 3b
       -0.11113287 -0.02613695 -0.16326018 0.0038774419
0001d0 0f c4 23 be 59 4d 77 bd 17 92 66 3d f3 02 e5 3c
       -0.15992759 -0.0603765 0.056291666 0.027955508
0001e0 eb b9 65 3e 21 91 0e 3d 23 d6 a6 3d b9 04 16 be
       0.22434203 0.034806374 0.08146312 -0.14650239
0001f0 b4 73 9c bd 25 cd 77 be 68 68 70 3e 6e ce 3d 3e
       -0.07639256 -0.2419935 0.23477328 0.18535778
000200 6b ab 10 3d 05 47 27 3e 6e 8c c9 bc 8b 64 c7 3c
       0.035319727 0.16335686 -0.024603095 0.024339935
000210 d3 34 13 3e e7 7a 17 be 19 e2 18 be b4 67 1d 3d
       0.1437562 -0.14792977 -0.1493 0.038428977
000220 6d c7 25 bd 01 bb 45 bd f3 93 6a be fa e7 16 3e
       -0.04047339 -0.048274044 -0.22908 0.1473693
000230 59 e9 57 3e 5b 43 05 bd 8f 7d b8 bb 6b 26 ec bb
       0.21085109 -0.03253494 -0.005630202 -0.007206728
000240 81 c1 6f bd 62 7f cf 3d 02 76 66 3e b2 5a 48 3e
       -0.05853415 0.10131718 0.22505954 0.19565848
000250 92 7b 44 3c 94 0e 04 3e cc 0b 1c 3d 9c b1 85 3d
       0.011992352 0.12896186 0.038097188 0.06528017
000260 c0 7c 08 bd 04 70 6d be 17 3c 0c be 23 54 50 3e
       -0.033322096 -0.23187262 -0.13694797 0.20344596
000270 28 4a 04 be 08 15 65 be dc e0 59 bc d1 97 df 3d
       -0.12918913 -0.22371304 -0.01329824 0.109176286
000280 13 95 ce 3d 32 15 48 3e 83 a3 8e bd b2 d4 3d 3e
       0.100870274 0.19539335 -0.06964781 0.18538168
000290 9d 2c 34 bd 44 5e ab bd 47 3f 0d 3e 4c eb 07 3e
       -0.04398786 -0.08367589 0.1379367 0.13273352
0002a0 3b d2 d9 3d 34 87 03 3e 5d ed 45 3e c3 50 10 3c
       0.106358014 0.12844545 0.19328828 0.008808318
0002b0 b9 d3 4a be 11 43 45 bd a8 5b c3 bb 70 19 31 be
       -0.19807328 -0.048159663 -0.005961854 -0.1729486
0002c0 df 1a 52 bd 2c 90 16 3d 3f 0e 38 3d 9a 02 7d 3d
       -0.051295158 0.036758587 0.04493546 0.06177006
0002d0 05 2e 77 3e d1 1b b5 bd 7c 7e 4a 3e 36 ff e6 bd
       0.24138649 -0.08843196 0.19774812 -0.112791464
0002e0 08 a2 e6 bd b9 c8 bb 3b 8d d2 6f be 46 6a 81 3d
       -0.11261374 0.005730715 -0.23420162 0.06319098
0002f0 6f 20 f1 ba e7 50 2b be e9 6c 1d be 6a 96 66 be
       -0.0018396507 -0.1673008 -0.15373577 -0.22518316
000300 ae cb 48 3e 7d 64 80 3c bc c4 12 be 72 14 39 3e
       0.19608948 0.015672917 -0.1433286 0.18074206
000310 87 01 e3 3d d7 37 05 3e bd 8c 42 bd c3 d9 1e 3e
       0.11084276 0.13009582 -0.0474975 0.15512757
000320 57 4f 01 be 9e 7e 79 3e d1 29 b8 3d 2d e5 d0 3c
       -0.12627922 0.24364707 0.08992351 0.025499905
000330 e0 0b 4a 3e eb 7d 4b bd d9 ff 33 3e 8c 38 85 3d
       0.19731092 -0.04968063 0.17578067 0.06504926
000340 05 b2 66 bb 29 94 bd bd d8 a7 f8 3d 9b 05 ce bd
       -0.0035201323 -0.09256775 0.12141389 -0.10059663
000350 93 98 54 3e 29 e4 b1 3d b2 c7 ac bd 7f 84 2b be
       0.20761327 0.08686096 -0.08436526 -0.16749762
000360 0a 03 eb bd bb 14 8e bd 25 c3 67 3e 33 f3 0d be
       -0.11475189 -0.06937548 0.22633035 -0.13862304
000370 a4 0b 33 bd 22 82 5d be b4 1a b6 bd 85 b6 c4 bd
       -0.043712273 -0.21631673 -0.08891812 -0.09605125
000380 48 27 0f 3e 17 af cc bd 1f 7f 3f 3e b6 57 c3 bd
       0.13979828 -0.09994333 0.18700837 -0.09538214
000390 9e 2c 0d be a7 c5 4a be bb 30 a2 bc 0a 8c 02 3e
       -0.13786551 -0.19801961 -0.019798627 0.12748733
0003a0 b3 66 25 be f5 fa 05 3e 81 b8 2f be eb c7 87 3e
       -0.16152458 0.13084014 -0.17160226 0.26519713
0003b0 38 e1 bf bc 07 08 dd bc 8c 7e 89 3d 1c ca 1c be
       -0.023422822 -0.026981367 0.0671359 -0.15311474
0003c0 fc f9 04 3e 54 05 4d 3e 14 4a 45 3e 36 4a 4c 3c
       0.12985986 0.20021564 0.1926654 0.012468865
0003d0 53 9e 05 3d fe 5a 0a be e4 78 9a bd 7d f9 49 be
       0.032621693 -0.13511273 -0.07542589 -0.19724078
0003e0 2c f3 1a 3e 89 8d d6 bc c7 ac 68 be b5 84 56 3d
       0.15131825 -0.026190536 -0.2272216 0.052372653
0003f0 ca 2f 28 be 6a dd bd 3d 43 2b 50 3e 59 d2 a7 bd
       -0.1642448 0.09270747 0.20329003 -0.081944175
