results/test_env/Shootair/Shootair-49406.onnx (onnx, 493289 bytes, 15 tensors)

discrete_act_size_vector f4 [1, 2]
2.0 2.0
00000000: 0000 0040 0000 0040

network_body._body_endoder.seq_layers.0.weight f4 [128, 420]
0.014806808 -0.0077795535 0.0993221 0.11998607 -0.036820278 0.060650792 0.00880438 0.05701731
0.051617265 -0.09668081 0.014320005 -0.074259065 0.059801914 0.025257574 0.022731265 0.07476667
-0.08477663 0.06747287 -0.07091436 0.07228412 -0.0041191503 0.06489569 0.024461126 0.02887386
0.022609191 0.07937444 -0.014640052 -0.03886474 0.012594676 -0.00919616 -0.04460126 -0.07010383
-0.006379139 0.03433108 0.0025382363 -0.0058225733 -0.015242747 -0.038014233 -0.030416586 0.07460484
-0.011567207 0.04519042 -0.015148881 -0.022317866 -0.020757424 0.038477026 0.05631277 0.06860823
0.0116596855 -0.0011699876 0.0728509 0.044535585 0.031256597 -0.017128004 -0.044373933 -0.0414756
0.03907907 -0.0061800717 -0.06549689 0.09726524 -0.09819744 0.059436444 -0.08163162 -0.04486802
-0.045413047 -0.07445644 0.0029428003 -0.05371256 0.08750494 0.004097748 -0.037386905 -0.040945638
0.01237505 0.02682701 0.019533219 0.06386304 0.045528583 0.027236039 -0.029469442 0.08073918
-0.02073391 0.012134931 0.02700894 -0.028582104 -0.048712496 0.03519109 -0.003932432 -0.020703014
-0.09413272 0.037363715 -0.031112747 -0.067824244 0.06687489 0.070986524 0.06565805 0.026328065
0.051968217 -0.011112878 0.024149418 0.017135106 -0.11114097 0.034359217 0.010976262 0.03696069
0.07231307 -0.05592457 -0.021370891 -0.01740665 -0.034234457 0.038128253 -0.0700187 -0.007730963
-0.07075618 0.004864749 -0.05319477 0.0007825023 -0.004485674 0.07110361 0.0318405 0.026718412
-0.013116097 0.13642159 0.031097155 0.0150608765 -0.015299605 -0.031347997 0.0682043 0.052714933
0.03327874 -0.0010860926 -0.050808575 -0.022185842 0.058152393 0.07159535 -0.04427244 0.07017629
0.01697297 -0.015540197 -0.084944755 -0.09356754 0.06713998 -0.042390604 0.104465686 0.04054829
-0.004322671 -0.0064141154 0.005241741 -0.02006969 0.056107093 -0.076518945 0.09057093 0.086396195
-0.027277745 0.060899142 -0.0012259239 -0.026203359 -0.060863342 -0.047087982 0.02376357 -0.04592558
-0.080358274 0.046342578 0.014552925 -0.014523814 -0.0015891535 -0.06334943 -0.031116193 0.06911321
0.009675676 -0.15685654 -0.09348878 -0.040464386 0.0010837145 -0.10573865 0.0030134367 0.06153128
-0.047676817 -0.00503939 0.015231206 0.017516516 -0.05761703 -0.0113836555 -0.0078032305 -0.035431273
-0.037794597 0.06341612 0.020932289 -0.019504175 0.077222705 0.052132532 0.023642939 -0.017872306
-0.10080735 0.03758112 0.018530186 -0.029472308 0.029950934 -0.04079945 -0.038123764 -0.051462565
0.0016410918 0.016273854 0.010533857 -0.0130482735 0.06748882 -0.0002540358 0.004717022 -0.05095701
-0.042329412 -0.02852698 0.027904162 0.059071887 0.029061466 0.055255633 -0.022533871 0.0073065646
0.07905205 -0.13047414 -0.029688718 -0.027846707 0.01332719 0.065714896 -0.09826813 -0.13406207
0.09547837 0.025384825 0.013669742 0.020082414 -0.029786447 -0.03251374 -0.043189414 -0.047975846
0.0028486627 -0.07053838 0.14309523 -0.086539015 -0.019048832 -0.012483666 0.036361143 -0.08359021
-0.06918562 -0.09036846 -0.015239816 -0.0144798 -0.08174096 0.07614266 -0.021731293 -0.009784113
0.097186536 0.07533881 -0.033516705 0.037034284 -0.007772484 0.00888823 0.013169876 0.024139477
00000000: 4198 723c a0eb febb 6369 cb3d 42bb f53d
00000010: dcd0 16bd f76c 783d 3f40 103c fc8a 693d
00000020: a06c 533d 9700 c6bd 749e 6a3c 2315 98bd
00000030: daf2 743d f9e8 ce3c eb36 ba3c 451f 993d
00000040: 5f9f adbd 372f 8a3d 8c3b 91bd b209 943d
00000050: f0f9 86bb 08e8 843d b362 c83c e088 ec3c
00000060: e936 b93c 118f a23d d4dc 6fbc a230 1fbd
00000070: e659 4e3c 7eab 16bc d0af 36bd 9992 8fbd
00000080: 1908 d1bb bf9e 0c3d 8a58 263b 49cb bebb
00000090: b7bc 79bc d0b4 1bbd 342c f9bc 6cca 983d
000000a0: 6284 3dbc 9719 393d 0333 78bc f5d3 b6bc
000000b0: 790b aabc 169a 1d3d 38a8 663d 7982 8c3d
000000c0: 4408 3f3c 455a 99ba da32 953d f26a 363d
000000d0: eb06 003d 0750 8cbc 71c1 35bd 52e2 29bd
000000e0: 6011 203d 3382 cabb 3c23 86bd 0033 c73d
000000f0: bd1b c9bd a173 733d 7b2e a7bd 87c7 37bd
00000100: 0803 3abd 9e7c 98bd ffdb 403b b401 5cbd
00000110: ca35 b33d 6746 863b 0323 19bd 9db6 27bd
00000120: b9c0 4a3c 51c4 db3c 2104 a03c a0ca 823d
00000130: 2e7c 3a3d 1d1e df3c e669 f1bc 955a a53d
00000140: 29da a9bc 97d1 463c da41 dd3c 0425 eabc
00000150: c186 47bd 8824 103d a1db 80bb 5e99 a9bc
00000160: a8c8 c0bd b20a 193d 29e0 febc 70e7 8abd
00000170: b4f5 883d 6261 913d ba77 863d f4ad d73c
00000180: a0dc 543d ca12 36bc 00d5 c53c ec5e 8c3c
00000190: e09d e3bd 40bc 0c3d c8d5 333c 1864 173d
000001a0: e018 943d 2911 65bd 0212 afbc 6498 8ebc
000001b0: 6e39 0cbd 5f2c 1c3d f765 8fbd 0554 fdbb
000001c0: 9ee8 90bd 7968 9f3b c2e2 59bd d720 4d3a
000001d0: 90fc 92bb c59e 913d 2f6b 023d 92e0 da3c
000001e0: e6e4 56bc 1ab2 0b3e 76bf fe3c e5c1 763c
000001f0: 32ab 7abc c266 00bd b2ae 8b3d 9deb 573d
00000200: 4a4f 083d 385b 8eba a71c 50bd 15bf b5bc
00000210: 3431 6e3d 95a0 923d 0557 35bd 96b8 8f3d
00000220: e60a 8b3c 4f9c 7ebc 84f7 adbd 57a0 bfbd
00000230: b080 893d c5a1 2dbd 1bf2 d53d f715 263d
00000240: 31a5 8dbb 802d d2bb e9c2 ab3b 3169 a4bc
00000250: 8dd0 653d f7b5 9cbd 407d b93d 7df0 b03d
00000260: 9475 dfbc 6171 793d 2eaf a0ba 6da8 d6bc
00000270: d74b 79bd 54df 40bd d1ab c23c 761c 3cbd
00000280: e192 a4bd b7d1 3d3d 646f 6e3c 4bf5 6dbc
00000290: 254b d0ba 59bd 81bd 63e7 febc 3a8b 8d3d
000002a0: ba86 1e3c 009f 20be 0c77 bfbd fcbd 25bd
000002b0: 6d0b 8e3a 818d d8bd 147d 453b 3908 7c3d
000002c0: c448 43bd 7821 a5bb 4f8c 793c cc7e 8f3c
000002d0: d6ff 6bbd 8382 3abc 3eb2 ffbb 6220 11bd
000002e0: 82ce 1abd 50e0 813d 317a ab3c 38c7 9fbc
000002f0: f026 9e3d ec88 553d d6ae c13c f168 92bc
00000300: 1574 cebd a9ee 193d 9ecc 973c e96f f1bc
00000310: a95b f53c 531d 27bd aa27 1cbd 69ca 52bd
00000320: e719 d73a bf50 853c 3396 2c3c 6dc8 55bc
00000330: 9437 8a3d 1c30 85b9 4091 9a3b 4cb8 50bd
00000340: 9b61 2dbd 6ab1 e9bc 4597 e43c 5df5 713d
00000350: 5012 ee3c bb53 623d f498 b8bc e86b ef3b
00000360: 0be6 a13d 039b 05be c135 f3bc c71e e4bc
00000370: 495a 5a3c 8895 863d cd40 c9bd 9147 09be
00000380: 2a8a c33d d6f3 cf3c 0ef7 5f3c e083 a43c
00000390: b502 f4bc 212d 05bd 62e7 30bd 5282 44bd
000003a0: a1b0 3a3b 6d76 90bd 8e87 123e 5e3b b1bd
000003b0: 4c0c 9cbc 4a88 4cbc 6cef 143d 5831 abbd
000003c0: 31b1 8dbd 1913 b9bd 6cb0 79bc af3c 6dbc
000003d0: ce67 a7bd aff0 9b3d d305 b2bc 8b4d 20bc
000003e0: bc09 c73d 3c4b 9a3d d048 09bd 43b1 173d
000003f0: 52b0 febb f09f 113c 77c6 573c 27c0 c53c

network_body._body_endoder.seq_layers.0.bias f4 [128]
0.011894147 0.04257853 0.027480043 0.030852776 0.06002043 0.027733525 -0.016974462 0.047803916
0.05080645 0.005081288 0.026467917 0.05177836 0.05927529 0.015493209 0.032620445 0.055209547
0.0383752 0.057315566 0.04689 0.030001938 0.062237445 -0.0045155324 0.06554452 0.043561257
-0.0015445695 0.002260407 -0.013177757 0.030392963 0.03373823 -0.010956684 0.024535883 0.024908172
0.0128196515 0.029812178 0.007037741 0.0063403845 0.020563759 0.02292311 0.021052038 0.03856929
-0.0008841366 0.026585456 0.040609725 0.012988542 0.037811376 0.02706548 0.0039013785 0.027612992
0.018877944 0.0008142303 0.07386272 0.011158775 0.034683514 0.01742233 -0.0023324525 0.011822288
0.02897168 0.04668028 0.03520066 0.012872999 0.039517075 -0.009185534 0.044724442 0.015791625
0.021703549 0.027091574 0.019962592 0.04867255 0.02632801 -0.014859161 0.059163917 0.036927823
0.033732288 0.013056979 0.044773623 0.0047522774 0.05006263 0.019602908 -0.01982607 0.037356414
0.028031966 0.020499097 0.040651612 0.014853152 0.04246248 0.024691407 0.037349477 0.033084866
0.04085999 0.045543093 0.0025703819 0.050694015 0.028729176 -0.0036115365 0.03429675 -0.0012998288
0.023461957 0.043827683 0.032128 0.023916656 0.066550985 0.0127897635 0.02559918 0.050183844
0.037846997 0.025482774 0.008583742 0.033719487 0.026667826 0.028277759 0.020054067 0.036055673
0.018337294 -0.0005166458 0.007669504 -0.0032213833 0.011378452 0.015557309 0.007895746 0.017684571
0.019315498 0.029435702 0.013516875 0.03496561 -0.0046865875 0.04037132 0.058149613 0.025113536
00000000: abdf 423c d366 2e3d d41d e13c f6be fc3c
00000010: fbd7 753d 6b31 e33c 070e 8bbc 0ace 433d
00000020: 6d1a 503d ef80 a63b 3fd3 d83c 8c15 543d
00000030: a6ca 723d 3ad7 7d3c 049d 053d 6823 623d
00000040: 502f 1d3d bac3 6a3d bb0f 403d a0c6 f53c
00000050: b1ec 7e3d 08f7 93bb 353c 863d 4a6d 323d
00000060: 2773 caba 5623 143b 85e7 57bc aafa f83c
00000070: 1931 0a3d aa83 33bc 7aff c83c 390c cc3c
00000080: 8409 523c ab38 f43c da9c e63b 00c3 cf3b
00000090: 5475 a83c 3fc9 bb3c 5375 ac3c d5fa 1d3d
000000a0: 67c5 67ba bec9 d93c 6256 263d e5cd 543c
000000b0: 1ae0 1a3d 6db8 dd3c 45ae 7f3b a434 e23c
000000c0: eba5 9a3c 1272 553a 5645 973d 4bd3 363c
000000d0: 4d10 0e3d 46b9 8e3c 0fdc 18bb 45b2 413c
000000e0: 0456 ed3c d233 3f3d 912e 103d 45e9 523c
000000f0: a8dc 213d ec7e 16bc fa30 373d 705d 813c
00000100: a4cb b13c 26ef dd3c 9788 a33c de5c 473d
00000110: d7ad d73c d773 73bc dd55 723d a141 173d
00000120: de2a 0a3d f0ec 553c 8c64 373d feb8 9b3b
00000130: 790e 4d3d 4796 a03c 486a a2bc 0a03 193d
00000140: 4ba3 e53c b9ed a73c 4e82 263d a35a 733c
00000150: 23ed 2d3d a245 ca3c c4fb 183d ff83 073d
00000160: ce5c 273d 658b 3a3d da73 283b 87a4 4f3d
00000170: 7359 eb3c 87af 6cbb c07a 0c3d 045f aaba
00000180: 4a33 c03c a884 333d a698 033d ddec c33c
00000190: e24b 883d 288c 513c 5fb5 d13c 938d 4d3d
000001a0: 7405 1b3d 40c1 d03c d3a2 0c3c 721d 0a3d
000001b0: 7c76 da3c c2a6 e73c 6d48 a43c 1daf 133d
000001c0: 1838 963c 836f 07ba 7650 fb3b d81d 53bb
000001d0: b06c 3a3c 15e4 7e3c 295d 013c 3cdf 903c
000001e0: 893b 9e3c 2423 f13c e275 5d3c 1938 0f3d
000001f0: f291 99bb 665c 253d 4a2e 6e3d e7ba cd3c

network_body._body_endoder.seq_layers.2.weight f4 [128, 128]
0.14179948 0.17306702 0.01979863 -0.07141407 0.23360866 0.22360924 0.09545708 -0.06449513
0.079435386 0.12730971 0.2081048 0.058168557 -0.0054108663 -0.114562765 0.3212486 0.14667761
0.14435741 -0.055705328 -0.11815284 0.113050215 -0.016537368 0.18954201 0.18558164 0.06951979
-0.16866928 0.22948994 0.106102385 -0.12809846 0.0938477 -0.005476237 0.17723832 0.053355984
0.12124396 0.09802228 0.21373414 -0.096257485 -0.120136395 0.23569146 -0.09955042 -0.1426748
0.124226816 0.042930868 -0.051274814 0.031855687 0.035838187 0.20328338 -0.05272111 -0.22255173
0.15414399 -0.012767454 0.06398639 0.08998588 0.06059716 0.07470633 0.115414135 0.12790678
0.1347207 0.05537655 0.2646829 -0.018423261 0.23294523 0.002369214 0.1706441 0.08878102
0.20248908 -0.014594634 0.16558011 -0.14110805 0.13790113 0.15484542 0.15477574 -0.26784074
-0.043270446 0.09199718 0.014267618 0.16547754 -0.19516873 -0.042170797 0.22600016 0.020701211
0.14380029 0.16469528 -0.184913 0.101658955 -0.0010416949 -0.08834768 0.05487146 -0.106028944
0.08376231 0.15926023 0.06198166 -0.101656266 0.20157215 0.1605606 0.052574184 -0.112140864
0.011131943 -0.13366178 -0.12060337 -0.034684997 0.042739917 -0.106514655 0.14501157 -0.042518742
0.04245195 -0.033758234 -0.042859614 0.12439426 0.19991967 0.28533375 0.10368483 -0.085861295
0.24979897 0.06581994 0.26750702 0.17969336 0.13750716 0.12129848 -0.02767715 0.19438908
0.057990745 0.07593477 -0.007904949 0.038317136 0.059589572 -0.08390684 -0.0846745 0.098290786
-0.02271665 0.07285679 0.113663755 -0.07367476 0.15258862 -0.035949856 0.017173953 0.14336766
0.13800144 0.07047822 -0.010987913 -0.0189562 0.28193223 -0.1346144 -0.015549792 0.20676543
0.13801768 0.16590907 0.12672208 0.1599596 0.058037203 -0.010421821 0.11260613 0.13309541
-0.035060126 0.090245165 -0.08745453 0.020744001 0.123294 -0.0577687 -0.31390846 -0.061495297
-0.018945288 0.14918312 -0.0020721226 -0.045518655 -0.1140129 -0.0033212914 -0.07528573 0.08634903
0.05329188 -0.041918065 -0.044657823 -0.12399131 0.03311714 0.02298199 -0.014323919 -0.13161533
0.017391853 -0.01977389 -0.018627087 -0.18853126 0.11656845 -0.065099455 -0.13750355 0.22072731
0.040358827 0.08788057 0.20224038 -0.13828748 -0.0021076258 -0.05383516 0.051575173 -0.0065241545
-0.09118314 0.22030246 0.06574861 0.03683043 0.17661022 0.03613546 0.18855204 -0.05025417
-0.118376516 0.041285574 0.065684445 0.100325145 0.07091336 -0.119151555 0.19263643 0.06818706
0.1774481 0.06791728 0.18755999 0.11335838 0.20513548 0.019689186 -0.11881167 -0.3042504
0.16678002 -0.0078124846 0.013409042 0.15886663 -0.0379573 0.059827738 -0.0050544613 0.020886166
-0.03692968 -0.09098768 -0.07705087 0.17615278 0.18808395 0.0712542 0.093476556 -0.021061612
0.34989828 0.045120444 -0.14966394 0.025184754 -0.10305711 0.059745308 -0.1837808 0.038406856
0.03257911 -0.23208982 -0.05899309 -0.082722224 0.048213195 0.046250872 -0.09937897 -0.038715627
0.09410947 -0.018331338 -0.14578716 -0.011773741 0.046971086 0.03752106 0.13947903 0.18767263
00000000: e233 113e 7b38 313e bd30 a23c 8a41 92bd
00000010: 1c37 6f3e d2f9 643e 007f c33d 0616 84bd
00000020: 05af a23d 7a5d 023e 6d19 553e 2742 6e3d
00000030: a34d b1bb e29f eabd b27a a43e a832 163e
00000040: 6ed2 133e 452b 64bd 1efa f1bd df86 e73d
00000050: 6079 87bc 4d17 423e 1d09 3e3e 6460 8e3d
00000060: a4b7 2cbe 69ff 6a3e 354c d93d 3e2c 03be
00000070: 3933 c03d 0172 b3bb f67d 353e ce8b 5a3d
00000080: c14e f83d e8bf c83d 1fdd 5a3e a522 c5bd
00000090: 120a f6bd 1a59 713e 17e1 cbbd 5819 12be
000000a0: a16a fe3d 47d8 2f3d 8a05 52bd 1c7b 023d
000000b0: 10cb 123d 8529 503e 17f2 57bd 9ae4 63be
000000c0: ecd7 1d3e 952e 51bc 4c0b 833d 844a b83d
000000d0: ba34 783d a2ff 983d 3f5e ec3d fff9 023e
000000e0: 39f4 093e 85d2 623d 8484 873e 61ec 96bc
000000f0: 3289 6e3e d144 1b3b 54bd 2e3e d3d2 b53d
00000100: 4c59 4f3e 551e 6fbc d58d 293e a17e 10be
00000110: f435 0d3e cc8f 1e3e 887d 1e3e 6c22 89be
00000120: 5a3c 31bd 0469 bc3d bac2 693c f272 293e
00000130: 50da 47be 49bb 2cbd 966c 673e 9695 a93c
00000140: 6240 133e e1a5 283e d559 3dbe 9232 d03d
00000150: 7b89 88ba a1ef b4bd e5c0 603d b425 d9bd
00000160: 938b ab3d 1d15 233e 7be0 7d3d 2931 d0bd
00000170: ee68 4e3e ff69 243e 0758 573d 1caa e5bd
00000180: c162 363c a2de 08be e6fe f6bd db11 0ebd
00000190: 0d10 2f3d 5b24 dabd ea7d 143e 2228 2ebd
000001a0: 19e2 2d3d 1346 0abd 908d 2fbd 6bc2 fe3d
000001b0: beb7 4c3e 4417 923e b658 d43d 0cd8 afbd
000001c0: 4dcb 7f3e 9bcc 863d aef6 883e 8901 383e
000001d0: adce 0c3e 566b f83d 31bb e2bc ee0d 473e
000001e0: b487 6d3d b083 9b3d c283 01bc 6ef2 1c3d
000001f0: 3214 743d 59d7 abbd d369 adbd ae4c c93d
00000200: 4518 babc f135 953d 8bc8 e83d cbe2 96bd
00000210: 3140 1c3e 2840 13bd 64b0 8c3c f9ce 123e
00000220: 4050 0d3e e356 903d a606 34bc 084a 9bbc
00000230: 6c59 903e 5bd8 09be 8ec4 7ebc 51ba 533e
00000240: 8254 0d3e 11e4 293e 6fc3 013e 73cc 233e
00000250: 6bb8 6d3d 49c0 2abc 0b9e e63d 2a4a 083e
00000260: 359b 0fbd 75d2 b83d 5c1b b3bd 53ef a93c
00000270: 9181 fc3d df9e 6cbd 9cb8 a0be 7ee2 7bbd
00000280: 2633 9bbc 76c3 183e 73cc 07bb c571 3abd
00000290: 987f e9bd 06aa 59bb 682f 9abd c3d7 b03d
000002a0: 9648 5a3d 47b2 2bbd 1feb 36bd 28ef fdbd
000002b0: d7a5 073d ba44 bc3c dfae 6abc 2bc6 06be
000002c0: 5c79 8e3c dafc a1bc d597 98bc 570e 41be
000002d0: 71bb ee3d dd52 85bd bbcd 0cbe 5706 623e
000002e0: 4c4f 253d bafa b33d 1a18 4f3e 3c9b 0dbe
000002f0: 1820 0abb 4282 5cbd 7d40 533d 93c8 d5bb
00000300: 3abe babd f896 613e 35a7 863d 81db 163d
00000310: 4fd9 343e c702 143d c913 413e 51d7 4dbd
00000320: 636f f2bd 101b 293d 9185 863d 4577 cd3d
00000330: 063b 913d bb05 f4bd 7c42 453e a8a5 8b3d
00000340: f4b4 353e 3718 8b3d ba0f 403e 7028 e83d
00000350: 090f 523e 374b a13c 8853 f3bd b5c6 9bbe
00000360: 62c8 2a3e dfff ffbb 99b1 5b3c efad 223e
00000370: 1d79 1bbd ee0d 753d e59f a5bb 7719 ab3c
00000380: 9343 17bd c057 babd d9cc 9dbd 6561 343e
00000390: 1499 403e b9ed 913d a370 bf3d 6789 acbc
000003a0: de25 b33e 37d0 383d 8141 19be 4250 ce3c
000003b0: 9b0f d3bd 7fb7 743d 0931 3cbe 8250 1d3d
000003c0: ac71 053d f4a8 6dbe bda2 71bd 456a a9bd
000003d0: 337b 453d 8e71 3d3d 3487 cbbd 4794 1ebd
000003e0: 77bc c03d 9a2b 96bc 3b49 15be a6e6 40bc
000003f0: c164 403d afaf 193d 97d3 0e3e 412d 403e

network_body._body_endoder.seq_layers.2.bias f4 [128]
0.0892426 0.063348845 -0.05130084 0.011133731 0.022313904 0.020246757 -0.04038318 0.046957675
0.04366753 0.033197254 0.03656777 0.022342319 0.062349547 -0.019441675 0.07212356 0.019133363
0.05860116 0.07987892 0.03653834 0.076384045 -0.011978437 0.02974901 0.051993098 0.017734408
0.03316866 -0.02385506 -0.09276445 0.06410323 -0.007019279 0.032072596 -0.007938519 0.054189973
-0.0010434564 0.037984725 0.028633857 0.08752674 0.017956115 0.027894437 0.06783833 0.030663785
0.022795917 0.032027286 0.02230299 0.014945154 0.049480584 0.02177499 0.016900277 0.033534225
0.06556671 0.04026251 0.05997687 0.05362017 0.04494319 0.03460845 0.035551768 0.06283301
0.026934326 0.053330716 -0.007344915 0.028269699 0.044592485 0.029807875 0.025121935 0.040682383
-0.0030468784 0.05041301 0.043614943 -0.056917284 0.036311936 0.03465222 0.0039507695 0.020525672
0.036135618 0.030094655 0.03314087 0.035191398 0.03889301 0.039557368 0.001619696 -0.00848146
-0.007883878 0.025584353 -0.044059124 0.024949707 0.0038443455 0.10205258 0.10080217 0.029106157
-0.0024958446 0.071162134 0.03421952 0.07358102 0.0036459423 0.008332384 0.013705175 -0.017424673
0.02738808 0.105669536 0.061216634 0.114833005 0.049473926 0.048325233 0.022386936 0.045635004
0.09397266 0.054119643 0.060631987 0.058226384 0.04112953 -0.02657724 -0.014873395 0.036327202
-0.0019442601 -0.003579616 0.026206234 0.05050424 0.003935117 0.035572287 -0.0063629113 0.05563231
0.08124135 0.07041698 -0.011340423 0.03963643 0.052660447 0.041624803 0.056614682 0.05165775
00000000: d3c4 b63d 0abd 813d d420 52bd 416a 363c
00000010: a6cb b63c 87dc a53c d568 25bd b156 403d
00000020: b9dc 323d d8f9 073d 16c8 153d 3d07 b73c
00000030: 3d62 7f3d 2644 9fbc 84b5 933d 92bd 9c3c
00000040: c507 703d 8f97 a33d 3aa9 153d 3d6f 9c3d
00000050: 3541 44bc 32b4 f33c b7f6 543d c047 913c
00000060: dcdb 073d b06b c3bc 4afb bdbd 8e48 833d
00000070: fb01 e6bb 8e5e 033d 9010 02bc 4ef6 5d3d
00000080: 96c4 88ba df95 1b3d 8d91 ea3c 3841 b33d
00000090: b418 933c e082 e43c d3ee 8a3d 9e32 fb3c
000000a0: 81be ba3c 0b2f 033d c3b4 b63c 85dc 743c
000000b0: 27ac 4a3d 7761 b23c 7372 8a3c 2f5b 093d
000000c0: d747 863d 4dea 243d 4eaa 753d d3a0 5b3d
000000d0: 5a16 383d 97c1 0d3d bb9e 113d 98ae 803d
000000e0: 60a5 dc3c 4f71 5a3d 9dad f0bb db95 e73c
000000f0: 9ca6 363d a52f f43c 84cc cd3c 92a2 263d
00000100: 23ae 47bb df7d 4e3d 95a5 323d 1922 69bd
00000110: d3bb 143d 7cef 0d3d 7575 813b 7425 a83c
00000120: f102 143d 1189 f63c b9be 073d db24 103d
00000130: 474e 1f3d e806 223d fb4b d43a d2f5 0abc
00000140: 622b 01bc 4796 d13c 5777 34bd 5463 cc3c
00000150: 6af1 7b3b f100 d13d 5e71 ce3d 0970 ee3c
00000160: 5391 23bb 74bd 913d c429 0c3d a5b1 963d
00000170: c3f0 6e3b 8d84 083c ac8b 603c 30be 8ebc
00000180: f75c e03c 4569 d83d 4bbe 7a3d 912d eb3d
00000190: 2ca5 4a3d aef0 453d cf64 b73c c5eb 3a3d
000001a0: bd74 c03d 8fac 5d3d 3f59 783d ca7e 6e3d
000001b0: 7077 283d 83b8 d9bc 8aaf 73bc d5cb 143d
000001c0: 8bd6 feba fe97 6abb 75ae d63c 89dd 4e3d
000001d0: 27f2 803b 3fb4 113d f87f d0bb b5de 633d
000001e0: dd61 a63d c736 903d 2ecd 39bc cf59 223d
000001f0: 7bb2 573d c57e 2a3d cce4 673d 1497 533d

action_model._continuous_distribution.log_sigma f4 [1, 2]
0.129677 0.28922656
00000000: 0cca 043e 8115 943e

action_model._continuous_distribution.mu.weight f4 [2, 64]
0.23225206 -0.055706475 -0.08218977 -0.17513536 -0.21769142 -0.13335194 -0.028361753 -0.10291718
-0.14024751 -0.15094927 0.12126603 0.10010371 -0.09949028 0.11936402 0.22059794 0.09934647
-0.11411586 0.06280747 -0.20125543 -0.16622116 -0.16430303 0.22759525 -0.22314318 0.0995033
0.24755567 -0.22344522 0.095123395 -0.12721701 0.26729256 0.20257689 0.21006796 0.17674321
-0.10703972 0.140168 0.06386136 0.20443428 0.24812742 -0.19562621 0.09662561 0.059221614
0.1723124 -0.1483263 -0.162414 -0.022300253 0.10408399 0.020889936 0.16462076 0.2539591
0.13944137 -0.12501533 -0.15740882 -0.15363494 -0.20097588 -0.1607825 0.15805897 -0.14648744
0.1647897 0.19615641 0.069234766 -0.021722402 0.15465012 0.19533455 -0.0068284757 -0.07742097
0.010611382 0.23340036 -0.03139662 -0.04149043 -0.011865788 -0.020286934 -0.26536894 -0.0010291069
0.04636065 0.106436715 0.042210262 -0.0065314937 -0.07313191 0.005865692 0.049787592 -0.15819582
0.10269565 -0.019767238 -0.0030716958 -0.019286752 -0.092476934 0.05431571 0.012429373 -0.00389174
0.06509426 -0.0984816 0.13940097 0.052164517 -0.029169485 -0.13179354 0.046845805 -0.07522371
-0.011585228 0.06492457 0.10654485 -0.10014353 0.016986411 -0.1200188 -0.046343096 -0.22971152
-0.038644977 -0.058750745 0.05771319 -0.18808345 0.23042934 0.022946898 0.020356672 -0.019430732
-0.051733486 -0.0035960493 0.029731885 -0.03388288 -0.011978901 -0.01285549 -0.042936288 0.25251994
-0.12849231 0.2865513 0.016084349 0.0034694937 -0.14553857 -0.06732389 -0.010431703 -0.07324306
00000000: 7cd3 6d3e 792c 64bd 1c53 a8bd af56 33be
00000010: 80ea 5ebe 698d 08be e856 e8bc 3ec6 d2bd
00000020: 0b9d 0fbe 7292 1abe 535a f83d 2d03 cd3d
00000030: 8fc1 cbbd 2075 f43d 6de4 613e 2976 cb3d
00000040: 93b5 e9bd 34a1 803d e715 4ebe e135 2abe
00000050: 0e3f 28be bb0e 693e a57f 64be 63c8 cb3d
00000060: 3c7f 7d3e d3ce 64be 0ed0 c23d 2d45 02be
00000070: 92da 883e 5170 4f3e 0e1c 573e 2cfc 343e
00000080: a437 dbbd 3388 0f3e bfc9 823d 3857 513e
00000090: 1d15 7e3e 3d52 48be a6e3 c53d 5d92 723d
000000a0: a972 303e d9e2 17be db4f 26be 05af b6bc
000000b0: fd29 d53d 5f21 ab3c 5892 283e ed06 823e
000000c0: b8c9 0e3e 0504 00be c72f 21be 7a52 1dbe
000000d0: 9fcc 4dbe 2ba4 24be 36da 213e ce00 16be
000000e0: a2be 283e 3add 483e f5ca 8d3d 2ef3 b1bc
000000f0: 9a5c 1e3e c805 483e 68c1 dfbb e38e 9ebd
00000100: 5ddb 2d3c 8100 6f3e be99 00bd def1 29bd
00000110: b968 42bc c930 a6bc 70de 87be 19e3 86ba
00000120: aae4 3d3d 7efb d93d abe4 2c3d 2406 d6bb
00000130: 2fc6 95bd fe34 c03b 13ee 4b3d 16fe 21be
00000140: 1952 d23d e7ee a1bc 814e 49bb 40ff 9dbc
00000150: 8c64 bdbd 267a 5e3d 92a4 4b3c 900c 7fbb
00000160: 2450 853d b9b0 c9bd 21bf 0e3e 76aa 553d
00000170: d8f4 eebc e3f4 06be 63e1 3f3d e30e 9abd
00000180: f8cf 3dbc 2cf7 843d 3034 da3d 0d18 cdbd
00000190: 1627 8b3c 6bcc f5bd 42d2 3dbd 7f39 6bbe
000001a0: 324a 1ebd 9fa4 70bd aa64 6c3d f398 40be
000001b0: abf5 6b3e 22fb bb3c 09c3 a63c 332d 9fbc
000001c0: 7ee6 53bd b2ab 6bbb 4890 f33c c6c8 0abd
000001d0: 2743 44bc d59f 52bc f6dd 2fbd 4b4a 813e
000001e0: 7d93 03be dab6 923e 53c3 833c 7260 633b
000001f0: 1008 15be 1ce1 89bd bce9 2abc 7500 96bd

action_model._continuous_distribution.mu.bias f4 [2]
-0.11519631 -0.0077669243
00000000: 0bec ebbd af81 febb

action_model._discrete_distribution.branches.0.weight f4 [2, 64]
-0.07134011 -0.0040971795 -0.17033803 0.026509708 0.026326286 -0.06719296 -0.031218583 -0.14236654
0.09179096 0.06085723 0.030586297 0.060381357 -0.06996734 0.12714668 -0.07791001 -0.009738183
-0.009941731 0.006168434 0.19396122 -0.15823603 0.003082643 -0.076008834 0.072951466 0.09188464
-0.08941014 -0.08881447 0.05444651 -0.024992123 0.032231905 -0.03457069 -0.062052995 0.009175086
-0.091313675 0.13791536 0.2202987 -0.10598336 -0.029934274 0.14035918 0.15925077 -0.04550842
0.047156513 0.0063131726 -0.017792603 -0.10041961 0.058100626 0.06745754 -0.100152895 -0.07408216
-0.01907259 -0.15173583 0.026764667 -0.11805489 0.06426087 0.03423528 -0.08148625 -0.008047565
-0.017511774 -0.068684354 -0.29094863 0.25435823 -0.21925628 -0.12654527 -0.08512935 -0.14769222
0.101379745 -0.017159572 0.17112447 -0.050091673 -0.028841041 0.04092616 0.036673736 0.1355173
-0.056436088 -0.05922572 -0.038641125 -0.07396404 0.09094162 -0.133168 0.08517349 0.0065527693
-0.009039786 -0.0135726575 -0.1726178 0.13275428 -0.023479607 0.07625771 -0.06117335 -0.09237361
0.094819956 0.07094027 -0.022491485 0.014569144 -0.0010425257 0.059383363 0.05964625 -0.025734428
0.096549615 -0.09694781 -0.21201788 0.13215101 0.018083977 -0.11354941 -0.12217025 0.041136507
-0.023058793 -0.035192836 0.017465046 0.1200112 -0.03816865 -0.069296256 0.1146327 0.09373556
-0.008275496 0.11542316 -0.022544537 0.13007133 -0.06329306 -0.024730582 0.08101094 -0.019197734
0.0070833517 0.041465186 0.26923004 -0.27181694 0.20551412 0.097435586 0.10432328 0.14316143
00000000: c31a 92bd a241 86bb 186d 2ebe e32a d93c
00000010: 39aa d73c 769c 89bd 1dbe ffbc 89c8 11be
00000020: e6fc bb3d 6e45 793d 1d90 fa3c 7152 773d
00000030: 094b 8fbd bd32 023e 498f 9fbd e68c 1fbc
00000040: a4e2 22bc 9320 ca3b c59d 463e a008 22be
00000050: 2b06 4a3b 85aa 9bbd 9467 953d 042e bc3d
00000060: aa1c b7bd 5ce4 b5bd 4e03 5f3d 48bc ccbc
00000070: 9a05 043d ff99 0dbd 482b 7ebd 1a53 163c
00000080: aa02 bbbd af39 0d3e fb95 613e ce0d d9bd
00000090: b938 f5bc 51ba 0f3e a212 233e 0967 3abd
000000a0: 3027 413d bbde ce3b cbc1 91bc cca8 cdbd
000000b0: ecfa 6d3d 2e27 8a3d f61c cdbd 63b8 97bd
000000c0: 1f3e 9cbc a360 1bbe 9341 db3c c3c6 f1bd
000000d0: 349b 833d 4b3a 0c3d 43e2 a6bd efd9 03bc
000000e0: da74 8fbc 62aa 8cbd 38f7 94be 3e3b 823e
000000f0: b884 60be 1595 01be 4c58 aebd a13c 17be
00000100: 2fa0 cf3d 3b92 8cbc 413b 2f3e ed2c 4dbd
00000110: 0c44 ecbc 30a2 273d 3337 163d 0cc5 0a3e
00000120: 8729 67bd ab96 72bd 2846 1ebd 757a 97bd
00000130: 9a3f ba3d 315d 08be 706f ae3d 9db8 d63b
00000140: 9c1b 14bc da5f 5ebc b8c2 30be bdf0 073e
00000150: 4e58 c0bc 012d 9c3d e890 7abd 602e bdbd
00000160: f730 c23d 2249 913d 1040 b8bc 6bb3 6e3c
00000170: 5ca5 88ba f83b 733d a04f 743d 02d1 d2bc
00000180: cebb c53d 938c c6bd 371b 59be 9852 073e
00000190: d924 943c 988c e8bd 6534 fabd c17e 283d
000001a0: cbe5 bcbc 5d26 10bd db12 8f3c 6fc8 f53d
000001b0: bb56 1cbd 32eb 8dbd 8dc4 ea3d 6ef8 bf3d
000001c0: f295 07bc fa62 ec3d 52af b8bc 6b31 053e
000001d0: cb9f 81bd ca97 cabc 10e9 a53d 9144 9dbc
000001e0: 761b e83b 66d7 293d 85d8 893e 972b 8bbe
000001f0: 4b72 523e 4f8c c73d 72a7 d53d e998 123e

action_model._discrete_distribution.branches.0.bias f4 [2]
0.05998315 -0.059983153
00000000: e4b0 753d e5b0 75bd

action_model._discrete_distribution.branches.1.weight f4 [2, 64]
-0.012623822 -0.021952339 0.0931263 -0.04101056 0.08746191 0.008099953 -0.04352933 -0.07677475
-0.05680454 -0.02690468 -0.005985893 0.07555114 0.09129566 0.077929445 -0.012535419 0.006498018
-0.15039548 0.07921811 0.04104144 -0.03188436 0.10903315 -0.0032763316 -0.022546643 0.095874466
-0.07326067 -0.06548553 -0.064135544 0.043208726 -0.065853335 -0.049622055 -0.031113816 -0.068117194
0.12711395 -0.09536597 -0.07961755 0.028438667 -0.09657274 0.20557496 0.027394554 0.16448402
-0.080904916 -0.04220829 -0.04661682 0.09235928 -0.14195044 0.31391248 0.096991636 -0.012726915
-0.07614387 0.0029562004 0.10014565 -0.06741513 -0.018056788 0.07463679 0.13750532 0.037003104
0.09290524 -0.072742045 -0.1218048 0.095031686 0.055338003 -0.04170991 -0.19081427 0.075019926
0.017267162 0.008783803 -0.08848857 0.0696381 -0.10098153 -0.031904373 0.020284034 0.08486742
0.057021447 0.024156958 -0.0108478265 -0.06189119 -0.10399159 -0.056558017 0.005376431 -0.051790074
0.17267679 -0.0939619 -0.029265743 0.007948105 -0.1171457 0.020428838 0.017226584 -0.08981916
0.032549832 0.085920036 0.07419645 -0.06865103 0.06663334 0.08712285 0.02309669 0.061618853
-0.1252701 0.10492231 0.06615175 -0.018145852 0.09596237 -0.219442 -0.024991864 -0.18106233
0.1126032 0.030304091 0.0696956 -0.073941946 0.12736432 -0.2944782 -0.1258677 0.010624789
0.06632412 0.014671288 -0.122541726 0.069375776 0.025094917 -0.055921234 -0.15417641 -0.05791003
-0.06735764 0.0670387 0.12009254 -0.08105901 -0.053163543 0.020250311 0.17017256 -0.055444654
00000000: 26d4 4ebc 64d5 b3bc 00b9 be3d b0fa 27bd
00000010: 3b1f b33d aab5 043c d04b 32bd 153c 9dbd
00000020: e1ab 68bd 3467 dcbc 4f25 c4bb 8eba 9a3d
00000030: 38f9 ba3d 7999 9f3d 5c61 4dbc 53ed d43b
00000040: 4601 1abe 1b3d a23d 121b 283d 2d99 02bd
00000050: c64c df3d b9b7 56bb bdb3 b8bc d559 c43d
00000060: b109 96bd 471d 86bd 7f59 83bd a2fb 303d
00000070: 1dde 86bd 7f40 4bbd 67e2 febc 0781 8bbd
00000080: 292a 023e 3c4f c3bd 870e a3bd 35f8 e83c
00000090: eec7 c5bd 3e82 523e 8b6a e03c 806e 283e
000000a0: 7ab1 a5bd 9ae2 2cbd 47f1 3ebd dd26 bd3d
000000b0: 755b 11be 23b9 a03e 8da3 c63d 8d84 50bc
000000c0: 51f1 9bbd d0bc 413b 2a19 cd3d f210 8abd
000000d0: d4eb 93bc 2cdb 983d 32ce 0c3e 9190 173d
000000e0: 1a45 be3d c8f9 94bd cc74 f9bd f99f c23d
000000f0: 1aaa 623d 03d8 2abd d164 43be 0ca4 993d
00000100: dd73 8d3c f1e9 0f3c 7f39 b5bd 6c9e 8e3d
00000110: 68cf cebd 29ae 02bd b42a a63c f8ce ad3d
00000120: 528f 693d d0e4 c53c 15bb 31bc 9e81 7dbd
00000130: 8bf9 d4bd 61a9 67bd c62c b03b d421 54bd
00000140: 2fd2 303e 196f c0bd b6be efbc c538 023c
00000150: 16ea efbd 615a a73c c41e 8d3c 1cf3 b7bd
00000160: f952 053d d8f6 af3d 4ff4 973d e998 8cbd
00000170: 1077 883d 776d b23d 4535 bd3c 0d64 7c3d
00000180: ce46 00be 82e1 d63d 927a 873d 9ca6 94bc
00000190: eb87 c43d 67b5 60be bdbb ccbc 6768 39be
000001a0: 829c e63d 4940 f83c 91bc 8e3d e06e 97bd
000001b0: cb6b 023e d9c5 96be 76e3 00be 9813 2e3c
000001c0: f1d4 873d d85f 703c 28f7 fabd e314 8e3d
000001d0: db93 cd3c aa0d 65bd 6ce0 1dbe 1133 6dbd
000001e0: cdf2 89bd 964b 893d 14f3 f53d 4402 a6bd
000001f0: 04c2 59bd fbe3 a53c b741 2e3e ef19 63bd

action_model._discrete_distribution.branches.1.bias f4 [2]
0.023985442 -0.02398545
00000000: 1e7d c43c 227d c4bc

onnx::LSTM_133 f4 [1, 256, 128]
0.010661384 0.12524034 0.12235776 0.0457523 -0.05578924 0.034365054 -0.20652632 0.016131908
0.00011150897 -0.14540544 -0.1446452 0.04914556 -0.0062100906 -0.012022477 0.11226827 -0.0337281
0.17239124 -0.0850644 0.08055498 0.16182363 -0.026198775 0.22824335 -0.043055605 -0.13593468
0.29535562 0.13089685 -0.06899214 0.056439877 -0.12737155 -0.0352847 -0.10059373 0.045708925
-0.05025065 0.20462085 0.083873555 0.1541843 0.0900315 0.10599676 0.20231189 -0.05142437
-0.07996691 -0.051208783 0.061240666 -0.11377684 0.02154323 0.029251965 0.03631938 -0.1136576
0.1930363 0.05522824 -0.029817251 -0.0083440645 -0.023060016 -0.17427623 -0.12637527 0.10765294
-0.09424668 -0.05351347 -0.02239194 0.21313941 -0.1945315 -0.08583996 0.07724213 0.27408847
-0.07245194 0.055576004 0.083544075 0.045538276 -0.23521328 -0.061765622 -0.08766859 -0.053361576
0.026206335 0.2526811 0.25808853 0.09543702 -0.106744744 -0.19376779 -0.12888868 -0.077527314
0.02877137 0.05679868 -0.18681812 -0.09318347 -0.08614227 0.20382294 0.19126202 0.21068284
-0.09648425 0.0038928972 -0.070539944 0.2299571 0.010698061 0.064336926 -0.3455437 -0.22127816
-0.19098307 -0.10193568 -0.05365528 0.07163281 -0.11554958 0.01909889 -0.070374124 -0.30252594
0.017055454 -0.13971357 -0.114448026 -0.119890094 0.03749505 -0.23950689 -0.11728676 -0.08850981
0.19532694 0.07540179 0.08820382 0.15565595 -0.0673991 0.18696688 0.021707844 -0.08487782
-0.18499154 -0.14920183 -0.05604119 0.21988897 0.20606835 0.070670076 0.26272443 0.014443149
0.06419665 0.106367156 -0.015001167 0.1269552 -0.20849486 0.045563906 0.22017507 0.15971354
-0.18641077 0.16787125 -0.043505386 0.3095177 0.24765562 0.046784677 -0.013716912 -0.029212747
0.0837096 -0.054472536 0.05289784 0.124298565 0.12478412 -0.0986598 0.15602213 0.1720429
0.02179146 0.20021853 -0.11303005 0.09619537 -0.12711953 0.07282602 0.028036091 0.28178772
-0.18315342 0.25515616 0.006493362 0.31652316 -0.12653233 -0.17775549 0.09482008 -0.20486186
0.086095706 -0.12960686 -0.023911433 0.09766759 0.020905092 -0.14941028 -0.19056588 -0.058898553
-0.07706125 -0.053884313 -0.04010255 0.21490574 0.020665495 0.11119952 0.18952861 0.37496573
-0.26761 -0.14727645 0.014666721 0.16757986 0.039195 0.06814027 -0.15708092 -0.18871213
0.44096982 0.27654123 0.32051256 0.11749029 0.07737054 0.056208223 -0.05403564 0.021022333
0.051076733 -0.016214693 -0.08620557 0.042169046 -0.047989078 0.25692427 0.18479055 0.07690094
0.104374334 -0.020347139 -0.08266224 -0.010807694 0.14975314 0.21057062 0.032773748 0.27145755
0.34321836 -0.0050639817 0.22867973 0.10366119 -0.11836296 0.074620984 0.11915457 0.25955784
0.043267585 -0.12073205 -0.025496675 0.057863373 0.066474035 0.17133287 0.11923167 0.02374831
0.10830735 -0.022685833 0.29121098 0.17849825 -0.02582248 0.17409135 0.15577197 -0.1484737
-0.00691935 0.04101445 0.20022012 0.013463459 -0.28847843 -0.21468632 0.08244266 0.012871802
0.35693812 -0.07786202 -0.14502764 -0.21062092 0.08504364 -0.15036678 -0.020566957 0.11445283
00000000: 16ad 2e3c 013f 003e b596 fa3d c466 3b3d
00000010: 4283 64bd 5fc2 0c3d a37b 53be 1027 843c
00000020: ecd9 e938 2ae5 14be df1d 14be db4c 493d
00000030: 047e cbbb ecf9 44bc e8ec e53d 7a26 0abd
00000040: 5487 303e 3f36 aebd 02fa a43d 18b5 253e
00000050: d09e d6bc a0b8 693e 135b 30bd 7632 0bbe
00000060: da38 973e d309 063e c04b 8dbd 802d 673d
00000070: b06d 02be b186 10bd 1604 cebd 4839 3b3d
00000080: a0d3 4dbd 2188 513e e6c5 ab3d 7de2 1d3e
00000090: 6f62 b83d d414 d93d d92a 4f3e 5ca2 52bd
000000a0: b1c5 a3bd 4dc0 51bd 7ed7 7a3d d503 e9bd
000000b0: 6e7b b03c d1a1 ef3c a1c3 143d 51c5 e8bd
000000c0: 4fab 453e 0237 623d 4f43 f4bc 8bb5 08bc
000000d0: 5ce8 bcbc 7875 32be 8568 01be 2579 dc3d
000000e0: 6704 c1bd f130 5bbd 4d6f b7bc 3841 5a3e
000000f0: 4433 47be dccc afbd 1f31 9e3d 5355 8c3e
00000100: af61 94bd aaa3 633d 2819 ab3d 5886 3a3d
00000110: c0db 70be f3fd 7cbd 978b b3bd ab91 5abd
00000120: abae d63c 6b5f 813e 2e24 843e 7c74 c33d
00000130: fd9c dabd 106b 46be 65fb 03be a4c6 9ebd
00000140: f0b1 eb3c bca5 683d 404d 3fbe fad6 bebd
00000150: 5c6b b0bd f6b6 503e 31da 433e 3ebd 573e
00000160: 8999 c5bd fa1f 7f3b 3f77 90bd e079 6b3e
00000170: ec46 2f3c 14c3 833d 1beb b0be be96 62be
00000180: 1191 43be a7c3 d0bd a4c5 5bbd 39b4 923d
00000190: 42a5 ecbd 4675 9c3c 4f20 90bd aee4 9abe
000001a0: e1b7 8b3c 1311 0fbe ba63 eabd f088 f5bd
000001b0: 6994 193d 4b41 75be 0a34 f0bd a244 b5bd
000001c0: c903 483e 416c 9a3d 34a4 b43d 4664 1f3e
000001d0: 8a08 8abd 3f74 3f3e a6d4 b13c 6cd4 adbd
000001e0: 6c6e 3dbe 5dc8 18be 728b 65bd 932a 613e
000001f0: 9503 533e 79bb 903d d183 863e f5a2 6c3c
00000200: 8979 833d 06d7 d93d 74c7 75bc 8b00 023e
00000210: ad7f 55be 38a1 3a3d 9375 613e f28b 233e
00000220: 77e2 3ebe 71e6 2b3e b432 32bd 1b79 9e3e
00000230: 6f99 7d3e 4aa1 3f3d e6bc 60bc 924f efbc
00000240: f06f ab3d 981e 5fbd 68ab 583d 3f90 fe3d
00000250: d18e ff3d 260e cabd 44c4 1f3e 042c 303e
00000260: 0184 b23c 1606 4d3e 4d7c e7bd 1402 c53d
00000270: 9f2b 02be cf25 953d f2ab e53c 7b46 903e
00000280: 928c 3bbe d4a3 823e 45c6 d43b 530f a23e
00000290: b191 01be 8905 36be 0831 c23d 4fc7 51be
000002a0: f252 b03d a9b7 04be e9e1 c3bc f205 c83d
000002b0: 2841 ab3c 02ff 18be b423 43be 9c3f 71bd
000002c0: 4ad2 9dbd ccb5 5cbd 9242 24bd 4010 5c3e
000002d0: af4a a93c 93bc e33d ca13 423e 82fb bf3e
000002e0: 2e04 89be a3cf 16be b04c 703c 0e9a 2b3e
000002f0: f08a 203d 208d 8b3d d2d9 20be c13d 41be
00000300: ccc6 e13e d096 8d3e 391a a43e c09e f03d
00000310: 7274 9e3d 983a 663d 7a54 5dbd 0737 ac3c
00000320: d635 513d add4 84bc 8c8c b0bd 73b9 2c3d
00000330: 3290 44bd 948b 833e bc39 3d3e 3d7e 9d3d
00000340: 36c2 d53d 0baf a6bc d24a a9bd c112 31bc
00000350: e358 193e d39f 573e c43d 063d 7cfc 8a3e
00000360: 51ba af3e c2ef a5bb 052b 6a3e 514c d43d
00000370: 4868 f2bd e3d2 983d 5007 f43d c4e4 843e
00000380: 5a39 313d 5d42 f7bd 67de d0bc 2502 6d3d
00000390: 8a23 883d e271 2f3e bc2f f43d d18b c23c
000003a0: 3ed0 dd3d a4d7 b9bc 9b19 953e 3fc8 363e
000003b0: aa89 d3bc 0145 323e b082 1f3e 7d09 18be
000003c0: b7bb e2bb c5fe 273d 8106 4d3e d795 5c3c
000003d0: 72b3 93be bbd6 5bbe b3d7 a83d 40e4 523c
000003e0: 98c0 b63e 1f76 9fbd 2082 14be 03ad 57be
000003f0: 5c2b ae3d c0f9 19be 097c a8bc 3f66 ea3d

onnx::LSTM_134 f4 [1, 256, 64]
0.0058777095 0.027300186 -0.15568987 -0.1923041 0.01568363 0.22106872 -0.21729779 -0.09557521
-0.011078546 0.13820828 -0.22754656 -0.2269569 0.06552028 -0.059283722 0.14686045 0.1994712
-0.007862826 -0.10461787 -0.048967846 0.053824246 0.19460383 0.13587613 0.13072512 -0.12801507
0.13889857 0.19454443 -0.011341441 0.11176223 0.051029835 -0.11307923 -0.06669825 -0.11504706
-0.18218237 -0.14782803 -0.21396771 0.015280499 -0.14245217 -0.10410826 -0.21047448 0.21043608
0.18441036 0.1405969 0.15816642 0.17098837 0.06952289 0.21178982 -0.096375965 -0.08785935
-0.040296998 -0.039713297 -0.042517804 0.010205743 -0.08809523 0.14256942 -0.20266326 -0.10360873
0.10468083 -0.050428253 0.15502344 -0.0797511 -0.06932038 -0.08444585 -0.03444969 -0.035601392
-0.17390884 0.085998245 0.11399749 0.06688721 -0.228129 -0.026630575 0.14766823 -0.1672292
0.021836441 -0.20405471 -0.13420086 -0.10443352 -0.057355616 0.029898912 0.06595773 0.10723024
-0.11698493 0.12702864 -0.13460179 0.0039516883 0.056798946 0.17875563 0.17724128 0.12546751
0.1922778 -0.11410883 -0.07687837 0.12911832 -0.019224506 0.07213609 -0.20007932 0.1994422
0.19039528 -0.06654785 0.18063195 -0.04268008 -0.038777474 -0.1409027 -0.1510495 -0.075997226
0.046608176 0.14457858 0.13416725 0.103105545 0.14141321 -0.09549009 -0.13882951 -0.08547731
-0.09521745 -0.038071528 -0.15386412 0.022041867 -0.14308935 -0.043239463 0.09823586 0.009353808
0.24085331 0.01230946 0.04546379 -0.1511421 -0.063239485 -0.20516463 0.18883131 0.15186605
0.07202545 0.15927394 0.007119422 -0.01080563 0.10694301 -0.15304254 -0.1465171 0.04736496
-0.07738465 -0.0832698 -0.19672044 0.14710993 0.17468898 0.0037487713 0.031292226 -0.0072031524
-0.093148865 0.101326324 0.18750428 0.16016845 -0.014446921 0.16564195 0.0021228949 0.09846617
0.0033554465 -0.23051554 -0.17024818 0.17043649 -0.092273615 -0.18785948 0.023307314 0.14152649
0.07499905 0.1957435 -0.1095529 0.18863446 -0.010013399 -0.11239427 0.16790824 0.117018595
0.14282973 0.0908098 0.20171809 0.0097489 -0.19481987 0.0039574183 -0.041536905 -0.20931602
-0.08718794 0.030395254 0.007098963 0.025850078 0.20707747 -0.12535878 0.17302339 -0.117219515
-0.11173949 0.038755704 -0.2043617 0.08780367 -0.036708627 -0.19325788 -0.15370901 -0.2374388
0.19372569 -0.022679174 -0.09991518 0.13695335 0.07444229 0.091176644 -0.035855442 0.1784755
-0.12178329 0.19750983 0.13959889 0.03792457 0.1486426 -0.0114115095 0.19892348 0.093722075
-0.043742098 -0.07327575 0.080188535 -0.15193401 0.15956175 0.096621044 -0.14242879 -0.16583605
-0.073104955 -0.048026454 0.18741296 -0.09889 -0.017916447 -0.17589362 -0.06552897 -0.1266755
0.12298029 -0.111647405 0.14701925 -0.06635128 -0.14657915 -0.22322534 -0.017421424 0.15975164
-0.15407309 0.08109641 -0.15052716 0.20040387 -0.010807055 0.008069487 0.027609887 -0.19304264
0.09048579 0.18073486 0.14567299 -0.037194543 -0.011554926 -0.14525181 -0.10210663 -0.23432599
0.1954208 0.013949167 -0.16718389 0.113030106 -0.20453642 0.0742922 0.22681312 -0.044879653
00000000: cd99 c03b a4a4 df3c 2a6d 1fbe 5eeb 44be
00000010: f57a 803c d75f 623e 5083 5ebe f0bc c3bd
00000020: ca82 35bc 7986 0d3e f701 69be 6467 68be
00000030: 7f2f 863d 7dd3 72bd 9662 163e 2e42 4c3e
00000040: 15d3 00bc e541 d6bd 8292 48bd d076 5c3d
00000050: 3a46 473e 1d23 0b3e cedc 053e 6216 03be
00000060: 6d3b 0e3e a836 473e 74d1 39bc 99e3 e43d
00000070: a904 513d 1596 e7bd 1899 88bd cb9d ebbd
00000080: 048e 3abe 3b60 17be 5a1a 5bbe 0f5b 7a3c
00000090: fbde 11be b636 d5bd 9f86 57be 8e7c 573e
000000a0: 12d6 3c3e a2f8 0f3e 61f6 213e 9317 2f3e
000000b0: 0462 8e3d 6edf 583e c360 c5bd 9aef b3bd
000000c0: 770e 25bd 69aa 22bd 2627 2ebd fd35 273c
000000d0: 466b b4bd b8fd 113e f586 4fbe d030 d4bd
000000e0: e762 d63d db8d 4ebd 77be 1e3e 8b54 a3bd
000000f0: d8f7 8dbd f2f1 acbd 1e1b 0dbd c4d2 11bd
00000100: 2915 32be d91f b03d 8477 e93d 29fc 883d
00000110: a69a 69be 5d28 dabc 5736 173e 223e 2bbe
00000120: 56e2 b23c b8f3 50be f36b 09be 3ee1 d5bd
00000130: b9ed 6abd 90ee f43c d914 873d 879b db3d
00000140: cc95 efbd cc13 023e 0dd5 09be 2a7d 813b
00000150: 03a6 683d b70b 373e bd7e 353e 8e7a 003e
00000160: 79e4 443e e4b1 e9bd 6872 9dbd 9837 043e
00000170: b67c 9dbc 16bc 933d 98e1 4cbe 933a 4c3e
00000180: fbf6 423e 3d4a 88bd 95f7 383e 4fd1 2ebd
00000190: 21d5 1ebd cc48 10be b8ac 1abe 6fa4 9bbd
000001a0: 37e8 3e3d 680c 143e 2463 093e 0029 d33d
000001b0: a0ce 103e 4f90 c3bd 5329 0ebe ba0e afbd
000001c0: 5e01 c3bd e4f0 1bbd 8e8e 1dbe 2591 b43c
000001d0: 0486 12be dd1b 31bd e22f c93d b740 193c
000001e0: 40a2 763e 9ead 493c 3d38 3a3d ffc4 1abe
000001f0: b483 81bd ad16 52be ff5c 413e c682 1b3e
00000200: 1482 933d b518 233e 0a4a e93b 190a 31bc
00000210: f004 db3d 2fb7 1cbe 9408 16be c301 423d
00000220: d87b 9ebd 5b89 aabd 1571 49be fca3 163e
00000230: abe1 323e f2ad 753b 472c 003d 6c08 ecbb
00000240: d5c4 bebd 2d84 cf3d 1f01 403e 3303 243e
00000250: c7b2 6cbc 0b9e 293e 4420 0b3b a2a8 c93d
00000260: 0de7 5b3b 440c 6cbe 8a55 2ebe e786 2e3e
00000270: f3f9 bcbd 3c5e 40be fbee be3c 52ec 103e
00000280: 1a99 993d fc70 483e 455d e0bd 6429 413e
00000290: 3d0f 24bc f82e e6bd 23f0 2b3e 72a7 ef3d
000002a0: f541 123e 7dfa b93d 308f 4e3e dab9 1f3c
000002b0: dc7e 47be 3bad 813b 9a22 2abd f056 56be
000002c0: 978f b2bd 78ff f83c 6b9e e83b 8bc3 d33c
000002d0: 1e0c 543e 0d5e 00be 0b2d 313e c910 f0bd
000002e0: acd7 e4bd 4dbe 1e3d 3244 51be 69d2 b33d
000002f0: c95b 16bd 65e5 45be e565 1dbe 2823 73be
00000300: 0760 463e adc9 b9bc 54a0 ccbd 803d 0c3e
00000310: 3375 983d d2ba ba3d 28dd 12bd 48c2 363e
00000320: 8469 f9bd 0440 4a3e 03f3 0e3e cb56 1b3d
00000330: c435 183e 57f7 3abc 99b2 4b3e 5cf1 bf3d
00000340: ea2a 33bd 9911 96bd e339 a43d 9794 1bbe
00000350: 2864 233e 41e1 c53d dad8 11be edd0 29be
00000360: 0db8 95bd 63b7 44bd 2fe9 3f3e d786 cabd
00000370: 83c5 92bc 751d 34be 0d34 86bd 39b7 01be
00000380: 17dd fb3d 65a7 e4bd 378c 163e 2ee3 87bd
00000390: d818 16be 2f95 64be 60b7 8ebc ef95 233e
000003a0: 56c5 1dbe e015 a63d cb23 1abe ac36 4d3e
000003b0: 1310 31bc e235 043c 212e e23c f8ac 45be
000003c0: 9d50 b93d 8f12 393e 4d2b 153e 4e59 18bd
000003d0: df50 3dbc e4bc 14be 481d d1bd 27f3 6fbe
000003e0: 641c 483e 0c8b 643c 4132 2bbe 547c e73d
000003f0: ff71 51be 8226 983d b341 683e bad3 37bd

onnx::LSTM_135 f4 [1, 512]
0.062339608 0.06019588 0.059231132 0.053098913 0.02496842 0.026295511 0.09292576 0.085437335
0.08688372 0.0311941 0.0054626265 0.055898663 0.1017805 0.09260618 0.03042558 -0.059761807
0.05287397 -0.088324286 0.07190825 0.12181322 -0.016751338 0.075533666 0.062648416 0.050602555
0.050722655 0.029705176 0.0013183313 0.06495844 0.112067774 0.040846072 0.03909921 0.040201098
0.13005291 0.041385334 0.11287606 -0.015103542 0.10354548 0.0651424 0.024880974 0.060462646
0.027520923 0.06470216 0.050808616 -0.032348942 0.06596937 0.008559294 0.047928218 0.07391232
0.09486063 0.073137276 0.01587089 0.02005962 0.05105786 0.05694576 0.10237319 0.068879485
0.036369223 0.060412206 -0.019027334 0.043720484 0.123195454 0.056441914 -5.9658723e-05 0.02229038
0.078377195 0.05769671 0.003667741 0.056977276 0.019313022 -0.0022462958 0.059450794 0.04833337
0.06479731 0.047580604 0.04952606 -0.013651822 0.07663203 0.04682752 0.11379985 0.019838953
0.028107407 -0.031507254 0.08105292 0.042783648 -0.020206532 -0.02749905 0.07757484 0.10335123
0.05467205 -0.013058108 0.0071595516 0.07879749 0.1264343 0.08902969 0.07998384 0.086283274
0.07715814 0.051073156 0.033658903 0.037455693 0.082054384 0.0019214423 -0.0040491605 0.030072682
0.050448686 0.010724284 0.1026044 0.07174017 -0.039150886 0.0038936483 0.046316158 0.09961757
0.081938945 0.041142147 0.012803477 0.06583016 0.05294297 0.076143496 0.05538074 0.016028168
0.0030546547 0.114112586 0.03732586 0.012027042 0.04461817 0.08672177 0.1004374 0.111193605
1.0139157 0.97920233 0.99682784 1.0251116 1.0152425 1.0216094 0.9873229 0.99823636
1.0228791 1.0190891 1.0305604 1.0039665 1.0209013 1.0217639 1.0191965 1.0182405
0.99900216 0.98881876 1.0073307 0.9964357 1.0189235 1.0221087 1.0258785 0.99311715
1.01274 0.97761995 0.99686176 1.0129371 0.9959272 1.0021491 1.015841 0.99958974
0.99413455 1.0148939 0.9869591 0.98863333 1.0266105 1.0179346 0.9970195 1.0165659
1.0130988 1.0217434 0.99773276 0.99097174 1.0055346 0.9920083 1.0323007 0.9887402
1.0389372 0.99571294 1.019364 1.0199015 1.0218978 1.0126576 0.9875653 0.98777103
1.014422 0.97831506 0.9738189 1.0138049 1.0043188 1.0004668 0.9855668 1.0043881
-0.055263635 0.05869417 -0.015634356 -0.01626586 0.04788932 0.033112668 -0.055037655 -0.0627316
0.030589212 -0.01826568 -0.04367441 -0.008463927 0.018728305 -0.09927 -0.034905 0.018881248
0.044240125 -0.007201846 0.02245102 -0.011502319 0.06749756 -0.029504659 0.05475004 0.009725019
-0.0105352495 0.0048930673 0.036205903 0.006389712 -0.047410116 -0.09442044 -0.035194583 0.017698864
0.024614349 -0.018990014 0.040194735 -0.0027169902 -0.06109316 0.007284324 -0.0685523 -0.020684415
0.0026646361 0.022136956 0.008593189 0.06504556 0.011826386 -0.05022358 0.036079906 0.050220307
0.02882835 -0.005088589 -0.0031139737 0.05620457 0.022886591 0.011165169 0.027058216 0.03746279
-0.06703727 -0.066606045 -0.048727255 0.008607401 0.0023585372 0.014450702 -0.01033666 -0.030287974
00000000: d157 7f3d f48f 763d 589c 723d 3f7e 593d
00000010: 928a cc3c af69 d73c dc4f be3d c5f9 ae3d
00000020: 17f0 b13d c58a ff3c d5ff b23b fff5 643d
00000030: 4b72 d03d 4fa8 bd3d 113f f93c ccc8 74bd
00000040: 6092 583d 5de3 b4bd a244 933d 3679 f93d
00000050: 1a3a 89bc 65b1 9a3d d04d 803d a044 4f3d
00000060: 8fc2 4f3d 4558 f33c dccb ac3a ee08 853d
00000070: ca83 e53d 364e 273d 7e26 203d e8a9 243d
00000080: 972c 053e ab83 293d 902b e73d d974 77bc
00000090: a70f d43d 6169 853d 2fd3 cb3c aea7 773d
000000a0: 8f73 e13c 9182 843d b21c 503d 5380 04bd
000000b0: f31a 873d 483c 0c3c 6150 443d 585f 973d
000000c0: 4a46 c23d ffc8 953d ab03 823c 1254 a43c
000000d0: 0c22 513d f53f 693d 09a9 d13d b010 8d3d
000000e0: e5f7 143d ca72 773d 36df 9bbc 4014 333d
000000f0: e64d fc3d a32f 673d 113a 7ab8 519a b63c
00000100: 3984 a03d 6353 6c3d 7c5e 703b 0161 693d
00000110: 5836 9e3c 9736 13bb ad82 733d 36f9 453d
00000120: 74b4 843d e1e3 423d d6db 4a3d e4ab 5fbc
00000130: 41f1 9c3d 37ce 3f3d e50f e93d 4d85 a23c
00000140: 8141 e63c c00d 01bd 13ff a53d e83d 2f3d
00000150: 2b88 a5bc b045 e1bc 8fdf 9e3d cfa9 d33d
00000160: cdef 5f3d adf1 55bc ac9a ea3b 9460 a13d
00000170: fe77 013e 3355 b63d 91ce a33d 49b5 b03d
00000180: 1605 9e3d 1632 513d ebdd 093d 246b 193d
00000190: 210c a83d e8d8 fb3a d2ae 84bb fc5a f63c
000001a0: 48a3 4e3d e8b4 2f3c 4122 d23d 83ec 923d
000001b0: ae5c 20bd 942c 7f3b 03b6 3d3d 4c04 cc3d
000001c0: 9bcf a73d ab84 283d adc5 513c f7d1 863d
000001d0: bada 583d 1ff1 9b3d ead6 623d 814d 833c
000001e0: 9a30 483b dcb3 e93d 00e3 183d 120d 453c
000001f0: 8bc1 363d 2f9b b13d 20b2 cd3d 79b9 e33d
00000200: fdc7 813f 01ad 7a3f 1c30 7f3f db36 833f
00000210: 77f3 813f 19c4 823f 32c1 7c3f 6b8c 7f3f
00000220: b4ed 823f 8371 823f 67e9 833f f981 803f
00000230: e5ac 823f 29c9 823f 0875 823f b455 823f
00000240: 9bbe 7f3f 3a23 7d3f 36f0 803f 6916 7f3f
00000250: 166c 823f 75d4 823f fd4f 833f ed3c 7e3f
00000260: 77a1 813f 4d45 7a3f 5532 7f3f eca7 813f
00000270: 16f5 7e3f 6c46 803f 1407 823f 1de5 7f3f
00000280: 9a7f 7e3f 0be8 813f 5aa9 7c3f 1317 7d3f
00000290: f967 833f ae4b 823f ac3c 7f3f d51e 823f
000002a0: 39ad 813f 7dc8 823f 6a6b 7f3f 53b0 7d3f
000002b0: 5cb5 803f 42f4 7d3f 6e22 843f 141e 7d3f
000002c0: e5fb 843f 0be7 7e3f 857a 823f 228c 823f
000002d0: 8ccd 823f c49e 813f 14d1 7c3f 90de 7c3f
000002e0: 95d8 813f db72 7a3f 324c 793f 5cc4 813f
000002f0: 858d 803f 4c0f 803f 1b4e 7c3f ca8f 803f
00000300: 1f5c 62bd 4c69 703d 9f13 80bc fb3f 85bc
00000310: 9727 443d 26a1 073d 2a6f 61bd 6d79 80bd
00000320: 3a96 fa3c e8a1 95bc f0e3 32bd 48ac 0abc
00000330: 1a6c 993c 124e cbbd 8cf8 0ebd d9ac 9a3c
00000340: 2235 353d 77fd ebbb 34eb b73c 3974 3cbc
00000350: 293c 8a3d c1b3 f1bc 9441 603d b055 1f3c
00000360: 0a9c 2cbc 0656 a03b a44c 143d ca60 d13b
00000370: 1c31 42bd 815f c1bd 3228 10bd 35fd 903c
00000380: 08a4 c93c f290 9bbc 3ca3 243d 880f 32bb
00000390: d23c 7abd 57b1 ee3b 2665 8cbd 5d72 a9bc
000003a0: 2da1 2e3b 9058 b53c 72ca 0c3c 9b36 853d
000003b0: 75c3 413c 3eb7 4dbd 86c8 133d cfb3 4d3d
000003c0: 6f29 ec3c 2ebe a6bb cf13 4cbb c336 663d
000003d0: a97c bb3c 1dee 363c 31a9 dd3c 9572 193d
000003e0: d64a 89bd c068 88bd 3b96 47bd 0e06 0d3c
000003f0: b091 1a3b a3c2 6c3c 185b 29bc 7c1e f8bc
