results/test/Shootair/Shootair-7232.onnx (onnx, 493289 bytes, 15 tensors)

discrete_act_size_vector f4 [1, 2]
2.0 2.0
00000000: 0000 0040 0000 0040

network_body._body_endoder.seq_layers.0.weight f4 [128, 420]
-0.0010901035 -0.01154254 0.011059366 0.07304479 0.008622358 -0.044879295 0.028177883 0.08074164
-0.07221316 0.017725145 -0.032207105 0.09302425 -0.023018342 0.028393332 0.033720102 -0.02761546
-0.015603477 0.03650582 0.0019773878 0.010238094 -0.1434567 0.018684968 -0.024718186 -0.025311071
-0.015673097 0.08106394 -0.016710475 0.043705083 -0.029438902 -0.058510188 0.022309745 -0.011466539
0.009693428 0.037549008 0.08682856 -0.0298897 0.050877735 0.041394476 0.033133965 -0.03649885
0.030949011 -0.07012983 0.035256006 0.004096146 0.01602906 0.09251416 -0.0021803963 -0.051293727
-0.0023855634 0.031184247 0.13706778 0.0038675999 -0.14042394 -0.04750072 0.06768596 -0.038449664
0.008306184 -0.09503996 0.011385949 0.027301896 -0.04720366 0.0011050347 -0.016462926 0.0069286902
-0.07231978 0.044155736 -0.030515121 -0.025678333 0.03489641 -0.04645978 -0.012150561 0.035502944
0.019922107 0.02788642 0.055889025 -0.010462237 0.0048821387 0.03034414 -0.05726924 0.024625394
0.07129905 0.023413185 -0.047568016 0.037045486 -0.08386287 0.05084046 0.07830145 0.0062844544
0.07377925 -0.012539153 0.06603329 0.118228056 -0.05224947 -0.122475624 -0.029717281 -0.0519137
0.12034735 -0.06953985 0.06999671 -0.034363747 -0.027244518 0.055741847 0.03502311 0.022788618
0.093201384 0.07357135 0.044105045 -0.016853768 0.02318136 0.021862969 0.07425356 -0.043128602
-0.047921997 0.032433636 0.07956302 0.04106021 -0.03137806 0.03001663 -0.007684507 0.038915496
0.06650136 0.028650273 0.03483592 -0.023576438 -0.06467469 -0.015883708 0.041979153 -0.12980595
-0.124824874 -0.033752806 0.09129389 0.0015115257 0.06394456 0.039336342 -0.08564788 -0.0124204755
0.003464467 0.011493526 0.072145864 0.03061465 -0.0549472 0.0051630777 0.060385227 0.06591075
0.09663793 0.07396075 0.026910527 0.014915712 0.0044118203 0.11797207 -0.041262582 -0.00056605815
0.06359209 -0.04909478 0.029099366 -0.04389322 -0.054212853 -0.0021398852 0.012103139 -0.015639173
-0.11890736 0.033984713 0.028923307 0.09580995 0.078818075 0.053177208 0.042568408 -0.028547077
-0.0060236454 0.019843625 0.0071912017 0.08041618 -0.0045651663 -0.018569237 0.0026502071 0.034022868
-0.032468867 0.0048911995 0.0022035518 -0.031230828 0.02557695 0.05762719 0.014036887 -0.014553183
-0.03264286 0.10239136 0.007537068 -0.03822657 0.0040496006 0.042291936 0.0010724071 0.016053263
0.008787615 -0.05749584 -0.06879473 -0.052027054 0.017736737 0.0019693922 -0.009757275 -0.009399288
0.035254538 0.035117146 0.040597666 0.06846511 0.061230075 0.010480406 -0.014265848 0.053109176
-0.058984905 -0.024904689 0.03424983 -0.094413914 0.063914075 0.09689703 0.08595003 0.008391401
0.080111414 -0.03998289 0.05400571 -0.057330564 0.031931963 0.07728252 -0.02597223 0.0025283915
-0.046422917 0.071399376 -0.023397835 0.039785523 0.06165859 0.04894031 0.08109512 0.03811965
0.04270289 0.07480157 0.052244157 -0.031646654 0.11196609 0.009438216 0.09176336 -0.00584177
0.02869224 0.02449449 0.029776331 -0.110055625 0.037850395 0.037499614 -0.0090880105 -0.01001715
-0.03941622 0.043496102 0.0072055836 -0.025524652 -0.02854013 0.0038373251 0.07287203 0.0845655
00000000: cee1 8eba ec1c 3dbc 5832 353c 8298 953d
00000010: ca44 0d3c 5ad3 37bd 4ed5 e63c df5b a53d
00000020: 7ee4 93bd 5334 913c 99eb 03bd 7f83 be3d
00000030: f690 bcbc 2299 e83c 171e 0a3d d139 e2bc
00000040: baa5 7fbc 2087 153d 1097 013b aebd 273c
00000050: 50e6 12be 3811 993c cb7d cabc 2a59 cfbc
00000060: de64 80bc da04 a63d 68e4 88bc 1a04 333d
00000070: da29 f1bc 61a8 6fbd edc2 b63c 27de 3bbc
00000080: 2fd1 1e3c fdcc 193d 2cd3 b13d 3edb f4bc
00000090: 2c65 503d 418d 293d 7bb7 073d d17f 15bd
000000a0: c888 fd3c 3aa0 8fbd 9a68 103d f738 863b
000000b0: 604f 833c 1078 bd3d fbe4 0ebb 5f19 52bd
000000c0: 1d57 1cbb 1b76 ff3c 7f5b 0c3e 8f77 7d3b
000000d0: 4bcb 0fbe 1d90 42bd f09e 8a3d 657d 1dbd
000000e0: a916 083c 50a4 c2bd 228c 3a3c 3aa8 df3c
000000f0: a058 41bd d0d6 903a 42dd 86bc 110a e33b
00000100: 651c 94bd a5dc 343d d9fa f9bc 5e5b d2bc
00000110: 8aef 0e3d 9c4c 3ebd 2613 47bc 896b 113d
00000120: b033 a33c 1072 e43c e4eb 643d cd69 2bbc
00000130: 59fa 9f3b 4694 f83c 2793 6abd 32bb c93c
00000140: 3c05 923d 02cd bf3c aed6 42bd 02bd 173d
00000150: 4cc0 abbd 163e 503d 835c a03d d3ed cd3b
00000160: 9319 973d 0571 4dbc 763c 873d 8d21 f23d
00000170: 8a03 56bd 80d4 fabd a871 f3bc 76a3 54bd
00000180: ac78 f63d e96a 8ebd 6f5a 8f3d 00c1 0cbd
00000190: e52f dfbc 9051 643d 6574 0f3d 32af ba3c
000001a0: 5ee0 be3d 93ac 963d 7ea7 343d ea10 8abc
000001b0: d6e6 bd3c f819 b33c 4012 983d 9ea7 30bd
000001c0: db49 44bd 22d9 043d f0f1 a23d c02e 283d
000001d0: 4886 00bd 70e5 f53c 51ce fbbb db65 1f3d
000001e0: dd31 883d fab3 ea3c 1cb0 0e3d 6023 c1bc
000001f0: 2a74 84bd 8d1e 82bc 55f2 2b3d daeb 04be
00000200: 2fa4 ffbd 6240 0abd 4af8 ba3d 631e c63a
00000210: 5ef5 823d 251f 213d 2868 afbd 407f 4bbc
00000220: 1c0c 633b 584f 3c3c 36c1 933d 93cb fa3c
00000230: 5110 61bd 092f a93b 8056 773d 37fc 863d
00000240: 1bea c53d bc78 973d 7773 dc3c 0861 743c
00000250: 0891 903b 579b f13d f402 29bd 8563 14ba
00000260: 923c 823d 9c17 49bd cb61 ee3c 61c9 33bd
00000270: 4c0e 5ebd 513d 0cbb 3f4c 463c b91d 80bc
00000280: b485 f3bd 8e33 0b3d 92f0 ec3c 0238 c43d
00000290: 5f6b a13d 58d0 593d 365c 2e3d 8fdb e9bc
000002a0: 0062 c5bb 198f a23c 2ca4 eb3b 3db1 a43d
000002b0: 6497 95bb 831e 98bc 19af 2d3b 905b 0b3d
000002c0: 13fe 04bd 5b46 a03b 7769 103b cbd7 ffbc
000002d0: c086 d13c 7d0a 6c3d f9fa 653c 7970 6ebc
000002e0: 85b4 05bd 90b2 d13d 82f9 f63b 7793 1cbd
000002f0: 83b2 843b 4f3a 2d3d 0390 8c3a 2282 833c
00000300: eef9 0f3c c280 6bbd 40e4 8cbd 521a 55bd
00000310: a24c 913c eb10 013b fadc 1fbc 79ff 19bc
00000320: 1067 103d ffd6 0f3d bd49 263d 7037 8c3d
00000330: 63cc 7a3d 02b6 2b3c 4ebb 69bc 0289 593d
00000340: 289a 71bd eb04 ccbc 8d49 0c3d 155c c1bd
00000350: 62e5 823d f371 c63d 9206 b03d 167c 093c
00000360: 7411 a43d 19c5 23bd 1735 5d3d 74d3 6abd
00000370: 17cb 023d 4c46 9e3d b7c3 d4bc 5fb3 253b
00000380: f525 3ebd d639 923d d1ac bfbc 25f6 223d
00000390: b88d 7c3d a275 483d 3315 a63d 5a23 1c3d
000003a0: 3ae9 2e3d 9131 993d f8fd 553d ec9f 01bd
000003b0: 7a4e e53d bfa2 1a3c 6eee bb3d 526c bfbb
000003c0: fd0b eb3c aba8 c83c 7eed f33c d864 e1bd
000003d0: 0409 1b3d 3299 193d e1e5 14bc f91e 24bc
000003e0: e772 21bd f828 323d d11c ec3b 1319 d1bc
000003f0: fecc e9bc a27b 7b3b ee3d 953d ad30 ad3d

network_body._body_endoder.seq_layers.0.bias f4 [128]
0.0072218766 -0.0012875325 0.0062511913 -0.008051846 0.015088834 0.015708372 0.018054215 0.0061433567
-0.016467335 -0.0090928525 -0.0054070586 -0.005671007 0.034117263 -0.0044778096 0.0037455517 0.0036557815
-0.011069135 0.0010041349 0.018136062 -0.010283958 0.015618861 -0.009310995 0.0012136096 0.0016579913
-0.01588043 -0.003960139 -0.0007894289 0.011731534 0.026712747 0.0021665045 0.011384614 -0.01025716
-0.00097626727 -0.0039238925 0.009843865 0.0022611762 -0.0067658485 -0.0024286339 -0.014674392 -0.007053915
0.016835282 0.024811959 -0.0038836033 -0.009849848 0.0016114176 0.0035548983 -0.009980099 -0.01628771
0.0052245054 0.0037555995 0.008678071 -0.0006035946 0.011574015 -0.0081648035 -0.009717596 0.011029526
0.011767642 0.009806759 -0.007073878 0.00010724223 0.0010776464 -0.0072491863 -0.0040798886 -0.0057717604
0.01083171 0.022638794 -0.006215809 0.007732728 0.00691443 0.004944622 -0.009996942 0.010380399
0.009183337 0.0067177634 -0.011775409 0.022068154 -0.005490244 0.012821416 0.011834699 0.00978818
0.0117573105 -0.014066308 0.014223034 -0.007314366 0.031052615 -0.02315805 0.011929712 -0.012081725
0.031090977 -0.0028395916 0.00016170842 0.015350842 -0.007888779 0.033182465 -0.012213255 0.024384689
-0.007084423 0.016748933 -0.0066992124 0.030345244 -0.0054471944 0.010476131 -0.012106776 -0.010333447
0.004368573 0.005720645 -0.011850013 0.0059211114 0.011930335 -0.0065596686 -0.0016288247 -0.013246624
0.0039908937 -0.00532713 0.0122064585 0.008561741 0.0012720926 0.025872193 0.010374749 -0.002279002
-0.00272552 0.009257944 0.013419785 0.008505607 -0.0061108135 -0.012003244 0.0019839203 0.023021996
00000000: 7ea5 ec3b 6cc2 a8ba cbd6 cc3b e4eb 03bc
00000010: 2837 773c d8ae 803c 6fe6 933c 364e c93b
00000020: 81e6 86bc 30fa 14bc b22d b1bb dbd3 b9bb
00000030: 8bbe 0b3d 97ba 92bb ee77 753b d695 6f3b
00000040: 515b 35bc 2d9d 833a 1492 943c 0c7e 28bc
00000050: 40e6 7f3c 258d 18bc fb11 9f3a f550 d93a
00000060: ad17 82bc 0ec4 81bb adf1 4eba 9f35 403c
00000070: b1d4 da3c eafb 0d3b 8886 3a3c a60d 28bc
00000080: 30ec 7fba ff93 80bb 2a48 213c 3e30 143b
00000090: 0db4 ddbb b729 1fbb dc6c 70bc 8724 e7bb
000000a0: 25ea 893c 7342 cb3c 0d84 7ebb 4261 21bc
000000b0: 3436 d33a 4cf9 683b 9283 23bc ce6d 85bc
000000c0: 5432 ab3b 8120 763b 782e 0e3c 8c3a 1eba
000000d0: f0a0 3d3c abc5 05bc 8d36 1fbc 2fb5 343c
000000e0: 11cd 403c 87ac 203c fdcb e7bb 3ce7 e038
000000f0: d03f 8d3a 958a edbb 96b0 85bb 0921 bdbb
00000100: 7c77 313c fe74 b93c fcad cbbb d362 fd3b
00000110: 7192 e23b 7f06 a23b 37ca 23bc 8d12 2a3c
00000120: b575 163c af20 dc3b a5ed 40bc 46c8 b43c
00000130: 81e7 b3bb eb10 523c 53e6 413c 9a5e 203c
00000140: bca1 403c 5f76 66bc ba07 693c 59ad efbb
00000150: 0e62 fe3c f3b5 bdbc d774 433c 6df2 45bc
00000160: 81b2 fe3c 7118 3abb 4690 2939 1982 7b3c
00000170: f03f 01bc 56ea 073d 1b1a 48bc 66c2 c73c
00000180: 7324 e8bb 0f35 893c 1185 dbbb 9796 f83c
00000190: 617e b2bb 14a4 2b3c 805b 46bc 9e4d 29bc
000001a0: 3f26 8f3b 4074 bb3b 8f26 42bc e205 c23b
000001b0: 7477 433c 7df2 d6bb 4a7e d5ba 5e08 59bc
000001c0: 0bc6 823b 358f aebb 99fd 473c 8b46 0c3c
000001d0: 58bc a63a ecf1 d33c dafa 293c 4f5b 15bb
000001e0: a39e 32bb a2ae 173c a8de 5b3c 1a5b 0b3c
000001f0: 383d c8bb 41a9 44bc a904 023b a098 bc3c

network_body._body_endoder.seq_layers.2.weight f4 [128, 128]
-0.008635294 0.06689363 -0.10391683 0.040327087 -0.044189956 0.053861227 -0.050346438 0.016827164
-0.11824988 -0.103407554 0.0505367 0.028575797 0.10557384 0.04449479 0.06796961 0.11167586
-0.007905328 0.05139315 0.23537472 -0.111748934 -0.048370786 -0.12614392 0.15948766 0.10887996
0.075527996 -0.0032988102 -0.13332705 0.19009586 -0.08575375 0.08324276 -0.0072322944 -0.00087742036
0.08841807 0.05271758 -0.07285188 0.0056063 -0.034097426 0.024772417 0.0056083854 0.048102256
-0.10417547 -0.056866348 -0.012328112 -0.030340353 0.01600954 0.0020650853 0.022923168 0.10858126
-0.06253187 0.018476723 0.06058015 -0.05484053 0.05988989 -0.018132573 -0.081575766 -0.08415336
0.07479011 0.10279188 0.108091764 -0.03046794 0.09809077 0.07222896 0.013328318 -0.24512808
0.23156591 0.04701385 -0.15856296 -0.101058155 0.09642021 0.16662173 -0.08130763 -0.13023868
0.06106937 0.06454947 0.11776496 0.0043807877 0.012363713 0.032833174 0.023278913 -0.0031403233
-0.0035715266 -0.021613315 -0.0846731 -0.030500801 -0.082636125 0.09590241 0.05521871 0.13982664
-0.07194779 -0.13958642 0.0521201 0.05846182 -0.15732545 -0.020545542 -0.08031205 0.18437545
0.020589234 0.10496456 0.1229598 -0.0022914025 -0.0055946615 -0.050226923 -0.057814885 0.003633142
0.087144345 0.012729118 0.082684934 0.010373343 0.07203085 -0.15950565 0.038780537 -0.12594242
-0.10153581 0.110310815 0.11199197 -0.03744956 0.10324505 -0.1747347 -0.031202393 0.00086216663
-0.31587568 -0.027588466 -0.027052956 0.093533136 0.0446341 -0.03044502 -0.07992524 -0.010633514
-0.112571985 0.062570795 -0.014708146 -0.071242884 0.19374798 0.05477473 0.019202765 -0.043449316
0.107690655 -0.17104048 -0.027285919 -0.02374119 -0.10127129 0.049181048 -0.0545926 -0.11604545
-0.005376766 -0.11734308 -0.06305004 0.017539414 0.058026694 0.13524713 -0.04985458 -0.048897233
0.017986856 0.07966242 -0.05797862 -0.189622 -0.10459785 0.12888512 -0.019045925 -0.19958712
0.085591674 0.040592752 0.10661427 0.072690085 0.022374732 0.013594828 -0.047997262 0.06037259
-0.0043548173 -0.07074983 -0.09896307 0.14043221 0.050897382 0.078302965 0.11109381 0.011130905
0.035465695 0.0874644 -0.08766769 -0.06775207 0.094610654 0.041929957 0.0023918357 -0.02321281
0.013068132 0.19586612 0.056192715 0.053367965 0.10113449 0.067493245 -0.016037257 -0.08006669
-0.109742224 0.068168394 0.01889006 0.19930996 -0.08286757 -0.039186098 0.012183992 0.1601784
-0.08619134 -0.11226233 0.07058021 -0.073966965 0.029519204 -0.22079921 -0.075559035 0.05772069
-0.045233686 -0.03261049 0.106991164 -0.08138604 0.16985339 -0.01752388 -0.1612306 -0.012623734
-0.11286516 0.03624029 0.058491338 -0.21147938 0.12912785 -0.06720938 -0.00907251 0.027013432
-0.2528602 -0.14561385 -0.045755994 -0.017139414 -0.006230227 -0.018931804 -0.17108423 0.066550255
-0.057224847 0.13467188 0.24242808 -0.012175651 -0.08917035 0.09615354 -0.014403534 0.16111843
-0.07839773 -0.12688228 -0.056724545 0.009723017 -0.031825818 0.14860454 0.006015155 -0.15566085
0.12417553 -0.0007815669 0.03080086 -0.016138095 0.06601293 -0.031475175 0.21367452 0.027205931
00000000: 0c7b 0dbc 87ff 883d 59d2 d4bd 042e 253d
00000010: 8700 35bd 979d 5c3d 1138 4ebd 1fd9 893c
00000020: fe2c f2bd 57c7 d3bd 92ff 4e3d ca17 ea3c
00000030: 1937 d83d 2b40 363d a733 8b3d 50b6 e43d
00000040: 5985 01bc a081 523d 1206 713e a0dc e4bd
00000050: 7220 46bd df2b 01be bc50 233e 75fc de3d
00000060: 6cae 9a3d da30 58bb e386 08be 7da8 423e
00000070: a99f afbd 2e7b aa3d e2fc ecbb af02 66ba
00000080: 8814 b53d 64ee 573d 5e33 95bd 0eb5 b73b
00000090: bea9 0bbd 86ef ca3c 8cc6 b73b df06 453d
000000a0: f359 d5bd b0ec 68bd d9fb 49bc 558c f8bc
000000b0: 7026 833c 6256 073b 5ec9 bb3c da5f de3d
000000c0: b610 80bd 7f5c 973c e422 783d 77a0 60bd
000000d0: 1a4f 753d c38a 94bc 3211 a7bd 9958 acbd
000000e0: 8f2b 993d 8d84 d23d 375f dd3d e797 f9bc
000000f0: d0e3 c83d c7ec 933d 045f 5a3c db02 7bbe
00000100: 9d1f 6d3e 9891 403d 545e 22be 94f7 cebd
00000110: f677 c53d e39e 2a3e 9d84 a6bd 4a5d 05be
00000120: e023 7a3d 8332 843d c12e f13d b68c 8f3b
00000130: 2c91 4a3c 147c 063d 6bb3 be3c e2cd 4dbb
00000140: 4610 6abb 680e b1bc 1769 adbd d1dc f9bc
00000150: 213d a9bd 7c68 c43d 042d 623d b72e 0f3e
00000160: 5d59 93bd beef 0ebe e37b 553d a975 6f3d
00000170: ec19 21be 204f a8bc a57a a4bd ebcc 3c3e
00000180: c1aa a83c a9f7 d63d 59d2 fb3d 5b2b 16bb
00000190: 6c53 b7bb bfba 4dbd 4dcf 6cbd 021a 6e3b
000001a0: bc78 b23d ca8d 503c b856 a93d f4f4 293c
000001b0: e984 933d 7355 23be 57d8 1e3d 0df7 00be
000001c0: 02f2 cfbd a3ea e13d 0c5c e53d b664 19bd
000001d0: 2472 d33d a7ed 32be 299c ffbc 0603 623a
000001e0: 75ba a1be 3501 e2bc 299e ddbc 4d8e bf3d
000001f0: 3fd2 363d d667 f9bc d8af a3bd 3138 2ebc
00000200: 248c e6bd 1e25 803d 70fa 70bc cae7 91bd
00000210: df65 463e 785b 603d 1e4f 9d3c e9f7 31bd
00000220: eb8c dc3d 3c25 2fbe b886 dfbc e27c c2bc
00000230: 5267 cfbd 1172 493d 7d9c 5fbd 3da9 edbd
00000240: 952f b0bb 9251 f0bd 6120 81bd d1ae 8f3c
00000250: 66ad 6d3d 397e 0a3e 5134 4cbd 7748 48bd
00000260: 2c59 933c 0d26 a33d fd7a 6dbd 452c 42be
00000270: 6637 d6bd 76fa 033e 3306 9cbc 9160 4cbe
00000280: b04a af3d 9644 263d 9558 da3d 8ade 943d
00000290: 374b b73c d7bc 5e3c c798 44bd 4049 773d
000002a0: dbb2 8ebb 49e5 90bd 26ad cabd 76cd 0f3e
000002b0: c679 503d 4e5d a03d 2785 e33d 665e 363c
000002c0: 7a44 113d 8920 b33d 1e8b b3bd 99c1 8abd
000002d0: 3bc3 c13d bfbe 2b3d 58c0 1c3b ca28 bebc
000002e0: b81b 563c 2191 483e 552a 663d 5e98 5a3d
000002f0: 991f cf3d e639 8a3d 9160 83bc 01fa a3bd
00000300: 88c0 e0bd df9b 8b3d 54bf 9a3c e917 4c3e
00000310: 79b6 a9bd 9a81 20bd 5e9f 473c ce05 243e
00000320: 1685 b0bd cbe9 e5bd 5b8c 903d fe7b 97bd
00000330: 42d2 f13c 3019 62be b2be 9abd 886c 6c3d
00000340: f546 39bd 9492 05bd 2f1e db3d b9ad a6bd
00000350: 0cee 2d3e 3d8e 8fbc a219 25be c7d3 4ebc
00000360: d925 e7bd b370 143d 9d94 6f3d 0d8e 58be
00000370: 173a 043e 12a5 89bd dda4 14bc 464b dd3c
00000380: e476 81be cc1b 15be a36a 3bbd f567 8cbc
00000390: ef26 ccbb df16 9bbc b430 2fbe 804b 883d
000003a0: 9a64 6abd 6de7 093e 113f 783e 627c 47bc
000003b0: f29e b6bd 26ec c43d cdfc 6bbc 3bfc 243e
000003c0: fd8e a0bd 6eed 01be ff57 68bd 4a4d 1f3c
000003d0: ca5b 02bd ca2b 183e c71a c53b 8f65 1fbe
000003e0: be4f fe3d 11e2 4cba 1652 fc3c 0a34 84bc
000003f0: c931 873d 1dec 00bd 7ecd 5a3e f9de de3c

network_body._body_endoder.seq_layers.2.bias f4 [128]
0.007260351 -0.015280936 -0.013691577 0.017366404 -0.012597681 -0.00617767 0.008468614 -0.0026826526
0.0056306887 -0.007653706 0.042123623 -0.024825465 -3.6900758e-05 -0.010521613 -0.0020285642 0.021773696
-0.011323339 -0.014361019 -0.007714646 0.03628103 0.009915311 0.011759505 0.0057515046 0.00573291
-0.018096657 -0.0055866838 0.031002156 0.023457343 0.01173525 -0.008943084 -0.006438051 0.0049473755
-0.005867703 -0.0047712764 0.0089471415 0.012767287 -0.0046518315 0.014518887 -0.014893432 0.020370966
-0.009271242 -0.010900292 0.005576976 -0.013136566 0.027838133 0.018010674 0.01068677 0.033933338
-0.000962585 0.008946578 0.0038089622 0.033195294 0.018815307 -0.0022344072 0.0048367423 0.0028675974
0.0027054152 -0.02528844 0.011160047 0.02663318 0.020511001 0.0027987612 -0.020677578 0.00029770815
-0.0021056894 -0.005108459 0.003996575 0.0038002238 0.006269119 -0.009822036 -0.014805539 0.012452364
0.004270703 0.018146887 -0.0073030093 -0.0072542145 0.04811268 0.02299921 -0.012021291 0.001764924
0.003087116 0.0041579795 0.012304893 0.022432301 -0.018610246 -7.5691437e-06 -0.0043148156 0.0070088366
0.013256434 0.018984878 -0.0022509836 0.0018506988 0.02632123 -0.010846937 0.0055391444 0.020783821
0.0058435956 -0.0103995595 0.009163624 -0.019311028 -0.021854592 -0.007096684 0.034659393 -0.004363133
0.026761862 -0.0077936333 0.0013956641 0.01014435 0.012458049 -0.026449142 0.028294113 0.0053861374
0.008770363 -0.009949348 0.01165543 0.011115818 -0.018323492 -0.007161747 0.0003510008 0.0133962585
-0.010055191 -0.003068469 -0.020134209 0.0076282965 0.013597009 0.016493555 0.0122076515 -0.0028062004
00000000: 3de8 ed3b e45c 7abc a352 60bc fd43 8e3c
00000010: 8166 4ebc 0d6e cabb f1bf 0a3c 71cf 2fbb
00000020: a481 b83b f0cb fabb d289 2c3d c65e cbbc
00000030: e3c5 1ab8 d862 2cbc a9f1 04bb c05e b23c
00000040: 8785 39bc 7b4a 6bbc 24cb fcbb 6b9b 143d
00000050: d473 223c f0aa 403c 1e77 bc3b 22db bb3b
00000060: 713f 94bc 8010 b7bb 3cf8 fd3c 9d29 c03c
00000070: 3545 403c 0386 12bc 49f6 d2bb 981d a23b
00000080: dc45 c0bb 5e58 9cbb 0897 123c e22d 513c
00000090: 646e 98bb a0e0 6d3c 9503 74bc 03e1 a63c
000000a0: 68e6 17bc 2397 32bc 11bf b63b c03a 57bc
000000b0: cc0c e43c 1f8b 933c 9017 2f3c affd 0a3d
000000c0: fc55 7cba ab94 123c c89f 793b caf7 073d
000000d0: 8f22 9a3c 226f 12bb 897d 9e3b 4dee 3b3b
000000e0: 564d 313b b429 cfbc a1d8 363c d42d da3c
000000f0: b006 a83c 6c6b 373b 0664 a9bc b615 9c39
00000100: 9bff 09bb dc64 a7bb b3f5 823b 2d0d 793b
00000110: 2f6d cd3b 9bec 20bc ee92 72bc 0005 4c3c
00000120: 41f1 8b3b c8a8 943c 154e efbb c3b4 edbb
00000130: cd11 453d d768 bc3c f3f4 44bc 0655 e73a
00000140: 3651 4a3b a93f 883b 769a 493c f2c3 b73c
00000150: 8474 98bc 73fa fdb6 4c63 8dbb 62aa e53b
00000160: 8431 593c 2d86 9b3c 3d85 13bb 2693 f23a
00000170: 9f9f d73c 5ab7 31bc b681 b53b d542 aa3c
00000180: a27b bf3b ea62 2abc 0623 163c 2932 9ebc
00000190: 6708 b3bc 4d8b e8bb 02f7 0d3d 9df8 8ebb
000001a0: b13b db3c bc61 ffbb b7ee b63a 7d34 263c
000001b0: d81c 4c3c dfab d8bc 0ec9 e73c 327e b03b
000001c0: 92b1 0f3c 9702 23bc 6bf6 3e3c 1f1f 363c
000001d0: 261b 96bc 17ad eabb 8806 b839 fb7b 5b3c
000001e0: 87be 24bc 5e18 49bb 7ff0 a4bc caf6 f93b
000001f0: fdc5 5e3c 7e1d 873c 9a02 483c 3be8 37bb

action_model._continuous_distribution.log_sigma f4 [1, 2]
-0.049823225 -0.018671265
00000000: 7013 4cbd 7bf4 98bc

action_model._continuous_distribution.mu.weight f4 [2, 64]
-0.019817866 0.005352437 0.0057986714 -0.03901408 0.044838414 0.00583674 0.029123807 -0.025276521
0.018159566 0.01935028 0.017147997 0.018350458 0.0024380237 -0.0382999 0.06412753 -0.023398623
-0.026637077 0.012961374 0.009735121 -0.0059603155 0.017552767 -0.003359558 -0.02782123 -0.011588407
-0.04384444 0.016267445 0.024800055 0.022755932 -0.009755032 0.010840943 0.0046342863 0.037369102
0.012195475 -0.06266114 0.034739338 -0.0059868833 -8.874333e-05 0.041501824 0.03708825 -0.009608347
-0.026469342 0.011468672 0.020907661 0.004765068 -0.037065834 0.0016202208 0.010639587 -0.0024396249
0.0019708672 0.023738526 7.461739e-05 -0.05596733 -0.04304225 0.037061233 -0.00863336 0.016773721
-0.0040953313 0.012488184 -0.034209505 -0.0017005514 0.017834187 0.024369689 -0.03205428 0.016546126
-0.07487639 0.048654243 -0.028957104 0.045038592 0.040421627 -0.05445121 0.0471958 0.008733446
-0.005118883 0.04129581 0.074685656 -0.004650631 0.008480122 0.0048314254 0.028116483 0.069392055
0.035146333 0.025333166 -0.012593878 0.024237147 -0.023266396 0.04082627 -0.00988321 -0.0045740455
0.051073 0.022723326 0.019595847 -0.00605381 -0.016125122 -0.036693763 0.028652903 0.009180715
-0.0044052475 0.054690152 0.03188441 0.00841341 0.045886137 0.0048228367 -0.02109312 0.035895035
0.005742629 -0.11295689 -0.034822125 -0.01036841 0.049796313 -0.041773006 0.026685197 -0.00985538
-0.014690037 0.03450737 0.008263588 -0.015159269 -0.00030831352 0.015568772 0.011377203 0.050953254
0.008460517 -0.038555793 -0.042744007 0.039629832 0.051759318 0.037115213 -0.06680283 0.04886091
00000000: 1459 a2bc 7f63 af3b c802 be3b 3acd 1fbd
00000010: 7ca8 373d 2042 bf3b 0d95 ee3c b510 cfbc
00000020: 5fc3 943c 7a84 9e3c f579 8c3c b353 963c
00000030: 40c7 1f3b 5be0 1cbd 4b55 833d 78ae bfbc
00000040: 0036 dabc f15b 543c 0f80 1f3c c04e c3bb
00000050: d2ca 8f3c 082c 5cbb 59e9 e3bc 4ddd 3dbc
00000060: 3a96 33bd 4e43 853c 7c29 cb3c a66a ba3c
00000070: 92d3 1fbc 369e 313c 36db 973b 5810 193d
00000080: 88cf 473c 7c54 80bd d64a 0e3d 9e2d c4bb
00000090: b61b bab8 d1fd 293d d9e9 173d 546c 1dbc
000000a0: 3cd6 d8bc 19e7 3b3c 8b46 ab3c 4a24 9c3b
000000b0: 58d2 17bd 975d d43a aa51 2e3c 1de2 1fbb
000000c0: aa29 013b 4c77 c23c e87b 9c38 003e 65bd
000000d0: 124d 30bd 85cd 173d f072 0dbc 0b69 893c
000000e0: 2132 86bb 3d9b 4c3c 441f 0cbd 09e5 deba
000000f0: 0019 923c f1a2 c73c 594b 03bd be8b 873c
00000100: cb58 99bd ac49 473d 7337 edbc 637a 383d
00000110: 2691 253d 3b08 5fbd 6250 413d ba16 0f3c
00000120: 4ebc a7bb cc25 293d cbf4 983d 5264 98bb
00000130: 36f0 0a3c ef50 9e3b 8a54 e63c 6c1d 8e3d
00000140: 9af5 0f3d 8087 cf3c 8e56 4ebc fb8c c63c
00000150: 2b99 bebc 7239 273d 30ed 21bc e0e1 95bb
00000160: ec31 513d 4526 ba3c 7887 a03c 0a5f c6bb
00000170: d518 84bc 334c 16bd 7eb9 ea3c b66a 163c
00000180: e559 90bb c802 603d 3a99 023d 66d8 093c
00000190: 1af3 3b3d e308 9e3b 7bcb acbc ac06 133d
000001a0: aa2c bc3b f155 e7bd a5a1 0ebd 43e0 29bc
000001b0: 38f7 4b3d 2c1a 2bbd ea9a da3c 7678 21bc
000001c0: 7bae 70bc 9a57 0d3d 0064 073c 955e 78bc
000001d0: 24a5 a1b9 2a14 7f3c 7367 3a3c 5cb4 503d
000001e0: fb9d 0a3c aeec 1dbd 5714 2fbd e452 223d
000001f0: 9401 543d 1f06 183d eccf 88bd 6122 483d

action_model._continuous_distribution.mu.bias f4 [2]
0.009214421 -0.020511767
00000000: 15f8 163c 4b08 a8bc

action_model._discrete_distribution.branches.0.weight f4 [2, 64]
0.009914686 0.0074135656 0.020953111 -0.0067590806 0.0032636938 0.019888503 -0.009153827 0.038995065
-0.012365523 -0.041048363 -0.034258805 -0.011766863 0.005737806 0.048584707 0.016718926 -0.0031602723
-0.007485446 0.045387123 -0.01923101 0.033403687 -0.013319128 0.027185712 0.0016777959 0.016916255
-0.0001403282 -0.00925156 -0.0068777986 -0.0040693143 0.025491403 -0.033136092 -0.012935691 -0.01728019
0.0022849622 0.0015338002 0.009645802 0.0074091163 -0.011034921 0.013965692 -0.011021942 -0.03405206
0.053268537 0.007078148 0.0012313473 -0.0006350245 0.0036393928 0.020513646 0.029927947 -0.007987636
0.018296389 0.051347245 0.007894457 -0.04378504 -0.06730448 -0.01357796 0.0036083108 -0.027629629
0.017414346 -0.0057996395 -0.051544588 -0.005057047 0.048607633 -0.03167143 -0.039819006 -0.015231582
-0.019892259 -0.029556861 -0.023685727 0.0039627017 -0.04198237 -0.028316192 -0.023528026 -0.03865671
0.019452147 0.032989133 0.053226553 -0.008932335 -0.029838054 -0.0312769 0.00084023597 -0.024774943
-0.01000329 -0.05953348 0.022569513 -0.03470622 0.012432904 -0.023387894 0.003789837 -0.006786017
0.021148184 0.0031149564 0.023423623 0.020496363 0.009674462 0.034453955 0.014695048 0.040939327
0.0071715447 -0.026103465 -0.023800524 0.033759307 0.012059456 -0.0006939662 0.029040553 0.008953843
-0.015274933 -0.018958114 0.0045977333 0.0013529991 -0.022582991 -0.012818666 -0.010378051 -0.005713659
-0.045929294 -0.02844467 -0.016525956 0.041688982 0.056521464 0.0049512405 -0.02063391 -0.0056246417
-0.0027635172 0.022464221 0.0269372 0.018439626 -0.032675482 0.027305745 0.01670685 0.02589446
00000000: 3571 223c 7fed f23b dca5 ab3c 477b ddbb
00000010: b2e3 553b 37ed a23c eff9 15bc 4ab9 1f3d
00000020: c398 4abc 5422 28bd f652 0cbd cdc9 40bc
00000030: 3504 bc3b c200 473d 21f6 883c 921c 4fbb
00000040: 7948 f5bb d9e7 393d 5a8a 9dbc 4ed2 083d
00000050: 7938 5abc 92b4 de3c 7de9 db3a f593 8a3c
00000060: 1025 13b9 db93 17bc 285f e1bb e257 85bb
00000070: 59d3 d03c b6b9 07bd 38f0 53bc 2f8f 8dbc
00000080: 4ebf 153b cb09 c93a 6d09 1e3c 2cc8 f23b
00000090: d0cb 34bc 5cd0 643c 6095 34bc 2c7a 0bbd
000000a0: 1c30 5a3d cfef e73b 2965 a13a c677 26ba
000000b0: e182 6e3b 3c0c a83c 742b f53c 93de 02bc
000000c0: 4fe2 953c 7d51 523d c157 013c f157 33bd
000000d0: eed6 89bd 1876 5ebc 6979 6c3b 8857 e2bc
000000e0: 88a8 8e3c e70a bebb 6b20 53bd 96b5 a5bb
000000f0: cc18 473d e7b9 01bd 4119 23bd e38d 79bc
00000100: 17f5 a2bc 3b21 f2bc 9208 c2bc 8dd9 813b
00000110: b5f5 2bbd 5cf7 e7bc d9bd c0bc 8056 1ebd
00000120: 1c5a 9f3c 9d1f 073d 1604 5a3d ee58 12bc
00000130: ef6e f4bc 351c 00bd 4843 5c3a d2f4 cabc
00000140: d7e4 23bc 61d9 73bd b3e3 b83c 1c28 0ebd
00000150: 61b3 4b3c f897 bfbc ea5e 783b 3d5d debb
00000160: f53e ad3c 4c24 4c3b e6e2 bf3c fde7 a73c
00000170: a281 1e3c 971f 0d3d 80c3 703c ffaf 273d
00000180: 47ff ea3b efd6 d5bc 51f9 c2bc 3347 0a3d
00000190: 0695 453c 49eb 35ba 74e6 ed3c 24b3 123c
000001a0: b643 7abc 0c4e 9bbc 95a8 963b 1e57 b13a
000001b0: f7ff b8bc 6205 52bc b308 2abc a539 bbbb
000001c0: 5b20 3cbd cc04 e9bc 7161 87bc 11c2 2a3d
000001d0: 0d83 673d 043e a23b 7208 a9bc ea4e b8bb
000001e0: 201c 35bb e306 b83c 67ab dc3c b30e 973c
000001f0: bad6 05bd 4cb0 df3c cedc 883c 9e20 d43c

action_model._discrete_distribution.branches.0.bias f4 [2]
0.013567839 -0.0135678435
00000000: a44b 5e3c a94b 5ebc

action_model._discrete_distribution.branches.1.weight f4 [2, 64]
-0.007649631 0.035852365 -0.018483853 0.06347534 -0.0074696196 -0.0016017086 0.0055829836 0.001582405
-0.01868176 0.024289334 0.029238855 0.0021498487 0.020055102 0.006945608 -0.016250355 0.0153934695
0.018067503 -0.0020574438 0.009503048 -0.022767156 -0.044897556 -0.013896604 0.008839924 0.02889526
0.0091160685 -0.033244964 -0.018242763 -0.010499219 -0.0007751481 0.017217133 0.008085005 -0.015568937
0.006799273 0.014328031 -0.016046224 0.046514597 0.022669667 0.015282735 -0.008128935 0.04651699
-0.011369645 0.011895657 0.019232564 -0.043309424 0.024192031 -0.01965854 0.0275354 0.017365677
-0.0015072046 0.002464093 0.012905346 -0.010595353 0.02127288 -0.027341506 0.02793222 0.014837413
-0.0021467411 -0.01834724 0.020453162 -0.017449059 0.0056104776 -0.011120611 0.014195651 0.022205958
-0.0028708335 -0.017558012 0.03029536 -0.04514882 0.010598567 0.0059648394 -0.006444488 0.0105094295
0.03297721 -0.022516686 -0.037322488 0.00368588 -0.018192705 -0.018825067 0.0078087933 -0.052230626
-0.03532032 0.027533948 0.016917871 0.027990485 0.042076636 -0.004430152 -0.036490556 -0.01927726
-0.023094183 -0.009702843 0.03642581 -0.0014194144 0.0118964 -0.006131802 -0.011631856 -0.008226126
-0.01785629 -0.036276203 0.014005237 -0.022203978 -0.029750625 0.011292074 0.018666608 -0.020667024
0.022754092 0.020295577 -0.005574752 0.031323664 -0.044472467 0.0082692355 -0.020756634 -0.021736097
0.010384383 0.019408682 -0.020159058 0.0030802041 -0.040051814 0.006701959 -0.029143563 -0.0052069337
0.036872253 -0.01427491 -0.027207268 0.0055225105 0.019414067 0.006618298 -0.025746128 -0.01632032
00000000: c1a9 fabb eed9 123d 736b 97bc 5cff 813d
00000010: b6c3 f4bb 6cf0 d1ba 76f1 b63b b368 cf3a
00000020: 7e0a 99bc 6dfa c63c 5386 ef3c 7ae4 0c3b
00000030: 994a a43c fc97 e33b 771f 85bc e434 7c3c
00000040: 4d02 943c 2ed6 06bb acb2 1b3c 3082 babc
00000050: 80e6 37bd 95ae 63bc 54d5 103c c1b5 ec3c
00000060: 905b 153c df2b 08bd d971 95bc eb04 2cbc
00000070: 4f33 4bba f20a 8d3c f876 043c db14 7fbc
00000080: 70cc de3b 1ec0 6a3c 5f73 83bc 1786 3e3d
00000090: bdb5 b93c 7064 7a3c 392f 05bc 9988 3e3d
000000a0: bf47 3abc 00e6 423c 9c8d 9d3c 3965 31bd
000000b0: 5e2e c63c f20a a1bc eb91 e13c 7742 8e3c
000000c0: 658d c5ba 9f7c 213b f270 533c 2298 2dbc
000000d0: 7644 ae3c 4bfb dfbc 1cd2 e43c 9f18 733c
000000e0: 57b0 0cbb f34c 96bc 648d a73c 54f1 8ebc
000000f0: 19d8 b73b 3933 36bc e094 683c 45e9 b53c
00000100: 9824 3cbb d2d5 8fbc fa2d f83c f8ed 38bd
00000110: 9da5 2d3c b374 c33b 492c d3bb be2f 2c3c
00000120: 1c13 073d ea74 b8bc 77df 18bd ce8e 713b
00000130: de08 95bc 0737 9abc e8e0 ff3b c8ef 55bd
00000140: 0aac 10bd e08e e13c 5997 8a3c 4d4c e53c
00000150: 8d58 2c3d cf2a 91bb 1f77 15bd 58eb 9dbc
00000160: 0330 bdbc acf8 1ebc 3b33 153d a50b baba
00000170: 1ee9 423c 49ed c8bb 8a93 3ebc e0c6 06bc
00000180: 5b47 92bc 5b96 14bd 3976 653c 1ee5 b5bc
00000190: 95b7 f3bc 6402 393c b7ea 983c e44d a9bc
000001a0: ca66 ba3c e942 a63c 69ac b6bb 3e4d 003d
000001b0: c328 36bd b07b 073c d109 aabc e60f b2bc
000001c0: 4223 2a3c f5fe 9e3c 9c24 a5bc 40dd 493b
000001d0: 5f0d 24bd 1b9c db3b 7bbe eebc ed9e aabb
000001e0: 5c07 173d 50e1 69bc c7e1 debc 2df6 b43b
000001f0: 400a 9f3c 4fde d83b 8be9 d2bc 31b2 85bc

action_model._discrete_distribution.branches.1.bias f4 [2]
-0.0076868134 0.0076868106
00000000: aae1 fbbb a4e1 fb3b

onnx::LSTM_133 f4 [1, 256, 128]
0.05361036 0.2019385 -0.08563444 -0.06406835 0.14568451 0.034353793 0.015639257 0.0734236
-0.07654354 0.015820222 0.07292833 -0.2114166 -0.0025401895 0.16810334 0.16013338 0.12929219
0.16934785 -0.0360168 0.077406414 0.062334888 0.08695419 -0.120459035 -0.10368307 -0.1355109
-0.01578509 -0.013543861 0.031300593 -0.044819053 -0.06586687 -0.1446974 -0.10766746 0.11046332
-0.17125137 -0.08334226 0.13014035 -0.030040622 -0.006582134 -0.017994268 -0.07725474 0.06448626
-0.014788864 0.1018073 0.07882417 0.14836112 -0.047085684 0.11549871 0.12236975 0.10828046
-0.17324269 0.12327734 -0.055961233 -0.022547532 0.11458909 -0.03218245 0.08767894 0.033828042
0.064179316 0.032190435 0.13492799 -0.1211758 -0.038702883 -0.094367646 0.19795293 -0.11152522
0.03583641 0.032922633 -0.170952 -0.20950028 0.019928848 -0.053634737 0.06363897 0.12998591
0.022964971 0.092619665 0.015346846 0.036629397 -0.14891367 -0.11877833 -0.23745017 -0.09877854
0.19479926 0.12381075 -0.020244041 -0.026349757 0.16773315 -0.036936384 0.15857579 -0.14608644
-0.116719306 -0.037735287 -0.08333807 0.030390672 0.02259332 -0.18733016 0.0396103 0.06427603
-0.19540632 -0.090890706 -0.13483378 0.07516701 -0.015479717 0.18467808 -0.22266208 0.16979891
-0.065783545 0.058137428 0.13342966 0.03369739 -0.06962745 0.013020416 0.080096014 -0.13064104
-0.18863629 -0.21398737 -0.01748527 0.094025984 0.07795885 0.038372718 -0.021019442 0.09733914
0.16718815 0.044255268 -0.117962055 -0.05743275 0.015078526 -0.1161647 -0.2201295 -0.107316285
0.07836527 -0.105177775 -0.07311939 0.020287648 0.033478066 0.053219225 -0.15533087 0.14636049
-0.015736083 0.09691404 0.14292973 -0.064509876 0.008193524 -0.029552007 0.17549382 0.04044825
-0.10333784 0.07350479 -0.05146833 0.08722623 0.156191 0.0643533 0.114569634 0.01578677
0.027111867 0.10432527 0.06713833 0.015203413 0.048791375 0.14656465 0.13592875 0.0668235
-0.1970467 -0.08175858 -0.084935576 -0.1535217 -0.044719245 0.07981428 0.17732471 0.03999766
-0.0054590274 -0.11770899 0.11666212 -0.14865932 0.09368151 0.17604664 -0.150946 0.051365986
-0.15377325 0.15664989 0.096154176 -0.10120086 -0.054406833 -0.10861925 0.17226389 0.12715879
-0.07653193 0.09230562 0.07293963 0.0973098 0.06741609 0.061305363 0.017329648 0.018442169
0.014904599 0.08814317 0.029604562 -0.19711603 -0.053743403 0.01647907 -0.08967504 0.17094272
0.12938106 -0.061652012 0.042939804 -0.047082514 0.15873763 -0.03359622 0.028120471 0.045932498
-0.07396352 -0.05235074 -0.040782727 -0.07245696 -0.1399661 0.043930802 0.2072252 -0.051813733
0.052551504 0.090477705 0.0019001034 0.18357885 0.18531422 0.061122946 0.07645018 0.077233285
-0.18309979 -0.051011086 -0.14720516 0.02273534 -0.11864901 -0.07824593 -0.14600931 0.105933346
0.11799001 -0.097750135 -0.18561725 0.013389019 0.09989201 0.1729698 0.0743016 -0.07920367
-0.010951786 0.11052434 -0.12110087 0.0368556 0.11758876 -0.10270969 0.20828868 -0.050567336
-0.05720491 -0.14723438 -0.090757586 0.07641714 0.09731054 0.003425202 0.10866679 -0.05712985
00000000: 8996 5b3d f7c8 4e3e 1c61 afbd 4436 83bd
00000010: 522e 153e 90b6 0c3d e61d 803c 1d5f 963d
00000020: dcc2 9cbd 6999 813c 735b 953d 987d 58be
00000030: 4f79 26bb 4823 2c3e 01fa 233e 2c65 043e
00000040: 8669 2d3e 5a86 13bd 4187 9e3d de52 7f3d
00000050: 0a15 b23d 3ab3 f6bd ca57 d4bd 5fc3 0abe
00000060: bc4f 81bc 12e7 5dbc 0d35 003d 2f94 37bd
00000070: 36e5 86bd 8e2b 14be c280 dcbd 983a e23d
00000080: 855c 2fbe 59af aabd 8343 053e c017 f6bc
00000090: f1ae d7bb b768 93bc bc37 9ebd 5f11 843d
000000a0: fe4c 72bc 5880 d03d 916e a13d faeb 173e
000000b0: ebdc 40bd 968a ec3d fe9c fa3d 25c2 dd3d
000000c0: 8866 31be d478 fc3d 9b37 65bd 9ab5 b8bc
000000d0: afad ea3d bfd1 03bd 0491 b33d 468f 0a3d
000000e0: 7270 833d 1eda 033d 902a 0a3e 052b f8bd
000000f0: ea86 1ebd d343 c1bd 2cb4 4a3e 5667 e4bd
00000100: 33c9 123d e2d9 063d 0b0e 2fbe 3e87 56be
00000110: d341 a33c 19b0 5bbd 2655 823d 071b 053e
00000120: 0921 bc3c 61af bd3d 5671 7b3c b508 163d
00000130: d37c 18be 0e42 f3bd 2326 73be 674c cabd
00000140: 7579 473e 7e90 fd3d d5d6 a5bc 72db d7bc
00000150: 3dc2 2b3e 9b4a 17bd b161 223e af97 15be
00000160: 880a efbd 5190 1abd 26ad aabd dcf5 f83c
00000170: a015 b93c 7ad3 3fbe 693e 223d 27a3 833d
00000180: 9818 48be e824 babd de11 0abe 29f1 993d
00000190: a49e 7dbc 401c 3d3e 8701 64be c4df 2d3e
000001a0: 86b9 86bd 8321 6e3d c9a1 083e 4606 0a3d
000001b0: d698 8ebd 9553 553c 6109 a43d c4c6 05be
000001c0: df29 41be 811f 5bbe 453d 8fbc b290 c03d
000001d0: e4a8 9f3d b62c 1d3d f730 acbc be59 c73d
000001e0: 5f33 2b3e 0345 353d 1796 f1bd 9a3e 6bbd
000001f0: ec0b 773c c2e7 edbd a169 61be a4c8 dbbd
00000200: f87d a03d 7267 d7bd 9ebf 95bd 4832 a63c
00000210: 4c20 093d 67fc 593d 0e0f 1fbe 86df 153e
00000220: f5e8 80bc de7a c63d 2c5c 123e c11d 84bd
00000230: 213e 063c 0d17 f2bc a7b4 333e 10ad 253d
00000240: caa2 d3bd ae89 963d 75d0 52bd aaa3 b23d
00000250: 89f0 1f3e aacb 833d 7ca3 ea3d 4253 813c
00000260: b519 de3c 7da8 d53d d27f 893d bc17 793c
00000270: 77d9 473d 0b15 163e e830 0b3e c2da 883d
00000280: 9cc6 49be 0b71 a7bd b4f2 adbd cb34 1dbe
00000290: 872b 37bd ab75 a33d 9c94 353e 96d4 233d
000002a0: a4e1 b2bb 6911 f1bd 8dec ee3d 263a 18be
000002b0: 17dc bf3d 9245 343e 9791 1abe 2465 523d
000002c0: bc76 1dbe d468 203e 7bec c43d 6642 cfbd
000002d0: b3d9 5ebd c573 debd f265 303e ea35 023e
000002e0: c6bc 9cbd bb0a bd3d 5f61 953d 5c4a c73d
000002f0: 7211 8a3d 551b 7b3d e8f6 8d3c 0814 973c
00000300: 6b32 743c 6884 b43d 4485 f23c c9d8 49be
00000310: 0b22 5cbd 1dff 863c 8ca7 b7bd 9c0b 2f3e
00000320: 787c 043e d286 7cbd a6e1 2f3d 98d9 40bd
00000330: 1e8c 223e 319c 09bd e75c e63c b723 3c3d
00000340: 307a 97bd bb6d 56bd ca0b 27bd 5164 94bd
00000350: 4653 0fbe c9f0 333d d832 543e a33a 54bd
00000360: 3f40 573d 604c b93d e40c f93a 18fc 3b3e
00000370: 03c3 3d3e 0e5c 7a3d e991 9c3d 7c2c 9e3d
00000380: 837e 3bbe 00f1 50bd f3bc 16be 773f ba3c
00000390: 41fe f2bd 673f a0bd 7783 15be 95f3 d83d
000003a0: bfa4 f13d 3931 c8bd 7312 3ebe 9e5d 5b3c
000003b0: 2f94 cc3d ff1e 313e 702b 983d 8935 a2bd
000003c0: 1f6f 33bc 965a e23d bc03 f8bd e6f5 163d
000003d0: 60d2 f03d 7559 d2bd a149 553e b21f 4fbd
000003e0: b24f 6abd 9cc4 16be 1ddf b9bd 9780 9c3d
000003f0: c04a c73d 5b79 603b b28c de3d fd00 6abd

onnx::LSTM_134 f4 [1, 256, 64]
-0.08667516 0.1329409 -0.09350848 0.16529588 0.19139923 0.19728278 -0.08980299 -0.08227625
0.14401455 0.23955955 -0.038323883 0.1697518 -0.05295514 -0.06124167 -0.12638973 0.008262751
-0.13306227 -0.030814897 0.1678544 -0.11438516 0.14985389 -0.11503057 -0.1420131 0.043359894
0.20135203 -0.1444176 0.21960244 0.049907483 -0.20474091 -0.07104469 0.094796255 0.1295927
-0.14223143 0.071218535 -0.1576187 0.19204238 0.13597813 0.012371991 0.0517509 -0.12029315
-0.08566879 0.07367269 0.0993304 0.18633 0.16795339 -0.057110693 0.030318147 0.1422035
0.04803669 -0.219514 0.020459974 0.015991135 -0.17799543 -0.042280342 -0.088865705 0.049447767
0.13821435 -0.08307112 0.20216303 -0.16316822 0.072781056 -0.038829926 0.03465916 -0.18661262
-0.11457924 0.07269015 0.037265297 -0.07505813 0.13984172 0.2022085 0.032482218 -0.092961915
0.11524215 0.13422753 0.18674421 -0.03597333 -0.1945471 0.09410961 0.02800196 -0.21191381
-0.15486719 -0.022743043 0.12967752 0.19737217 0.016630435 0.05603862 0.16744696 -0.044810783
-0.11088202 0.12443989 -0.020341687 -0.038312264 0.10373465 -0.1757257 -0.07544622 0.036058467
0.09758968 -0.19390646 0.05399652 0.19204852 -0.18392819 0.008282147 0.09577689 0.06135292
0.17272367 0.15856409 -0.12407147 -0.16455188 -0.16394836 0.005206107 0.171092 0.091777325
-0.0023397002 -0.21043286 -0.116782166 0.13687837 0.16098818 -0.055563785 0.14969261 -0.07143961
0.2117217 -0.15026562 0.14475647 -0.043456048 0.0835155 0.05203209 0.06317166 -0.14870809
-0.13602833 0.03008347 0.2146338 -0.15402599 0.116652735 0.006106132 -0.029209858 -0.028315283
0.17697822 -0.19064647 0.1863951 -0.18458922 -0.13570505 0.08142929 -0.07592129 -0.1632466
0.1814508 -0.18906891 0.18737923 0.1333585 0.16838463 -0.02472869 -0.16124594 0.12018219
0.14506163 -0.07871894 -0.005846226 0.1488754 0.11489538 0.050304428 0.19771324 0.2021246
-0.11844638 0.196602 0.2215769 -0.05132432 -0.086497396 -0.05360238 0.06975969 0.018638827
-0.19144998 0.17904599 0.015929807 -0.03358427 0.11251067 0.20695153 0.20673305 0.19253333
0.14109997 0.117311426 -0.0023959575 -0.0009419866 0.10341326 0.22571094 -0.06136396 0.06238309
-0.18101442 -0.19744532 0.038870607 0.07530518 0.06909496 -0.14927699 0.09313303 -0.11785562
-0.09055258 -0.0033077684 0.023116779 0.031462617 0.061924726 0.047154214 -0.124767564 0.03507868
-0.15936495 0.14092532 0.053669903 -0.12928392 0.1299498 0.004925924 0.17572181 0.1740605
-0.097623594 -0.025699142 -0.119146265 0.14602493 0.19246918 -0.021325003 0.19656709 0.1322669
-0.2231763 -0.06706208 -0.22025163 -0.031611048 0.18543339 -0.04151193 0.099184096 0.13696618
0.022606652 0.0073232744 0.019650904 -0.0028233037 0.10918225 0.110097736 -0.1514594 0.17268677
0.055033818 -0.022392955 -0.11181541 -0.050471645 -0.020152234 0.10683876 0.0072089755 -0.15242685
0.09160933 -0.07065871 0.021758288 -0.14781384 -0.2255735 0.1529804 -0.042464584 -0.1433881
-0.068534784 -0.002019647 0.2214694 0.084661886 -0.027600648 0.0049139136 0.18690448 0.008188376
00000000: bf82 b1bd a921 083e 6081 bfbd 5343 293e
00000010: 29fe 433e 7f04 4a3e a1ea b7bd 7380 a8bd
00000020: 8d78 133e 194f 753e 81f9 1cbd 6ad3 2d3e
00000030: 7de7 58bd 8cd8 7abd 4f6c 01be 7d60 073c
00000040: 7a41 08be 866f fcbc 06e2 2b3e c442 eabd
00000050: 4c73 193e 2695 ebbd e26b 11be 259a 313d
00000060: 3a2f 4e3e 35e2 13be 76df 603e ca6b 4c3d
00000070: 9aa7 51be e17f 91bd 8a24 c23d f3b3 043e
00000080: 1ea5 11be 06db 913d cc66 21be c2a6 443e
00000090: da3d 0b3e e4b3 4a3c c0f8 533d 415c f6bd
000000a0: 1e73 afbd b5e1 963d bd6d cb3d 4bcd 3e3e
000000b0: f9fb 2b3e e7ec 69bd c35d f83c cb9d 113e
000000c0: 1fc2 443d 47c8 60be ad9b a73c d7ff 823c
000000d0: 6f44 36be 272e 2dbd 39ff b5bd be89 4a3d
000000e0: 1088 0d3e 3121 aabd d303 4f3e 9215 27be
000000f0: 3c0e 953d 210c 1fbd c3f6 0d3d 6117 3fbe
00000100: 85a8 eabd 93de 943d 7fa3 183d 14b8 99bd
00000110: ab32 0f3e bf0f 4f3e 130c 053d d162 bebd
00000120: 1404 ec3d f172 093e e039 3f3e c558 13bd
00000130: 5b37 47be 8abc c03d 5e64 e53c efff 58be
00000140: 8195 1ebe 9e4f babc 2fca 043e ee1b 4a3e
00000150: 8d3c 883c c188 653d 3777 2b3e 838b 37bd
00000160: 1d16 e3bd 57da fe3d 9ca3 a6bc 52ed 1cbd
00000170: d572 d43d 70f1 33be 8c83 9abd 0bb2 133d
00000180: 19dd c73d 6a8f 46be 742b 5d3d 5ea8 443e
00000190: ac57 3cbe d8b1 073c ad26 c43d 334d 7b3d
000001a0: 79de 303e a05e 223e 2f19 febd 4a80 28be
000001b0: 14e2 27be fe97 aa3b be32 2f3e c0f5 bb3d
000001c0: a855 19bb b67b 57be 7d2b efbd d829 0c3e
000001d0: 16da 243e da96 63bd 0549 193e ee4e 92bd
000001e0: 93cd 583e 3bdf 19be 0a3b 143e f8fe 31bd
000001f0: 2d0a ab3d 9a1f 553d 2560 813d ef46 18be
00000200: 034b 0bbe 9c71 f63c f6c8 5b3e fdb8 1dbe
00000210: a1e7 ee3d f315 c83b 8349 efbc 74f5 e7bc
00000220: c739 353e d438 43be 5bde 3e3e f504 3dbe
00000230: 44f6 0abe 66c4 a63d 9f7c 9bbd 1e2a 27be
00000240: 3dce 393e 489b 41be 57e0 3f3e 218f 083e
00000250: 056d 2c3e d293 cabc a81d 25be 1422 f63d
00000260: 098b 143e 6537 a1bd b391 bfbb cb72 183e
00000270: 454e eb3d 040c 4e3d 5775 4a3e c0f9 4e3e
00000280: 0494 f2bd 0952 493e 0ee5 623e 7339 52bd
00000290: 8c25 b1bd 2b8e 5bbd 2bde 8e3d 74b0 983c
000002a0: 770b 44be d557 373e 3a7f 823c a98f 09bd
000002b0: ff6b e63d 1aeb 533e d4b1 533e 7527 453e
000002c0: 837c 103e f940 f03d 7f05 1dbb a7ef 76ba
000002d0: 55ca d33d c520 673e c758 7bbd 6985 7f3d
000002e0: d85b 39be 1b2f 4abe c936 1f3d 9a39 9a3d
000002f0: a981 8d3d 11dc 18be 88bc be3d 4a5e f1bd
00000300: a273 b9bd 25c7 58bb 665f bd3c f2de 003d
00000310: c8a4 7d3d c724 413d 2386 ffbd a9ae 0f3d
00000320: 9130 23be ba4e 103e f9d4 5b3d 0163 04be
00000330: 8f11 053e a569 a13b 6bf0 333e ea3c 323e
00000340: e1ee c7bd 0287 d2bc f502 f4bd 8f87 153e
00000350: a416 453e c6b1 aebc e248 493e f970 073e
00000360: 5488 64be d857 89bd a589 61be 967a 01bd
00000370: 40e2 3d3e 6a08 2abd 0821 cb3d dd40 0c3e
00000380: 9631 b93c 14f8 ef3b effa a03c 2d07 39bb
00000390: f29a df3d ec7a e13d 2c18 1bbe cdd4 303e
000003a0: 246b 613d 6e71 b7bc 7aff e4bd 5bbb 4ebd
000003b0: 4c16 a5bc 48ce da3d 4539 ec3b c915 1cbe
000003c0: ac9d bb3d 84b5 90bd 703e b23c 835c 17be
000003d0: bdfc 66be e5a6 1c3e 58ef 2dbd 55d4 12be
000003e0: f75b 8cbd 0e5c 04bb e0c8 623e 3663 ad3d
000003f0: c11a e2bc e504 a13b e363 3f3e 8a28 063c

onnx::LSTM_135 f4 [1, 512]
0.036160942 0.036510725 0.012990015 0.03741714 0.029750291 0.018205104 0.031116 0.027882267
-0.0030246987 0.033609655 0.026338477 -0.029611228 -0.0034735883 0.07157575 0.016472401 0.034163635
0.018649494 0.02187338 -0.009429214 0.010739657 0.0064384434 0.011038722 0.007379475 0.0004991774
0.0069976337 -0.009007007 0.0114395805 -0.015819985 -0.0034112947 0.031165862 0.009409993 0.0067566736
-0.0022622223 0.024924044 -0.0021520806 0.020034479 0.008433875 0.0048100487 0.009346091 0.025078021
0.015735116 0.024769962 0.0078499 0.012511619 0.022381565 0.010110188 0.0029959017 -0.01653821
0.009356643 0.0035515518 0.0048821787 0.021795372 0.027089572 -0.0025211235 -0.004794719 0.023632795
-0.015471798 0.010134983 0.011945516 -0.00458103 0.020336278 0.014121803 0.036211956 -0.0018447374
0.015310484 0.033561658 0.0015345818 0.02332183 0.007726467 0.014047077 0.023119472 0.013879553
-0.00691682 0.023231205 0.021188812 -0.018084038 -0.0047529386 0.036218327 0.012981131 0.026686583
0.015488748 0.01801658 -0.0117333755 0.017203797 0.016176699 0.014649343 0.008653323 -0.0060309554
0.00496484 0.004120286 0.0062117064 -0.008770863 -0.00760956 0.018738383 -0.0018592412 0.009812889
-0.016983038 0.014145728 0.0017909622 0.010025129 0.0038758153 0.009512986 0.0039099175 0.012031678
0.012631462 0.016969347 0.0071408264 -0.008536628 0.011534704 0.0046460466 0.013948554 -0.01387889
0.015891243 0.0040441332 0.0075179418 0.02812647 0.010984515 -0.0046739057 -0.005082719 0.017076403
-0.010407244 0.0047427616 0.013090563 -0.0035877454 0.022802718 0.008805226 0.026252594 2.119643e-05
0.9912636 0.9950371 0.98785174 1.0044646 0.99279684 1.0083613 1.0007887 0.9800745
1.0173998 1.0055296 1.0013112 1.0035338 1.0092394 0.9933155 0.99555653 1.0166125
0.99263215 0.9930669 0.99328756 1.0066144 1.0191923 0.99500245 0.9836396 0.9851227
1.0087129 1.000441 1.0278659 0.9875694 0.996843 0.9980207 0.99549454 1.0011996
0.9886519 0.99934155 0.9965823 1.0121078 0.9928109 0.9905494 1.002411 1.0035444
0.9835108 1.0040172 1.0033377 1.0068917 1.0001739 0.9863265 0.9803274 1.0023004
1.0088931 0.9875028 1.0075642 1.0066766 0.9974766 1.009061 1.0031024 0.9969539
1.011153 0.9814421 0.99518526 0.9969941 1.0049087 1.0076513 1.0016993 1.0015001
0.0003090547 -0.0109678395 0.015360229 -0.019576818 0.0019829434 0.020524578 0.009478546 0.009925096
0.009226396 -0.02062564 -0.020857917 0.014089289 0.008843175 -0.017623393 0.010316241 -0.01933525
-0.029631352 0.015172012 -0.002038791 0.012968161 0.032561827 0.0035512699 -0.007303442 0.00042809284
-0.017239582 0.006188796 -0.004474253 0.0133445095 0.018387927 0.012931248 -0.013340277 0.0073582227
-0.0063526705 -0.011777347 0.017377216 -0.018638568 -0.018146764 0.014839916 0.00642907 -0.03391018
0.007850095 0.017794216 0.009152505 0.010786333 -0.019112261 0.022543605 -0.002138801 -0.005599144
0.009899264 0.02156668 0.001851341 -0.013653666 -0.02314333 0.0007758696 -0.021427529 -0.007153791
0.01435385 0.008711648 -0.020205146 -0.00437504 -0.0033749605 -0.0023084255 -0.002384913 -0.015955187
00000000: 7f1d 143d 458c 153d 12d4 543c b742 193d
00000010: e2b6 f33c df22 953c fbe6 fe3c 5a69 e43c
00000020: 063a 46bb 47aa 093d cac3 d73c 3f93 f2bc
00000030: 24a5 63bb 4f96 923d 21f1 863c 2bef 0b3d
00000040: d3c6 983c cd2f b33c fd7c 1abc 63f5 2f3c
00000050: 94f9 d23b c1db 343c 86cf f13b 3adb 023a
00000060: 684c e53b 2092 13bc 146d 3b3c ea98 81bc
00000070: 0790 5fbb 8d4f ff3c 5f2c 1a3c 1667 dd3b
00000080: cb41 14bb 822d cc3c ec09 0dbb 591f a43c
00000090: 3c2e 0a3c 9d9d 9d3b 5920 193c 6c70 cd3c
000000a0: eee6 803c 60ea ca3c de9c 003c 89fd 4c3c
000000b0: 8b59 b73c 34a5 253c e456 443b 247b 87bc
000000c0: 9b4c 193c 27c1 683b affa 9f3b 358c b23c
000000d0: f3ea dd3c 6f39 25bb 051d 9dbb 9099 c13c
000000e0: 6d7d 7dbc 330d 263c 20b7 433c 771c 96bb
000000f0: 4498 a63c 235f 673c fd52 143d 1ecb f1ba
00000100: d3d8 7a3c f377 093d 0524 c93a 6c0d bf3c
00000110: 4e2e fd3b b625 663c 0c65 bd3c 1167 633c
00000120: 7ea6 e2bb 5e4f be3c 2994 ad3c fa24 94bc
00000130: 8abe 9bbb ab59 143d cfae 543c d29d da3c
00000140: 85c4 7d3c 8297 933c 583d 40bc faee 8c3c
00000150: ff84 843c cc03 703c abc6 0d3c 529f c5bb
00000160: 19b0 a23b 7703 873b 928b cb3b aab3 0fbc
00000170: 9e59 f9bb 3d81 993c c8b1 f3ba 3dc6 203c
00000180: 0320 8bbc 7cc3 673c b8be ea3a 7040 243c
00000190: 6401 7e3b 5bdc 1b3c c41e 803b 8420 453c
000001a0: 31f4 4e3c 4d03 8b3c 98fd e93b 37dd 0bbc
000001b0: 0efc 3c3c dd3d 983b 7a88 643c 4964 63bc
000001c0: 5a2e 823c a684 843b 1159 f63b 7c69 e63c
000001d0: 65f8 333c 9027 99bb f08c a6bb d0e3 8b3c
000001e0: 2583 2abc 2b69 9b3b cd79 563c 6120 6bbb
000001f0: c4cc ba3c cb43 103c ae0f d73c fdce b137
00000200: 74c3 7d3f c0ba 7e3f dae3 7c3f 4c92 803f
00000210: ef27 7e3f fc11 813f d819 803f 2ae6 7a3f
00000220: 283a 823f 32b5 803f f72a 803f cc73 803f
00000230: c22e 813f ed49 7e3f cbdc 7e3f 5c20 823f
00000240: 241d 7e3f a239 7e3f 1848 7e3f bed8 803f
00000250: e574 823f 7bb8 7e3f cecf 7b3f 0031 7c3f
00000260: 811d 813f 730e 803f 1c91 833f 59d1 7c3f
00000270: 1a31 7f3f 497e 7f3f bbd8 7e3f 4f27 803f
00000280: 4a18 7d3f d9d4 7f3f 0520 7f3f c08c 813f
00000290: db28 7e3f a594 7d3f 014f 803f 2574 803f
000002a0: 5dc7 7b3f a383 803f 5f6d 803f d4e1 803f
000002b0: b305 803f e57f 7c3f bdf6 7a3f 614b 803f
000002c0: 6923 813f fccc 7c3f ddf7 803f c7da 803f
000002d0: a05a 7f3f e928 813f a965 803f 5f38 7f3f
000002e0: 766d 813f ca3f 7b3f 76c4 7e3f 013b 7f3f
000002f0: d9a0 803f b8fa 803f af37 803f 2831 803f
00000300: 9f08 a239 74b2 33bc 78a9 7b3c 905f a0bc
00000310: 45f4 013b 2923 a83c e74b 1b3c df9c 223c
00000320: 4f2a 173c 1af7 a8bc 39de aabc c3d6 663c
00000330: f7e2 103c ef5e 90bc 7305 293c f564 9ebc
00000340: 73bd f2bc 0894 783c 3d9d 05bb 6978 543c
00000350: 8d5f 053d 6cbc 683b b651 efbb a671 e039
00000360: 063a 8dbc 62cb ca3b c19c 92bb eea2 5a3c
00000370: 47a2 963c 96dd 533c 2d91 5abc 3f1d f13b
00000380: 102a d0bb c6f5 40bc aa5a 8e3c e9af 98bc
00000390: 86a8 94bc 1e23 733c f3aa d23b 67e5 0abd
000003a0: af9d 003c 2dc5 913c 63f4 153c 29b9 303c
000003b0: 5191 9cbc 5ead b83c 202b 0cbb 0679 b7bb
000003c0: 8630 223c 9bac b03c b2a8 f23a a0b3 5fbc
000003d0: 1597 bdbc ba63 4b3a c988 afbc 596a eabb
000003e0: 692c 6b3c 4dbb 0e3c 4385 a5bc 7f5c 8fbb
000003f0: 712e 5dbb f448 17bb 334c 1cbb 74b4 82bc
