results/learn_shoot_sac/Shootair.onnx (onnx, 507283 bytes, 16 tensors)

discrete_act_size_vector f4 [1, 2]
2.0 2.0
00000000: 0000 0040 0000 0040

network_body._body_endoder.seq_layers.0.weight f4 [128, 447]
-0.2058662 -0.05653371 -0.032811623 -0.045121405 -0.020825455 0.0359872 0.039442252 0.0074988944
-0.08748021 -0.01417563 0.0021558695 0.01920865 -0.07664881 -0.022455093 -0.004847619 0.014786964
-0.0008548686 -0.030935207 -0.0072845677 -0.033173967 -0.15862897 0.034410782 0.04533088 -0.027866233
-0.13238183 0.035016794 0.09976735 0.007984531 -0.082548805 0.018901277 -0.031563204 -0.0386843
-0.18950313 -0.028469682 -0.03583829 0.018595126 -0.07989411 -0.03340069 0.0105931545 0.06995746
0.035824705 -0.06845911 -0.057197906 -0.022393677 -0.04476528 -0.03345328 -0.03595921 0.05808863
-0.018136295 -0.034287285 -0.032448277 -0.021765828 -0.039769623 0.04310708 -0.08711157 -0.02914045
-0.03648774 -0.1340775 -0.086485766 -0.04553964 0.027292294 -0.049696065 -0.024187038 -0.04580616
-0.17811798 0.099056154 0.063973464 0.08137056 0.008656781 -0.0064209257 -0.05409508 -0.08496394
-0.21258526 0.060685042 -0.036371123 0.06405483 0.07221884 0.029277995 -0.04229956 0.11971971
-0.110370696 -0.044100154 -0.0134293055 -0.044531163 0.023474177 -0.10402677 -0.07946167 0.0102079725
-0.08063684 -0.018313034 0.0063321255 0.011062857 0.054100648 -0.05001631 0.02252537 0.0830475
-0.04912001 0.021285238 -0.0025705663 -0.023494517 0.073014766 -0.06490138 -0.024366103 0.08338626
0.037636567 -0.014868359 -0.0417226 -0.044971894 -0.006808062 0.07044373 -0.0419714 -0.09843972
0.009727744 0.0037837613 -0.033878833 0.045650166 0.045214973 -0.011883374 0.004756801 0.036717907
0.093084 -0.09406264 0.027662244 0.02632593 -0.21630426 0.0792965 -0.014139583 -0.036431022
-0.17979895 0.00034327593 -0.045961495 -0.032487053 -0.34002918 -0.010657568 0.026824143 -0.023573643
-0.21352987 -0.041822407 0.062197644 -0.0642474 -0.29888284 0.0011467143 0.015145191 -0.09730568
-0.06005111 -0.03978202 0.029730499 0.03764376 -0.14765272 -0.05043491 0.050069366 -0.014466558
-0.055334996 -0.023633055 -0.050483223 0.013293477 -0.034007777 -0.017300121 0.03564549 -0.031080253
-0.036394373 -0.014528703 0.09144499 0.03729156 -0.038477495 -0.08525068 0.05647846 -0.06476083
-0.08188901 -0.03020037 -0.068018146 -0.0009213308 0.0013597306 -0.027456393 -0.030920481 -0.07698848
-0.004624299 -0.023733178 0.027097527 -0.0325832 0.1370278 -0.056899965 -0.04841257 -0.040622797
-0.025087666 -0.04347328 -0.042159773 -0.019746011 -0.029862437 -0.061140224 -0.026400182 -0.023123408
-0.07523901 -0.058191728 -0.012191314 -0.0021795295 -0.063805915 -0.02498913 -0.09287255 0.026799101
-0.060574617 0.0021112242 0.090583004 0.022364272 0.06431913 -0.01845965 -0.03732517 -0.015976248
0.0191762 -0.03455884 0.007890256 0.004039172 -0.03139623 0.0086126495 -0.008830827 0.01705995
0.034611605 0.005273533 -0.076735355 0.030459493 0.08015418 -0.031171579 0.037461095 -0.04678101
0.037305374 -0.06052538 -0.09505706 -0.06884005 0.024004193 -0.11858664 -0.060915306 0.023103405
0.14290355 -0.036989402 0.05035295 -0.07221816 0.053785026 -0.07874494 0.049818624 0.03880675
0.12034215 -0.09611093 0.057851598 -0.08221702 0.1046047 -0.044333357 -0.011541855 0.038180698
-0.39338365 -0.044982143 0.027559292 -0.0053603468 -0.27765504 0.032745447 -0.026876558 -0.071273014
00000000: 97ce 52be e48f 67bd 7b65 06bd 39d1 38bd
00000010: 259a aabc 5067 133d 338e 213d 49b9 f53b
00000020: d328 b3bd e740 68bc 7d49 0d3b 755b 9d3c
00000030: 0dfa 9cbd bef3 b7bc c7d8 9ebb 0645 723c
00000040: 4319 60ba d56b fdbc 62b3 eebb 6de1 07bd
00000050: a26f 22be 52f2 0c3d dfac 393d ba47 e4bc
00000060: 1a8f 07be c56d 0f3d d352 cc3d 8dd1 023c
00000070: 590f a9bd dad6 9a3c 6b48 01bd 6e73 1ebd
00000080: 1c0d 42be 4039 e9bc 2ccb 12bd ce54 983c
00000090: 869f a3bd 29cf 08bd e98e 2d3c db45 8f3d
000000a0: edbc 123d 4a34 8cbd 5a48 6abd f272 b7bc
000000b0: cc5b 37bd 4e06 09bd f749 13bd 58ee 6d3d
000000c0: 9192 94bc d370 0cbd 7ce8 04bd 404e b2bc
000000d0: 79e5 22bd 0d91 303d 8d67 b2bd f4b7 eebc
000000e0: 2b74 15bd 9d4b 09be 731f b1bd c687 3abd
000000f0: 1794 df3c 1a8e 4bbd e523 c6bc 3d9f 3bbd
00000100: 8f64 36be f4dd ca3d 8504 833d 9ca5 a63d
00000110: 2cd5 0d3c a166 d2bb cd92 5dbd 9301 aebd
00000120: f3af 59be e190 783d e3f9 14bd 2e2f 833d
00000130: 79e7 933d 68d8 ef3c 4e42 2dbd 9b2f f53d
00000140: 080a e2bd 5da2 34bd 9706 5cbc 4f66 36bd
00000150: eb4c c03c fd0b d5bd cdbc a2bd 573f 273c
00000160: ed24 a5bd 3705 96bc b87d cf3b fc40 353c
00000170: a498 5d3d e7dd 4cbd 2087 b83c cf14 aa3d
00000180: 1032 49bd 615e ae3c f276 28bb 9377 c0bc
00000190: c488 953d 04eb 84bd 6c9b c7bc 6ac6 aa3d
000001a0: cd28 1a3d 6b9a 73bc 51e5 2abd 7334 38bd
000001b0: 2a16 dfbb cd44 903d 34ea 2bbd c49a c9bd
000001c0: 1e61 1f3c fbf8 773b 88c4 0abd abfb 3a3d
000001d0: 5633 393d 7cb2 42bc f0de 9b3b 8465 163d
000001e0: d3a2 be3d eaa3 c0bd ee9b e23c 7aa9 d73c
000001f0: dd7e 5dbe 3466 a23d b6a9 67bc b238 15bd
00000200: 371d 38be b7f9 b339 1f42 3cbd 2511 05bd
00000210: 4e18 aebe 159d 2ebc 4ebe db3c 831d c1bc
00000220: 93a7 5abe f94d 2bbd f5c2 7e3d 2494 83bd
00000230: 2c07 99be 594d 963a 8923 783c 3348 c7bd
00000240: 27f8 75bd 79f2 22bd 608d f33c 5830 1a3d
00000250: 4632 17be d694 4ebd 8915 4d3d 2405 6dbc
00000260: f3a6 62bd 1c9a c1bc 7fc7 4ebd e2cc 593c
00000270: bd4b 0bbd fcb8 8dbc 0101 123d 049c febc
00000280: 4412 15bd cc09 6ebc 8347 bb3d 09bf 183d
00000290: 949a 1dbd e997 aebd f555 673d 53a1 84bd
000002a0: 6db5 a7bd c466 f7bc 194d 8bbd 7785 71ba
000002b0: fd38 b23a 3bec e0bc f34c fdbc 23ac 9dbd
000002c0: 6e87 97bb 156c c2bc a2fb dd3c f675 05bd
000002d0: 0451 0c3e f00f 69bd 424c 46bd 1764 26bd
000002e0: a684 cdbc 0a11 32bd baaf 2cbd 63c2 a1bc
000002f0: 12a2 f4bc 2c6e 7abd 3245 d8bc 4d6d bdbc
00000300: e916 9abd 735a 6ebd 14be 47bc 70d6 0ebb
00000310: adac 82bd 01b6 ccbc f733 bebd ca89 db3c
00000320: 171d 78bd 775c 0a3b 9583 b93d 4735 b73c
00000330: bfb9 833d b138 97bc 47e2 18bd 9fe0 82bc
00000340: 6817 9d3c 928d 0dbd 2246 013c 085b 843b
00000350: 5599 00bd 121c 0d3c 2caf 10bc 4fc1 8b3c
00000360: e6c4 0d3d 9acd ac3b 6d27 9dbd 3086 f93c
00000370: e027 a43d 8a5b ffbc ce70 193d 729d 3fbd
00000380: 85cd 183d 76e9 77bd 47ad c2bd 03fc 8cbd
00000390: 71a4 c43c 8ddd f2bd 5482 79bd 5a43 bd3c
000003a0: 4f55 123e 3382 17bd e53e 4e3d 1de7 93bd
000003b0: b04d 5c3d 0745 a1bd 9d0e 4c3d d4f3 1e3d
000003c0: f275 f63d cfd5 c4bd ccf5 6c3d 6661 a8bd
000003d0: fd3a d63d e596 35bd 0c1a 3dbc 5d63 1c3d
000003e0: 9569 c9be 323f 38bd 06c4 e13c d9a5 afbb
000003f0: cd28 8ebe 1720 063d 3a2c dcbc 96f7 91bd

network_body._body_endoder.seq_layers.0.bias f4 [128]
-0.061858337 0.19663529 -0.061727125 -0.07699286 -0.09788046 -0.043208186 0.15752102 0.056135356
-0.21417332 -0.049167547 -0.11945246 0.24228188 0.18778442 0.147715 -0.18265662 -0.084337674
-0.03716669 -0.07495752 -0.11421093 -0.050160225 -0.22220768 -0.1419048 -0.06561907 -0.064280994
-0.11462578 -0.1298974 -0.12305646 -0.073712684 -0.088731304 -0.06801235 0.14052583 -0.05244201
-0.08117559 -0.081476174 -0.12818882 -0.08171789 -0.13662286 -0.22811209 -0.085573845 -0.056817614
-0.13910726 -0.05497175 -0.0656557 -0.074032515 0.03682387 -0.24886088 0.4163039 -0.21801914
-0.08842541 -0.08862014 0.07901281 -0.05286125 -0.059753887 0.00564453 -0.1781891 -0.08846469
-0.0670407 -0.046962 -0.05528011 -0.06588546 -0.0750355 0.007841508 -0.08326108 0.10387053
-0.14024794 -0.052246492 -0.07244667 -0.063735195 -0.067553 -0.07114439 0.07376206 -0.08996677
-0.104521215 -0.07264803 -0.109303944 -0.10714555 -0.072314665 -0.0806827 -0.0908582 -0.1320198
-0.0677148 -0.06492676 -0.03320201 0.07217111 -0.06497844 -0.11448459 -0.02455379 -0.03918623
-0.10067003 -0.06988882 -0.16797028 -0.06974197 0.21290429 0.105434194 -0.05133744 -0.067446336
-0.06910408 0.010837629 -0.10104429 -0.07359212 0.15381382 -0.0496613 -0.031778626 -0.20562246
-0.0914708 -0.06977905 -0.13908044 0.20704392 -0.06318482 0.01709682 -0.0515522 -0.06467954
-0.072004296 -0.08729953 -0.1709444 -0.09668506 -0.065168165 0.14473613 0.11039735 -0.07392489
0.15322952 -0.17076482 -0.045106515 -0.06574517 -0.07770365 0.044897094 -0.065457396 -0.16953471
00000000: 2b5f 7dbd c35a 493e 95d5 7cbd 6fae 9dbd
00000010: 8d75 c8bd 11fb 30bd 314d 213e 30ee 653d
00000020: 4050 5bbe e963 49bd 7ea3 f4bd be18 783e
00000030: 8f4a 403e 9a42 173e 560a 3bbe 3bb9 acbd
00000040: 193c 18bd 5483 99bd 6ce7 e9bd cf74 4dbd
00000050: 698a 63be 7e4f 11be 4a63 86bd c1a5 83bd
00000060: ecc0 eabd d303 05be 0605 fcbd adf6 96bd
00000070: c2b8 b5bd 0f4a 8bbd 01e6 0f3e 6fcd 56bd
00000080: 633f a6bd fbdc a6bd ee43 03be b65b a7bd
00000090: dde6 0bbe 3796 69be 5741 afbd 96b9 68bd
000000a0: 2272 0ebe 0f2a 61bd 7f76 86bd 5c9e 97bd
000000b0: a0d4 163d 63d5 7ebe c925 d53e 6940 5fbe
000000c0: 6218 b5bd 7a7e b5bd 78d1 a13d 0a85 58bd
000000d0: 7ec0 74bd c0f5 b83b 3477 36be fa2c b5bd
000000e0: a24c 89bd 3a5b 40bd 666d 62bd f5ee 86bd
000000f0: 36ac 99bd ab79 003c c984 aabd 13ba d43d
00000100: 289d 0fbe 6b00 56bd eb5e 94bd 9987 82bd
00000110: 3a59 8abd 26b4 91bd 9010 973d 7f40 b8bd
00000120: 380f d6bd 7ec8 94bd bfda dfbd 206f dbbd
00000130: b619 94bd f93c a5bd dd13 babd 3330 07be
00000140: 0fae 8abd 52f8 84bd d5fe 07bd 72ce 933d
00000150: 6b13 85bd e676 eabd 0825 c9bc be81 20bd
00000160: 172c cebd df21 8fbd 6700 2cbe e1d4 8ebd
00000170: 9503 5a3e e2ed d73d 3547 52bd 4e21 8abd
00000180: 7186 8dbd 5090 313c 4ff0 cebd 77b7 96bd
00000190: 5f81 1d3e a669 4bbd 4e2a 02bd b28e 52be
000001a0: 0b55 bbbd 52e8 8ebd 1a6b 0ebe 5203 543e
000001b0: 0b67 81bd a10e 8c3c 6628 53bd b576 84bd
000001c0: fd76 93bd 19ca b2bd 0c0c 2fbe d102 c6bd
000001d0: e376 85bd b535 143e 0118 e23d ef65 97bd
000001e0: 33e8 1c3e f9dc 2ebe 9cc1 38bd 67a5 86bd
000001f0: 1723 9fbd 04e6 373d 870e 86bd 829a 2dbe

network_body._body_endoder.seq_layers.2.weight f4 [128, 128]
-0.06489063 0.043014817 0.016346615 -0.23820108 0.078824006 0.17192158 0.24155638 0.10719243
0.10148469 0.023115411 -0.06899073 -0.14037879 0.1340355 0.07491309 0.17506897 0.14861892
-0.131163 -0.21416123 0.067460924 0.048811227 0.47701415 -0.13665977 0.10298024 0.21278672
0.19971977 0.43600962 0.10639634 -0.21938585 -0.04802948 0.049558144 0.15261164 -0.047224768
0.092118934 -0.024246417 0.015604463 0.13470903 -0.15632251 0.28597513 -0.19488876 -0.06793079
-0.18129317 0.04916613 0.06932791 -0.000126116 -0.5290752 -0.08432896 0.3305027 -0.03737024
0.014234378 -0.06623709 0.0129090175 -0.014494398 -0.10969022 0.46152398 -0.13724066 0.071715936
0.03467803 -0.06565695 -0.118169636 0.059506427 -0.23025227 -0.061766192 0.0037431975 0.10120423
-0.13598016 0.030028258 -0.012884174 -0.15999809 -0.076361254 0.1881038 0.8286403 -0.26303953
-0.28872672 0.09031386 -0.07915496 -0.10304561 0.0640437 -0.07247728 -0.113199055 -0.01117013
-0.0060280566 0.015415954 -0.20027158 -0.38766783 -0.1030811 0.19989702 0.33761612 0.046012007
-0.03007684 0.03056325 -0.2796564 0.14348525 -0.06327812 -0.17538187 -0.010863992 0.029147062
-0.16004194 0.33269206 0.099237874 0.27586403 0.100927584 0.07114141 0.062268544 0.086881965
0.033836536 0.043048315 -0.17020102 -0.3992938 -0.20922342 -0.7884783 -0.08744576 0.08283725
0.09654324 0.23461756 -0.25519186 0.09680703 0.04159646 0.12160153 -0.18680695 -0.20545466
-0.94435155 -0.1283707 0.036963556 0.02158988 -0.041091073 -0.014864354 0.070166044 0.3800413
0.041500695 0.31464195 0.060616504 -0.08814466 0.22486873 -0.053198155 -0.029217297 0.14064036
-0.25562954 -0.044149518 -0.071948595 0.056570098 0.12400817 -0.0036668112 -0.107177146 -0.2692245
0.17600809 -0.03597765 0.077607155 0.071686864 -0.01828581 0.11722653 0.12771367 -0.058327634
0.18661036 0.008464201 -0.14292024 -0.017292647 -0.044414017 0.11768153 0.0013098166 -0.03267861
-0.020110385 -0.319636 -0.15083003 -0.015466639 0.047585655 -0.30358988 -0.07684319 0.18266165
-0.048764575 -0.089973755 0.033182453 -0.016072404 0.03975408 -0.15723172 -0.18944061 -0.07096946
-0.15035854 -0.13005045 0.2122486 -0.07243109 0.0714307 -0.27754685 -0.09470072 0.0055552344
-0.12874451 0.13729723 -0.087315455 -0.10814526 0.028840424 -0.06731986 0.10238475 0.03873217
-0.1467007 -0.1434485 0.22035444 0.11688667 -0.04345576 -0.1666142 0.14489493 0.05079661
0.0015072222 -0.17868772 0.03294191 -0.16138193 0.12773159 0.13321003 -0.010941168 -0.12680526
0.04534289 0.0071032816 0.039386578 -0.124202415 -0.14402732 0.0814553 -0.32234147 -0.013722692
-0.02534055 0.16159911 -0.41284797 0.048499092 0.11846501 -0.09879661 0.15068683 0.078258045
-0.18742804 -0.30307126 -0.17538036 -0.092984766 -0.18674614 -0.01523194 0.038391445 -0.1682608
0.15529513 -0.0023646262 -0.0815469 -0.29865298 0.043639593 -0.15412998 0.05469366 0.086277746
0.08693377 0.0021635878 -0.096710265 0.08892251 0.13464543 -0.36404365 -0.16366905 -0.08898581
-0.12138748 -0.1769952 0.14120613 -0.026467113 0.026971268 -0.050499592 -0.22328891 -0.26263264
00000000: 61e5 84bd 4e30 303d 56e9 853c fcea 73be
00000010: 7b6e a13d 360c 303e 8e5a 773e b487 db3d
00000020: 35d7 cf3d 885c bd3c 034b 8dbd 75bf 0fbe
00000030: 9a40 093e 096c 993d 4845 333e 8f2f 183e
00000040: 984f 06be 154d 5bbe f428 8a3d 48ee 473d
00000050: 333b f43e 8af0 0bbe 4ee7 d23d c3e4 593e
00000060: 5783 4c3e a73c df3e 53e6 d93d afa6 60be
00000070: 8fba 44bd 7bfd 4a3d 3a46 1c3e c26e 41bd
00000080: daa8 bc3d 6ca0 c6bc dda9 7f3c 2af1 093e
00000090: 0213 20be 556b 923e eb90 47be 4c1f 8bbd
000000a0: eba4 39be 6d62 493d cbfb 8d3d 023e 04b9
000000b0: 7971 07bf a9b4 acbd a637 a93e 8911 19bd
000000c0: 4f37 693c 50a7 87bd 5880 533c e979 6dbc
000000d0: 44a5 e0bd df4c ec3e d188 0cbe cedf 923d
000000e0: 8d0a 0e3d 2777 86bd ec02 f2bd 03bd 733d
000000f0: 40c7 6bbe 8cfe 7cbd 6f50 753b 2a44 cf3d
00000100: 623e 0bbe d2fd f53c 2418 53bc 8ad6 23be
00000110: 4a63 9cbd 489e 403e c521 543f 1ead 86be
00000120: fdd3 93be 79f6 b83d ff1b a2bd 9409 d3bd
00000130: 5829 833d f86e 94bd e8d4 e7bd ec02 37bc
00000140: 0187 c5bb 3393 7c3c fe13 4dbe 667c c6be
00000150: 2f1c d3bd ceb1 4c3e 05dc ac3e 1677 3c3d
00000160: b563 f6bc c85f fa3c 202f 8fbe cced 123e
00000170: f597 81bd 4e97 33be e3fe 31bc d2c5 ee3c
00000180: 09e2 23be 9d56 aa3e 3a3d cb3d 0d3e 8d3e
00000190: 1fb3 ce3d 96b2 913d 4d0d 7f3d 2cef b13d
000001a0: 2e98 0a3d 6e53 303d 2d49 2ebe 3d70 ccbe
000001b0: aa3e 56be b7d9 49bf c316 b3bd 93a6 a93d
000001c0: 76b8 c53d 963f 703e 82a8 82be c442 c63d
000001d0: 0d61 2a3d 390a f93d 524a 3fbe b562 52be
000001e0: 06c1 71bf 9c73 03be 1967 173d 43dd b03c
000001f0: 1d4f 28bd 9f89 73bc 37b3 8f3d c694 c23e
00000200: a2fc 293d c018 a13e 0349 783d 3085 b4bd
00000210: fd43 663e 4fe6 59bd 1d59 efbc 0704 103e
00000220: e0e1 82be 20d6 34bd c959 93bd 0cb6 673d
00000230: fff7 fd3d e24e 70bb b17f dbbd cbd7 89be
00000240: 773b 343e 4d5d 13bd 80f0 9e3d 90d0 923d
00000250: 1fcc 95bc 7714 f03d 5fc7 023e f5e8 6ebd
00000260: c916 3f3e 6fad 0a3c af59 12be 4fa9 8dbc
00000270: 79eb 35bd 0403 f13d 27ae ab3a 02da 05bd
00000280: 89be a4bc 54a7 a3be 3073 1abe c967 7dbc
00000290: 2de9 423d 2270 9bbe f65f 9dbd a80b 3b3e
000002a0: 5dbd 47bd 2944 b8bd 53ea 073d 46aa 83bc
000002b0: 2dd5 223d 5a01 21be b8fc 41be 7058 91bd
000002c0: 97f7 19be f22b 05be b257 593e c056 94bd
000002d0: 424a 923d 9f1a 8ebe 73f2 c1bd af08 b63b
000002e0: 9ad5 03be a597 0c3e 72d2 b2bd 437b ddbd
000002f0: c142 ec3c ffde 89bd 19af d13d a0a5 1e3d
00000300: b538 16be 2ae4 12be 98a4 613e 4762 ef3d
00000310: abfe 31bd ea9c 2abe 565f 143e 1b10 503d
00000320: fc8d c53a eaf9 36be 19ee 063d 4e41 25be
00000330: 12cc 023e 3668 083e 9642 33bc 3dd9 01be
00000340: 77b9 393d a5c2 e83b d253 213d d65d febd
00000350: e67b 13be 09d2 a63d f109 a5be 24d5 60bc
00000360: fc96 cfbc 3d7a 253e cf60 d3be fca6 463d
00000370: c89d f23d e155 cabd a64d 1a3e c145 a03d
00000380: 23ed 3fbe 282c 9bbe e996 33be cc6e bebd
00000390: 613a 3fbe 638f 79bc 5940 1d3d 8f4c 2cbe
000003a0: b005 1f3e d8f7 1abb 1002 a7bd 0be9 98be
000003b0: 6ebf 323d 40d4 1dbe 7606 603d 63b2 b03d
000003c0: 550a b23d fbca 0d3b 0810 c6bd 011d b63d
000003d0: 7ee0 093e ee63 babe dc98 27be 313e b6bd
000003e0: 009a f8bd 3b3e 35be 5798 103e 8fd1 d8bc
000003f0: d9f2 dc3c a9d8 4ebd d9a5 64be c977 86be

network_body._body_endoder.seq_layers.2.bias f4 [128]
0.08335902 -0.13339505 0.05291897 -0.05267225 0.10349466 0.11162975 0.18069647 -0.13673532
-0.012080926 -0.2636872 -0.15069103 0.20894012 0.19182749 -0.16486302 -0.11770876 -0.20334285
0.1585078 0.18929207 -0.10981864 0.25482196 -0.1340369 -0.2814217 -0.25094137 -0.23926334
0.18193458 0.06735827 0.15371466 0.30699742 -0.049149085 -0.03386225 0.18947825 -0.155741
0.15230142 -0.047611643 0.02450128 -0.12595814 -0.13243404 0.12730788 -0.13862462 -0.1341168
-0.15989804 -0.06996876 0.23874362 -0.045968294 -0.044975776 -0.21008247 -0.06342867 -0.09449441
-0.02981511 0.09395065 -0.033366624 -0.046447117 0.03377945 -0.19546592 0.002266102 -0.09135917
-0.113149405 0.07719629 0.08522725 -0.27047315 -0.059191003 0.077904075 -0.10515218 0.031900883
0.28684357 -0.19369455 0.4086182 0.06284587 0.35104677 -0.0035208599 0.19696705 -0.053150192
0.13249764 -0.07224442 -0.12607437 0.318967 -0.095325045 0.024849039 -0.09310481 0.33950186
-0.060927104 -0.117366485 0.029590478 0.23828931 0.09528008 -0.16440544 -0.2849416 -0.08093468
-0.0064015603 -0.0006111997 -0.039343435 -0.025374133 -0.06459873 -0.064433135 -0.16282015 0.2767362
-0.019036135 -0.060219623 -0.1052761 -0.010226346 0.2630021 0.09626458 0.03932083 -0.028968025
0.030110411 0.06992156 -0.17233622 -0.13221328 -0.018279808 0.3115208 -0.0481257 -0.19811901
-0.18697865 0.108598225 -0.035074174 0.15078388 -0.18810141 -0.27307022 0.48646477 -0.019450726
-0.12312538 -0.022152618 -0.048218597 -0.13693315 0.1488913 -0.09200713 -0.0074204146 0.21267052
00000000: 22b8 aa3d b698 08be 90c1 583d dbbe 57bd
00000010: 02f5 d33d 239e e43d 7f08 393e 5804 0cbe
00000020: 14ef 45bc 0202 87be c04e 1abe 66f4 553e
00000030: 6d6e 443e dad1 28be 4a11 f1bd 1c39 50be
00000040: de4f 223e c8d5 413e 98e8 e0bd 0678 823e
00000050: f840 09be 8116 90be 637b 80be 7301 75be
00000060: 0f4d 3a3e 22f3 893d 6067 1d3e c42e 9d3e
00000070: 8d50 49bd 25b3 0abd 9606 423e 927a 1fbe
00000080: e7f4 1b3e 6d04 43bd e9b6 c83c 2cfb 00be
00000090: ca9c 07be ff5c 023e 9df3 0dbe ea55 09be
000000a0: 50bc 23be c84b 8fbd 3579 743e 4049 3cbd
000000b0: 8538 38bd dc1f 57be e4e6 81bd 4986 c1bd
000000c0: d13e f4bc 3369 c03d 71ab 08bd 553f 3ebd
000000d0: 525c 0a3d 3828 48be e282 143b 841a bbbd
000000e0: e0ba e7bd 1719 9e3d a08b ae3d 757b 8abe
000000f0: 4472 72bd 2c8c 9f3d 075a d7bd 80aa 023d
00000100: 29dd 923e dd57 46be 6836 d13e 56b5 803d
00000110: 67bc b33e 3abe 66bb bbb1 493e 04b4 59bd
00000120: 76ad 073e e2f4 93bd a419 01be a54f a33e
00000130: c739 c3bd 3690 cb3c bcad bebd 30d3 ad3e
00000140: b38e 79bd d75d f0bd bb67 f23c 1d02 743e
00000150: 3422 c33d e659 28be dee3 91be 15c1 a5bd
00000160: 2ec4 d1bb eb38 20ba 9526 21bd 6add cfbc
00000170: 574c 84bd 85f5 83bd 53ba 26be 5eb0 8d3e
00000180: abf1 9bbc daa8 76bd ff9a d7bd 678c 27bc
00000190: 36a8 863e 5d26 c53d e10e 213d 5a4e edbc
000001a0: 1caa f63c 0933 8f3d e878 30be eb62 07be
000001b0: 89bf 95bc a87f 9f3e 741f 45bd b6df 4abe
000001c0: 5577 3fbe bf68 de3d f0a9 0fbd 1767 1a3e
000001d0: a89d 40be dccf 8bbe e911 f93e 2157 9fbc
000001e0: 2929 fcbd 6879 b5bc dd80 45bd 3438 0cbe
000001f0: f676 183e 3c6e bcbd f326 f3bb 4dc6 593e

action_model._continuous_distribution.mu.weight f4 [2, 64]
-0.08848469 0.26563233 -0.056295797 0.3889734 -0.07991643 0.04279033 0.27036437 -0.11359087
0.03744675 -0.17282893 0.034261327 0.097528666 0.0066220504 0.12407594 -0.087141335 -0.52165645
-1.3301526 0.66452867 0.004694584 -0.98513645 0.135251 0.40715355 0.7311692 1.3568274
0.1428039 0.08435959 0.21526848 -0.32239336 0.16034399 -0.1809909 0.03349415 -0.004770119
0.27204588 0.04593172 -0.48580226 -0.03542218 -0.22140723 0.02471659 -0.60488 -0.36707997
-0.045792963 -2.2483132 0.15248922 0.022405451 0.09692581 -0.00650494 -0.25658813 0.37012738
-0.12088613 0.16699272 -0.18144815 0.5419701 0.026016256 0.33662578 1.285418 -0.055652466
0.3090504 0.16766888 0.08442165 -0.079687335 0.20804796 0.32432762 -0.3260785 0.25657135
0.17498736 0.40138468 0.019643364 -0.009412471 -0.22602625 -0.04321656 -0.18476151 0.4185864
0.19741534 0.0897536 0.27078092 0.013220659 -0.08334083 0.018481743 -0.7019833 -0.7430107
0.25980765 -0.7965868 -0.10133987 -1.1735033 0.12993477 0.11969893 -0.09770342 -0.43290958
-0.13277823 0.40443602 0.07793354 0.12717114 0.18914609 -0.29735658 0.02253753 -0.020174779
-0.3537473 0.09913134 -1.2674346 -0.18134439 0.29463038 -0.037406005 -0.18051623 0.1920997
-0.0012304645 0.43415156 0.05017057 0.030893965 -0.2395325 0.06552328 -0.18320373 -0.14126016
-0.38709453 0.21897765 -0.5099527 -0.27881894 0.03151453 0.0027345826 -0.14735968 -0.30900037
0.42210948 0.030975513 -0.15485726 0.05265906 0.561069 0.037021823 0.31459758 0.027060853
00000000: 7637 b5bd f600 883e 6c96 66bd 8627 c73e
00000010: 3aab a3bd ea44 2f3d 336d 8a3e 54a2 e8bd
00000020: c361 193d 11fa 30be 9b55 0c3d 1cbd c73d
00000030: c9fd d83b 871b fe3d 2877 b2bd 478b 05bf
00000040: 7142 aabf 8d1e 2a3f 06d5 993b e731 7cbf
00000050: 3d7f 0a3e 6e76 d03e e82d 3b3f 85ac ad3f
00000060: 303b 123e b9c4 ac3d 576f 5c3e be10 a5be
00000070: 3731 243e ae55 39be 2931 093d a94e 9cbb
00000080: 9949 8b3e e622 3c3d 13bb f8be d916 11bd
00000090: 94b8 62be 727a ca3c 6ad9 1abf e8f1 bbbe
000000a0: 6791 3bbd 5de4 0fc0 2226 1c3e a38b b73c
000000b0: 0a81 c63d 6427 d5bb 855f 83be 5681 bd3e
000000c0: 2693 f7bd 2400 2b3e 8bcd 39be 8dbe 0a3f
000000d0: 0b20 d53c 375a ac3e 9488 a43f d7f3 63bd
000000e0: db3b 9e3e 64b1 2b3e 42e5 ac3d 1d33 a3bd
000000f0: 860a 553e 450e a63e c3f3 a6be 525d 833e
00000100: e32f 333e 4b82 cd3e 1feb a03c c436 1abc
00000110: 6d73 67be d903 31bd 1f32 3dbe f550 d63e
00000120: 3f27 4a3e bcd0 b73d cca3 8a3e 779b 583c
00000130: 99ae aabd 0667 973c 2db5 33bf f335 3ebf
00000140: 8205 853e 1ded 4bbf 478b cfbd 5b35 96bf
00000150: 9f0d 053e b624 f53d bb18 c8bd 53a6 ddbe
00000160: 04f7 07be 3d12 cf3e 9f9b 9f3d 2739 023e
00000170: 83af 413e 1f3f 98be a0a0 b83c 9445 a5bc
00000180: 5e1e b5be 5f05 cb3d 4c3b a2bf 58b2 39be
00000190: cbd9 963e 0a37 19bd 3fd9 38be c9b5 443e
000001a0: 8a47 a1ba 1d49 de3e a87f 4d3d 5715 fd3c
000001b0: 0248 75be 1231 863d c299 3bbe 81a6 10be
000001c0: 4131 c6be ad3b 603e 438c 02bf 5bc1 8ebe
000001d0: 6115 013d af36 333b 75e5 16be 4c35 9ebe
000001e0: bc1e d83e 5cc0 fd3c e792 1ebe 07b1 573d
000001f0: 38a2 0f3f 32a4 173d ef12 a13e b9ae dd3c

action_model._continuous_distribution.mu.bias f4 [2]
-0.12413567 0.2347596
00000000: d83a febd d264 703e

action_model._continuous_distribution.log_sigma.weight f4 [2, 64]
0.071892716 -0.40596196 0.024185628 -0.13545726 0.15143244 -0.031038359 0.041351482 -0.06360405
0.040138014 0.05143043 0.2513429 -0.050478593 0.010508755 -0.13510457 0.27123407 -0.06952519
-0.28133175 0.0069920397 -0.06222233 -0.45858234 -0.010743929 -0.09518527 0.05012791 -0.2656673
0.19509992 0.014517228 0.13233107 -0.051979326 -0.08910409 -0.017965024 -0.016760893 0.037812483
-0.17461705 -0.008892775 0.2992849 0.028533936 0.03913472 0.019650009 -0.059222277 0.014346395
-0.020489478 0.13018902 -0.029782057 -0.0035583028 0.12989219 -0.019019634 0.049095135 -0.09920642
0.122646734 -0.02921401 0.20297614 0.005439382 -0.016745126 0.026390782 -0.27235028 0.008455844
0.091460235 -0.08845288 -0.5062736 0.10903682 0.28924602 0.01717433 0.067816034 0.12812138
-0.008424083 -0.14783001 0.025897138 0.034567695 -0.04516964 -0.020093715 0.027749203 -0.101327844
0.034414906 -0.07593497 -0.014070307 0.056065194 -0.0041035726 0.0022736476 0.13193913 -0.027983638
-0.015247171 0.06775894 -0.038249057 -0.34820363 0.039550144 -0.14001016 -0.013931567 0.20482488
-0.048619073 -0.10800859 0.15155171 0.027714202 0.022455782 -0.03344835 0.018296627 -0.048599105
-0.0057020914 0.005184185 0.00015495613 -0.04346613 -0.025396502 0.009016864 -0.10531627 -0.030583952
-0.011204798 0.44667882 0.024986414 0.026450152 0.023884706 0.059843056 0.02028175 0.028405232
0.12654696 -0.12667489 0.2026785 0.067989886 -0.013525979 -0.057094757 0.031194996 0.043009583
0.2605537 -0.05410409 -0.21918146 -0.028724069 0.026328113 -0.013405623 -0.12253053 0.025781494
00000000: 7d3c 933d 3fda cfbe f020 c63c 4fb5 0abe
00000010: 1b11 1b3e 2844 febc 2c60 293d d742 82bd
00000020: c267 243d b7a8 523d 04b0 803e a4c2 4ebd
00000030: ea2c 2c3c da58 0abe 31df 8a3e 3963 8ebd
00000040: b70a 90be 7b1d e53b d8dc 7ebd 4ecb eabe
00000050: 4e07 30bc 7ff0 c2bd ec52 4d3d 8b05 88be
00000060: 46c8 473e abd9 6d3c cc81 073e 46e8 54bd
00000070: 357c b6bd 632b 93bc 244e 89bc 43e1 1a3d
00000080: d0ce 32be 00b3 11bc df3b 993e 00c0 e93c
00000090: ba4b 203d 0ef9 a03c 0f93 72bd 240d 6b3c
000000a0: 8dd9 a7bc 4550 053e 80f9 f3bc 6a32 69bb
000000b0: 7502 053e 10cf 9bbc fb17 493d bc2c cbbd
000000c0: 362e fb3d 3852 efbc fad8 4f3e d83c b23b
000000d0: 132d 89bc 7b31 d83c 7f71 8bbe 618a 0a3c
000000e0: 814f bb3d c926 b5bd 269b 01bf b24e df3d
000000f0: 0e18 943e 2eb1 8c3c 22e3 8a3d 4032 033e
00000100: 2a05 0abc c060 17be 3c26 d43c db96 0d3d
00000110: cd03 39bd 939b a4bc 4c52 e33c f984 cfbd
00000120: a5f6 0c3d cb83 9bbd 2587 66bc 9ea4 653d
00000130: 4377 86bb 7a01 153b 0d1b 073e f13d e5bc
00000140: 45cf 79bc 33c5 8a3d 0bab 1cbd bf47 b2be
00000150: 55ff 213d d35e 0fbe 3a41 64bc 9dbd 513e
00000160: cb24 47bd 9c33 ddbd 5f30 1b3e e508 e33c
00000170: 30f5 b73c 2301 09bd cfe2 953c db0f 47bd
00000180: 9cd8 babb 19e0 a93b b87b 2239 8a09 32bd
00000190: 530c d0bc 78bb 133c 0eb0 d7bd 328b fabc
000001a0: 5494 37bc 16b3 e43e 4fb0 cc3c fdad d83c
000001b0: dca9 c33c fe1d 753d ea25 a63c 17b2 e83c
000001c0: 8795 013e 10b7 01be f48a 4f3e 483e 8b3d
000001d0: 119c 5dbc 31dc 69bd a68c ff3c d12a 303d
000001e0: 4b67 853e 409c 5dbd 1b71 60be bd4e ebbc
000001f0: 0eae d73c 42a3 5bbc 49f1 fabd b633 d33c

action_model._continuous_distribution.log_sigma.bias f4 [2]
-0.20068932 -0.10661503
00000000: 8081 4dbe fb58 dabd

action_model._discrete_distribution.branches.0.weight f4 [2, 64]
-0.1907039 0.25608453 -0.122167066 0.2186251 0.045781374 0.077047214 -0.07324387 -0.27803856
-0.056392957 -0.08032804 -0.15931335 0.056116715 -0.14952995 0.2242568 -0.16715509 -0.71369296
0.15471408 -0.11527816 -0.025175124 -1.1465733 -0.16410333 -0.20685604 -0.52002674 -0.6377198
-0.9913124 -0.04075304 -0.75586665 0.28766757 -0.054733172 -0.22946222 -0.019506445 -0.018550267
-0.014118814 -0.18633059 -0.08352668 -0.5567244 0.019497037 -0.016089518 0.12510478 0.36769745
-0.013939089 0.37942967 0.0371424 -0.06332134 0.40499026 0.32593983 -0.5164762 0.27184242
-1.1333631 0.2142206 0.6901112 -0.06887523 -0.0282705 -0.29043308 -0.7108009 -0.12815447
0.44479033 0.59253114 0.99095553 -0.17712434 -1.0497109 0.6955169 -0.4408259 -0.69355714
0.19067267 -0.25123245 0.12050321 -0.23776183 -0.07038707 -0.068269104 0.058206093 0.28830948
0.03872949 0.09948537 0.17567605 -0.04628586 0.15639979 -0.21164571 0.14217365 0.74172795
-0.15089732 0.12186453 0.0070696003 1.1638563 0.16632518 0.2065351 0.49423474 0.6520382
0.9928007 0.06270918 0.7516989 -0.2943303 0.023009567 0.22117984 -4.7746387e-05 0.0014383369
0.0013802834 0.1657132 0.09046804 0.542351 -0.023540685 0.014466469 -0.13292938 -0.37229607
0.02366012 -0.41031948 -0.036764752 0.071815394 -0.42195457 -0.31540123 0.5209349 -0.27400228
1.1486083 -0.20757386 -0.7048026 0.060680408 0.009679644 0.2734924 0.69224834 0.13719511
-0.42595 -0.61984634 -1.00929 0.18824983 1.0506114 -0.68082327 0.45751685 0.68000364
00000000: e247 43be 831d 833e ba32 fabd 42df 5f3e
00000010: 4085 3b3d eeca 9d3d e200 96bd 125b 8ebe
00000020: 4dfc 66bd 0783 a4bd 0a23 23be a4da 653d
00000030: 611e 19be 93a3 653e b42a 2bbe 95b4 36bf
00000040: 5e6d 1e3e f516 ecbd 103c cebc eac2 92bf
00000050: b40a 28be 12d2 53be 7920 05bf 9b41 23bf
00000060: a6c6 7dbf a9ec 26bd 7a80 41bf 2a49 933e
00000070: e42f 60bd 25f8 6abe fbcb 9fbc bbf6 97bc
00000080: 9952 67bc 72cd 3ebe 0910 abbd 7e85 0ebf
00000090: 40b8 9f3c 2ace 83bc 781b 003e d742 bc3e
000000a0: c760 64bc 9b44 c23e a122 183d 9eae 81bd
000000b0: e25a cf3e 96e1 a63e c937 04bf ee2e 8b3e
000000c0: 0b12 91bf a55c 5b3e 21ab 303f 750e 8dbd
000000d0: 8997 e7bc a5b3 94be 0cf7 35bf ed3a 03be
000000e0: 8fbb e33e 1fb0 173f 43af 7d3f 1560 35be
000000f0: ed5c 86bf 650d 323f efb3 e1be f68c 31bf
00000100: b23f 433e 8aa1 80be 63ca f63d d677 73be
00000110: 1927 90bd acd0 8bbd 8369 6e3d 4d9d 933e
00000120: d0a2 1e3d fcbe cb3d 6ce4 333e 3e96 3dbd
00000130: 4427 203e a7b9 58be f895 113e e2e1 3d3f
00000140: d484 1abe 1c94 f93d 1ba8 e73b 3ef9 943f
00000150: 2651 2a3e f07d 533e 560c fd3e faeb 263f
00000160: 3028 7e3f ac6d 803d 576f 403f 76b2 96be
00000170: 8f7e bc3c f87c 623e 4b43 48b8 9486 bc3a
00000180: a0ea b43a b9b0 293e 4f47 b93d 84d7 0a3f
00000190: 65d8 c0bc c504 6d3c a41e 08be 979d bebe
000001a0: ded2 c13c 6515 d2be a396 16bd f313 933d
000001b0: 6e0a d8be 457c a1be fd5b 053f 074a 8cbe
000001c0: 9905 933f 3e8e 54be f16d 34bf 058c 783d
000001d0: 5f97 1e3c 3207 8c3e 3037 313f e07c 0c3e
000001e0: 1e16 dabe 40ae 1ebf 6a30 81bf 90c4 403e
000001f0: 6f7a 863f 6f4a 2ebf a63f ea3e b814 2e3f

action_model._discrete_distribution.branches.0.bias f4 [2]
0.12798764 -0.12798825
00000000: 310f 033e 5a0f 03be

action_model._discrete_distribution.branches.1.weight f4 [2, 64]
-0.38213283 1.0510088 0.03965556 0.14106686 0.0124485195 -0.045307435 0.090970986 0.0065730563
-0.08114448 -0.2336041 -0.2652312 0.27346092 0.01773778 -0.19620661 -0.034173306 0.29904702
-0.03659678 0.2429589 -0.07413966 -0.7912717 -0.43642136 -0.017572239 0.23508644 -0.06410013
-0.85694695 -0.16377439 0.7548004 0.1309177 0.056289602 -0.99764514 0.0013479285 0.015419647
-0.008865103 -0.20521736 -0.39816338 -0.7420503 0.046892338 0.031508107 -0.06244982 -0.10505038
0.01536191 -0.0749799 -0.14867683 -0.027765682 0.23725754 -0.05914404 -0.073599726 0.17440751
0.23897323 -0.08566838 -0.012938894 0.24451707 0.009631735 0.5784005 -0.09194103 -0.031415407
0.89366484 -0.10182504 0.0127479695 -0.4363295 0.40177786 0.0056619146 -0.70412284 -1.0038505
0.3905411 -1.0312597 -0.044548 -0.1542193 -0.034484036 0.014564269 -0.07510816 -0.044141486
0.09280138 0.22891985 0.2843138 -0.2524678 -0.030953249 0.20659845 0.06875659 -0.25378004
0.034279175 -0.23279817 0.06909352 0.81477606 0.47773486 0.019209392 -0.22416995 0.05400633
0.8397788 0.15343936 -0.7567783 -0.11419736 -0.026937658 1.0082915 -0.014810821 -0.0073809293
0.019148529 0.1844197 0.39531267 0.75593066 -0.054895546 -0.027501365 0.07693819 0.061473686
0.013406105 0.07190734 0.1304687 0.03200887 -0.24588835 0.05924183 0.04799365 -0.15077189
-0.24350038 0.05497594 0.0011054694 -0.24733347 0.0015410499 -0.58128 0.10802486 0.06313352
-0.8698846 0.11672256 -0.0008118627 0.4416433 -0.40541884 -0.023320638 0.7093914 0.99518496
00000000: eaa6 c3be 7587 863f de6d 223d d573 103e
00000010: e0f4 4b3c 4a94 39bd ff4e ba3d cb62 d73b
00000020: 142f a6bd ea35 6fbe 62cc 87be 1203 8c3e
00000030: d24e 913c 63ea 48be 4ff9 0bbd b11c 993e
00000040: 81e6 15bd 38ca 783e 89d6 97bd c890 4abf
00000050: 9f72 dfbe a8f3 8fbc 80ba 703e ee46 83bd
00000060: e060 5bbf 79b4 27be 993a 413f 4a0f 063e
00000070: ed8f 663d ac65 7fbf faac b03a b0a2 7c3c
00000080: f03e 11bc 8024 52be 12dc cbbe 02f7 3dbf
00000090: 2e12 403d a50e 013d 62cb 7fbd a724 d7bd
000000a0: 85b0 7b3c 108f 99bd bd3e 18be db74 e3bc
000000b0: a4f3 723e 0541 72bd 74bb 96bd e297 323e
000000c0: 66b5 743e e772 afbd a8fd 53bc af62 7a3e
000000d0: 6dce 1d3c 0e12 143f 944b bcbd 71ad 00bd
000000e0: 38c7 643f a689 d0bd dcdc 503c 9566 dfbe
000000f0: d4b5 cd3e 9587 b93b 6541 34bf 2c7e 80bf
00000100: 01f5 c73e 5100 84bf f777 36bd aaeb 1dbe
00000110: 223f 0dbd f99e 6e3c 4fd2 99bd b4cd 34bd
00000120: a60e be3d f769 6a3e 9491 913e 7643 81be
00000130: ab91 fdbc 8b8e 533e 41d0 8c3d 75ef 81be
00000140: 5268 0c3d a562 6ebe e780 8d3d 2a95 503f
00000150: aa99 f43e 045d 9d3c cf8c 65be be35 5d3d
00000160: befb 563f 351f 1d3e 39bc 41bf 4ee0 e9bd
00000170: 5dac dcbc b20f 813f 16a9 72bc b9db f1bb
00000180: 60dd 9c3c 85d8 3c3e 6c66 ca3e ac84 413f
00000190: 27da 60bd 8b4a e1bc c591 9d3d d5cb 7b3d
000001a0: 48a5 5b3c 2844 933d 9699 053e bc1b 033d
000001b0: 28ca 7bbe 90a7 723d fd94 443d f263 1abe
000001c0: 2a58 79be 742e 613d 66e5 903a fc44 7dbe
000001d0: 0efd c93a c4ce 14bf 233c dd3d 264c 813d
000001e0: c2b0 5ebf 3d0c ef3d 2fd3 54ba 121f e23e
000001f0: 0f93 cfbe ec0a bfbc ad9a 353f 71c4 7e3f

action_model._discrete_distribution.branches.1.bias f4 [2]
-0.14927725 0.14927654
00000000: 23dc 18be f3db 183e

onnx::LSTM_128 f4 [1, 256, 128]
0.08025089 -0.086223714 -0.034023885 -0.07609012 0.098633684 -0.0040672785 -0.17429362 -0.22635137
-0.09025042 0.07441608 -0.2794147 0.4556124 0.40189865 -0.53444093 -0.095377624 -0.27454844
0.49434748 0.3584306 -0.12767877 -0.131565 -0.17177777 0.0046143592 -0.19779482 0.0121709835
-0.08785527 0.027374642 -0.10929248 -0.19276744 -0.49097776 -0.2633355 0.06316565 -0.11990003
-0.14394599 0.053204343 -0.46392015 0.42040077 0.49888575 0.062238056 0.23463285 0.11618878
0.06041564 -0.060526624 0.1873804 0.28762314 0.38927335 -0.34182853 -0.08122858 -0.083668016
-0.037077185 0.29534298 -0.21194954 -0.080786146 -0.049932797 0.18167578 0.12986802 -0.25014102
0.04444998 -0.18983462 -0.31267118 -0.49313956 -0.059645355 -0.09225615 -0.03962719 0.20918985
-0.07559872 -0.037375685 -0.28913164 -0.28750718 0.18326972 0.19141027 0.019244462 0.3942286
-0.073412225 0.115416706 -0.1019093 -0.03314223 -0.29272005 -0.014883309 0.1332031 -0.17835161
0.09127885 -0.2160442 -0.19262928 -0.108222745 -0.27504808 -0.33778208 -0.26478913 0.05023414
-0.430945 0.3059884 0.039435834 -0.09519069 -0.1037667 -0.27365664 0.08989053 -0.019657949
-0.3054928 0.14029434 -0.110549666 -0.14195903 -0.032841377 -0.19952852 -0.27161446 0.26797828
-0.041716833 -0.00512086 0.029422631 0.52528894 -0.17986053 -0.06659511 0.038433664 -0.20505406
0.16736509 -0.10222822 -0.15675029 0.33103347 0.10043376 -0.06585067 -0.07700453 -0.05510943
-0.17049056 -0.31567904 -0.19190198 0.31554747 -0.10003852 0.08452696 -0.116260305 0.3654847
0.014938056 -0.037076626 -0.1408678 0.1387391 0.31552508 0.0790788 0.0988574 -0.16144437
0.1733581 -0.09966272 0.03859745 -0.071955085 0.14528777 -0.07019762 -0.14965528 -0.024868071
0.29851976 -0.043835133 0.11812754 0.09612753 0.061409615 0.23127323 0.012608758 -0.06976873
0.041951876 -0.08570316 0.068013 -0.13285407 -0.09913612 -0.029272702 0.039772365 0.17634489
-0.02132144 0.106174685 0.08147344 0.008172266 0.23023166 -0.04114529 -0.119660325 0.3162874
0.16014497 0.023982314 -0.07842562 0.18409152 -0.021149911 -0.105057664 -0.019501384 -0.08803801
-0.14757092 0.13127957 -0.023924397 -0.05630793 0.16119973 -0.07676939 0.43764445 -0.13359198
-0.015578649 0.13392214 0.0722384 0.13546146 -0.13689876 0.5369346 0.15727057 0.12144822
0.06730214 -0.03393426 -0.055229694 -0.06222608 0.00090734445 0.27861622 0.18973048 0.08459391
-0.011202822 0.08390379 -0.034124885 0.16339107 0.053347934 -0.0836841 0.12587728 0.04586526
0.026573116 -0.09777935 0.16205795 0.3023473 0.033699848 0.22833113 0.056482363 -0.111264326
0.12145619 -0.03784881 -0.079232626 -0.12017528 -0.08960191 -0.042829175 0.109320626 -0.0035101688
0.058105137 0.13129176 0.17573571 0.026869345 0.21210071 0.09270967 -0.08096716 0.2895908
-0.08281203 0.07389427 0.06727755 0.22485404 -0.09055146 0.027776962 0.10422941 -0.08125892
0.1004989 -0.0399189 0.16154596 0.20408519 -0.10738537 0.08275675 0.087141454 0.025678724
0.077655554 -0.06429011 0.048844315 -0.046405647 0.121008046 -0.041189484 -0.02831393 0.034036078
00000000: 945a a43d 0f96 b0bd a15c 0bbd 23d5 9bbd
00000010: 7500 ca3d ce46 85bb 077a 32be a7c8 67be
00000020: 36d5 b8bd 7567 983d 720f 8fbe 0746 e93e
00000030: a9c5 cd3e 1fd1 08bf 5855 c3bd 9d91 8cbe
00000040: 1d1b fd3e 3784 b73e 39be 02be fab8 06be
00000050: 83e6 2fbe 0d34 973b ba8a 4abe ce68 473c
00000060: 77ed b3bd c940 e03c bcd4 dfbd d464 45be
00000070: 7061 fbbe e9d3 86be fe5c 813d 268e f5bd
00000080: 9466 13be ccec 593d f186 edbe c53e d73e
00000090: f46d ff3e 55ed 7e3d 9843 703e 62f4 ed3d
000000a0: 6476 773d c4ea 77bd a6e0 3f3e 5743 933e
000000b0: d64e c73e 2604 afbe 2b5b a6bd 235a abbd
000000c0: 3fde 17bd 3237 973e 4d09 59be 3573 a5bd
000000d0: 5586 4cbd 3709 3a3e 1ffc 043e 7c12 80be
000000e0: 2f11 363d 0264 42be 7016 a0be ca7c fcbe
000000f0: b04e 74bd cbf0 bcbd 1f50 22bd dd35 563e
00000100: 80d3 9abd 3f17 19bd 1009 94be 2434 93be
00000110: 0fab 3b3e 0e01 443e 90a6 9d3c 55d8 c93e
00000120: 2659 96bd 985f ec3d d3b5 d0bd 26c0 07bd
00000130: 67df 95be 1fd9 73bc 6566 083e cea1 36be
00000140: 68f0 ba3d b13a 5dbe 9c40 45be e3a3 ddbd
00000150: 1ad3 8cbe c6f1 acbe 7192 87be 50c2 4d3d
00000160: d3a4 dcbe 83aa 9c3e 7887 213d 56f3 c2bd
00000170: a383 d4bd b91c 8cbe 8718 b83d b509 a1bc
00000180: 8d69 9cbe 52a9 0f3e dd67 e2bd b55d 11be
00000190: ae84 06bd 3451 4cbe 0d11 8bbe 7334 893e
000001a0: 45df 2abd e3cc a7bb bb07 f13c 5679 063f
000001b0: 5c2d 38be 0463 88bd 9e6c 1d3d b1f9 51be
000001c0: c161 2b3e 075d d1bd 2683 20be 387d a93e
000001d0: 37b0 cd3d b7dc 86bd 8db4 9dbd 6dba 61bd
000001e0: 1495 2ebe afa0 a1be f481 44be 708f a13e
000001f0: ffe0 ccbd 791c ad3d e219 eebd d020 bb3e
00000200: bfbe 743c a9dd 17bd a63f 10be 9f11 0e3e
00000210: 818c a13e 11f4 a13d c075 ca3d ac51 25be
00000220: c984 313e f81b ccbd 5c18 1e3d 305d 93bd
00000230: 51c6 143e c5c3 8fbd 3c3f 19be 20b8 cbbc
00000240: 95d7 983e 788c 33bd daec f13d 83de c43d
00000250: a688 7b3d e4d2 6c3e f794 4e3c e8e2 8ebd
00000260: bbd5 2b3d 2385 afbd 664a 8b3d e60a 08be
00000270: e107 cbbd 4ecd efbc 59e8 223d c193 343e
00000280: 4daa aebc 1d72 d93d 8cdb a63d f8e4 053c
00000290: d9c1 6b3e f787 28bd 7910 f5bd 6cf0 a13e
000002a0: 0bfd 233e 8f76 c43c 9d9d a0bd 7d82 3c3e
000002b0: 9442 adbc 7928 d7bd 5ec1 9fbc 464d b4bd
000002c0: d51c 17be 276e 063e 19fd c3bc 25a3 66bd
000002d0: 8b11 253e 4539 9dbd ef12 e03e 56cc 08be
000002e0: 973d 7fbc e322 093e baf1 933d 69b6 0a3e
000002f0: 302f 0cbe 8c74 093f 890b 213e d8b9 f83d
00000300: b4d5 893d a7fe 0abd 8838 62bd c6e0 7ebd
00000310: dbda 6d3a c9a6 8e3e b548 423e 923f ad3d
00000320: 0b8c 37bc c0d5 ab3d 89c6 0bbd fd4f 273e
00000330: 5d83 5a3d 9262 abbd f9e5 003e 36dd 3b3d
00000340: ddaf d93c 8a40 c8bd 85f2 253e 44cd 9a3e
00000350: da08 0a3d a3cf 693e 0d5a 673d 8dde e3bd
00000360: 06be f83d 5b07 1bbd b744 a2bd 751e f6bd
00000370: 3581 b7bd a56d 2fbd 7ee3 df3d dc0a 66bb
00000380: a7ff 6d3d 5971 063e 10f4 333e 1a1d dc3c
00000390: ee30 593e 91de bd3d 1cd2 a5bd 3f45 943e
000003a0: 5b99 a9bd e155 973d d0c8 893d 2340 663e
000003b0: 0b73 b9bd 838c e33c 3b76 d53d 146b a6bd
000003c0: 5ed2 cd3d 0082 23bd 4e6c 253e b5fb 503e
000003d0: dcec dbbd 5f7c a93d 3877 b23d 305c d23c
000003e0: e009 9f3d 88aa 83bd fa10 483d d913 3ebd
000003f0: 11d3 f73d 4eb6 28bd 9df2 e7bc 6a69 0b3d

onnx::LSTM_129 f4 [1, 256, 64]
0.18732083 -0.11501878 0.08455604 -0.33812267 0.07562949 -0.06567945 0.10329999 0.30390793
-0.003920642 -0.027476361 -0.17854019 -0.07224464 -0.1853323 -0.12648393 -0.103326544 -0.055040687
-0.13592736 0.34281406 -0.012448327 -0.2805617 0.15531336 0.2063658 -0.11993369 0.12035165
0.55345225 0.23395857 0.10310001 0.069261804 0.08740943 0.21541664 0.13542557 -0.045923885
0.03666979 0.031018872 0.12275736 0.27121505 -0.1708097 -0.11029278 -0.028142262 -0.45373675
0.19955322 -0.20431665 -0.24046585 -0.14140773 -0.014240959 -0.20569566 0.37533355 0.08985288
0.17517841 -0.23957491 -0.19225736 -0.043185852 0.11361902 0.4339484 0.013915305 0.25051117
0.016378272 -0.14186397 -0.12343426 -0.1330016 0.015006536 0.23228924 0.29476434 -0.18210323
0.033171464 0.15155846 0.093641706 -0.16734806 -0.051076666 -0.092399985 0.22689012 -0.22240108
0.16088934 -0.02451274 0.14406176 0.07010896 -0.20189139 0.20092586 0.09350103 -0.013894361
-0.0036735695 -0.18454652 -0.088325135 0.08040178 -0.16221008 -0.14055857 0.009455922 -0.10408124
0.032482874 0.2316414 -0.17047676 0.099074624 0.027252177 0.1719681 -0.18028693 0.043996908
-0.022296006 0.2234902 0.07401173 0.046975873 -0.19321154 0.056557905 -0.19052802 0.18848576
-0.21386005 0.19969828 0.17925742 -0.18736026 0.06809677 0.11059991 0.11473662 0.03209359
-0.17755516 0.05385244 0.08688588 0.0178708 -0.06280462 0.14468637 0.14053679 0.119217515
0.10333635 0.048765674 0.13133736 -0.09318286 0.100087956 0.07662526 0.13602225 -0.2117357
0.16155551 0.22029714 0.07859951 -0.04287487 -0.15401931 0.16941634 0.18451934 0.15898585
-0.19742757 -0.19194266 -0.07058582 0.00066096685 0.020795267 -0.007997428 -0.17006418 -0.13137436
-0.08493548 -0.073761545 0.06082248 0.18030965 -0.3275663 -0.04282489 -0.32794544 -0.23137681
-0.15506956 0.2227518 -0.13588049 -0.17849891 -0.18595524 -0.10669344 -0.08621066 -0.15012993
0.21880132 0.14028852 -0.094431564 -0.25395042 0.1076281 -0.16123316 -0.23173288 0.047060475
0.04727991 0.0005273753 0.3020341 -0.15122515 -0.17069481 -0.0022048124 -0.06886589 0.13591684
-0.3698907 -0.17673749 -0.005927485 -0.1995372 0.075166166 0.10214392 0.18066643 0.02918148
0.062412623 -0.11278089 0.08225661 0.23027669 0.0207087 0.08842781 0.06950826 -0.09372991
0.2310273 0.1064378 -0.04872268 0.04995858 0.16498895 0.16919418 0.22110327 0.03660456
-0.18767808 -0.13890527 0.035868693 0.031258143 -0.044046722 0.061093755 -0.24353169 -0.063705966
-0.06311365 -0.32481351 -0.15739098 -0.047832962 -0.1453962 0.15120924 -0.089311294 0.0699267
-0.043668255 0.04670847 0.24289416 -0.011370846 -0.010017036 0.18860349 -0.17440379 -0.11310554
0.05152104 0.05413087 0.03959108 -0.055252787 -0.1115276 0.16436508 -0.110507905 -0.11098523
0.01280012 0.08129848 0.17231256 0.13180682 -0.36198378 -0.008237301 0.041662578 0.061894305
-0.22203137 0.022838296 0.110979564 -0.22833209 0.13996331 0.11094715 0.042763427 0.030286606
-0.1858525 0.056127097 0.0046270494 0.24866201 -0.1313616 0.09471119 0.17883222 -0.33231118
00000000: 08d1 3f3e f78e ebbd b82b ad3d 6a1e adbe
00000010: a2e3 9a3d f382 86bd f28e d33d d299 9b3e
00000020: bb78 80bb 1b16 e1bc 3dd3 36be fff4 93bd
00000030: c0c7 3dbe 0185 01be de9c d3bd 5872 61bd
00000040: 8b30 0bbe 5385 af3e 11f4 4bbc c8a5 8fbe
00000050: 770a 1f3e 8e51 533e cb9f f5bd ed7a f63d
00000060: 0caf 0d3f d692 6f3e 1926 d33d 22d9 8d3d
00000070: b703 b33d 2e96 5c3e 00ad 0a3e af1a 3cbd
00000080: 1033 163d 4a1b fe3c 3668 fb3d b3dc 8a3e
00000090: bde8 2ebe 2ee1 e1bd 9a8a e6bc 2f50 e8be
000000a0: ae57 4c3e 6238 51be ae3c 76be 30cd 10be
000000b0: e952 69bc e2a1 52be b82b c03e c904 b83d
000000c0: f861 333e 2053 75be 1ddf 44be a6e3 30bd
000000d0: 17b1 e83d 7c2e de3e 05fd 633c 0043 803e
000000e0: ba2b 863c ca44 11be 1acb fcbd 9231 08be
000000f0: f9dd 753c 3bdd 6d3e 5aeb 963e 4579 3abe
00000100: cdde 073d 2432 1b3e 39c7 bf3d 4a5d 2bbe
00000110: c435 51bd 343c bdbd e255 683e 1cbd 63be
00000120: 2dc0 243e f1ce c8bc ed84 133e 4995 8f3d
00000130: 9ebc 4ebe 82bf 4d3e 787d bf3d 2da5 63bc
00000140: 45c0 70bb c3f9 3cbe cfe3 b4bd b0a9 a43d
00000150: 661a 26be 96ee 0fbe 03ed 1a3c 8c28 d5bd
00000160: c30c 053d 6733 6d3e 7691 2ebe a3e7 ca3d
00000170: f53f df3c 6818 303e 239d 38be 1a36 343d
00000180: 1da6 b6bc 9dda 643e 7693 973d c669 403d
00000190: 3fd9 45be 43a9 673d c719 43be 6902 413e
000001a0: 21fe 5abe b57d 4c3e 428f 373e 5edb 3fbe
000001b0: 5276 8b3d 3582 e23d 08fb ea3d 9174 033d
000001c0: 05d1 35be 6094 5c3d 39f1 b13d c965 923c
000001d0: b59f 80bd aa28 143e e0e8 0f3e 5028 f43d
000001e0: 02a2 d33d 84be 473d 4d7d 063e a8d6 bebd
000001f0: eafa cc3d b4ed 9c3d 6b49 0b3e 3ed1 58be
00000200: cf6e 253e 9395 613e c8f8 a03d 8f9d 2fbd
00000210: 3db7 1dbe 7a7b 2d3e a3f2 3c3e 30cd 223e
00000220: 742a 4abe 9e8c 44be 4c8f 90bd bc44 2d3a
00000230: d65a aa3c a507 03bc 4e25 2ebe 0087 06be
00000240: a7f2 adbd 4b10 97bd fe20 793d 18a3 383e
00000250: c5b6 a7be 2769 2fbd 77e8 a7be 0bee 6cbe
00000260: 8eca 1ebe 0c19 643e 4124 0bbe 6bc8 36be
00000270: 0d6b 3ebe 1782 dabd 378f b0bd a9bb 19be
00000280: 740d 603e cba7 0f3e 5665 c1bd ca05 82be
00000290: 1f6c dc3d 4e1a 25be 624b 6dbe 7cc2 403d
000002a0: 94a8 413d 8f3f 0a3a 37a4 9a3e c4da 1abe
000002b0: 9fca 2ebe 9d7e 10bb 8f09 8dbd c92d 0b3e
000002c0: 5062 bdbe acfa 34be 593b c2bb 7b53 4cbe
000002d0: b8f0 993d d530 d13d 9f00 393e 000e ef3c
000002e0: 61a4 7f3d abf9 e6bd 2776 a83d a7cd 6b3e
000002f0: 4ba5 a93c a419 b53d 595a 8e3d 78f5 bfbd
00000300: 6c92 6c3e 10fc d93d 6f91 47bd 5ea1 4c3d
00000310: ddf2 283e 3d41 2d3e e568 623e aaee 153d
00000320: af2e 40be 2f3d 0ebe 0deb 123d 8a08 003d
00000330: 566a 34bd 723d 7a3d 5f60 79be 4678 82bd
00000340: bb41 81bd f54d a6be 1a2b 21be 7fec 43bd
00000350: bee2 14be 98d6 1a3e d7e8 b6bd bb35 8f3d
00000360: 7cdd 32bd 6151 3f3d 3fb9 783e c94c 3abc
00000370: 7f1e 24bc 4621 413e e896 32be e1a3 e7bd
00000380: ba07 533d 55b8 5d3d 422a 223d bf50 62bd
00000390: 9568 e4bd 524f 283e f851 e2bd 394c e3bd
000003a0: 98b7 513c d17f a63d b472 303e 5ef8 063e
000003b0: f055 b9be bff5 06bc 61a6 2a3d e284 7d3d
000003c0: 315c 63be 6117 bb3c 4149 e33d e3cf 69be
000003d0: 8b52 0f3e 4238 e33d b428 2f3d 9e1b f83c
000003e0: 1e50 3ebe 87e5 653d 819e 973b 41a1 7e3e
000003f0: a883 06be f1f7 c13d cb1f 373e b124 aabe

onnx::LSTM_130 f4 [1, 512]
0.15675606 0.039254688 -0.03390579 -0.015495081 0.033750176 -0.27042064 0.16802707 -0.012386789
0.029775837 0.09762256 0.022481479 0.11121795 -0.14363404 -0.05075239 0.07419753 -0.104476586
-0.014050186 0.1720253 0.18881322 0.104463145 -0.12438558 -0.06694424 0.11600233 0.07887747
0.06387601 -0.017137585 0.07923792 -0.078441866 0.0009364838 0.011107196 -0.040590588 -0.013371284
-0.0050375783 0.050470635 -0.06343776 0.13546674 -0.01512231 -0.05274549 0.06810204 0.049526896
-0.044242054 0.3146434 -0.05736971 -0.023146154 0.010467025 0.08617583 0.060839657 0.047159117
0.03583108 -0.2413072 -0.0016979546 -0.080314115 -0.026168207 -0.4008149 0.028218651 0.019473199
0.2642057 0.22960834 -0.30843893 0.03031319 -0.08038365 -0.1972777 0.03572389 0.2299568
-0.37171048 -0.17871426 0.008820026 0.1422842 0.040205274 -0.022859829 0.09801557 -0.10140336
-0.057940617 0.073969215 0.05188102 0.061126597 0.05965105 0.03187655 0.012411601 0.11616541
-0.066623926 -0.22192569 -0.13031523 0.07699694 0.053515468 -0.25721547 -0.21430328 0.03372406
-0.026359167 -0.042771894 0.38142887 -0.14064687 0.0028600325 -0.27774584 0.014192336 0.03374396
-0.03694279 -0.046850577 -0.02042163 0.30516812 -0.15466076 0.0050934926 -0.01629904 -0.12636311
-0.053140197 0.08594062 -0.18086952 -0.01402938 -0.20497042 -0.043853793 -0.25278273 -0.26808006
0.005885356 -0.09180765 -0.054861773 -0.015577132 0.025442509 0.029056743 -0.050658703 -0.1179041
0.1687793 0.038061906 0.10477581 -0.18897632 0.022807514 0.16615026 -0.37204024 -0.27488932
1.0286409 0.90147567 1.0078968 1.2047645 1.0980517 1.1240904 1.0091377 1.0195502
1.0211083 1.3129771 0.9291523 1.222435 0.8966938 1.0075617 0.9993472 0.93724483
1.0790292 0.8970223 0.9425986 0.8717125 1.0093623 1.0967419 1.0195705 1.1093614
0.8358123 0.9839571 0.9363838 1.0035383 1.0240779 1.2556319 1.0098566 1.0207019
1.0107131 1.0974311 0.91938967 1.0207255 0.9847572 1.0078593 0.9971862 1.005544
0.96379286 0.9756784 1.0204424 0.95538646 0.9967957 0.87877405 1.0060395 1.1062574
0.78122354 1.2040707 1.0328096 0.9888593 0.99049544 1.1538773 0.886745 1.0336277
1.043493 1.2291524 0.9721179 1.0463479 1.1502653 1.1421932 1.0630863 1.3288999
-0.046510126 0.10083279 0.025965882 -0.09794004 0.22254936 0.027583702 -0.03028163 -0.011378525
-0.02848641 0.005205723 0.008611645 0.017489746 -0.0028607934 0.02163491 0.007869528 0.041279074
0.02646962 0.0074053584 -0.011260022 -0.01712025 0.15025835 0.0015523415 0.09109828 0.07286312
0.12457625 -0.0058143456 -0.041352518 -0.03220028 -0.020475574 -0.11786474 -0.023653666 -0.008394451
-0.02057182 0.17036514 -0.031298652 0.08818328 -0.061766308 0.021004623 0.056501564 -0.06361521
0.017577384 0.0257414 -0.0006336125 0.016699532 0.069277376 -0.14852786 -0.03628842 -0.010695298
0.043991163 0.008392289 0.039918788 0.0142575735 -0.005648473 0.12361717 -0.04466201 -0.008839032
-0.05990322 -0.09807452 0.07250831 -0.09863436 -0.15158495 0.065031044 0.007915789 0.25230968
00000000: a984 203e 86c9 203d cce0 0abd 15df 7dbc
00000010: a03d 0a3d 9374 8abe 4a0f 2c3e f5f1 4abc
00000020: 75ec f33c 56ee c73d 142b b83c 3dc6 e33d
00000030: cd14 13be bde1 4fbd e0f4 973d d2f7 d5bd
00000040: c032 66bc 6627 303e 4158 413e c6f0 d53d
00000050: debd febd 101a 89bd a192 ed3d 838a a13d
00000060: 6dd1 823d 1f64 8cbc 7e47 a23d 21a6 a0bd
00000070: 5d7e 753a f5fa 353c 5142 26bd 3b13 5bbc
00000080: 4512 a5bb 4cba 4e3d a8eb 81bd cbb7 0a3e
00000090: 91c3 77bc a80b 58bd 1579 8b3d b7dc 4a3d
000000a0: 2837 35bd f118 a13e 80fc 6abd 019d bdbc
000000b0: e37d 2b3c f47c b03d 0133 793d eb29 413d
000000c0: 9cc3 123d 3c19 77be e78d deba ba7b a4bd
000000d0: b55e d6bc 9c37 cdbe cd2a e73c 4286 9f3c
000000e0: f845 873e 731e 6b3e b5eb 9dbe 5e53 f83c
000000f0: 2fa0 a4bd 2a03 4abe 3753 123d cc79 6b3e
00000100: d650 bebe df00 37be df81 103c f3b2 113e
00000110: 49ae 243d 8944 bbbc 63bc c83d 91ac cfbd
00000120: 2453 6dbd 2c7d 973d 3181 543d e25f 7a3d
00000130: a954 743d fc90 023d 075a 4b3c 21e8 ed3d
00000140: 2072 88bd 7d40 63be 5b71 05be 92b0 9d3d
00000150: 0933 5b3d bfb1 83be 5272 5bbe 3d22 0a3d
00000160: 2eef d7bc 9531 2fbd a54a c33e bc05 10be
00000170: 626f 3b3b b434 8ebe f986 683c 1b37 0a3d
00000180: 5351 17bd 64e6 3fbd 434b a7bc ff3e 9c3e
00000190: 645f 1ebe 50e7 a63b 9085 85bc 5565 01be
000001a0: 89a9 59bd a301 b03d dc35 39be 7cdb 65bc
000001b0: c4e3 51be 09a0 33bd bd6c 81be ca41 89be
000001c0: f2d9 c03b a605 bcbd bdb6 60bd 3a37 7fbc
000001d0: cf6c d03c 6808 ee3c 807f 4fbd b477 f1bd
000001e0: 7bd4 2c3e cde6 1b3d b394 d63d 0283 41be
000001f0: d3d6 ba3c 4b23 2a3e 0f7c bebe 4bbe 8cbe
00000200: 81aa 833f 1cc7 663f c302 813f b935 9a3f
00000210: f58c 8c3f 32e2 8f3f 6d2b 813f 9f80 823f
00000220: adb3 823f a20f a83f eddc 6d3f c078 9c3f
00000230: ba8d 653f c8f7 803f 38d5 7f3f 47ef 6f3f
00000240: a11d 8a3f 41a3 653f 244e 713f 8d28 5f3f
00000250: c932 813f 0a62 8c3f 4981 823f 8eff 8d3f
00000260: cbf7 553f 9de4 7b3f d9b6 6f3f f173 803f
00000270: fc14 833f 8cb8 a03f fb42 813f 5ca6 823f
00000280: 0c5f 813f 9f78 8c3f 1f5d 6b3f 22a7 823f
00000290: 0c19 7c3f 8901 813f 9847 7f3f aab5 803f
000002a0: 21bb 763f 0fc6 793f db9d 823f 3594 743f
000002b0: 012e 7f3f 56f7 603f e7c5 803f d899 8d3f
000002c0: 44fe 473f fd1e 9a3f 1b33 843f e225 7d3f
000002d0: 1c91 7d3f 40b2 933f b801 633f ea4d 843f
000002e0: 2e91 853f de54 9d3f b8dc 783f baee 853f
000002f0: e53b 933f 6333 923f 3613 883f 6419 aa3f
00000300: 6781 3ebd 6c81 ce3d 67b6 d43c ca94 c8bd
00000310: fbe3 633e 37f7 e13c 2e11 f8bc fe6c 3abc
00000320: 555c e9bc c594 aa3b db17 0d3c a846 8f3c
00000330: 267c 3bbb b23b b13c 31ef 003c 3f14 293d
00000340: d1d6 d83c a6a8 f23b f57b 38bc c43f 8cbc
00000350: 53dd 193e f077 cb3a bc91 ba3d 4239 953d
00000360: d521 ff3d 4486 bebb 4261 29bd 71e4 03bd
00000370: 64bc a7bc 1263 f1bd 55c5 c1bc e188 09bc
00000380: 3c86 a8bc 3374 2e3e 0433 00bd 6f99 b43d
00000390: abfe 7cbd e311 ac3c 2f6e 673d b148 82bd
000003a0: 72fe 8f3c a1df d23c 0419 26ba 75cd 883c
000003b0: 4ce1 8d3d b017 18be 2ba3 14bd 553b 2fbc
000003c0: 1430 343d d07f 093c e281 233d 9998 693c
000003d0: d316 b9bb 002b fd3d 83ef 36bd 96d1 10bc
000003e0: 145d 75bd 4bdb c8bd 3d7f 943d d000 cabd
000003f0: 1639 1bbe ff2e 853d 3ab1 013c bc2e 813e
