results/test_controls/Shootair/Shootair-5209.onnx (onnx, 492946 bytes, 12 tensors)

discrete_act_size_vector f4 [1, 2]
0	0x40000000	2.0
1	0x40000000	2.0

network_body._body_endoder.seq_layers.0.weight f4 [128, 420]
0	0x3d7c2a20	0.06156361
1	0x3da1e702	0.07905389
2	0xbc605a1b	-0.013693358
3	0x3d933f47	0.071898036
4	0x3c45ac64	0.012065027
5	0xbb54864a	-0.0032428675
6	0x3c1e940d	0.009678853
7	0x3c85f276	0.016350966
8	0xbd981ef3	-0.07427778
9	0x3d0a529b	0.033770185
10	0xbb944621	-0.0045249616
11	0x3bf359f7	0.007426496
12	0x3c35087c	0.011049386
13	0xbd4422df	-0.04788482
14	0xbd33d525	-0.043904442
15	0xbe0d00a6	-0.13769779
16	0x3d09a9a1	0.033609036
17	0x3cdf267d	0.027240032
18	0x3cbdd93e	0.023174878
19	0xbd1b1263	-0.03785933
20	0x3bf18aa8	0.0073712654
21	0x3d480a56	0.048837982
22	0xbd0f92b0	-0.035052
23	0xbc9e32a5	-0.019311259
24	0x3cea72ba	0.028619159
25	0x3d49ac47	0.049236562
26	0xbd4e4ba3	-0.0503651
27	0xbc86de73	-0.016463494
28	0x3d25c678	0.040472478
29	0xbb890a54	-0.0041821394
30	0xbc754b7b	-0.014971609
31	0xbd3ae878	-0.045631856
32	0xbde20a13	-0.11037078
33	0xbb808911	-0.0039225896
34	0x3d774307	0.060366657
35	0xbd65aaf6	-0.056071244
36	0x3c8872c2	0.016656283
37	0x3cad3b45	0.021146426
38	0xbc48858d	-0.012238872
39	0x3d69d2ec	0.057085916
40	0x3d5ff80e	0.054679923
41	0x3d87f323	0.066381715
42	0xbbe5cd74	-0.0070130173
43	0x3da2b637	0.07944911
44	0x3c315a72	0.0108247865
45	0xbdc80866	-0.09767227
46	0xbc634c4c	-0.013873171
47	0x3ca75839	0.02042781
48	0x3cf6a06f	0.030105798
49	0xbdbb242e	-0.0913776
50	0x3d73613e	0.05941891
51	0x3d7f9bcf	0.06240445
52	0x3cb81909	0.022472875
53	0xbc8e62f5	-0.01738117
54	0x3d06d39e	0.032916658
55	0xbce73f83	-0.028228527
56	0x3da17a44	0.078846484
57	0xbcbf0a5b	-0.023320368
58	0x3be9b0f9	0.0071316925
59	0x3d4d9420	0.05019009
60	0xbdad609d	-0.08465693
61	0x3d7bd705	0.061484355
62	0xbcdb584d	-0.026775504
63	0xbb8e89ac	-0.004349908
64	0x3d539c75	0.05166288
65	0x3cf9e569	0.0305049
66	0x3c159a46	0.00913102
67	0xbd84aa11	-0.0647775
68	0x3d02b947	0.031914975
69	0x3ce55ef6	0.027999382
70	0xbc1fa3c6	-0.0097436365
71	0xbd3fad14	-0.04679592
72	0x3b8779fc	0.0041344147
73	0xbcb144d5	-0.021639267
74	0xbcfa6779	-0.030566918
75	0x3c145fdc	0.009056058
76	0xbdb62712	-0.08894171
77	0x3d855920	0.0651114
78	0xbd9d683b	-0.07685896
79	0xbd4b302a	-0.04960648
80	0x3d4641a4	0.048402444
81	0x3d206697	0.039160337
82	0xbd81e387	-0.063422255
83	0x3bc396d6	0.005968909
84	0x3b0c3963	0.002139651
85	0xbad4e3dd	-0.0016242225
86	0xbd1cec88	-0.03831151
87	0xbd537d96	-0.05163344
88	0xbba8cb83	-0.0051512136
89	0xbdab1038	-0.08352703
90	0x3d2c2645	0.042028684
91	0x3c501039	0.01269918
92	0xbcd082cd	-0.025452996
93	0x3e00393b	0.12521832
94	0xbd510a3d	-0.051035155
95	0xbc47e2b3	-0.012200045
96	0x3d9d6226	0.07684736
97	0x3d417acb	0.047236245
98	0xbd68823d	-0.05676483
99	0xbdd97a1c	-0.10618994
100	0x3d3696ee	0.04457753
101	0x3cb578f8	0.022152409
102	0x3c948fcc	0.018134974
103	0x3ca3dc14	0.020002402
104	0xbca58721	-0.020206036
105	0xbcb53fa4	-0.022125073
106	0xbc872b3b	-0.016500106
107	0x3d57957e	0.0526328
108	0x3c9e490f	0.019321946
109	0xbd9b8b2a	-0.07594903
110	0x3d3ca2f3	0.046053838
111	0xbc2f70c2	-0.010708036
112	0x3d0d9bd8	0.034572452
113	0x3d11d4ba	0.035603262
114	0xbd0cd79e	-0.034385316
115	0x3da35f7e	0.07977198
116	0x3d335e63	0.043791186
117	0xbbf47682	-0.0074604163
118	0x3d9f019a	0.07763977
119	0x3cd1896d	0.025578225
120	0xbc9bdf5c	-0.019027404
121	0x3dc93871	0.098252185
122	0xb93c45d1	-0.00017955086
123	0xbdb5e8da	-0.088823035
124	0x3cb6e704	0.022326954
125	0x3d8f44aa	0.069955185
126	0xbd4b706a	-0.049667753
127	0x3d66e9b7	0.05637523
128	0xbd08a181	-0.033357147
129	0xbd639f3a	-0.055571772
130	0x3db3d188	0.08780199
131	0x3d16318e	0.036668353
132	0xbda49cf3	-0.08037748
133	0xbdad4360	-0.084601164
134	0xb9dde7bc	-0.0004232506
135	0x3d1b6e32	0.037946887
136	0xbd52e861	-0.051491145
137	0x3d18cc28	0.037304074
138	0x3ae30d68	0.0017322721
139	0xbcb4e598	-0.022082135
140	0x3d697c74	0.057003453
141	0xbcc7e4ca	-0.024401087
142	0xbd2fc89e	-0.042915933
143	0xbd2c3c37	-0.042049613
144	0xbb763be8	-0.0037572328
145	0xbd45c7fc	-0.048286423
146	0x3d711b58	0.058863968
147	0x3d423477	0.047413316
148	0x3db79fe6	0.08966045
149	0x3caa9743	0.02082408
150	0xbd75624f	-0.059908208
151	0xbd16b753	-0.036795925
152	0xbe0320ee	-0.1280553
153	0x3d89bc06	0.06725316
154	0x3d991010	0.07473767
155	0x3cecff89	0.028930442
156	0xbc8c038a	-0.017091531
157	0x3c85840d	0.016298318
158	0x3c0b2074	0.008491624
159	0x3cf5f866	0.030025672
160	0xbd711ee8	-0.058867365
161	0xbd06790e	-0.03283029
162	0xbc9c265d	-0.019061262
163	0x3cfa2a08	0.03053762
164	0x3cb17c9f	0.02166587
165	0xbd7987f3	-0.060920667
166	0x3968f476	0.00022216313
167	0xbbe37292	-0.006941148
168	0x3d8da7ee	0.06916796
169	0xbd55496d	-0.052071977
170	0x3b0c7f9b	0.0021438363
171	0x3dbdf32c	0.09274897
172	0x3d5aaf0a	0.053389587
173	0x3cf3a863	0.029743379
174	0x3cac55ec	0.021037064
175	0x3db9c61c	0.090709895
176	0x3cf2aef0	0.029624432
177	0xbd274a7f	-0.04084253
178	0xbce21225	-0.027596543
179	0xbc8e7391	-0.01738909
180	0xbbe1330c	-0.0068725403
181	0xbd4fb824	-0.05071272
182	0xbc944b98	-0.018102452
183	0xbd3568e3	-0.04428948
184	0x3ce922ae	0.02845892
185	0xba075d6a	-0.0005163761
186	0x3cad9d67	0.02119322
187	0xbca9f1af	-0.020745127
188	0xbcb71c28	-0.022352293
189	0x3d3554c1	0.04427028
190	0xbcb58b98	-0.02216129
191	0x3d616634	0.05502911
192	0x3d00e226	0.031465672
193	0x3c7eaed3	0.015544611
194	0xbcf68e77	-0.03009723
195	0x3a6b5618	0.00089773675
196	0x3d1bc0f5	0.038025815
197	0x3bc8e793	0.0061311214
198	0x3c2b0104	0.010437254
199	0xbbf33d28	-0.007423062
200	0xbcd97007	-0.026542677
201	0x3c979d3f	0.018507598
202	0xbda6e03c	-0.08148238
203	0x3e0e651b	0.13905756
204	0x3cf7bb8d	0.030240798
205	0x3d0a10b6	0.033707343
206	0x3c60cbe0	0.013720483
207	0x3cbb94bd	0.022898072
208	0x3ac67ff8	0.0015144339
209	0x3d64d309	0.05586532
210	0x3c78a778	0.015176646
211	0x3c69b26d	0.014263731
212	0xbd86f3b7	-0.06589454
213	0xbd28b3dd	-0.041187156
214	0xbd375580	-0.044759274
215	0x3cd7c4b0	0.026338905
216	0xbc1bd885	-0.0095120715
217	0x3dbc5622	0.09196116
218	0xbbfe06c1	-0.00775227
219	0x3bd0ec0d	0.0063757957
220	0xbcb07b4e	-0.021543171
221	0x3b05f4c1	0.0020440074
222	0xbd33e817	-0.04392251
223	0xbd4d2a69	-0.050089274
224	0x3a2184b2	0.0006161436
225	0x3d64d259	0.055864666
226	0xbd0ef514	-0.034901693
227	0xbd47bee5	-0.048766036
228	0xbb838c90	-0.004014559
229	0x3ca58972	0.02020714
230	0xbd94b4af	-0.07261025
231	0x3cae3e59	0.021269964
232	0x3c57a647	0.013162202
233	0x3d4fa631	0.0506956
234	0x3c9cdd0d	0.019148374
235	0x388b0542	6.629016e-05
236	0x3d1ee0a0	0.038788438
237	0x3dca6927	0.098833375
238	0x3d005c72	0.031338163
239	0x3cabcb04	0.020970829
240	0xbcd1bd07	-0.02560283
241	0x3df3a935	0.11897508
242	0xbc68da56	-0.014212212
243	0xbc3daa92	-0.011576312
244	0x3c45ec96	0.012080332
245	0xbcc725bd	-0.024309987
246	0xbd6a310b	-0.057175677
247	0xbc617d2f	-0.013762756
248	0x3bd9ee1c	0.0066506993
249	0xbd15f4d3	-0.036610436
250	0x3c159dbe	0.009131847
251	0xbc85ddfc	-0.016341202
252	0x3cce70d6	0.025200289
253	0xbce033de	-0.027368482
254	0xbce366fd	-0.02775907
255	0xbbec8319	-0.0072177765

network_body._body_endoder.seq_layers.0.bias f4 [128]
0	0x00000000	0.0
1	0x00000000	0.0
2	0x00000000	0.0
3	0x00000000	0.0
4	0x00000000	0.0
5	0x00000000	0.0
6	0x00000000	0.0
7	0x00000000	0.0
8	0x00000000	0.0
9	0x00000000	0.0
10	0x00000000	0.0
11	0x00000000	0.0
12	0x00000000	0.0
13	0x00000000	0.0
14	0x00000000	0.0
15	0x00000000	0.0
16	0x00000000	0.0
17	0x00000000	0.0
18	0x00000000	0.0
19	0x00000000	0.0
20	0x00000000	0.0
21	0x00000000	0.0
22	0x00000000	0.0
23	0x00000000	0.0
24	0x00000000	0.0
25	0x00000000	0.0
26	0x00000000	0.0
27	0x00000000	0.0
28	0x00000000	0.0
29	0x00000000	0.0
30	0x00000000	0.0
31	0x00000000	0.0
32	0x00000000	0.0
33	0x00000000	0.0
34	0x00000000	0.0
35	0x00000000	0.0
36	0x00000000	0.0
37	0x00000000	0.0
38	0x00000000	0.0
39	0x00000000	0.0
40	0x00000000	0.0
41	0x00000000	0.0
42	0x00000000	0.0
43	0x00000000	0.0
44	0x00000000	0.0
45	0x00000000	0.0
46	0x00000000	0.0
47	0x00000000	0.0
48	0x00000000	0.0
49	0x00000000	0.0
50	0x00000000	0.0
51	0x00000000	0.0
52	0x00000000	0.0
53	0x00000000	0.0
54	0x00000000	0.0
55	0x00000000	0.0
56	0x00000000	0.0
57	0x00000000	0.0
58	0x00000000	0.0
59	0x00000000	0.0
60	0x00000000	0.0
61	0x00000000	0.0
62	0x00000000	0.0
63	0x00000000	0.0
64	0x00000000	0.0
65	0x00000000	0.0
66	0x00000000	0.0
67	0x00000000	0.0
68	0x00000000	0.0
69	0x00000000	0.0
70	0x00000000	0.0
71	0x00000000	0.0
72	0x00000000	0.0
73	0x00000000	0.0
74	0x00000000	0.0
75	0x00000000	0.0
76	0x00000000	0.0
77	0x00000000	0.0
78	0x00000000	0.0
79	0x00000000	0.0
80	0x00000000	0.0
81	0x00000000	0.0
82	0x00000000	0.0
83	0x00000000	0.0
84	0x00000000	0.0
85	0x00000000	0.0
86	0x00000000	0.0
87	0x00000000	0.0
88	0x00000000	0.0
89	0x00000000	0.0
90	0x00000000	0.0
91	0x00000000	0.0
92	0x00000000	0.0
93	0x00000000	0.0
94	0x00000000	0.0
95	0x00000000	0.0
96	0x00000000	0.0
97	0x00000000	0.0
98	0x00000000	0.0
99	0x00000000	0.0
100	0x00000000	0.0
101	0x00000000	0.0
102	0x00000000	0.0
103	0x00000000	0.0
104	0x00000000	0.0
105	0x00000000	0.0
106	0x00000000	0.0
107	0x00000000	0.0
108	0x00000000	0.0
109	0x00000000	0.0
110	0x00000000	0.0
111	0x00000000	0.0
112	0x00000000	0.0
113	0x00000000	0.0
114	0x00000000	0.0
115	0x00000000	0.0
116	0x00000000	0.0
117	0x00000000	0.0
118	0x00000000	0.0
119	0x00000000	0.0
120	0x00000000	0.0
121	0x00000000	0.0
122	0x00000000	0.0
123	0x00000000	0.0
124	0x00000000	0.0
125	0x00000000	0.0
126	0x00000000	0.0
127	0x00000000	0.0

network_body._body_endoder.seq_layers.2.weight f4 [128, 128]
0	0x3e008c5f	0.12553547
1	0x3c8cb758	0.017177269
2	0x3c68d921	0.014211924
3	0x3c478a5e	0.012178985
4	0xbe068400	-0.13136292
5	0x3da52a56	0.080647156
6	0x3d63278e	0.055457644
7	0xbda4046b	-0.08008655
8	0xbc95578e	-0.018230226
9	0xbd363481	-0.044483665
10	0x3e04cc10	0.12968469
11	0x3e0338cc	0.12814635
12	0x3c7230aa	0.01478211
13	0xbd538e07	-0.05164912
14	0xb9637ee0	-0.00021695672
15	0xbd2de717	-0.042456713
16	0x3c59ea73	0.013300526
17	0xbcc2567f	-0.023722885
18	0x3b1a4063	0.0023536913
19	0xbd0d4a85	-0.034494895
20	0xbe70b7ba	-0.23507586
21	0xbd114580	-0.03546667
22	0xbc0da7ab	-0.008645932
23	0xbc295fce	-0.010337783
24	0xbcb71404	-0.022348411
25	0xbe24eb4c	-0.16105384
26	0x3c9c8bb9	0.019109594
27	0xbdc0f58a	-0.09421833
28	0x3c373870	0.011182889
29	0xbc065197	-0.0081981635
30	0xbcab1cd8	-0.020887777
31	0xbd980a6a	-0.07423861
32	0xbd4276f6	-0.04747673
33	0x3d13dd01	0.036099438
34	0xbbbc504d	-0.0057468773
35	0x3c9476ca	0.01812305
36	0xbc470145	-0.012146299
37	0xbd97934e	-0.07401143
38	0xbd443ec5	-0.047911424
39	0xbd99e6e8	-0.07514745
40	0x3d9d1325	0.07669667
41	0x3c6410a7	0.013919986
42	0xbd581b25	-0.052760262
43	0x3e258b06	0.16166314
44	0x3dd1431f	0.102178805
45	0xbe4c4fa8	-0.19952261
46	0xbdb34539	-0.087534375
47	0xbe672293	-0.22571783
48	0xbdb0db4f	-0.0863558
49	0x3cac7687	0.021052612
50	0xbc8cd4c3	-0.017191296
51	0xbd86b5e5	-0.065776624
52	0xbd4e136f	-0.050311502
53	0x3e127acf	0.1430466
54	0xbce388df	-0.027775226
55	0xbd22e2ec	-0.03976719
56	0x3e013d36	0.12621006
57	0xbdb3b84c	-0.08775386
58	0x3de53a40	0.11192751
59	0xbe8d19bf	-0.27558705
60	0x3cc69fea	0.024246175
61	0xbdeac4b0	-0.114632964
62	0xbe3fd366	-0.18732986
63	0x3df56a32	0.11983146
64	0x3db2aa23	0.08723857
65	0x3caade75	0.020858029
66	0xbdbe4788	-0.09290987
67	0x3e038070	0.12841964
68	0x3dd0051b	0.10157224
69	0xbe063da6	-0.13109455
70	0x3da70cb9	0.081567235
71	0xbd9038ff	-0.07042121
72	0x3da75a03	0.08171465
73	0xbe0ba31d	-0.13636442
74	0x3cf21373	0.02955029
75	0xbe3356ff	-0.17513655
76	0xbcf53e38	-0.029936895
77	0x3cfed198	0.031105801
78	0xbce91cbd	-0.028456086
79	0xbe15a108	-0.1461221
80	0x3d425063	0.047439944
81	0x3cb34202	0.02188206
82	0x3defc37c	0.117072076
83	0x3d763af7	0.060114827
84	0x3d2f5362	0.04280413
85	0x3d9a94de	0.075479254
86	0xbcdde77c	-0.02708792
87	0x3c20bf63	0.009811255
88	0x3dc0b356	0.094092056
89	0x3ddddfd9	0.10833711
90	0xbd429f5f	-0.04751527
91	0xbe0e33ad	-0.138869
92	0x3d7bd7d0	0.06148511
93	0x3e0754f3	0.13216
94	0x3e0b9645	0.13631542
95	0x3e2c1f08	0.16808712
96	0x3d893eb5	0.067014135
97	0x3dd0b731	0.10191191
98	0xbd891819	-0.066940494
99	0x3e15cf6b	0.14629905
100	0xbe00a080	-0.12561226
101	0xbd29fc96	-0.04150065
102	0xbc379dff	-0.011207103
103	0x3d0d8d23	0.034558427
104	0xbc56df3f	-0.013114749
105	0xbc8be8d7	-0.0170788
106	0x3cae93c6	0.021310698
107	0xbd74045f	-0.05957448
108	0xbdcfd986	-0.10148911
109	0x3e12e735	0.14346011
110	0xbdaf322a	-0.0855449
111	0xbe2909fd	-0.16507716
112	0xbdba5af8	-0.09099382
113	0xbc43ee44	-0.011958662
114	0x3d459192	0.04823453
115	0xbd1b60bc	-0.03793405
116	0xbe104345	-0.14088161
117	0xbde2bcfa	-0.11071201
118	0xbe832c7f	-0.25619885
119	0x3dfa1c18	0.1221239
120	0x3d8ec2ad	0.06970725
121	0xbd880f77	-0.06643575
122	0xbc770ea4	-0.015079174
123	0x3cde7a64	0.02715797
124	0x3cf6a80b	0.030109426
125	0x3dff98b9	0.124803014
126	0x3e44615d	0.19177766
127	0xbd1654c1	-0.03670192
128	0x3dc362ed	0.09540353
129	0x3cfeaf13	0.031089341
130	0x3c8adfe7	0.016952468
131	0x3e07f513	0.13277082
132	0x3d9f567a	0.07780166
133	0xbe3172d4	-0.1732896
134	0x3d3580d6	0.04431232
135	0xbc51195e	-0.012762396
136	0xbc014bdc	-0.007891621
137	0x3dd5a529	0.104318924
138	0x3d0c2582	0.034215458
139	0x3901eb29	0.00012390003
140	0xbde82f8b	-0.11337193
141	0xbd5274fa	-0.05138109
142	0xbdf8fac2	-0.12157203
143	0x3db22f5c	0.08700439
144	0x3db2c197	0.087283306
145	0xbdb1bb3c	-0.0867829
146	0xbd5e749e	-0.054310434
147	0x3d7cce02	0.0617199
148	0xbe3ba948	-0.18326294
149	0x3dc3d5c7	0.09562259
150	0x3c9680d3	0.018371975
151	0x3dceb889	0.10093791
152	0xbb917492	-0.004438945
153	0xbdb10c3d	-0.086449124
154	0xbd02e1d3	-0.031953644
155	0xbd7577fd	-0.059928883
156	0xbdd93a7c	-0.10606858
157	0x3e185e5b	0.14879744
158	0x3dacc1a2	0.0843537
159	0xbe158f9d	-0.14605565
160	0x3df7ad33	0.12093582
161	0x3de00d49	0.10940034
162	0x3dd63f4b	0.10461291
163	0xbc92acd3	-0.017904675
164	0x3d799c50	0.060940087
165	0xbdf252cb	-0.11832198
166	0xbe176d94	-0.14787894
167	0x3d0aa532	0.03384895
168	0xbd92ef84	-0.0717459
169	0x3d7e8bcd	0.062145043
170	0xbce6ec9d	-0.028188998
171	0x3b977ceb	0.0046230457
172	0xbd8c7d21	-0.06859804
173	0xbd43a555	-0.047765095
174	0xbd428686	-0.047491573
175	0xbcd5af70	-0.026084632
176	0xbdbca493	-0.092110775
177	0xbe1d2781	-0.15347101
178	0x3e17ef3c	0.14837354
179	0x3dc158a0	0.09440732
180	0xbdb79565	-0.089640416
181	0xbe4424f0	-0.19154716
182	0xbde64ef2	-0.112455264
183	0x3e05b016	0.13055453
184	0xbde370bc	-0.11105487
185	0x3b3e48e8	0.0029035155
186	0xbdc44a77	-0.095845155
187	0xbdaffe52	-0.085934296
188	0xbd4d1cb4	-0.0500762
189	0xbdb419d1	-0.087939866
190	0x3c97328f	0.018456725
191	0x3cb2a724	0.021808214
192	0xbda9f248	-0.082981646
193	0xbd8e9801	-0.06962586
194	0xbdb5f503	-0.08884623
195	0xbd1847ed	-0.03717797
196	0x3e5e3957	0.21701561
197	0xbd3343c6	-0.043765806
198	0x3c07f27c	0.008297559
199	0x3d84c85f	0.0648353
200	0x3e1101ff	0.14160918
201	0x3d945cce	0.072442636
202	0xbc7c76c9	-0.01540918
203	0x3d2f4097	0.042786207
204	0x3db1942d	0.086708404
205	0x3c9fbada	0.019498277
206	0x3dbc79bb	0.09202906
207	0xbb82f513	-0.0039965003
208	0x3d02a45e	0.031895034
209	0xbdfcb0da	-0.12338419
210	0xbd9baab5	-0.07600919
211	0x3dc9e384	0.09857848
212	0x3d6da505	0.058018703
213	0x3d0dd644	0.034628168
214	0x3be98694	0.0071266387
215	0xbc73959a	-0.014867211
216	0x3d871d71	0.065974124
217	0xbd66834c	-0.05627756
218	0x3da7c935	0.08192674
219	0x3de0de27	0.10979872
220	0xbdd8a76f	-0.105788104
221	0xbd46bcf9	-0.048520062
222	0xbd652308	-0.05594161
223	0x3d18528f	0.03718811
224	0x3b85855d	0.004074736
225	0xbdec28c2	-0.115312114
226	0x3e81fbf0	0.25387526
227	0x3e6751fd	0.2258987
228	0x3e45bf18	0.19311178
229	0xbde76550	-0.11298621
230	0x3bd71cbf	0.006564706
231	0x3e2c5eab	0.16832988
232	0xbd3b7b50	-0.045771897
233	0xbd5ded79	-0.05418155
234	0xbe1f83fa	-0.15577689
235	0x3d313aba	0.043268897
236	0xbdf774f0	-0.12082851
237	0x3d654e5a	0.055982925
238	0x3c901614	0.017588653
239	0x3d6e9c38	0.05825445
240	0xbe059dae	-0.13048431
241	0xbcb2c08d	-0.021820331
242	0xbda58926	-0.080827996
243	0x3d764a80	0.060129642
244	0x3cfb3754	0.030666031
245	0x3d6a85fd	0.057256687
246	0x3e2fab51	0.17155196
247	0xba929299	-0.0011182606
248	0xbdbcf49c	-0.09226343
249	0x3d2f073b	0.042731505
250	0xbc71efd2	-0.01476665
251	0x3e082abf	0.13297556
252	0x3d9f7cb1	0.07787455
253	0xbc018f78	-0.007907741
254	0x3e0139ef	0.12619756
255	0x3c93f8e0	0.018063009

action_model._continuous_distribution.log_sigma f4 [1, 2]
0	0x00000000	0.0
1	0x00000000	0.0

action_model._continuous_distribution.mu.weight f4 [2, 64]
0	0xbc86c047	-0.016449107
1	0x3c05ac6f	0.008158787
2	0x3cbd8a0b	0.023137113
3	0xbd491603	-0.049093258
4	0x3c32d07f	0.010913967
5	0xbbccc70f	-0.0062493156
6	0xbbf1bd6f	-0.0073773186
7	0x3c7a76df	0.01528713
8	0x3cea6628	0.028613165
9	0xbc15df85	-0.0091475295
10	0x3cc03a30	0.023465246
11	0x3d23fcf2	0.04003615
12	0x3be4c3d3	0.006981352
13	0xbc8a2d6d	-0.016867364
14	0x3c6d7a48	0.014494486
15	0xbc145bef	-0.009055122
16	0xbc8ddae1	-0.017316284
17	0x3cd06cf7	0.025442583
18	0x395b814a	0.00020933631
19	0x3d333ec7	0.04376104
20	0x3c5555b0	0.013020918
21	0x3bd19600	0.006396055
22	0x3c6efb5d	0.014586297
23	0x3bbb75c7	0.0057208273
24	0xbd3abca7	-0.04559007
25	0xbc2f164f	-0.010686471
26	0x3b98274f	0.004643358
27	0x3bc38370	0.0059665963
28	0xbcea258a	-0.028582353
29	0x3ce8505a	0.028358627
30	0x3c91eac4	0.01781214
31	0x3cebb540	0.02877295
32	0x3c920bb7	0.017827852
33	0x3c941f73	0.018081402
34	0x3c9ea1c3	0.019364243
35	0xbb416976	-0.0029512323
36	0x3d10a2d3	0.03531153
37	0xbc3ea96e	-0.011637075
38	0xbcb50ad8	-0.022099897
39	0xbd30d40b	-0.04317097
40	0x3c35b885	0.011091356
41	0xbb63bc3d	-0.003474965
42	0xbcd26190	-0.025681287
43	0x3c6d3113	0.014477032
44	0x3d2f7054	0.042831734
45	0x3ccbf3c3	0.024896508
46	0xbc88ba3e	-0.01669037
47	0xbc50e21b	-0.01274922
48	0x3cd488f7	0.025944216
49	0xbcafc449	-0.0214559
50	0xbbd2ee38	-0.0064370893
51	0x3d726b75	0.05918451
52	0xbc14802d	-0.009063763
53	0xbc9a3be1	-0.01882738
54	0xbd1da60b	-0.03848843
55	0x3a0b46fd	0.0005313007
56	0x3c23cbf4	0.009997357
57	0xbd8f83f0	-0.07007587
58	0x3c55e087	0.01305402
59	0x3c1568fb	0.009119268
60	0x3b6189d3	0.0034414425
61	0xbbaa4a67	-0.0051968577
62	0xbc3ab053	-0.011394578
63	0x3d253f8a	0.0403438
64	0x3c47190e	0.01215197
65	0x3c2a297a	0.010385865
66	0xb9d4500d	-0.00040495433
67	0x3c495fc6	0.012290901
68	0xbc26b33d	-0.01017457
69	0x3c0409df	0.008058994
70	0x3bb87015	0.0056285956
71	0x3cbe7943	0.023251181
72	0xbb182600	-0.002321601
73	0x3d236e06	0.03989985
74	0xbc2a37db	-0.010389294
75	0x3d3e0659	0.046392772
76	0xbb3679d4	-0.0027843611
77	0x3b49b970	0.0030780695
78	0x3d13d0c4	0.036087766
79	0xbd5a48ab	-0.053291958
80	0x3d0d4c8f	0.03449684
81	0xbc3ca99d	-0.011515048
82	0xbdca7eac	-0.09887442
83	0xbc4e09db	-0.012575592
84	0x3d227b0b	0.039668124
85	0x3d361e18	0.044462293
86	0x3cdfa2ea	0.027299363
87	0xbd84e303	-0.064886115
88	0xbcc26366	-0.023729037
89	0x3c01cd6a	0.00792251
90	0xbcb1a3cb	-0.021684548
91	0x3c199d77	0.009375921
92	0x3d4ee07d	0.050507057
93	0x3d0c71d4	0.034288242
94	0xbd0487d5	-0.032356102
95	0xbbb750eb	-0.005594363
96	0xbc8e2953	-0.01735369
97	0xbb27a561	-0.0025580751
98	0xbbed73bb	-0.007246462
99	0x3c3ddf02	0.011588814
100	0x3cbb0165	0.022827813
101	0xbd4a03d7	-0.04932007
102	0xbc81ab4f	-0.015828757
103	0x3b9df799	0.0048207757
104	0xbc9cf52f	-0.019159881
105	0x3cecc382	0.02890182
106	0xbbb917d5	-0.005648593
107	0xbb966881	-0.0045900946
108	0xbb0cee2c	-0.0021504266
109	0x3cd109bd	0.025517339
110	0x3c889c2d	0.016676033
111	0xbca2c245	-0.019868026
112	0xbba8184c	-0.0051298495
113	0x3d4263f3	0.0474586
114	0x3c07bd31	0.008284853
115	0x3d20c3a2	0.03924907
116	0x3c453534	0.01203661
117	0x3b046bbf	0.0020205823
118	0xbd0291f8	-0.031877488
119	0xbca001c7	-0.019532098
120	0x3c724a88	0.014788277
121	0x3bc694d8	0.006060224
122	0xbc2bc3b0	-0.010483667
123	0x3ca6b969	0.020352082
124	0x3cc66cc5	0.024221787
125	0x3c8d58a4	0.017254181
126	0xbc747b23	-0.014921936
127	0x3c71f09a	0.014766837

action_model._continuous_distribution.mu.bias f4 [2]
0	0x00000000	0.0
1	0x00000000	0.0

action_model._discrete_distribution.branches.0.weight f4 [2, 64]
0	0x3b99993c	0.0046874564
1	0xbd02c1de	-0.031923167
2	0x3aaf7d87	0.001338885
3	0x3c60fb13	0.013731736
4	0xbb86ed8b	-0.004117673
5	0xbcaaaa10	-0.020833045
6	0x3cd92b82	0.026510004
7	0x3c82f86f	0.015987603
8	0xbc817a30	-0.015805334
9	0xbca50119	-0.020142125
10	0xbb2f1b00	-0.0026718974
11	0x3b377eec	0.0027999235
12	0xbcaba94f	-0.020954756
13	0xbc88d138	-0.016701326
14	0x3b008727	0.0019611807
15	0x3c4e2242	0.01258141
16	0x388de477	6.765959e-05
17	0xbaddae4a	-0.0016912904
18	0x3b1bc550	0.002376873
19	0xbc54a4a2	-0.012978705
20	0xbc4536b6	-0.01203697
21	0x3c38757b	0.011258478
22	0x3a519937	0.0007995548
23	0xbb8d0efa	-0.004304764
24	0x3baecd1c	0.0053345095
25	0x3abe5284	0.0014520441
26	0xbc54926d	-0.012974364
27	0x3b042bea	0.0020167776
28	0x3b94e7ab	0.0045442185
29	0xbba50db3	-0.0050370335
30	0x3c1e354c	0.009656262
31	0x3b7598cf	0.0037475114
32	0xbbbcbd39	-0.005759862
33	0x3c751b67	0.0149601465
34	0xbbeeaee5	-0.0072840326
35	0xbc8c63cb	-0.017137429
36	0xb9d6111b	-0.00040830005
37	0x3a660f43	0.0008776078
38	0xbcda1bbb	-0.026624551
39	0x3be5718a	0.0070020603
40	0xbca0be41	-0.01962197
41	0x3b0f2b98	0.0021846052
42	0xbb5ceb8b	-0.003370973
43	0x3c17aa8f	0.009256973
44	0x3c3a46d2	0.011369424
45	0xbc1c6f17	-0.00954797
46	0x3c98fefa	0.01867627
47	0xbb23524f	-0.0024920886
48	0x3c8de481	0.017320873
49	0x3c6f5218	0.014606975
50	0xbc45cc53	-0.0120726405
51	0x3c6ed555	0.0145772295
52	0x3c837c5b	0.016050508
53	0xbc167bfa	-0.009184832
54	0x3c11bb51	0.008894757
55	0xbc5a6243	-0.0133290915
56	0x3bd10a23	0.006379382
57	0x3c09c66f	0.008409127
58	0x3c694935	0.014238645
59	0x3bad4fb5	0.005289043
60	0x3c4a5ab8	0.012350731
61	0x3bbe01fb	0.005798576
62	0x3c89428a	0.016755361
63	0x3c52ae1a	0.012858892
64	0xbaa82b1c	-0.001283023
65	0x3bbfe56b	0.005856206
66	0xbc146c77	-0.009059063
67	0xba31d6b5	-0.0006784008
68	0x3c95a8df	0.018269
69	0x3b168e61	0.0022973048
70	0x3b7ff0da	0.003905347
71	0xbc22ef73	-0.009944784
72	0x3ae12cb0	0.0017179456
73	0xbb0b559f	-0.002126075
74	0x3c15d99d	0.009146121
75	0x3c6f9480	0.0146228075
76	0xbc29129b	-0.010319377
77	0xbc277905	-0.010221724
78	0xbbf69ddf	-0.007526144
79	0x3c0f79d8	0.008757077
80	0xbbd879ed	-0.0066063316
81	0x3c87dd96	0.016585153
82	0x3aec50d3	0.0018029459
83	0xbc12e55e	-0.008965818
84	0xbc5d0af5	-0.013491382
85	0xbc421c47	-0.011847562
86	0x3c617678	0.013761155
87	0xba50d57f	-0.0007966384
88	0xba104507	-0.000550345
89	0xbb82549d	-0.003977372
90	0xbce2265f	-0.027606187
91	0x3a3a5258	0.0007107607
92	0x3c081679	0.008306139
93	0xb97650df	-0.00023490515
94	0x3ccf5962	0.025311176
95	0x3cc94565	0.024569223
96	0x3ce4c8e2	0.02792782
97	0xbc8ee239	-0.017441856
98	0xbc6ffb83	-0.014647367
99	0x3a2ee563	0.00066717545
100	0xbb0c332b	-0.0021392803
101	0x3b69e913	0.0035691902
102	0x3c939832	0.018016908
103	0x3c3f84ff	0.011689424
104	0xbb93057f	-0.004486739
105	0x3c28044a	0.010254929
106	0xbc5275b8	-0.012845449
107	0xbc8f1816	-0.01746754
108	0x3c37c121	0.011215479
109	0x3ca186eb	0.019717654
110	0x3b99d478	0.0046945177
111	0x3c92cb03	0.01791907
112	0x3b8d1e7e	0.0043066135
113	0x3c022308	0.007942922
114	0x3d302558	0.043004364
115	0xbc1b08a0	-0.009462506
116	0x3bfad1fa	0.0076544257
117	0x3b9fbe29	0.004874964
118	0xbcd75ed0	-0.026290327
119	0x3c00c3dd	0.007859197
120	0xba80162f	-0.0009772236
121	0xbb45c111	-0.003017489
122	0x3a4d7402	0.0007837416
123	0xbc71a29b	-0.014748241
124	0xbb2cd18f	-0.0026370024
125	0xbcf682ef	-0.03009173
126	0xbbcec932	-0.0063106054
127	0xbc3503c2	-0.011048259

action_model._discrete_distribution.branches.1.weight f4 [2, 64]
0	0x3ccbc57b	0.02487444
1	0x3c26acb9	0.010173016
2	0x3a0c3192	0.0005347963
3	0xbb0fbe48	-0.0021933485
4	0x3ca945e1	0.020663204
5	0x3c641677	0.013921372
6	0xbc1fa9df	-0.00974509
7	0x3cd0412a	0.025421698
8	0xbb811d8b	-0.0039402894
9	0xbc327268	-0.010891534
10	0x3c44ffc7	0.012023873
11	0xbc859fbf	-0.016311524
12	0x3bf3d738	0.0074414276
13	0xbc242c9b	-0.0100204
14	0xbbb7c6d4	-0.005608419
15	0xbb22bbbc	-0.0024831137
16	0x3c87ad1b	0.016562035
17	0xba715da8	-0.0009207376
18	0x3b4a7afc	0.0030896058
19	0xbb916f93	-0.0044383495
20	0xb9839cfb	-0.00025103227
21	0xbc66178b	-0.014043699
22	0xbbdf8eed	-0.006822458
23	0xb8639a27	-5.4264583e-05
24	0x3c2f5433	0.010701227
25	0xbc0c8b8f	-0.008578195
26	0x3cb1b3c3	0.021692162
27	0xbcaac0c1	-0.020843865
28	0xbc8ccbf9	-0.017187105
29	0x3bb0955c	0.005388899
30	0xbbb58128	-0.0055390783
31	0xbb58e25f	-0.0033093912
32	0x3b1cd93c	0.0023933193
33	0x3c90e352	0.01768652
34	0x3c4e242a	0.012581864
35	0x3b8277cb	0.0039815656
36	0xbb319f5e	-0.0027103047
37	0xb98d29d4	-0.0002692478
38	0xbb251790	-0.0025191046
39	0xbbd7e708	-0.0065888204
40	0x3c6d1720	0.014470845
41	0x3a9edec7	0.0012120836
42	0xbb85d374	-0.004084045
43	0xbc218cc0	-0.009860218
44	0xbc8e2f4e	-0.017356541
45	0x3c03d8bd	0.00804728
46	0xbc5971f3	-0.0132717965
47	0xbc387ff7	-0.011260978
48	0x3cb3422c	0.02188214
49	0x3b9c4d3c	0.0047699492
50	0xbb45129b	-0.0030070904
51	0xbab6c52d	-0.0013944261
52	0x3b85387b	0.004065571
53	0x3cb73c64	0.022367664
54	0xbc2c6054	-0.010521013
55	0xbb647b8f	-0.0034863686
56	0x3c186f31	0.009303854
57	0xb9c2aa4f	-0.00037129453
58	0xbac387a6	-0.0014917746
59	0xbc14c4ab	-0.009080092
60	0x3c62de3f	0.013846933
61	0x3c4180eb	0.011810522
62	0x3a016963	0.00049366633
63	0xbc135e1b	-0.008994604
64	0xbae217c5	-0.0017249516
65	0xbc4f2b17	-0.012644551
66	0xbb176f20	-0.0023107007
67	0xba5bdf58	-0.0008387468
68	0x3b040765	0.002014601
69	0x3c057b42	0.008147063
70	0x3bccd34a	0.0062507736
71	0x3c6bf4bf	0.014401614
72	0x3c2f87e3	0.01071355
73	0xbb9e1dc9	-0.004825328
74	0x3cf369ab	0.029713472
75	0xbb975f6a	-0.0046195285
76	0xbc256b84	-0.0100964345
77	0x3c43c6a3	0.011949214
78	0x3c5b6bd8	0.013392411
79	0x3c0c6cbf	0.008570849
80	0x3c099dd1	0.008399443
81	0xbbd644f0	-0.0065389797
82	0x3b174b2d	0.002308558
83	0x3c5fe377	0.013665072
84	0x3c526952	0.012842493
85	0x3bf542d0	0.0074847713
86	0xbc3812ef	-0.011234983
87	0xbb3f8c88	-0.002922805
88	0x3c283827	0.010267294
89	0x3c88e34f	0.016709952
90	0xbc3bcc47	-0.011462278
91	0x3aa5c5c6	0.0012647442
92	0x3c05c182	0.008163812
93	0x3c9aefb6	0.018913131
94	0x3b5eb907	0.0033984797
95	0x3c51f97a	0.0128158275
96	0x3b5dbc15	0.003383403
97	0xbc6ddeba	-0.014518434
98	0x3c869b31	0.016431423
99	0xbbaf1434	-0.0053429846
100	0x3af7cba2	0.0018905292
101	0x3be08e17	0.006852876
102	0x3c63f215	0.013912697
103	0x3bfb151f	0.00766243
104	0xbc112fd0	-0.008861497
105	0x3c3120a4	0.010811005
106	0x3bc4410b	0.005989199
107	0x3c23d5fc	0.009999748
108	0xbc4a7241	-0.012356342
109	0xba8731e0	-0.0010314547
110	0xbc0d6e20	-0.008632213
111	0xbb7ac933	-0.0038266897
112	0xbc5a2f22	-0.013316901
113	0x3c246da9	0.010035911
114	0x3c221571	0.009892807
115	0x3a70fb08	0.000919268
116	0xbc8f9d05	-0.017530927
117	0xbc8d93b9	-0.017282354
118	0xbc425b93	-0.011862653
119	0x3c8ad7fd	0.016948694
120	0x3c29dbf7	0.010367385
121	0xbc60183f	-0.013677656
122	0xbbf229b3	-0.007390225
123	0xbc1e3c5f	-0.009657948
124	0xbcad5855	-0.021160284
125	0xbc92887a	-0.017887343
126	0xb9ed21fd	-0.00045229486
127	0x3bcd434f	0.0062641273

onnx::LSTM_133 f4 [1, 256, 128]
0	0xbd07a81a	-0.0331193
1	0x3e1f784d	0.15573235
2	0xbe1de58b	-0.15419595
3	0xbdcb7223	-0.09933879
4	0x3d6a9727	0.057273056
5	0x3d84e16d	0.06488309
6	0xbd8abf7e	-0.067748055
7	0xbe05f018	-0.1307987
8	0xbb84c820	-0.004052177
9	0xbe28a5e5	-0.16469534
10	0x3b56d44a	0.0032780343
11	0xbe1f99cf	-0.15586017
12	0x3a7a91e6	0.0009558484
13	0x3d909bc5	0.07060961
14	0xbc24a9a4	-0.010050211
15	0xbc123a30	-0.008925006
16	0xbe29cd1e	-0.16582152
17	0xbdc6cbf5	-0.097068705
18	0x3d4711a6	0.048600815
19	0x3e02b486	0.12764177
20	0x3e0ed978	0.13950145
21	0x3c4ce9f4	0.012506951
22	0xbd9750bc	-0.07388446
23	0xbc719f89	-0.014747509
24	0x3d267750	0.04064113
25	0x3dcda425	0.10041074
26	0xbd856e5b	-0.06515189
27	0x3e2666f6	0.16250214
28	0xbd4ea092	-0.0504461
29	0x3d4ee57b	0.05051182
30	0xbe10ba0e	-0.14133474
31	0xbe187527	-0.1488844
32	0xbcdbcec9	-0.026832001
33	0xbd80ae3b	-0.06283232
34	0xbe31171a	-0.17293969
35	0xbe1e8b33	-0.15482788
36	0x3d47633b	0.048678618
37	0x3d2cbeb3	0.042174052
38	0x3e0c178e	0.1368086
39	0xbd2fc66e	-0.042913847
40	0xbd093b27	-0.033503678
41	0xbe31b149	-0.17352785
42	0xbe25d63e	-0.16195008
43	0xbd764fba	-0.060134627
44	0x3dc218c8	0.09477383
45	0x3de6dbbe	0.11272381
46	0xbc5b175b	-0.013372268
47	0xbe01f1f8	-0.1268996
48	0xbdb99300	-0.09061241
49	0x3acc3c2e	0.00155819
50	0x3e264cca	0.1624023
51	0x3cc40c2f	0.02393159
52	0xbde1dd82	-0.110285774
53	0xbd317399	-0.043323133
54	0xbdca1e6d	-0.098690845
55	0x3dbf2e08	0.09334952
56	0x3cd19af9	0.025586592
57	0x3bf94644	0.0076072533
58	0x3e14c85b	0.14529555
59	0xbe27bd27	-0.1638075
60	0xbd90b163	-0.07065084
61	0x3de51d23	0.11187198
62	0xbda9bda1	-0.08288122
63	0x3dafc375	0.08582202
64	0x3d2de026	0.042450093
65	0x3dc2b808	0.095077574
66	0xbe2eb715	-0.17062028
67	0xbd975455	-0.07389132
68	0xbc616ebd	-0.013759312
69	0x3d9f1c41	0.07769061
70	0xbc1b1ce8	-0.009467341
71	0xbe335cfb	-0.17515938
72	0xbe2cbe63	-0.16869502
73	0xbd23dd87	-0.040006187
74	0x3e2a29e6	0.16617545
75	0x3d957285	0.072972335
76	0x3e12b4e5	0.14326818
77	0xbe01a833	-0.12661819
78	0xbd184ece	-0.03718453
79	0xbe2a1e5c	-0.16613144
80	0x3cee41f8	0.02908419
81	0x3dbf5f2f	0.09344327
82	0xbe1957aa	-0.14974847
83	0xbdf1fd43	-0.11815884
84	0xbc9a4499	-0.018831538
85	0x3adf6836	0.0017044607
86	0xbe0aa14d	-0.13538094
87	0x3de02211	0.10943998
88	0x3dfaae6d	0.122403
89	0xbe1cf12b	-0.15326373
90	0x3d92b4f3	0.071634196
91	0x3d725fe9	0.0591735
92	0xbd1b41c9	-0.037904534
93	0xbcd259ce	-0.025677588
94	0x3c9c35ac	0.019068561
95	0xbac5eb07	-0.0015099951
96	0xbdda46e6	-0.10658054
97	0x3d979556	0.074015304
98	0x3cf199b3	0.029492235
99	0xbe0a2d3a	-0.13493815
100	0xbe023b7c	-0.12718004
101	0x3e23d3a1	0.15998699
102	0x3d76f04c	0.06028776
103	0x3de174a4	0.110085756
104	0x3d066dea	0.032819666
105	0xbe0a328c	-0.13495845
106	0xbbbda730	-0.0057877526
107	0xbe1280dd	-0.1430697
108	0x3da86ceb	0.082238995
109	0x3e1aaa00	0.15103912
110	0x3d2a05f5	0.041509587
111	0x3da1b09e	0.07895015
112	0x3cc40276	0.023926955
113	0xbdd1949e	-0.102334246
114	0xbe2c0b2b	-0.16801135
115	0x3e0bc671	0.13649918
116	0xbe312e29	-0.17302765
117	0xbe0580c9	-0.13037409
118	0x3dda1fc5	0.10650591
119	0x3e20206f	0.15637372
120	0xbbf3c2b4	-0.007438982
121	0x3e08af39	0.13348092
122	0xbe194466	-0.14967498
123	0xbdb6e0cd	-0.08929596
124	0xbde6a31b	-0.11261579
125	0xbc650bf2	-0.013979899
126	0x3dad2ec4	0.084561855
127	0xbdb0c3bf	-0.086310856
128	0xbdae1410	-0.0849992
129	0xbdeb1a78	-0.11479658
130	0xbc406b5b	-0.011744346
131	0x3e221519	0.1582836
132	0xbd0e44d1	-0.034733597
133	0xbd716d9b	-0.05894242
134	0xbd7dd1e6	-0.061967753
135	0x3e31aa53	0.1735013
136	0x3e0ea030	0.13928294
137	0x3e1d717f	0.15375327
138	0x3d0c3f20	0.03423989
139	0xbda29f6a	-0.07940562
140	0xbe0ef75b	-0.13961546
141	0xbdf24994	-0.1183044
142	0x3e0566d2	0.13027504
143	0xbdccb51b	-0.099954806
144	0xbe1b2ff9	-0.15155019
145	0xbde5dec7	-0.11224132
146	0x3e1382ca	0.14405361
147	0xbe066bff	-0.13127135
148	0x3d0baea8	0.034102112
149	0xbc8afdd0	-0.01696673
150	0x3de6796b	0.112536274
151	0xbcc4701c	-0.02397924
152	0xbd8a2873	-0.06745996
153	0xbcf3651f	-0.029711304
154	0xbd4ee25d	-0.050508846
155	0x3e32e9b5	0.17471965
156	0xbd9d903b	-0.076935254
157	0x3e29b598	0.16573179
158	0x3e0f42ce	0.13990328
159	0xbdad110c	-0.08450517
160	0xbe0a1a1c	-0.13486522
161	0xbe08a8e9	-0.13345684
162	0x3dbbf0ce	0.09176789
163	0xbe31aaf8	-0.17350376
164	0x3de8483e	0.11341904
165	0x3e06b2e0	0.13154173
166	0xbcb3e818	-0.021961257
167	0xbc8539f8	-0.016262993
168	0x3d671d0a	0.05642418
169	0xbd751097	-0.059830274
170	0xbdb278d5	-0.08714453
171	0x3e2f1cee	0.1710088
172	0x3e19ff4d	0.15038796
173	0xbba29766	-0.0049618958
174	0xbdda552b	-0.10660776
175	0xbdb77832	-0.08958472
176	0x3c357534	0.011075307
177	0x3d1c84ef	0.038212713
178	0xbdd5bec9	-0.1043678
179	0xbe2bcdcb	-0.16777723
180	0x3d3943e2	0.045230754
181	0xbe15c7fd	-0.1462707
182	0xbe28386a	-0.1642777
183	0xbc289afe	-0.010290859
184	0xbd246315	-0.040133554
185	0xbdd4437d	-0.10364435
186	0x3e0a2467	0.13490449
187	0x3e292743	0.16518883
188	0x3d3053dd	0.04304873
189	0xbd896361	-0.06708408
190	0x3e1ca77c	0.15298265
191	0xbd56e4ad	-0.052464176
192	0xbcc49ba9	-0.024000006
193	0xbde8c031	-0.113647826
194	0x3cee9f16	0.029128592
195	0x3d982475	0.074288286
196	0x3dbd482c	0.09242281
197	0xbe2d77bf	-0.16940211
198	0xbe04bbea	-0.12962309
199	0x3e2e87d1	0.17043997
200	0x3d72466f	0.059149202
201	0x3d7f7646	0.062368654
202	0x3d39f36c	0.04539816
203	0x3d0cc459	0.03436694
204	0xbe12321e	-0.1427693
205	0x3d956094	0.072938114
206	0x3b91ab66	0.004445481
207	0xbe1f4c83	-0.1555653
208	0x3d7159e8	0.058923632
209	0x3cd169a7	0.025563074
210	0x3dcb6cca	0.09932859
211	0xbdc6ba0a	-0.09703453
212	0xbe14a5ee	-0.14516422
213	0xbc5cb3c7	-0.013470597
214	0xba41383d	-0.0007370746
215	0x3d3aee6c	0.045637533
216	0x3e0c8199	0.13721313
217	0xbdeaf9e6	-0.114734456
218	0x3c2773ff	0.010220527
219	0x3dab134a	0.083532885
220	0xbd4c2f8b	-0.049850028
221	0x3e2f9259	0.17145671
222	0x3cd76879	0.026294934
223	0x3e1555cd	0.14583512
224	0x3e144c82	0.1448231
225	0xbcd0c30b	-0.025483629
226	0x3dd8a654	0.105785996
227	0xbdf9d23a	-0.12198301
228	0xbda8cd94	-0.08242336
229	0xbe004442	-0.12526038
230	0x3e24cf7e	0.16094777
231	0x3e155a06	0.14585122
232	0xbdf12d0b	-0.117761694
233	0x3e17f490	0.14839387
234	0xbda7ca9f	-0.08192944
235	0x3db17665	0.0866516
236	0xbbc0caa3	-0.005883531
237	0x3c36444c	0.011124682
238	0xbe1168f3	-0.14200191
239	0x3d3a78f4	0.045525506
240	0x3e2384d1	0.15968634
241	0x3dd16ee4	0.10226229
242	0x3b69dcf6	0.0035684681
243	0xbd6daf6f	-0.058028635
244	0x3c2cc779	0.010545605
245	0x3e1cddad	0.15318938
246	0x3e006ba2	0.12541059
247	0xbb2d8dfe	-0.002648234
248	0x3d9b1085	0.0757151
249	0x3d2d833b	0.04236148
250	0x3ca7490a	0.02042057
251	0x3db17aef	0.08666026
252	0xbe2ad7cd	-0.16683884
253	0xbd901b98	-0.07036513
254	0xbd67800e	-0.056518607
255	0x3def732f	0.116918914

onnx::LSTM_134 f4 [1, 256, 64]
0	0x3a68fea2	0.0008888041
1	0xbe42d921	-0.1902814
2	0xbd2894ff	-0.04115772
3	0x3d933214	0.07187286
4	0xbe1bd5c1	-0.1521826
5	0xbdb70dc5	-0.08938173
6	0x3e306fde	0.17230174
7	0xbe4a41e6	-0.19751701
8	0x3d1cdc5a	0.03829608
9	0xbd676994	-0.05649717
10	0xbe427aa3	-0.18992095
11	0x3e593913	0.21213178
12	0xbe306c92	-0.17228916
13	0xbe572de8	-0.21013606
14	0x3e1c7478	0.15278804
15	0x3e1db1d6	0.1539987
16	0xbe107007	-0.14105235
17	0xbbfc379b	-0.0076970584
18	0x3c46d513	0.012135762
19	0x3df33230	0.11874807
20	0xbc2858f1	-0.0102751115
21	0x3dc6db6f	0.097098224
22	0x3cda11f2	0.026619885
23	0x3e27ab7b	0.16374008
24	0xbe47dac5	-0.19517048
25	0x3c1dfcaf	0.009642764
26	0x3d6b0ce8	0.057385355
27	0x3ce0e211	0.027451547
28	0x3d90e5ae	0.07075058
29	0xbba1faeb	-0.004943242
30	0xbdaca2f6	-0.0842952
31	0x3d0f44b0	0.034977615
32	0xbcd802e3	-0.026368564
33	0xbd81489d	-0.06312678
34	0x3cd11ced	0.025526488
35	0xbe3014c8	-0.17195427
36	0x3e3762b0	0.1790874
37	0x3e514d66	0.20439681
38	0x3dbe2039	0.0928349
39	0x3defd956	0.117113754
40	0x3e05f3b0	0.1308124
41	0x3e2bb275	0.16767295
42	0x3e5167f9	0.20449819
43	0x3e184c4b	0.14872853
44	0xbdbe082a	-0.09278901
45	0x3ce3acea	0.027792413
46	0xbe104bac	-0.14091367
47	0x3dff0fda	0.12454195
48	0x3e5adcb1	0.2137325
49	0x3d3df941	0.046380285
50	0xbd862d75	-0.06551639
51	0x3e4155fd	0.18880458
52	0xbb8d9fb8	-0.0043220185
53	0xbe09297f	-0.13394736
54	0x3e362cbd	0.17790504
55	0xbdabd8ab	-0.083909355
56	0x3e1dabd7	0.15397583
57	0xbd3c0da2	-0.04591144
58	0xbe221bb4	-0.1583088
59	0xbdb67ffc	-0.0891113
60	0xbe085d1f	-0.13316773
61	0xbe097882	-0.13424876
62	0x3e37f39d	0.17964025
63	0xbe10bdad	-0.14134856
64	0x3d79032e	0.060794048
65	0xbddd7767	-0.1081379
66	0xbe31225c	-0.17298263
67	0x3de246d0	0.11048663
68	0x3dd2afca	0.10287435
69	0xbe33f67e	-0.17574498
70	0x3cd6d43d	0.02622425
71	0x3e18f023	0.14935355
72	0xbe21651c	-0.15761226
73	0xbe41a1ac	-0.18909329
74	0xbd39950f	-0.04530817
75	0xbce9450d	-0.028475309
76	0xbe3911b8	-0.18073165
77	0xbd8d7f72	-0.06909074
78	0x3c4039d6	0.011732539
79	0xbe3e010a	-0.18555084
80	0x3cbbd315	0.0229278
81	0xbd266716	-0.040625654
82	0xbdacdf58	-0.08441037
83	0xbdcee5cb	-0.10102423
84	0x3e0e0b39	0.13871469
85	0xbb5be832	-0.0033555147
86	0xbce5b54a	-0.028040547
87	0xbc9afa84	-0.018918283
88	0x3d0c5886	0.03426411
89	0xbe4163a0	-0.1888566
90	0x3e57799e	0.21042487
91	0x3e56acec	0.20964402
92	0x3bd25d5b	0.0064198202
93	0x3d208d29	0.03919712
94	0xbd067cef	-0.03283399
95	0x3e07763e	0.132287
96	0x3d82ff2f	0.06396329
97	0xbd4e2713	-0.050330233
98	0xbe4d54b4	-0.20051843
99	0xbd03adb7	-0.03214809
100	0xbe10af12	-0.14129284
101	0x3e09e7d4	0.13467342
102	0x3da296e6	0.07938938
103	0x3db8f1e1	0.0903051
104	0xbe1bebf1	-0.15226723
105	0xbc9832c8	-0.018578902
106	0xbcb9bd73	-0.022673344
107	0x3dea0caf	0.114282005
108	0x3d92f803	0.07176211
109	0xbdeaacf4	-0.114587694
110	0xbe401780	-0.18758965
111	0x3e54b0f4	0.20770627
112	0x3dc14758	0.09437436
113	0xbda40b29	-0.08009941
114	0xbde90387	-0.11377626
115	0x3d87716c	0.066134304
116	0x3ca681c5	0.02032555
117	0xbe0381ae	-0.12842438
118	0xbc3e5ee0	-0.0116193
119	0xbd515de8	-0.051114947
120	0x3e5bc5ff	0.21462248
121	0xbcc05424	-0.023477621
122	0xbe0a3dc5	-0.13500126
123	0x3db50ce1	0.08840347
124	0x3e0277c5	0.12741001
125	0xbd92ff9c	-0.0717766
126	0x3d91ef75	0.07125751
127	0xb9007140	-0.0001224922
128	0xbd0eed1d	-0.034894098
129	0x3e0cdb7a	0.13755599
130	0x3b9c780e	0.004775054
131	0xbe2fa7ec	-0.17153901
132	0xbe3d46b0	-0.18483996
133	0x3df96349	0.1217714
134	0x3e32e34f	0.17469524
135	0xbde0ffaa	-0.10986264
136	0x3d998bda	0.07497378
137	0x3e536112	0.20642498
138	0x3e3cd4fd	0.18440624
139	0xbb95d590	-0.004572578
140	0x3dfc51c7	0.12320285
141	0xbe29c64b	-0.16579549
142	0x3df3f3be	0.119117245
143	0x3de766b2	0.112988845
144	0x3dd43dd3	0.103633545
145	0x3d15e3aa	0.03659407
146	0xbcea9186	-0.028633844
147	0xbd399b7f	-0.04531431
148	0x3d08af22	0.033370145
149	0xbe331fcc	-0.17492598
150	0xbdbadd17	-0.09124201
151	0x3e1c5159	0.15265407
152	0x3d60410a	0.054749526
153	0xbdb8ef83	-0.09030058
154	0x3bbfaddd	0.0058495835
155	0x3cd4b506	0.025965225
156	0xbdad8cd0	-0.084741235
157	0xbbdf99e6	-0.006823766
158	0xbe2b026a	-0.1670014
159	0x3d538ec4	0.051649824
160	0x3bceac17	0.006307136
161	0x3e1a1f2d	0.15050955
162	0xbd9da706	-0.07697873
163	0x3de59b9f	0.11211323
164	0xbdf1dc0f	-0.11809551
165	0xbe045c36	-0.129258
166	0x3e5a87f8	0.2134093
167	0x3d510e18	0.05103883
168	0x3d9de1cc	0.07709083
169	0x3e0ba07f	0.13635443
170	0x3e578046	0.21045026
171	0x3e246ef8	0.16057956
172	0xbd603f5d	-0.054747928
173	0x3e46510e	0.19366857
174	0xbd8e1164	-0.06936911
175	0x3cbf6302	0.02336264
176	0x3e5930ac	0.21209973
177	0xbdb92bbc	-0.09041545
178	0x3d8bc8f1	0.06825436
179	0xbd8c7ff6	-0.06860344
180	0xbdfcbc4e	-0.12340604
181	0xbd855f92	-0.06512369
182	0xbded64b6	-0.11591475
183	0xbd0eadda	-0.034833767
184	0x3e10a3ac	0.14124936
185	0xbd00120b	-0.031267207
186	0xbd2551cf	-0.040361222
187	0x3e50f88c	0.20407313
188	0xbe087a30	-0.13327861
189	0xbe5791a0	-0.21051645
190	0x3e529ff0	0.20568824
191	0x3d627834	0.055290416
192	0xbe12bd26	-0.14329967
193	0x3e0ad911	0.13559367
194	0x3c4c10b5	0.012455155
195	0xbb929dc2	-0.0044743726
196	0xbe2e9bb8	-0.1705159
197	0xbdf92d34	-0.12166825
198	0x3e19bccb	0.15013425
199	0xbd4762dc	-0.048678264
200	0xbd54d62d	-0.051962066
201	0xbd69771b	-0.056998353
202	0xbd7e1a41	-0.062036756
203	0x3e14218f	0.14465927
204	0xbe4aafd7	-0.1979364
205	0x3d8ba8c7	0.06819301
206	0xbbd7cffb	-0.0065860725
207	0xbd3f5e7d	-0.04672097
208	0xbd0f9ac7	-0.035059717
209	0xbdb69d58	-0.0891673
210	0x3e0e31fd	0.13886257
211	0x3e13d6d0	0.14437413
212	0xbe59c3f6	-0.2126616
213	0xbe1fa041	-0.15588476
214	0x3d9080f7	0.07055848
215	0xbe335ec2	-0.17516616
216	0x3d810462	0.06299664
217	0x3e0dbb4c	0.1384098
218	0xbe3b74f1	-0.18306328
219	0xbd6094f0	-0.054829538
220	0x3dc01947	0.09379821
221	0xbe29487b	-0.16531555
222	0xbe54968c	-0.20760554
223	0xbe3e8989	-0.18607153
224	0xbe55cdfe	-0.20879361
225	0xbd30a651	-0.04312736
226	0x3d4ac8c1	0.04950786
227	0x3e39d48e	0.1814749
228	0x3de272ba	0.110570386
229	0x3b0659c4	0.0020500282
230	0xbd8a3cc6	-0.06749873
231	0xbda3c5da	-0.079967216
232	0xbdcf880c	-0.10133371
233	0xbe59f7e0	-0.21285963
234	0x3e467233	0.19379501
235	0x3e4c6e35	0.19963916
236	0xbe595de6	-0.21227226
237	0xbe49f035	-0.19720538
238	0xbe0f0c78	-0.139696
239	0x3e0ec31b	0.13941614
240	0xbd2b61d2	-0.041841336
241	0x3b4b96b5	0.003106517
242	0xbd8dad2d	-0.06917796
243	0x3e379408	0.17927563
244	0xbdee2195	-0.11627499
245	0xbdc9f5fc	-0.09861371
246	0x3d63e5c0	0.05563903
247	0xbe2ed1e5	-0.17072256
248	0xbd170cfb	-0.036877614
249	0xbdf74d39	-0.12075276
250	0x3e1a162c	0.1504752
251	0x3dba98f9	0.091112085
252	0x3dfacb10	0.12245762
253	0x3dcc495d	0.099749304
254	0xbe279114	-0.16363937
255	0x3c0b5f7d	0.008506653

onnx::LSTM_135 f4 [1, 512]
0	0x00000000	0.0
1	0x00000000	0.0
2	0x00000000	0.0
3	0x00000000	0.0
4	0x00000000	0.0
5	0x00000000	0.0
6	0x00000000	0.0
7	0x00000000	0.0
8	0x00000000	0.0
9	0x00000000	0.0
10	0x00000000	0.0
11	0x00000000	0.0
12	0x00000000	0.0
13	0x00000000	0.0
14	0x00000000	0.0
15	0x00000000	0.0
16	0x00000000	0.0
17	0x00000000	0.0
18	0x00000000	0.0
19	0x00000000	0.0
20	0x00000000	0.0
21	0x00000000	0.0
22	0x00000000	0.0
23	0x00000000	0.0
24	0x00000000	0.0
25	0x00000000	0.0
26	0x00000000	0.0
27	0x00000000	0.0
28	0x00000000	0.0
29	0x00000000	0.0
30	0x00000000	0.0
31	0x00000000	0.0
32	0x00000000	0.0
33	0x00000000	0.0
34	0x00000000	0.0
35	0x00000000	0.0
36	0x00000000	0.0
37	0x00000000	0.0
38	0x00000000	0.0
39	0x00000000	0.0
40	0x00000000	0.0
41	0x00000000	0.0
42	0x00000000	0.0
43	0x00000000	0.0
44	0x00000000	0.0
45	0x00000000	0.0
46	0x00000000	0.0
47	0x00000000	0.0
48	0x00000000	0.0
49	0x00000000	0.0
50	0x00000000	0.0
51	0x00000000	0.0
52	0x00000000	0.0
53	0x00000000	0.0
54	0x00000000	0.0
55	0x00000000	0.0
56	0x00000000	0.0
57	0x00000000	0.0
58	0x00000000	0.0
59	0x00000000	0.0
60	0x00000000	0.0
61	0x00000000	0.0
62	0x00000000	0.0
63	0x00000000	0.0
64	0x00000000	0.0
65	0x00000000	0.0
66	0x00000000	0.0
67	0x00000000	0.0
68	0x00000000	0.0
69	0x00000000	0.0
70	0x00000000	0.0
71	0x00000000	0.0
72	0x00000000	0.0
73	0x00000000	0.0
74	0x00000000	0.0
75	0x00000000	0.0
76	0x00000000	0.0
77	0x00000000	0.0
78	0x00000000	0.0
79	0x00000000	0.0
80	0x00000000	0.0
81	0x00000000	0.0
82	0x00000000	0.0
83	0x00000000	0.0
84	0x00000000	0.0
85	0x00000000	0.0
86	0x00000000	0.0
87	0x00000000	0.0
88	0x00000000	0.0
89	0x00000000	0.0
90	0x00000000	0.0
91	0x00000000	0.0
92	0x00000000	0.0
93	0x00000000	0.0
94	0x00000000	0.0
95	0x00000000	0.0
96	0x00000000	0.0
97	0x00000000	0.0
98	0x00000000	0.0
99	0x00000000	0.0
100	0x00000000	0.0
101	0x00000000	0.0
102	0x00000000	0.0
103	0x00000000	0.0
104	0x00000000	0.0
105	0x00000000	0.0
106	0x00000000	0.0
107	0x00000000	0.0
108	0x00000000	0.0
109	0x00000000	0.0
110	0x00000000	0.0
111	0x00000000	0.0
112	0x00000000	0.0
113	0x00000000	0.0
114	0x00000000	0.0
115	0x00000000	0.0
116	0x00000000	0.0
117	0x00000000	0.0
118	0x00000000	0.0
119	0x00000000	0.0
120	0x00000000	0.0
121	0x00000000	0.0
122	0x00000000	0.0
123	0x00000000	0.0
124	0x00000000	0.0
125	0x00000000	0.0
126	0x00000000	0.0
127	0x00000000	0.0
128	0x3f800000	1.0
129	0x3f800000	1.0
130	0x3f800000	1.0
131	0x3f800000	1.0
132	0x3f800000	1.0
133	0x3f800000	1.0
134	0x3f800000	1.0
135	0x3f800000	1.0
136	0x3f800000	1.0
137	0x3f800000	1.0
138	0x3f800000	1.0
139	0x3f800000	1.0
140	0x3f800000	1.0
141	0x3f800000	1.0
142	0x3f800000	1.0
143	0x3f800000	1.0
144	0x3f800000	1.0
145	0x3f800000	1.0
146	0x3f800000	1.0
147	0x3f800000	1.0
148	0x3f800000	1.0
149	0x3f800000	1.0
150	0x3f800000	1.0
151	0x3f800000	1.0
152	0x3f800000	1.0
153	0x3f800000	1.0
154	0x3f800000	1.0
155	0x3f800000	1.0
156	0x3f800000	1.0
157	0x3f800000	1.0
158	0x3f800000	1.0
159	0x3f800000	1.0
160	0x3f800000	1.0
161	0x3f800000	1.0
162	0x3f800000	1.0
163	0x3f800000	1.0
164	0x3f800000	1.0
165	0x3f800000	1.0
166	0x3f800000	1.0
167	0x3f800000	1.0
168	0x3f800000	1.0
169	0x3f800000	1.0
170	0x3f800000	1.0
171	0x3f800000	1.0
172	0x3f800000	1.0
173	0x3f800000	1.0
174	0x3f800000	1.0
175	0x3f800000	1.0
176	0x3f800000	1.0
177	0x3f800000	1.0
178	0x3f800000	1.0
179	0x3f800000	1.0
180	0x3f800000	1.0
181	0x3f800000	1.0
182	0x3f800000	1.0
183	0x3f800000	1.0
184	0x3f800000	1.0
185	0x3f800000	1.0
186	0x3f800000	1.0
187	0x3f800000	1.0
188	0x3f800000	1.0
189	0x3f800000	1.0
190	0x3f800000	1.0
191	0x3f800000	1.0
192	0x00000000	0.0
193	0x00000000	0.0
194	0x00000000	0.0
195	0x00000000	0.0
196	0x00000000	0.0
197	0x00000000	0.0
198	0x00000000	0.0
199	0x00000000	0.0
200	0x00000000	0.0
201	0x00000000	0.0
202	0x00000000	0.0
203	0x00000000	0.0
204	0x00000000	0.0
205	0x00000000	0.0
206	0x00000000	0.0
207	0x00000000	0.0
208	0x00000000	0.0
209	0x00000000	0.0
210	0x00000000	0.0
211	0x00000000	0.0
212	0x00000000	0.0
213	0x00000000	0.0
214	0x00000000	0.0
215	0x00000000	0.0
216	0x00000000	0.0
217	0x00000000	0.0
218	0x00000000	0.0
219	0x00000000	0.0
220	0x00000000	0.0
221	0x00000000	0.0
222	0x00000000	0.0
223	0x00000000	0.0
224	0x00000000	0.0
225	0x00000000	0.0
226	0x00000000	0.0
227	0x00000000	0.0
228	0x00000000	0.0
229	0x00000000	0.0
230	0x00000000	0.0
231	0x00000000	0.0
232	0x00000000	0.0
233	0x00000000	0.0
234	0x00000000	0.0
235	0x00000000	0.0
236	0x00000000	0.0
237	0x00000000	0.0
238	0x00000000	0.0
239	0x00000000	0.0
240	0x00000000	0.0
241	0x00000000	0.0
242	0x00000000	0.0
243	0x00000000	0.0
244	0x00000000	0.0
245	0x00000000	0.0
246	0x00000000	0.0
247	0x00000000	0.0
248	0x00000000	0.0
249	0x00000000	0.0
250	0x00000000	0.0
251	0x00000000	0.0
252	0x00000000	0.0
253	0x00000000	0.0
254	0x00000000	0.0
255	0x00000000	0.0
