results/iteration1/Shootair.onnx (onnx, 565735 bytes, 23 tensors)

discrete_act_size_vector f4 [1, 6]
2.0 2.0 2.0 2.0 2.0 2.0
00000000: 0000 0040 0000 0040 0000 0040 0000 0040
00000010: 0000 0040 0000 0040

network_body._body_endoder.seq_layers.0.weight f4 [128, 540]
0.004716744 -0.023712963 -0.045945898 0.010090864 0.011146381 -0.033102863 0.023909591 0.008670503
0.19586283 -0.0013642223 -0.018468866 0.0012373521 -0.114611246 0.020711886 -0.043211266 0.11957251
0.072149746 -0.076019794 -0.019917367 0.009245113 3.738777e-05 -0.013590162 0.066940874 0.038403902
-0.0112161655 0.03448023 0.013754403 -0.0041104355 0.18624072 -0.12740795 -0.025530117 0.019096496
0.07650719 -0.017605664 -0.048698466 -0.008924683 0.08252584 -0.040255427 -0.046468843 -0.07911547
0.15055515 0.03878944 0.10506484 -0.08774684 0.12833208 -0.033776302 0.032328334 0.0399637
0.15523687 0.029075112 -0.015896056 -0.010853781 -0.048138916 -0.011775494 -0.024923777 0.06612291
0.2516389 0.07992395 0.027228324 -0.009054194 -0.011242313 0.03218337 0.055446096 0.0021602456
0.21753111 0.017510768 -0.065855525 0.02102845 -0.09098736 0.03645931 0.013687603 -0.07353326
0.16382138 -0.09078242 0.0069263317 -0.04087497 0.02030585 -0.006975309 0.019736359 0.012130338
0.07782596 -0.0331063 0.0060470984 0.007758765 -0.12936528 0.03921041 -0.029169152 0.10440663
0.058304615 -0.025010861 0.067925 -0.04706564 -0.0012616944 -0.03135827 0.065246806 -0.042569198
0.24863636 -0.036784504 -0.046823148 0.00067982083 0.030200392 0.011992227 0.10685421 0.021016315
0.19191003 0.0025322845 0.059329353 0.03111805 -0.085274346 0.010064629 0.011602859 0.001885488
0.12988572 0.0063774423 0.008456774 -0.08006131 -0.047203124 0.010809224 -0.09021466 -0.02483984
0.07912812 0.02794098 -0.041290365 -0.051522844 0.018695312 -0.0679607 0.0534755 0.009479949
0.044851623 -0.031969484 -0.048206937 0.097340144 -0.0019170283 0.040183917 0.019173212 0.03054379
-0.07504431 0.102625884 -0.045078993 0.09202808 -0.0894682 -0.11951939 0.025159165 0.038575415
-0.14137204 -0.005133218 -0.023839127 0.003372262 -0.091667034 0.025384823 -0.064105 0.041147906
0.00023498574 0.036082953 -0.008304878 0.06850443 -0.041362926 -0.01673331 -0.08732126 0.031825967
-0.036477182 0.033712775 -0.062451594 -0.004505113 -0.11427913 -0.00788191 -0.026287558 -0.014520145
0.0040925527 -0.0077634193 -0.043612357 -0.0044839876 0.08597438 0.07571202 -0.041234937 0.07383776
-0.032016896 0.0789357 -0.007931928 0.007247812 0.014379551 -0.05451328 -0.025412519 0.087423526
0.069958836 0.051901434 -0.021141151 0.030133942 -0.029486993 0.0583963 -0.0033344945 0.06853214
0.057291135 0.022220638 -0.003071196 0.021291763 -0.06318257 0.0020788307 0.07186193 0.00680875
0.17324609 -0.0814454 -0.047838442 0.08651176 0.08886701 -0.016370988 -0.083338335 -0.05394043
0.07443151 -0.040982362 0.006002751 0.0428041 0.080236696 0.0022162152 0.047620654 -0.0581559
0.045314956 0.008384414 0.050837632 0.03609478 0.16562925 -0.05186422 0.04062107 -0.01835404
-0.06558826 -0.00075715064 0.051094867 0.054735236 0.19950728 -0.0062830383 0.09531444 0.03529293
-0.15689687 0.030944198 -0.059975177 0.061573878 0.13997754 -0.082466975 -0.010832919 -0.06359599
0.08754561 -0.019426001 0.093484476 0.02042537 0.14893207 0.00564922 -0.044967566 -0.022776347
-0.053378258 -0.0815253 0.0049388325 0.053666443 0.23846735 -0.08637723 -0.04672631 -0.026775464
00000000: eb8e 9a3b b041 c2bc c431 3cbd 2754 253c
00000010: 4f9f 363c de96 07bd 0cde c33c ba0e 0e3c
00000020: 4490 483e b4cf b2ba 054c 97bc a62e a23a
00000030: 4db9 eabd f9ab a93c 4cfe 30bd 6fe2 f43d
00000040: 3fc3 933d 44b0 9bbd bf29 a3bc d078 173c
00000050: d0d0 1c38 45a9 5ebc 4c18 893d 694d 1d3d
00000060: 02c4 37bc 243b 0d3d 265a 613c d5b0 86bb
00000070: e3b5 3e3e 3b77 02be 8924 d1bc 4170 9c3c
00000080: cdaf 9c3d c139 90bc 0b78 47bd d538 12bc
00000090: 4f03 a93d e0e2 24bd 1d56 3ebd 4b07 a2bd
000000a0: 212b 1a3e ade1 1e3d 3c2c d73d 9eb4 b3bd
000000b0: 7c69 033e 0559 0abd b76a 043d fab0 233d
000000c0: 6af6 1e3e ee2e ee3c 7238 82bc 0fd4 31bc
000000d0: 502d 45bd 00ee 40bc f32c ccbc 736b 873d
000000e0: d0d6 803e 2baf a33d ef0d df3c 0b58 14bc
000000f0: ae31 38bc b6d2 033d 721b 633d e892 0d3b
00000100: 7ac0 5e3e be72 8f3c 43df 86bd db43 ac3c
00000110: 9557 babd 5c56 153d f841 603c 9b98 96bd
00000120: cbc0 273e 22ec b9bd 48f6 e23b 836c 27bd
00000130: 7458 a63c 2291 e4bb 25ae a13c 53be 463c
00000140: 3863 9f3d 799a 07bd bd26 c63b 3d3d fe3b
00000150: 5578 04be 189b 203d 25f4 eebc 25d3 d53d
00000160: d2d0 6e3d 94e3 ccbc 431c 8b3d e7c7 40bd
00000170: 705f a5ba 8871 00bd 1ea0 853d 0a5d 2ebd
00000180: 889a 7e3e 59ab 16bd a1c9 3fbd 0136 323a
00000190: d066 f73c 0c7b 443c 61d6 da3d 682a ac3c
000001a0: 1084 443e aff4 253b 5603 733d 48eb fe3c
000001b0: 51a4 aebd 1de6 243c eb19 3e3c 7b22 f73a
000001c0: c300 053e ddf9 d03b 488e 0a3c 2ff7 a3bd
000001d0: 1058 41bd 2c19 313c 77c2 b8bd ec7c cbbc
000001e0: ec0d a23d 7be4 e43c 1620 29bd 9e09 53bd
000001f0: e926 993c fb2e 8bbd 2009 5b3d ca51 1b3c
00000200: 56b6 373d 6ff2 02bd a374 45bd 455a c73d
00000210: cc44 fbba e497 243d 2411 9d3c f836 fa3c
00000220: d5b0 99bd 852d d23d c0a4 38bd 3879 bc3d
00000230: 1b3b b7bd 95c6 f4bd 981a ce3c 4101 1e3d
00000240: d5c3 10be 8e34 a8bb 464a c3bc 2b01 5d3b
00000250: edbb bbbd d5f3 cf3c 7b49 83bd b58a 283d
00000260: 8166 7639 b8cb 133d 2f11 08bc 0d4c 8c3d
00000270: 2c6c 29bd 4b14 89bc 7dd5 b2bd f25b 023d
00000280: 1969 15bd 6816 0a3d 3ecd 7fbd a09f 93bb
00000290: 2d0b eabd 2023 01bc 0159 d7bc e7e5 6dbc
000002a0: d21a 863b 4864 febb dfa2 32bd 6aee 92bb
000002b0: 5613 b03d e70e 9b3d f7e5 28bd 4038 973d
000002c0: 2624 03bd 0aa9 a13d ebf4 01bc 0e7f ed3b
000002d0: 3598 6b3c 5149 5fbd ea2d d0bc 1b0b b33d
000002e0: 9446 8f3d 9996 543d 3530 adbc 75db f63c
000002f0: b58e f1bc f530 6f3d 8987 5abb 945a 8c3d
00000300: 1caa 6a3d 0e08 b63c 1e46 49bb 106c ae3c
00000310: dd65 81bd fe3c 083b 592c 933d ef1b df3b
00000320: 6c67 313e d9cc a6bd 3ef2 43bd 142d b13d
00000330: e8ff b53d 731c 86bc 4aad aabd a4f0 5cbd
00000340: 8c6f 983d 1fdd 27bd bab2 c43b 5a53 2f3d
00000350: 2353 a43d ec3d 113b e00d 433d e234 6ebd
00000360: 2d9c 393d c85e 093c 1f3b 503d 1fd8 133d
00000370: b79a 293e 946f 54bd 4762 263d 365b 96bc
00000380: 2353 86bd 857b 46ba da48 513d 0e32 603d
00000390: a34b 4c3e f2e1 cdbb 3834 c33d 528f 103d
000003a0: 93a9 20be b07e fd3c 88a8 75bd e434 7c3d
000003b0: 4656 0f3e 72e4 a8bd 8e7c 31bc 9d3e 82bd
000003c0: 1d4b b33d 4723 9fbc ca74 bf3d 1b53 a73c
000003d0: a681 183e 181d b93b e92f 38bd 7695 babc
000003e0: 29a3 5abd bdf6 a6bd eed5 a13b 58d1 5b3d
000003f0: c930 743e 8ce6 b0bd 1664 3fbd 3858 dbbc

network_body._body_endoder.seq_layers.0.bias f4 [128]
0.024739778 -0.0035639727 0.015864134 0.009008633 0.00026809343 -0.0037836547 0.0062180967 -0.003586399
0.00475675 0.030026328 0.0029405223 0.02283879 0.008219819 -0.0064614974 0.0036196145 0.04009359
0.015616435 0.027771901 0.014483944 0.01838748 0.0023280317 0.022169907 0.011944261 0.00071059
0.009450264 -0.025490826 0.0012789821 0.009292836 0.013255045 0.008561566 0.015029157 0.024794893
0.015074963 0.013288659 0.0010468367 0.021290945 0.0023170717 0.005560418 0.005667452 0.01282164
0.009751405 -0.010357145 -0.010562618 0.022700295 -0.0035762943 0.03183656 0.02705405 0.008204085
0.0064483006 0.038908936 -0.0126182735 0.00359528 0.0039764633 0.009654365 -0.01135315 -0.00480847
0.015377279 -0.008338119 0.022705615 0.0024357464 -0.002114741 -0.0033591771 0.027348835 0.02637121
0.015731044 0.0045181094 0.03241898 0.024225129 0.00478143 0.009275887 0.01096087 0.0072514354
-0.0068914597 0.01839762 -0.00073645037 0.016082877 0.020877976 0.024208626 0.019469488 0.016759796
0.00096634665 0.030530343 0.00960309 -0.0075287167 0.038348004 -0.0048103854 -0.032777082 -0.01087668
0.003801321 0.009104227 0.0027643316 -0.009935032 0.013755534 -0.012519649 0.024869014 0.00846062
0.010117114 0.012248956 -0.0071680625 0.010612615 -0.0027830726 -0.01195497 0.051883332 0.011522967
-0.017070092 0.013775256 0.005093227 -0.005172112 0.0072446996 0.007472067 0.012667681 0.015434063
0.021151485 0.00096033857 0.0043413006 0.011393657 0.0007442765 0.011292999 0.016856909 -0.027845928
-0.0013834191 -0.0030144928 0.009506151 -0.012800885 0.028196217 -0.0065587237 -0.0003685631 0.010485641
00000000: 13ab ca3c 8a91 69bb 80f5 813c f298 133c
00000010: e48e 8c39 31f7 77bb 2dc1 cb3b ca09 6bbb
00000020: 83de 9b3b c6f9 f53c c7b5 403b 6a18 bb3c
00000030: 6bac 063c f8ba d3bb 0e37 6d3b 2d39 243d
00000040: 13dc 7f3c e681 e33c 104e 6d3c 57a1 963c
00000050: e491 183b aa9d b53c ddb1 433c e346 3a3a
00000060: 48d5 1a3c 23d2 d0bc 85a3 a73a fb40 183c
00000070: b02b 593c cf45 0c3c da3c 763c a91e cb3c
00000080: fafc 763c adb8 593c 0336 893a 596a ae3c
00000090: 03da 173b 2b34 b63b 08b6 b93b db11 523c
000000a0: 5bc4 1f3c 04b1 29bc d50e 2dbc f8f5 b93c
000000b0: 4360 6abb 0e67 023d 74a0 dd3c 6d6a 063c
000000c0: 444c d33b fa5e 1f3d e0bc 4ebc ca9e 6b3b
000000d0: fe4c 823b 572d 1e3c 9002 3abc 5f90 9dbb
000000e0: fcf0 7b3c 9b9c 08bc 2001 ba3c 0ba1 1f3b
000000f0: 7797 0abb a425 5cbb aa0a e03c 7008 d83c
00000100: 64de 803c a60c 943b c4c9 043d c773 c63c
00000110: 8bad 9c3b e4f9 173c 3995 333c 739d ed3b
00000120: c1d1 e1bb 9bb6 963c 590e 41ba 3dc0 833c
00000130: 4a08 ab3c 2b51 c63c 7a7e 9f3c d74b 893c
00000140: 6d52 7d3a c51a fa3c 4756 1d3c 74b3 f6bb
00000150: cc12 1d3d 70a0 9dbb 4341 06bd 1a34 32bc
00000160: 951f 793b e529 153c ca29 353b 8bc6 22bc
00000170: e45e 613c 371f 4dbc 1aba cb3c 6a9e 0a3c
00000180: 40c2 253c d8af 483c 11e2 eabb 89e0 2d3c
00000190: 3664 36bb c7de 43bc 9e83 543d d4ca 3c3c
000001a0: 94d6 8bbc 9db1 613c 16e5 a63b d27a a9bb
000001b0: f264 ed3b 3ed8 f43b 1b8c 4f3c 27df 7c3c
000001c0: e145 ad3c 3bbf 7b3a 7841 8e3b 76ac 3a3c
000001d0: 8d1b 433a 4506 393c 8017 8a3c 251d e4bc
000001e0: d853 b5ba cc8e 45bb b0bf 1b3c ceba 51bc
000001f0: c1fb e63c 90ea d6bb b43b c1b9 f7cb 2b3c

network_body._body_endoder.seq_layers.2.weight f4 [128, 128]
0.0136485975 -0.043253742 0.0070374752 0.05250776 0.047967657 0.020101348 -0.06720366 0.041285653
-0.036842387 0.05239147 -0.017127626 -0.06582082 -0.016082903 0.011657213 0.061562378 -0.03277965
-0.00070032454 0.10928824 0.0007789346 -0.05858495 0.03447193 -0.06789962 0.14420168 0.13875456
0.13391057 -0.040702395 -0.059001263 -0.11574263 0.21762362 0.07932851 -0.02976948 -0.098951496
0.107705265 0.101007745 -0.045066234 -0.08987043 0.1403504 0.012106223 -0.021817284 0.07386641
0.08328579 0.1755343 0.14100179 0.0329069 -0.08963901 -0.1098216 -0.08639329 0.086884305
0.017241267 0.013063802 -0.17250234 0.16618271 0.09992132 0.04470151 0.124360144 0.07079722
0.15370847 0.030568147 -0.013024002 0.06887058 0.07850413 -0.01906514 -0.04719782 -0.03764727
0.16366246 0.120691836 -0.06807581 0.040087245 -0.1772248 -0.0846167 0.029389476 -0.14080831
-0.22000343 0.2513655 0.067560874 -0.0012888359 -0.10150656 -0.15751822 0.10351132 0.05239578
0.15205537 -0.10952709 -0.07904629 0.11957075 -0.08003897 0.2157315 0.05932135 -0.014982092
-0.16714093 -0.10321216 0.05488852 0.13127118 -0.09430627 0.10720415 -0.2562857 -0.0058362167
0.047606174 0.13007696 0.009898017 0.11152774 0.04193925 -0.016226165 -0.14067021 0.042843625
0.049652334 0.088665776 -0.058529634 0.11995225 0.037638206 0.054892622 -0.029257584 0.030183213
-0.18798521 0.0538314 0.018074535 0.21094641 0.03187883 -0.07054409 -0.063929126 -0.038702946
-0.02005933 -0.0015691821 0.0779679 0.01972623 -0.11616607 0.104581 0.07216519 -0.054879893
-0.055000324 0.17161758 0.023127645 0.026825767 -0.06853955 0.07974585 -0.03823254 0.016562862
0.026049558 -0.042606894 0.014310091 0.15849802 0.18522239 -0.019951621 -0.018023359 -0.051044047
-0.17502248 0.059242256 0.10190847 0.01994962 -0.18453498 0.024415929 -0.042147893 -0.11478464
-0.036954403 -0.024079733 0.039696515 -0.029543478 -0.00394008 0.06599899 0.22817698 0.110271394
0.012613772 -0.043946583 0.047733728 0.19588488 -0.054809675 0.07469182 -0.06288545 0.08920596
0.003834049 0.11346931 -0.036523964 0.12017161 -0.13292487 0.08110165 0.10525605 -0.020305324
0.05772284 0.06212777 -0.07009175 -0.053129792 0.12600762 0.17136997 0.07941534 0.02413172
-0.0029317513 0.022850404 0.1021354 0.051478103 -0.085910976 0.011760987 0.046464875 -0.17580695
0.03649148 -0.068068504 0.13857359 -0.11984741 0.079061665 0.014107543 -0.020676684 -0.123695806
0.045983326 0.07500029 -0.058715798 0.030456584 0.02763484 -0.014607936 0.12584464 0.039945357
-0.104579866 0.029700434 -0.013258707 0.015265335 0.015084721 -0.007970447 0.043191593 -0.09167195
0.01696219 -0.02981168 -0.076208554 0.09132694 -0.009629636 0.0013195941 0.107209936 0.010789888
0.061180137 0.026870064 0.10825481 -0.09189925 -0.040393814 -0.10301471 0.09865464 0.097746804
-0.011841624 -0.003900354 -0.051610183 -0.058898147 -0.030796045 -0.17449704 0.005012974 0.08642593
0.12075883 0.06149442 0.13971649 -0.121900946 -0.10533786 -0.01073099 0.1230345 -0.106679656
0.16959588 0.12232061 0.016078053 0.073594384 0.011813184 0.049156725 0.05555497 0.20279832
00000000: 5e9e 5f3c d62a 31bd 9f9a e63b 6012 573d
00000010: bc79 443d 95ab a43c 13a2 89bd 251b 293d
00000020: 0be8 16bd 7098 563d 3c4f 8cbc 11cd 86bd
00000030: 4bc0 83bc e5fd 3e3c d528 7c3d f443 06bd
00000040: fc95 37ba 83d2 df3d 6b31 4c3a c6f6 6fbd
00000050: 7032 0d3d f50e 8bbd 9ba9 133e ad15 0e3e
00000060: da1f 093e 8eb7 26bd 4fab 71bd 790a edbd
00000070: bad8 5e3e fc76 a23d 20df f3bc 15a7 cabd
00000080: 9494 dc3d 26dd ce3d 5f97 38bd fd0d b8bd
00000090: 04b8 0f3e 2e59 463c 29ba b2bc 4647 973d
000000a0: be91 aa3d 43bf 333e c662 103e 63c9 063d
000000b0: a894 b7bd 26ea e0bd f7ee b0bd 66f0 b13d
000000c0: 8f3d 8d3c 8f09 563c 74a4 30be cd2b 2a3e
000000d0: 8da3 cc3d ee18 373d 88b0 fe3d 22fe 903d
000000e0: c165 1d3e 0d6a fa3c a062 55bc 050c 8d3d
000000f0: c6c6 a03d 7f2e 9cbc 8052 41bd 0634 1abd
00000100: 2297 273e 482d f73d 556b 8bbd 8632 243d
00000110: 6b7a 35be 854b adbd 33c2 f03c 0e30 10be
00000120: 9448 61be fbb2 803e 5b5d 8a3d 28ee a8ba
00000130: ace2 cfbd 754c 21be befd d33d f59c 563d
00000140: 67b4 1b3e bd4f e0bd 05e3 a1bd 82e1 f43d
00000150: 79eb a3bd b8e8 5c3e f2fa 723d 7377 75bc
00000160: fe26 2bbe e660 d3bd c9d2 603d f46b 063e
00000170: a523 c1bd d98d db3d e137 83be bc3d bfbb
00000180: b1fe 423d e532 053e 4b2b 223c a868 e43d
00000190: 7ec8 2b3d bcec 84bc da0b 10be cc7c 2f3d
000001a0: 3f60 4b3d 6796 b53d c5bc 6fbd 86a9 f53d
000001b0: 852a 1a3d 16d7 603d 9aad efbc c942 f73c
000001c0: 327f 40be 507e 5c3d 0c11 943c 5602 583e
000001d0: 6093 023d 6b79 90bd 46ed 82bd fb86 1ebd
000001e0: 7753 a4bc 04ad cdba a2ad 9f3d e798 a13c
000001f0: 7ae8 edbd 902e d63d 58cb 933d bdc9 60bd
00000200: 0548 61bd 85bc 2f3e 3076 bd3c b6c1 db3c
00000210: 775e 8cbd cb51 a33d b999 1cbd d7ae 873c
00000220: e265 d53c 9184 2ebd df74 6a3c 4e4d 223e
00000230: f0aa 3d3e 9571 a3bc b9a5 93bc 9013 51bd
00000240: 1839 33be 02a8 723d 63b5 d03d 636d a33c
00000250: bdf6 3cbe ea03 c83c 45a3 2cbd 3614 ebbd
00000260: 805d 17bd dc42 c5bc d098 223d 2a05 f2bc
00000270: c91b 81bb 7a2a 873d 3aa7 693e f8d5 e13d
00000280: ffa9 4e3c 5501 34bd 7184 433d 0c96 483e
00000290: 1c80 60bd 06f8 983d 16ca 80bd 9db1 b63d
000002a0: ab44 7b3b 9962 e83d 279a 15bd 881c f63d
000002b0: 751d 08be 9f18 a63d 7c90 d73d 5a57 a6bc
000002c0: c96e 6c3d b079 7e3d 438c 8fbd a09e 59bd
000002d0: 2408 013e 9c7b 2f3e 83a4 a23d e3af c53c
000002e0: a022 40bb c530 bb3c 5d2c d13d b4da 523d
000002f0: 18f2 afbd 28b1 403c f451 3e3d bd06 34be
00000300: 1778 153d 8067 8bbd 3ce6 0d3e 8f72 f5bd
00000310: 15eb a13d 5323 673c 2662 a9bc 3a54 fdbd
00000320: 0359 3c3d c199 993d fa7f 70bd 1680 f93c
00000330: 7662 e23c 2056 6fbc 6bdd 003e be9d 233d
00000340: f82d d6bd 534e f33c 0c3b 59bc 751b 7a3c
00000350: e825 773c 7a96 02bc abe9 303d 81be bbbd
00000360: 4af4 8a3c a037 f4bc 3b13 9cbd 9e09 bb3d
00000370: 9fc5 1dbc 3bf6 ac3a e290 db3d 12c8 303c
00000380: 0698 7a3d 9c1e dc3c b3b4 dd3d ad35 bcbd
00000390: fc73 25bd 60f9 d2bd 720b ca3d 7a2f c83d
000003a0: 5f03 42bc 159d 7fbb 3365 53bd 2f3f 71bd
000003b0: fd47 fcbc 5aaf 32be e043 a43b 1400 b13d
000003c0: 6850 f73d 93e1 7b3d d711 0f3e 34a7 f9bd
000003d0: 60bb d7bd 09d1 2fbc 83f9 fb3d dd7a dabd
000003e0: 8baa 2d3e 3a83 fa3d 1fb6 833c a7b8 963d
000003f0: 168c 413c 9058 493d 9c8d 633d 5daa 4f3e

network_body._body_endoder.seq_layers.2.bias f4 [128]
0.00035768526 0.011786221 0.017534578 0.020131266 0.015412589 0.026085464 0.01946177 -0.0053607714
0.044492498 0.014943048 0.0325 -0.012653445 0.018171027 0.012794751 0.0050198105 0.027710872
-0.011813517 0.023421183 0.018113863 0.0063722515 0.005581554 0.011652723 0.009599045 -0.0057371166
-0.0026152334 0.019305568 0.0048554344 0.042813495 0.021517577 0.009537485 0.014539863 -0.0035904653
0.011350734 -0.0059812996 -0.011248062 -0.0036552392 -0.017306617 -0.010117226 0.023626626 -0.01413578
0.026409032 0.0009222852 0.017701024 0.0010621591 0.03180324 0.022808343 7.037311e-05 0.032168947
-0.013079027 0.030408425 0.00019367732 0.010530171 0.0155328065 -0.00520502 0.014764009 0.015873406
-0.003485556 0.0050568627 -0.023558844 0.00339636 0.0019740085 -0.013559652 -2.784243e-05 -0.020463696
-0.0112179965 -0.023895003 -0.0074583697 0.01694734 -0.0040890067 0.0023768658 0.010721035 0.01020361
0.017382802 0.0013812579 -0.025969695 -0.027817272 0.002562528 -0.021160036 0.040127855 0.00531408
0.030718662 -0.0052937986 -0.0025979483 0.007950196 0.007189027 0.018652912 0.02456897 0.034840174
0.018071288 0.015767038 0.004063183 -0.008037707 0.007686479 0.040462833 0.00880509 0.0020179024
0.0031782158 0.041239936 0.025993308 0.0030754893 0.012745435 -0.00043416905 -0.012083051 0.013441509
0.01758109 0.012404143 0.0046705315 -0.034502894 0.004516424 -0.008216163 -0.007772141 0.027135642
-0.0076525696 0.010014216 0.017561413 -0.00027144258 0.0061462456 0.020071879 0.014155201 0.0077032223
-0.0036914032 0.020220049 0.006999909 0.016896764 0.0063002612 0.018640608 0.0040104943 0.02343786
00000000: b487 bb39 fe1a 413c ada4 8f3c 53ea a43c
00000010: 1585 7c3c 2fb1 d53c 4a6e 9f3c 69a9 afbb
00000020: c43d 363d b0d3 743c b81e 053d 6550 4fbc
00000030: 68db 943c 13a1 513c 397d a43b e901 e33c
00000040: 7b8d 41bc c8dd bf3c 8663 943c 52ce d03b
00000050: 78e5 b63b 10eb 3e3c 5045 1d3c 6cfe bbbb
00000060: 5664 2bbb b626 9e3c 561a 9f3b 345d 2f3d
00000070: a145 b03c 1d43 1c3c 9b38 6e3c 034e 6bbb
00000080: 6ef8 393c c7fe c3bb cb49 38bc bd8c 6fbb
00000090: 9bc6 8dbc b9c2 25bc a08c c13c c299 67bc
000000a0: c157 d83c 83c5 713a bd01 913c 2538 8b3a
000000b0: 1d44 023d 90d8 ba3c 4795 9338 96c3 033d
000000c0: 6a49 56bc 171b f93c dc15 4b39 bd86 2c3c
000000d0: 507d 7e3c df8e aabb bee4 713c f208 823c
000000e0: ed6d 64bb 0ab4 a53b 7afe c0bc 7795 5e3b
000000f0: 5e5e 013b 4d29 5ebc 2a8f e9b7 7ba3 a7bc
00000100: b0cb 37bc 74bf c3bc 5765 f4bb 26d5 8a3c
00000110: 13fd 85bb 31c5 1b3b 48a7 2f3c 0b2d 273c
00000120: 6166 8e3c 530b b53a 66be d4bc 0ce1 e3bc
00000130: 16f0 273b d057 adbc 1b5d 243d bc21 ae3b
00000140: b4a5 fb3c 9a77 adbb 5742 2abb 8a41 023c
00000150: ee91 eb3b fecd 983c dd44 c93c 92b4 0e3d
00000160: 3d0a 943c e029 813c 7324 853b 96b0 03bc
00000170: dcde fb3b 5bbc 253d 3943 103c c93e 043b
00000180: 9d49 503b 35eb 283d ebef d43c 268e 493b
00000190: 3bd2 503c 2fa1 e3b9 fdf7 45bc c639 5c3c
000001a0: 3806 903c bf3a 4b3c 420b 993b e852 0dbd
000001b0: 83fe 933b 169d 06bc 72ad febb 914b de3c
000001c0: 68c2 fabb ab12 243c f4dc 8f3c 6850 8eb9
000001d0: 7266 c93b c86d a43c 37eb 673c 506b fc3b
000001e0: 78eb 71bb 84a4 a53c 7e5f e53b 156b 8a3c
000001f0: 6c72 ce3b 30b4 983c 776a 833b c100 c03c

action_model._continuous_distribution.log_sigma f4 [1, 2]
1.1597482 1.1952319
00000000: a172 943f 5cfd 983f

action_model._continuous_distribution.mu.weight f4 [2, 64]
0.01402152 0.028527472 0.02097032 -0.13077436 0.03801919 -0.049769953 0.049613483 0.029965125
-0.0040932945 -0.033907395 -0.032798715 -0.059685744 0.025612727 0.011101246 -0.02196021 0.02998597
-0.015111876 -0.019544782 -0.08175093 -0.016922373 0.03783328 -0.019575939 0.025319168 0.02987691
0.026799561 0.05456469 -0.02724529 -0.054558646 -0.009727324 0.009638198 -0.0142672695 0.049660932
-0.00066462386 -0.042178098 0.012980126 0.07843913 0.06749919 0.020932792 -0.025295258 0.049274873
0.019054873 0.09823106 -0.026669057 -0.0015674141 0.09598568 0.024793172 0.029261004 -0.046161193
-0.08117379 0.030425541 0.019069793 0.049435418 -0.08958509 0.032696825 -0.030443633 -0.019580344
-0.025597868 0.0542863 0.03392324 0.04925212 -0.045258373 0.04047973 0.023772785 -0.015318036
-0.007928438 0.0019316138 -0.014717205 -0.03470342 -0.10737611 -0.03288974 -0.022686498 0.0363797
0.0023063556 0.06181791 -0.0752267 -0.027530868 -0.056863975 0.053014565 -0.013844726 0.019337263
0.057037886 -0.04331642 0.015144795 -0.009811724 -0.08773902 -0.013909368 -0.03044319 0.017905042
-0.011190221 0.04381761 -0.0359382 0.03768196 -0.061495084 -0.09365408 0.0154670095 -0.021526558
-0.01821964 -0.0014516301 0.0042287316 -0.086655 0.010942165 0.06729541 -0.09870123 -0.002030369
0.036692522 -0.042319715 0.058843102 -0.00059631147 0.04906169 0.0666729 -0.01451092 -0.062552504
-0.027980056 -0.010800352 -0.022433095 0.023553818 0.022854587 -0.0018905159 0.014221148 0.0127131725
-0.069114506 0.06587211 -0.02269476 -0.019651815 0.010648874 -0.00064013386 0.036735192 0.0007346969
00000000: 84ba 653c 72b2 e93c f3c9 ab3c b7e9 05be
00000010: 03ba 1b3d 94db 4bbd 8237 4b3d 6c79 f53c
00000020: 0b21 86bb 7be2 0abd f257 06bd 0a79 74bd
00000030: c8d1 d13c 00e2 353c e6e5 b3bc 23a5 f53c
00000040: cd97 77bc 611c a0bc 086d a7bd caa0 8abc
00000050: 12f7 1a3d b85d a0bc 256a cf3c 6cc0 f43c
00000060: c18a db3c 397f 5f3d 8431 dfbc e378 5fbd
00000070: 5b5f 1fbc 88e9 1d3c 44c1 69bc 4369 4b3d
00000080: 273a 2eba f1c2 2cbd 98aa 543c b2a4 a03d
00000090: 043d 8a3d 3f7b ab3c 0038 cfbc 73d4 493d
000000a0: f718 9c3c 5e2d c93d 1179 dabc b171 cdba
000000b0: 2494 c43d 0d1b cb3c c6b4 ef3c 8513 3dbd
000000c0: 723e a6bd fc3e f93c 4138 9c3c cb7c 4a3d
000000d0: 6378 b7bd 1bed 053d ed64 f9bc f566 a0bc
000000e0: 9fb2 d1bc 505b 5e3d 18f3 0a3d 97bc 493d
000000f0: d860 39bd 13ce 253d 25bf c23c 80f8 7abc
00000100: 47e6 01bc 342e fd3a 6f20 71bc 2c25 0ebd
00000110: 02e8 dbbd 64b7 06bd 09d9 b9bc e102 153d
00000120: 3a26 173b c734 7d3d 7510 9abd 6a88 e1bc
00000130: 33ea 68bd cd25 593d fdd4 62bc 2e69 9e3c
00000140: 8fa0 693d 8f6c 31bd e021 783c 5ac1 20bc
00000150: 84b0 b3bd 1ee4 63bc ff63 f9bc 98ad 923c
00000160: 3057 37bc 187a 333d ef33 13bd 6658 1a3d
00000170: 45e2 7bbd b6cd bfbd 5769 7d3c 7758 b0bc
00000180: 5b41 95bc a044 beba 2c91 8a3b 2d78 b1bd
00000190: c446 333c 2dd2 893d df23 cabd f00f 05bb
000001a0: e64a 163d 7057 2dbd 7705 713d c951 1cba
000001b0: e9f4 483d cd8b 883d 36bf 6dbc 871b 80bd
000001c0: 6e36 e5bc f6f3 30bc 9cc5 b7bc f0f3 c03c
000001d0: 8b39 bb3c 30cb f7ba d1ff 683c e94a 503c
000001e0: e88b 8dbd f5e7 863d 5cea b9bc d8fc a0bc
000001f0: 9d78 2e3c a8ce 27ba a477 163d ad98 403a

action_model._continuous_distribution.mu.bias f4 [2]
0.034741286 -0.010243709
00000000: e14c 0e3d 3bd5 27bc

action_model._discrete_distribution.branches.0.weight f4 [2, 64]
0.072015315 -0.09603422 0.034763645 0.035533775 -0.02070255 0.016116807 0.031517662 -0.03260836
-0.0085968645 -0.022974577 -0.0066555003 0.01849334 -0.030260388 -0.042019386 -0.03442527 -0.0010365035
-0.075911835 0.051838864 0.106880866 0.007599028 0.05723368 0.06510386 0.0692188 -0.077325426
0.09489427 0.034358934 0.08210584 -0.040454388 -0.012039215 0.07393956 -0.046022955 0.007734851
-0.05095129 -0.07555212 -0.013853804 0.018485041 -0.08022674 0.0033503128 0.13544323 -0.0055731065
0.07824543 -0.031078901 -0.059746217 -0.057859898 -0.033378504 -0.074125625 -0.0194859 -0.032753974
-0.0138573395 -0.03500152 0.0010506586 0.0014572392 0.042220406 0.048133463 0.060827643 0.09165174
0.027761633 -0.051970195 0.013119406 0.06490132 -0.00274628 0.019008039 0.08142347 -0.044835884
-0.08404749 0.08431207 -0.02753738 -0.021697717 -0.021409633 0.0013958118 -0.040846933 0.038143285
-0.007126844 0.03795691 -0.0035249079 -0.027911613 0.0098791355 0.052574087 0.0070429957 -0.012249873
0.067030355 -0.057360694 -0.091848016 -0.008293095 -0.05919748 -0.09108479 -0.075090356 0.09285888
-0.065456904 -0.0077037937 -0.07659777 0.036506776 -0.009772612 -0.07645595 0.026977602 -0.04010406
0.060834877 0.04646309 -0.011111439 -0.0011411502 0.08830125 -0.024940716 -0.13533242 -0.007994598
-0.04669234 0.039355867 0.039511546 0.076643445 0.046389 0.09667637 0.01579136 0.0046450975
0.0083283745 0.01620002 -0.0035377967 0.0036706394 -0.063613795 -0.08001535 -0.06345672 -0.100375116
-0.013473973 0.076559745 0.018818336 -0.047833998 0.03000139 -0.032280244 -0.07939145 0.043487545
00000000: c47c 933d 97ad c4bd 5364 0e3d dd8b 113d
00000010: 6598 a9bc 6507 843c aa18 013d 5890 05bd
00000020: ddd9 0cbc 2e35 bcbc 6216 dabb 587f 973c
00000030: a2e4 f7bc 851c 2cbd 8301 0dbd 49db 87ba
00000040: aa77 9bbd fd54 543d 5be4 da3d 4401 f93b
00000050: dd6d 6a3d 2c55 853d 96c2 8d3d cb5c 9ebd
00000060: ed57 c23d f4bb 0c3d 1b27 a83d 80b3 25bd
00000070: 2140 45bc a06d 973d 9182 3cbd a274 fd3b
00000080: 4db2 50bd 12bb 9abd 11fb 62bc f16d 973c
00000090: eb4d a4bd ec90 5b3b a1b1 0a3e 9b9e b6bb
000000a0: 243f a03d 2e99 febc 73b8 74bd 80fe 6cbd
000000b0: e6b7 08bd 2dcf 97bd e5a0 9fbc 0829 06bd
000000c0: e509 63bc c15d 0fbd 41b6 893a d500 bf3a
000000d0: 4eef 2c3d 9827 453d 6826 793d e8b3 bb3d
000000e0: 5d6c e33c b3de 54bd c7f2 563c fcea 843d
000000f0: effa 33bb bfb6 9b3c 59c1 a63d d5a5 37bd
00000100: 1721 acbd ceab ac3d 1296 e1bc 69bf b1bc
00000110: 4163 afbc acf3 b63a 1d4f 27bd 223c 1c3d
00000120: 4d88 e9bb b478 1b3d 2402 67bb e5a6 e4bc
00000130: 19dc 213c ed57 573d eec8 e63b b1b3 48bc
00000140: 3647 893d 0cf3 6abd d01a bcbd c3df 07bc
00000150: 0f79 72bd aa8a babd f9c8 99bd cc2c be3d
00000160: 450e 86bd 1b70 fcbb 4bdf 9cbd 2188 153d
00000170: 4e1d 20bc f094 9cbd 2200 dd3c 2844 24bd
00000180: fe2d 793d 1550 3e3d c10c 36bc a692 95ba
00000190: 49d7 b43d 7950 ccbc 9594 0abe c6fb 02bc
000001a0: 7840 3fbd 9e33 213d dcd6 213d 3df7 9c3d
000001b0: 6402 3e3d 43fe c53d e25c 813c e735 983b
000001c0: bc73 083c e8b5 843c 61da 67bb 1c8f 703b
000001d0: f347 82bd 16df a3bd 99f5 81bd 7891 cdbd
000001e0: f0c1 5cbc 5bcb 9c3d e928 9a3c 95ed 43bd
000001f0: 7ac5 f53c 4a38 04bd fc97 a2bd ff1f 323d

action_model._discrete_distribution.branches.0.bias f4 [2]
0.038279932 -0.038279936
00000000: 6bcb 1c3d 6ccb 1cbd

action_model._discrete_distribution.branches.1.weight f4 [2, 64]
-0.0352155 0.00041456064 0.0023643235 -0.10910393 -0.012483757 -0.08646339 0.04636576 -0.088707715
-0.078424565 0.13619767 -0.02496019 -0.13100867 0.13608278 -0.10819082 -0.017181473 -0.06939148
0.088841006 0.07907891 -0.027789913 -0.05343782 -0.002051301 0.034422718 0.03676364 -0.009841136
0.014808176 0.07136958 -0.14734231 -0.006132617 -0.009931598 0.03624787 0.12554099 0.09130239
0.041778702 -0.09320156 -0.013277516 0.079782546 0.106168486 0.07313265 0.053575937 -0.12582001
-0.036588237 0.0070642666 0.05437283 0.021664375 0.056230918 -0.016571812 0.027608028 0.07336092
-0.10899918 0.052595608 -0.05593854 -0.00088591676 -0.19014694 0.10447337 0.09729831 0.013855762
-0.11209902 0.0075436467 0.0299836 0.0869523 -0.11347178 -0.037982784 0.050392747 0.088819794
0.023908785 -0.03788733 0.0010648693 0.104145594 0.027605364 0.08072328 -0.03986081 0.06742345
0.093141355 -0.11486538 0.02073308 0.1565618 -0.09748097 0.09265653 0.021388078 0.07654827
-0.098372094 -0.098023914 0.031135732 0.0800139 0.0020972774 -0.016239781 -0.020076051 0.0038475634
0.02379555 -0.08726284 0.14305554 -0.0048815096 0.0016216505 -0.048860863 -0.12263514 -0.06647523
-0.018836534 0.11891645 -0.021215549 -0.046356518 -0.088525325 -0.112960964 -0.013156699 0.1139871
0.040440425 -0.004253439 -0.03712784 0.0026983644 -0.036867213 -0.02712344 -0.022474084 -0.07821231
0.09920492 -0.036626812 0.0721529 0.024116881 0.20026298 -0.11922679 -0.053239502 -0.02329019
0.13476796 -0.0032665122 -0.057833035 -0.10426078 0.12509012 0.0154455975 -0.034169145 -0.07770957
00000000: 213e 10bd 6359 d939 c4f2 1a3b e271 dfbd
00000010: ac88 4cbc b813 b1bd 06ea 3d3d 64ac b5bd
00000020: 0f9d a0bd 6777 0b3e 5079 ccbc 2327 06be
00000030: 4959 0b3e 2693 ddbd 29c0 8cbc 1f1d 8ebd
00000040: 46f2 b53d 20f4 a13d aca7 e3bc 9ee1 5abd
00000050: 1f6f 06bb d6fe 0c3d 7895 163d b73c 21bc
00000060: fe9d 723c 372a 923d e7e0 16be 1ff4 c8bb
00000070: 24b8 22bc a678 143d d18d 003e bffc ba3d
00000080: 2520 2b3d 76e0 bebd f089 59bc 0865 a33d
00000090: dd6e d93d 92c6 953d 7172 5b3d f6d6 00be
000000a0: 8cdd 15bd 5d7b e73b 0bb6 5e3d 7d79 b13c
000000b0: 6452 663d 9cc1 87bc 3b2a e23c 403e 963d
000000c0: f63a dfbd 7e6e 573d cf1f 65bd de3c 68ba
000000d0: e1b5 42be 22f6 d53d 5644 c73d 4703 633c
000000e0: 2c94 e5bd b230 f73b 2ba0 f53c 0c14 b23d
000000f0: e563 e8bd d693 1bbd a068 4e3d 27e7 b53d
00000100: 5bdc c33c bf2f 1bbd 1693 8b3a 494a d53d
00000110: a524 e23c 3f52 a53d 1745 23bd 4e15 8a3d
00000120: e5c0 be3d 8a3e ebbd 6cd8 a93c bd51 203e
00000130: 1aa4 c7bd b5c2 bd3d 0d36 af3c 57c5 9c3d
00000140: 4f77 c9bd c3c0 c8bd 5d10 ff3c 54de a33d
00000150: 7a72 093b 4a09 85bc 8876 a4bc 6727 7c3b
00000160: e3ee c23c dcb6 b2bd 277d 123e 12f5 9fbb
00000170: 908d d43a 5422 48bd 2228 fbbd 2a24 88bd
00000180: 134f 9abc 788a f33d 3bcc adbc 55e0 3dbd
00000190: c44c b5bd 1458 e7bd 328f 57bc 1272 e93d
000001a0: dca4 253d 6f60 8bbb 5d13 18bd 0bd7 303b
000001b0: 1302 17bd fa31 debc 921b b8bc c72d a0bd
000001c0: f32b cb3d ff05 16bd e6c4 933d c490 c53c
000001d0: bd11 4d3e 2d2d f4bd aa11 5abd 12cb bebc
000001e0: 9d00 0a3e fb12 56bb 55e2 6cbd ad86 d5bd
000001f0: a017 003e 880f 7d3c f2f4 0bbd 3226 9fbd

action_model._discrete_distribution.branches.1.bias f4 [2]
0.029151963 -0.029151957
00000000: 19d0 ee3c 16d0 eebc

action_model._discrete_distribution.branches.2.weight f4 [2, 64]
0.004256892 0.025956355 -0.015482093 0.054299206 0.025724798 0.008957541 -0.0021393434 0.051580075
0.028800199 0.0063452907 -0.02686527 0.015968522 -0.043137275 -0.023895057 0.024230173 0.025878575
0.020482978 0.025971815 0.01632317 -0.006891345 -0.012413896 0.0076641412 -0.021071278 -0.0124262525
-0.027044307 0.003527451 -0.012561423 0.01346866 -0.0063577415 0.014511431 0.0043154573 -0.0110409735
-0.027591813 -0.027894933 0.03231813 -0.004227277 -0.036837175 0.0052517666 0.03769329 -0.010005769
0.012624385 0.03393268 0.024353873 0.02395306 -0.048959572 0.01284576 0.0049087848 -0.010114423
-0.002346729 -0.07820835 0.022145428 -0.056206163 -0.013094921 0.019042995 0.024143819 0.03371226
-0.02341612 0.032710418 -0.042053968 0.021373596 -0.0010693179 0.016169807 0.005602859 0.029973604
0.013409147 -0.011814742 0.0051578307 0.018281389 -0.0095534725 -0.00030813692 0.005338196 -0.022346182
-0.030615095 -0.011808006 0.018800903 0.02475032 0.01039463 0.005412685 0.0076520597 -0.023144847
-0.026907077 -0.014415396 -0.027919048 0.023660377 0.0039978777 0.007545623 0.027280364 0.010872902
0.042246968 0.012650949 0.014739573 -0.013331331 -0.0252831 -0.013902408 -0.023636661 0.01031603
0.012939134 0.007805756 -0.03528426 0.012759906 0.031113125 0.012887335 -0.038028717 -0.0022137319
-0.010839142 0.00040080358 -0.0011135956 -0.007818145 0.03656335 -0.0062711164 -0.014787445 0.019387744
-0.011182132 0.04271394 -0.027418368 0.04245431 0.0009163332 -0.005692386 -0.025227254 -0.009848789
0.025819058 -0.021157956 0.05394268 -0.016652202 0.008565584 -0.014397959 0.021057703 -0.041684642
00000000: 667d 8b3b 6ca2 d43c 9ba8 7dbc d868 5e3d
00000010: d0bc d23c a6c2 123c 3a34 0cbb a145 533d
00000020: 65ee eb3c 28ec cf3b 8e14 dcbc 6bd0 823c
00000030: b6b0 30bd 91bf c3bc 5b7e c63c 4eff d33c
00000040: ebcb a73c d8c2 d43c 2bb8 853c cbd0 e1bb
00000050: a763 4bbc 7a23 fb3b ac9d acbc 7b97 4bbc
00000060: 068c ddbc cf2c 673b 6dce 4dbc a8ab 5c3c
00000070: 9a54 d0bb 5ac1 6d3c ae68 8d3b 33e5 34bc
00000080: 3a08 e2bc ea83 e4bc 0460 043d f884 8abb
00000090: 94e2 16bd 0317 ac3b 4764 1a3d 3def 23bc
000000a0: 82d6 4e3c fefc 0a3d c681 c73c 3539 c43c
000000b0: d589 48bd 0677 523c dfd9 a03b f7b6 25bc
000000c0: 94cb 19bb b32b a0bd 546a b53c 6f38 66bd
000000d0: 148c 56bc 0e00 9c3c 42c9 c53c de15 0a3d
000000e0: 2ad3 bfbc 5cfb 053d c840 2cbd ae17 af3c
000000f0: 5b28 8cba 8b76 843c 3098 b73b 348b f53c
00000100: 0ab2 5b3c 9f92 41bc 0503 a93b dac2 953c
00000110: 2b86 1cbc 708d a1b9 09ec ae3b 570f b7bc
00000120: 82cc fabc 5e76 41bc 5a04 9a3c 2fc1 ca3c
00000130: 3d4e 2a3c e55c b13b 21be fa3b 439a bdbc
00000140: 3b6c dcbc 8e2e 6cbc 7db6 e4bc 68d3 c13c
00000150: a100 833b 4641 f73b 127b df3c 4224 323c
00000160: 280b 2d3d ed45 4f3c 407e 713c a86b 5abc
00000170: 811e cfbc edc6 63bc aca1 c1bc 9104 293c
00000180: a9fe 533c 6dc7 ff3b 3a86 10bd ed0e 513c
00000190: f4e0 fe3c 6725 533c 00c4 1bbd 4214 11bb
000001a0: a896 31bc f222 d239 11f6 91ba ad17 00bc
000001b0: 74c3 153d f07d cdbb 0a47 72bc 0cd3 9e3c
000001c0: 4335 37bc d0f4 2e3d 7c9c e0bc 92e4 2d3d
000001d0: 1536 703a 3287 babb 63a9 cebc d15c 21bc
000001e0: 7d82 d33c 7353 adbc 00f3 5c3d 336a 88bc
000001f0: aa56 0c3c 6be5 6bbc 3481 ac3c 84bd 2abd

action_model._discrete_distribution.branches.2.bias f4 [2]
-0.0012573014 0.0012573048
00000000: 09cc a4ba 26cc a43a

action_model._discrete_distribution.branches.3.weight f4 [2, 64]
0.016513167 -0.021814816 0.02148443 0.019871095 0.010666683 -0.009695868 -0.01078603 -0.044953212
-0.018862419 -0.011976795 0.04230468 -0.015749922 0.0020429576 -0.024169434 -0.0231306 0.007320597
0.008958061 0.040343422 -0.019277433 -0.018883055 0.010125599 -0.062378738 0.010140038 -0.03462063
0.0047877817 -0.012119618 -0.02804677 0.011105198 -0.015054816 -0.015207819 -0.01359345 0.0016758132
0.023160798 -0.0111369565 -0.0012432685 -0.016369939 0.047681745 0.024810573 0.026554516 -0.022104543
0.021915432 0.01127365 0.0059405114 -0.016263481 0.017558765 0.018298471 0.011907505 -0.028264556
0.010872791 -0.005585393 0.010783857 -0.056647345 0.0022835373 0.031874925 -0.0150244795 -0.033421084
0.014024648 -0.019578114 0.020310378 0.011462979 7.1281625e-05 0.016788937 0.006880215 -0.003993647
0.019723829 0.028412458 -0.028018726 0.0048587546 -0.0017388709 -0.0077372906 0.0073285494 0.067584544
0.0027224957 -0.0020542433 -0.040203713 -0.005938739 0.010642939 0.029107591 0.06022622 -0.03448744
-0.018157639 -0.02302668 0.05598779 0.005715339 0.02845902 0.0566999 -0.02069089 -0.007748944
0.0025855096 0.010346193 0.027254691 -0.005065537 -0.02884036 -0.0033877047 0.002820691 0.010528899
0.004568033 -0.014479068 -0.035033252 0.008824788 -0.044225093 -0.019411206 -0.04121277 -0.00046574566
0.0030132635 0.004164469 0.006819813 -0.023617158 0.010328484 0.010696906 -0.00652214 0.04102355
-0.013605533 -0.0029499715 0.008536813 0.048581496 0.0135960635 -0.010767287 -0.007668754 0.01659048
-0.026224578 -0.017739316 -0.025777085 -0.015729448 0.00752581 0.021330573 0.00037937722 0.017610742
00000000: 9f46 873c fcb4 b2bc 1e00 b03c b5c8 a23c
00000010: 50c3 2e3c 6bdb 1ebc e4b7 30bc dc20 38bd
00000020: 5c85 9abc 523a 44bc ac47 2d3d fb05 81bc
00000030: 24e3 053b fafe c5bc 627c bdbc 9ee1 ef3b
00000040: d5c4 123c 253f 253d b5eb 9dbc a3b0 9abc
00000050: d7e5 253c d980 7fbd 6722 263c 5dce 0dbd
00000060: d3e2 9c3b 5d91 46bc 57c2 e5bc 94f2 353c
00000070: 7aa8 76bc 372a 79bc 10b7 5ebc f6a6 db3a
00000080: b7bb bd3c c877 36bc 2bf5 a2ba 401a 86bc
00000090: ef4d 433d 8b3f cb3c db88 d93c 9614 b5bc
000000a0: fe87 b33c 1eb5 383c 9fa8 c23b fe3a 85bc
000000b0: 66d7 8f3c ade6 953c b217 433c 128b e7bc
000000c0: ca23 323c ac05 b7bb c6ae 303c 0c07 68bd
000000d0: 66a7 153b 488f 023d 3c29 76bc 8ce4 08bd
000000e0: a3c7 653c 4862 a0bc f361 a63c 38cf 3b3c
000000f0: 087d 9538 f488 893c 6d73 e13b 24dd 82bb
00000100: de93 a13c 3ec1 e83c 8787 e5bc 3036 9f3b
00000110: d3ea e3ba 1989 fdbb 5424 f03b c469 8a3d
00000120: e66b 323b 7ca0 06bb a6ac 24bd c199 c2bb
00000130: b95f 2e3c 0b73 ee3c c5af 763d b442 0dbd
00000140: 54bf 94bc 73a2 bcbc 7453 653d bd47 bb3b
00000150: e422 e93c 283e 683d f17f a9bc dbea fdbb
00000160: a771 293b 1483 293c 3b45 df3c cefc a5bb
00000170: 9e42 ecbc 4104 5ebb 58db 383b 6781 2c3c
00000180: 70af 953b 9d39 6dbc 077f 0fbd d895 103c
00000190: 5f25 35bd 4004 9fbc b9ce 28bd 532f f4b9
000001a0: 2c7a 453b 1976 883b bd78 df3b c578 c1bc
000001b0: cd38 293c 1342 2f3c adb7 d5bb 4f08 283d
000001c0: bee9 5ebc 4f54 41bb fddd 0b3c 64fd 463d
000001d0: 06c2 5e3c 4669 30bc 2c4a fbbb c2e8 873c
000001e0: edd4 d6bc 0b52 91bc 772a d3bc 0bdb 80bc
000001f0: 129b f63b 74bd ae3c 26e7 c639 6744 903c

action_model._discrete_distribution.branches.3.bias f4 [2]
0.0064927177 -0.006492717
00000000: ddc0 d43b dcc0 d4bb

action_model._discrete_distribution.branches.4.weight f4 [2, 64]
-0.02842481 0.003552352 -0.01727091 -0.02672715 0.0006382652 -0.0040738406 -0.024206158 0.024540326
-0.03412719 -0.014402506 0.0233426 -0.0037994534 0.034383904 0.04557758 0.022659432 -0.006662823
-0.009853094 0.017895935 -0.004352322 0.036143973 0.008770591 -0.016742423 -0.025839651 0.0095447255
0.037904207 0.016616257 0.07101744 0.0073423223 0.028793694 0.011926556 0.011185584 0.013842468
0.04445727 0.029099442 0.0004663346 0.018925622 -0.004492839 0.0009330003 0.0057110074 -0.021525847
-0.032664157 -0.0120929 0.03011959 -0.003702097 -0.0003262812 -0.007968083 0.0025300272 0.009540442
-0.0026480495 -0.0047040684 -0.015658518 0.052025266 -0.00031427748 -0.0068272674 0.005655371 0.005299184
0.008637891 -0.0035603552 0.003527113 0.011361406 -0.01104263 -0.014710843 0.0047868323 0.017330864
-0.0040306435 -0.007776609 0.017927425 0.010331175 -0.0018771549 0.007708288 0.025033373 -0.03611364
-0.013134089 0.01625118 -0.022227833 0.0036589575 -0.01691025 -0.043280374 -0.021453984 0.02636882
0.021425474 -0.04233978 -0.035660844 -0.01933851 0.008768439 0.013335764 0.01878763 0.0018214167
-0.024456728 -0.01933622 -0.054009244 -0.02206858 -0.012822829 -0.00711251 -0.020127414 0.007146979
-0.045717154 -0.010455473 -0.0097130975 -0.020042794 -0.029132016 0.009280405 0.008511962 0.022564327
0.035611823 0.031127134 -0.01641802 0.009255534 -0.0066316295 0.010803421 0.0134721715 0.006046598
-0.0019554028 0.001910613 0.030403681 -0.049158726 0.007856561 -0.0021929704 0.040831767 0.005951843
0.010005716 -0.017947981 -0.030275704 -0.02790608 0.03579272 0.00756024 -0.009508688 -0.007475184
00000000: 26db e8bc 94ce 683b b97b 8dbc e5f2 dabc
00000010: 4151 273a da7d 85bb fe4b c6bc cb08 c93c
00000020: f4c8 0bbd 7df8 6bbc fb38 bf3c 4000 79bb
00000030: 23d6 0c3d 8eaf 3a3d 46a0 b93c cf53 dabb
00000040: df6e 21bc 7f9a 923c ec9d 8ebb b40b 143d
00000050: 86b2 0f3c 6827 89bc adad d3bc 7b61 1c3c
00000060: 7141 1b3d d11e 883c 9771 913d dd97 f03b
00000070: c1e0 eb3c 9a67 433c bd43 373c 85cb 623c
00000080: d418 363d f461 ee3c 5f7e f439 e809 9b3c
00000090: aa38 93bb 9794 743a 6723 bb3b f956 b0bc
000000a0: daca 05bd 4d21 46bc 5cbd f63c e29e 72bb
000000b0: b910 abb9 908c 02bc d0ce 253b 844f 1c3c
000000c0: e68a 2dbb 9624 9abb 4b46 80bc 7218 553d
000000d0: 9cc5 a4b9 45b7 dfbb b150 b93b c7a4 ad3b
000000e0: f185 0d3c d954 69bb 2327 673b 3125 3a3c
000000f0: 26ec 34bc bf05 71bc dcda 9c3b 75f9 8d3c
00000100: 7d13 84bb edd2 febb 89dc 923c 1744 293c
00000110: de0a f6ba ce95 fc3b ca12 cd3c e5eb 13bd
00000120: 5d30 57bc 3221 853c 2517 b6bc 1fcb 6f3b
00000130: 5d87 8abc c346 31bd 44c0 afbc 6c03 d83c
00000140: 7a84 af3c 7a6c 2dbd 1b11 12bd cc6b 9ebc
00000150: 80a9 0f3c 407e 5a3c 84e8 993c 9abc ee3a
00000160: 7a59 c8bc fe66 9ebc cc38 5dbd 2bc9 b4bc
00000170: d816 52bc 0f10 e9bb 3fe2 a4bc 3531 ea3b
00000180: e941 3bbd 6f4d 2bbc af23 1fbc c930 a4bc
00000190: 44a6 eebc d70c 183c c275 0b3c d3d8 b83c
000001a0: b4dd 113d 55fe fe3c 157f 86bc 86a4 173c
000001b0: 244e d9bb d500 313c 62ba 5c3c 8a22 c63b
000001c0: 3726 00bb 896d fa3a 2411 f93c a95a 49bd
000001d0: ceb8 003c f0b7 0fbb 363f 273d ae07 c33b
000001e0: 04ef 233c a507 93bc c104 f8bc 4b9b e4bc
000001f0: 639b 123d e4bb f73b 54ca 1bbc 63f2 f4bb

action_model._discrete_distribution.branches.4.bias f4 [2]
-0.0020373964 0.0020373964
00000000: d785 05bb d785 053b

action_model._discrete_distribution.branches.5.weight f4 [2, 64]
0.009168905 -0.017838111 0.037851684 -0.012822337 0.007856764 -0.0027236633 0.035668 -0.047029972
-0.043978043 0.03480325 -0.03468887 0.037226386 0.009094059 -0.057831615 0.0033818027 -0.007193755
-0.008115018 -0.0023837104 0.010682035 -0.028099667 -0.0024556501 0.00069347816 -0.006113919 0.010300937
-0.0071207467 0.0026047812 0.007485404 -0.005631599 0.05614538 0.0015616724 -0.0018379557 0.012059596
-0.006313008 0.017732402 0.019199308 0.023866115 0.022035265 -0.023968888 -0.009377302 -0.033616014
0.032091055 -0.002035138 0.0084473295 0.00976522 0.0046836124 0.024403252 0.009818747 -0.013401386
-0.020709913 0.048211 -0.02239199 -0.03066697 0.023684913 -0.04156837 -0.02566827 0.015488925
-0.035554823 -0.029127292 -0.03151152 -0.0135466615 0.003421191 0.014057972 0.0030661202 -0.020953197
-0.026177134 0.0052996627 -0.034794226 -0.009247275 -0.01992633 -0.029252758 -0.019216409 0.030056546
0.020559818 -0.027386997 0.011641252 -0.04376874 -0.0036527193 0.053011924 -0.037224606 0.015497162
0.009245187 -0.019527223 0.02367266 0.034044493 -0.00975737 -0.0028699448 -0.026405642 -0.02048512
0.02575583 0.002944798 -0.015431105 0.009040695 -0.05764406 -0.017320836 -0.04334638 -0.0012889582
-0.0028573289 -0.032226067 -0.014970843 -0.055675726 -0.0012075227 0.031246128 0.0012772168 0.0020848422
-0.00714906 -0.0069676396 -0.009498978 -0.0097858105 0.018817943 0.005887613 -0.020446384 0.02154802
0.016568583 -0.02572614 0.016779182 0.05330212 -0.055572245 0.04325586 0.015846465 -0.024642797
0.035510432 0.01865972 0.038674463 0.017460708 -0.011094978 0.0020779083 0.011534627 0.00090678595
00000000: 2d39 163c 3b21 92bc 5e0a 1b3d c814 52bc
00000010: a8b9 003c 7d7f 32bb 9c18 123d 80a2 40bd
00000020: 5222 34bd da8d 0e3d eb15 0ebd b27a 183d
00000030: 3fff 143c d8e0 6cbd 3ca1 5d3b 97b9 ebbb
00000040: daf4 04bc 0638 1cbb b403 2f3c 4631 e6bc
00000050: f9ee 20bb 88ca 353a 4557 c8bb 43c5 283c
00000060: 2755 e9bb fab4 2a3b 1f48 f53b 4789 b8bb
00000070: b3f8 653d 08b1 cc3a 8fe7 f0ba 9d95 453c
00000080: 59dd cebb 8b43 913c de47 9d3c df82 c33c
00000090: 4d83 b43c 675a c4bc 41a3 19bc f2b0 09bd
000000a0: e971 033d f35f 05bb ab66 0a3c 4dfe 1f3c
000000b0: fd78 993b 54e9 c73c cfde 203c 7d91 5bbc
000000c0: d6a7 a9bc e678 453d 686f b7bc 4c39 fbbc
000000d0: dd06 c23c 9843 2abd 4446 d2bc 43c5 7d3c
000000e0: efa1 11bd 5c9c eebc 3912 01bd d1f2 5dbc
000000f0: 0f36 603b 6853 663c f6f0 483b 0aa6 abbc
00000100: 6e71 d6bc cba8 ad3b 6484 0ebd e281 17bc
00000110: 8b3c a3bc 7ba3 efbc bb6b 9dbc 2539 f63c
00000120: 106d a83c b25a e0bc f3ba 3e3c da46 33bd
00000130: 7662 6fbb 0823 593d d478 18bd cfe7 7d3c
00000140: 2079 173c 8ef7 9fbc 2bed c13c 3d72 0b3d
00000150: 60dd 1fbc af15 3cbb a550 d8bc 69d0 a7bc
00000160: e4fd d23c 83fd 403b bfd2 7cbc 6c1f 143c
00000170: 2e1c 6cbd 6de4 8dbc f98b 31bd 43f2 a8ba
00000180: 0642 3bbb 7bff 03bd 4448 75bc 3b0c 64bd
00000190: bd45 9eba e1f7 ff3c 4968 a73a d9a1 083b
000001a0: a942 eabb cc50 e4bb 9aa1 1bbc aa54 20bc
000001b0: 1628 9a3c e1ec c03b 2d7f a7bc 7985 b03c
000001c0: d6ba 873c a0bf d2bc 7f74 893c 5353 5a3d
000001d0: b99f 63bd 0f2d 313d 72d0 813c b1df c9bc
000001e0: 6373 113d 45dc 983c 1d69 1e3d c209 8f3c
000001f0: b6c7 35bc 842d 083b bbfb 3c3c 60b5 6d3a

action_model._discrete_distribution.branches.5.bias f4 [2]
-0.008732685 0.008732692
00000000: 8913 0fbc 9113 0f3c

onnx::LSTM_197 f4 [1, 256, 128]
-0.014080731 0.03616866 -0.18448737 -0.022254271 0.11132207 0.03770707 -0.04394667 0.08996162
0.06661499 0.06808907 -0.050949372 -0.039520822 -0.029367357 0.09086549 0.046457056 -0.025625708
0.08521182 -0.03255758 0.19657983 -0.042421307 0.07101808 -0.13492584 0.03528654 0.0721475
-0.08178491 0.13354959 -0.08193543 -0.16237997 -0.082567476 0.20821626 0.012607756 0.04573574
-0.21059115 -0.032766357 -0.10007069 -0.015273302 0.118138015 -0.07413179 0.1402316 0.13049762
-0.11916128 -0.1975761 -0.13562594 -0.015530425 0.0054140408 -0.016459454 0.18059234 -0.09216015
0.120244175 -0.101319335 0.13727887 -0.056059197 -0.044914644 -0.01916997 -0.04515695 0.0811415
-0.036252815 -0.0500744 -0.13747613 -0.07960231 -0.07630464 0.07602882 0.17189713 -0.06911172
0.13036454 -0.04474238 0.030580314 0.029177273 -0.105570845 0.10492288 -0.023351572 0.0311432
-0.09304642 0.0952057 0.093772575 -0.004207023 0.09166788 0.07027667 -0.10638059 -0.15329315
-0.042191636 0.17337292 -0.114912614 0.021595681 0.14449473 -0.0649662 0.083018616 0.15350793
0.0119661195 -0.079021744 0.11833666 -0.02474535 0.03446753 0.07607865 0.109267525 0.021535251
0.16391018 -0.02863776 -0.025948143 -0.15823929 0.028941965 0.08892746 0.1368883 0.009075706
-0.15315555 0.019098323 -0.16891903 -0.07296046 0.19199076 -0.03942416 0.17980194 -0.12983595
-0.15495646 -0.08716915 0.10354292 0.023375524 -0.120937385 -0.15102309 -0.0064076907 -0.13403206
-0.10758211 -0.15784064 -0.18896183 -0.0070582707 0.08128588 0.008939363 -0.13057531 0.07064337
0.09342951 0.036884144 -0.12832768 -0.021348557 0.05373931 -0.021708282 0.15137947 -0.028239708
0.1454792 -0.00837711 0.084190786 0.097404644 0.114354864 -0.036250863 0.0055036535 0.13637686
0.11758742 -0.07986667 0.08213542 0.06714959 -0.000511958 0.10730075 -0.048615403 0.15465698
0.025657212 -0.0067529986 -0.013317483 0.06157546 0.15867454 0.14135253 0.1962031 -0.0743958
0.07054089 -0.17175694 -0.07581598 0.10990261 0.12489342 0.01121233 -0.1674574 0.14846154
0.17602193 -0.10328307 0.10193012 -0.16019438 0.1729448 0.020109184 0.07596957 0.15692848
0.07194102 -0.19188382 0.1850515 0.009636052 -0.040915124 0.06409187 0.1319206 0.03470728
-0.16410263 0.08685475 0.08048638 -0.15238999 -0.020236876 -0.026253033 0.12063263 0.0023891886
0.13314943 0.026869526 -0.07168677 -0.14861046 -0.14032583 -0.11024673 0.08346989 -0.013596404
-0.17923163 0.18440263 -0.04610938 -0.11692503 0.13125782 0.02291187 -0.017114168 0.081826374
-0.042303257 -0.06210892 -0.1604094 0.02917926 -0.057843104 0.009492101 0.10366822 0.19264749
-0.110420346 -0.050295692 0.06443797 -0.058238536 0.19791456 -0.12558292 -0.19484216 0.060658786
0.08056698 0.02645735 -0.084566094 -0.10170577 -0.070863776 -0.082126774 -0.10762748 0.11583617
-0.07932936 0.12908167 0.09450645 0.00032939087 0.12898833 -0.19826214 0.13432425 0.056261394
-0.03517945 -0.09753055 -0.01578543 0.00473455 0.07595353 -0.12619714 -0.01584508 0.13686045
-0.19103901 -0.01975761 0.14323954 0.058598097 0.16271605 -0.073883705 0.0299811 0.24876694
00000000: deb2 66bc 9725 143d 42ea 3cbe 974e b6bc
00000010: d3fc e33d bb72 1a3d 6c01 34bd cc3d b83d
00000020: 716d 883d 4872 8b3d 4ab0 50bd 96e0 21bd
00000030: d093 f0bc b017 ba3d c149 3e3d 01ed d1bc
00000040: 8983 ae3d 195b 05bd 394c 493e f7c1 2dbd
00000050: ed71 913d 002a 0abe 9e88 103d 12c2 933d
00000060: d97e a7bd 39c1 083e c3cd a7bd ef46 26be
00000070: 2319 a9bd a536 553e c390 4e3c 6655 3b3d
00000080: 35a5 57be 0436 06bd ddf1 ccbd df3c 7abc
00000090: 58f2 f13d 68d2 97bd df98 0f3e 2ba1 053e
000000a0: d40a f4bd 6451 4abe 87e1 0abe 5373 7ebc
000000b0: 4468 b13b fad5 86bc 33ed 383e 76be bcbd
000000c0: 9442 f63d 8380 cfbd d592 0c3e 549e 65bd
000000d0: 6bf8 37bd 570a 9dbc 7ef6 38bd 842d a63d
000000e0: d57d 14bd d01a 4dbd 8bc6 0cbe 8906 a3bd
000000f0: 9b45 9cbd ffb4 9b3d cd05 303e 728a 8dbd
00000100: 487e 053e c943 37bd 9183 fa3c 2d05 ef3c
00000110: 8735 d8bd cfe1 d63d cc4b bfbc 0620 ff3c
00000120: 1f8f bebd 35fb c23d d60b c03d 11db 89bb
00000130: 5fbc bb3d 37ed 8f3d 11de d9bd e1f8 1cbe
00000140: 23d1 2cbd ac88 313e 4e57 ebbd 6de9 b03c
00000150: 6df6 133e 000d 85bd aa05 aa3d 2f31 1d3e
00000160: 8b0d 443c 27d6 a1bd 7e5a f23d c3b6 cabc
00000170: d32d 0d3d 20cf 9b3d a7c7 df3d b26a b03c
00000180: 12d8 273e bc99 eabc 3391 d4bc 7b09 22be
00000190: b317 ed3c 9a1f b63d 722c 0c3e 45b2 143c
000001a0: cfd4 1cbe 1674 9c3c 1cf9 2cbe 4b6c 95bd
000001b0: 3a99 443e 3a7b 21bd 001e 383e b7f3 04be
000001c0: e8ac 1ebe bd85 b2bd 4f0e d43d 077e bf3c
000001d0: 05ae f7bd cca5 1abe 9bf7 d1bb b33f 09be
000001e0: 0254 dcbd faa0 21be 367f 41be 1149 e7bb
000001f0: 3679 a63d 6876 123c 89b5 05be 79ad 903d
00000200: f957 bf3d d413 173d 5568 03be 2be3 aebc
00000210: c01d 5c3d 91d5 b1bc 3803 1b3e f656 e7bc
00000220: 80f8 143e 2540 09bc 386c ac3d 167c c73d
00000230: e232 ea3d c97b 14bd fe57 b43b 60a6 0b3e
00000240: acd1 f03d 2391 a3bd 9d36 a83d b985 893d
00000250: eb34 06ba 7fc0 db3d f220 47bd 665e 1e3e
00000260: 132f d23c 4248 ddbb 9231 5abc 8d36 7c3d
00000270: 947b 223e b8be 103e 77e9 483e d35c 98bd
00000280: be77 903d 0de1 2fbe 6945 9bbd 9f14 e13d
00000290: 1fc8 ff3d ecb3 373c f479 2bbe 4d06 183e
000002a0: 183f 343e 1386 d3bd bdc0 d03d ff09 24be
000002b0: 7118 313e 04bc a43c ef95 9b3d dcb1 203e
000002c0: d055 933d 317d 44be 247e 3d3e 88e0 1d3c
000002d0: 9e96 27bd 9942 833d 3216 073e 3929 0e3d
000002e0: 850a 28be e7e0 b13d 0bd6 a43d 1f0c 1cbe
000002f0: cec7 a5bc 9a10 d7bc 3e0e f73d ef93 1c3b
00000300: 5358 083e 7b1d dc3c 83d0 92bd 572d 18be
00000310: 93b1 0fbe 0ac9 e1bd 43f2 aa3d 74c3 5ebc
00000320: 7f88 37be 0bd4 3c3e 30dd 3cbd 6476 efbd
00000330: 7368 063e adb1 bb3c 0333 8cbc 9694 a73d
00000340: 2e46 2dbd ec65 7ebd 5d42 24be 5809 ef3c
00000350: e4ec 6cbd c284 1b3c 0150 d43d 6245 453e
00000360: 1024 e2bd db02 4ebd 0ef8 833d 888b 6ebd
00000370: 1daa 4a3e cf98 00be b484 47be 5975 783d
00000380: 4d00 a53d 16bd d83c fd30 adbd 1d4b d0bd
00000390: 0721 91bd 1532 a8bd cc6b dcbd 843b ed3d
000003a0: 6e77 a2bd fc2d 043e 998c c13d 18b2 ac39
000003b0: 8415 043e 3b05 4bbe 4c8c 093e 5972 663d
000003c0: 5418 10bd 19be c7bd 7250 81bc 4924 9b3b
000003d0: 868d 9b3d d339 01be 8bcd 81bc 2525 0c3e
000003e0: bb9f 43be b6da a1bc 63ad 123e 8f04 703d
000003f0: 099f 263e 5750 97bd ec9a f53c c3bc 7e3e
