results/learn_shoot_ppo/Shootair/Shootair-167993.onnx (onnx, 507113 bytes, 15 tensors)

discrete_act_size_vector f4 [1, 2]
00000000: 0000 0040 0000 0040
2.0 2.0

network_body._body_endoder.seq_layers.0.weight f4 [128, 447]
00000000: 1ce1 303d 9506 1f3d 1ae3 d0bc ecb0 b83d
00000010: b053 bb3b c130 fd3c 0ecc 963d d26d b2bc
00000020: 1fd9 633d 25f8 a5bd d50a 4a3d 7f49 163d
00000030: 566b c83c d59c c63c 5b4c a13d 6cc7 7ebb
00000040: 9f43 12bc d5af 7dbd a07a 32ba 3d47 b83d
00000050: d54a 87bd cc6b 8cbb 51b1 043d e014 963d
00000060: b595 113d d6e2 933b 0881 3e3b 1352 733d
00000070: 6686 763c 144b e3bc c709 0a3d 3303 8d3c
00000080: c439 8abd 5b06 8b3b bf87 cf3c 544a 27bc
00000090: b4f8 293a 0a59 8bbc ca87 cfbc 988b 013d
000000a0: 86fe a4bd 455a a03d a787 33bd c394 2ebc
000000b0: d8ca 1b3b 93f4 95bc 1d54 81bc ecf7 963d
000000c0: 4231 24bd 434c 4f3d 214f c03c fbbc be3d
000000d0: 22b6 6cbc 3169 183d e25f b83d 7a89 dc3b
000000e0: 331f 30bd 4967 063c 65ab da3c d55e 423b
000000f0: aec0 653d d0d5 6bbc c3a8 e3bc 0957 f6bc
00000100: b3cb 29bc 7a38 ff3c 7338 a63c 26eb 473b
00000110: 240b 8b3d 3a10 6d3d eb35 8a3c df85 81bd
00000120: 3983 8dbb 4028 fc3b e153 b8bc 6475 52bd
00000130: 4b96 04bd 47ab 5bbc 8740 a3bc 6e3d 4f3d
00000140: d5a6 383c 5988 90bd 3e03 66bb e24e a9bc
00000150: 94e6 9e3c 0f44 cf3b 1f97 76bb b1e2 613d
00000160: fb8f 38bd 308d 463d a3f0 28bd d689 0e3d
00000170: 8d6c 123d df75 e6bc 835b cf3d 5b72 cf3d
00000180: 7bfe a8bd 9c8f 55bc c3d2 51bd 24a5 b6bc
00000190: 8b70 31bd e399 233b e677 853c 23e3 c53b
000001a0: b6a3 32bd 22ca 89bd e7be 0a3d 81c6 373d
000001b0: e974 a13d f917 363d 76f5 52bd 94ce d13c
000001c0: 647f f53c 974e 1bbd 272d 6ebd 336f b23b
000001d0: d94c 4f3b 87d5 903d 99eb 7e3d 15cd 8b3c
000001e0: f1f1 9e3d 8895 a0bb cda6 7e3c 4a7b 30bb
000001f0: f60f 743c 07cf ae3d b0a1 5cbd 006e 703c
00000200: b5cf 0d3d bcfd 903c db51 1dbd 7112 9c3d
00000210: 2cf1 ae3d 2fc0 c8bc e125 b9bc 30bf 58bc
00000220: 5f89 a5bc b380 2e3d a787 93bc a97b 0bbd
00000230: 4e97 363d fa17 0e3d 629f 8e3c d263 553c
00000240: 8de3 31bc 2a2d 5f3d 261c 433c 4fa0 a33d
00000250: dc14 533d a6c1 c9bd 7b66 233d 0e12 57bd
00000260: 40c9 00ba 0616 db3b 7552 fabc 7ef0 213d
00000270: be61 e63c 334c 41bd 659a 3f3d a735 afbc
00000280: 7b84 223b fc95 523d aaa7 c23b cb49 653d
00000290: 394d a4bc be3a 0ebd 093b ee3b 05ce a83b
000002a0: 2e3e 7b3d 193b f4bc af18 29bc 9010 e6bc
000002b0: 4a31 aabd 7ade 4b3d d798 893d be21 303d
000002c0: f9ae 993d 381d f5bc 25da 383d 625c 40bd
000002d0: a323 bbbd 44a2 3fbd 8f36 bdbd 5aa4 5c3d
000002e0: 905d 173e 7857 b2bd 3cb0 223a fad8 4ebd
000002f0: ef2a f7bc bef0 0b3d f054 bb3d 92f4 d03b
00000300: e95d 883c d39a 7b3c 228f cb3c 8ebb 5f3d
00000310: 4f90 e1bc cb7f 35bd 9361 993c 3963 8abd
00000320: 72df c73d c9c8 cd3c 275c 0bbd deab 1d3d
00000330: 404f 51bc c574 2d3d ee0b 64bd 3fc2 34bc
00000340: d872 843c 5e7d cabc c301 003e 934e aa3d
00000350: 2146 543b 8b91 543d c5d3 553d 6b65 2a3d
00000360: 8fec 393d db5e 583d f694 5e3c a1b4 c83c
00000370: f8f5 b2bd 169d 053e 363d 1c3c c002 ae3c
00000380: 1684 a1bd 1e3a 5e3d 07c9 a73d cc6a 54bd
00000390: ff27 4e3b 4f26 e13c cecf fa3b fa03 dfba
000003a0: eac0 81bd a104 04bb 6ff3 c53c aa88 26bc
000003b0: a065 60bd 5c65 c53c 5e52 473d 5983 3d3d
000003c0: 7f35 63bc 616a aabb a46a 5d3c 7ed0 de3d
000003d0: 04ce c7bc cada 94bb c758 adbb 0902 45bc
000003e0: c69c 043d 5225 82bc 95fb 85bc 8698 0fbc
000003f0: 8762 28bd 0356 323c a5f8 85bd d8fb 8dbd
0.04318343 0.038824636 -0.025498915 0.0901812 0.0057167634 0.030907037 0.07363139 -0.021780882
0.055626985 -0.081039704 0.049326736 0.036691185 0.024465244 0.024244705 0.07875892 -0.003887619
-0.008927255 -0.061935265 -0.00068084337 0.089979626 -0.0660607 -0.0042853113 0.032395665 0.073282
0.035543162 0.004513125 0.0029068608 0.059404444 0.0150466915 -0.027745761 0.03370073 0.01721344
-0.06749299 0.004242701 0.025333283 -0.010210592 0.0006483898 -0.01701023 -0.025333304 0.031627268
-0.08056359 0.078297175 -0.04383054 -0.010655585 0.0023772027 -0.018305099 -0.015787179 0.07371506
-0.04008604 0.05060984 0.023475232 0.09313389 -0.014447721 0.037209693 0.09002663 0.0067302557
-0.042998504 0.008203336 0.026693055 0.0029658575 0.056091957 -0.014394239 -0.027790433 -0.030070798
-0.010363507 0.03115486 0.020290589 0.003050515 0.06789234 0.057876803 0.016871413 -0.06324362
-0.0043186215 0.007695228 -0.022500934 -0.051381484 -0.032369893 -0.013407535 -0.01992823 0.050595693
0.011270245 -0.07057256 -0.0035097147 -0.020667497 0.019397058 0.006325252 -0.0037626696 0.05514783
-0.045059185 0.04847449 -0.041245114 0.03479942 0.035748053 -0.028132377 0.10124876 0.101292334
-0.08251663 -0.013034727 -0.05122639 -0.022295542 -0.04332022 0.002496355 0.016292524 0.0060390397
-0.04361316 -0.06728007 0.033873465 0.044867042 0.07883627 0.044456456 -0.05150362 0.0256112
0.029967971 -0.037916746 -0.05814853 0.005445385 0.0031631498 0.07071977 0.062236402 0.017065564
0.077609904 -0.004900638 0.015542698 -0.0026928955 0.0148963835 0.08535581 -0.053865135 0.014674664
0.034621913 0.017699115 -0.03840814 0.07620705 0.08542094 -0.024505703 -0.02260107 -0.013229176
-0.020207105 0.042603206 -0.01800902 -0.03405348 0.04457789 0.034690835 0.017409984 0.013024287
-0.010857475 0.05448643 0.011908567 0.07989561 0.051533565 -0.09851389 0.039892655 -0.052507453
-0.0004912801 0.006685975 -0.030556897 0.03953599 0.028122779 -0.04719181 0.0467781 -0.021387888
0.0024798203 0.051412567 0.0059403973 0.055978578 -0.020056354 -0.03472399 0.007270221 0.0051515126
0.061338596 -0.029813336 -0.010320826 -0.02808407 -0.083101824 0.049772717 0.06718605 0.04300093
0.075040765 -0.02992116 0.045129914 -0.046963103 -0.091376565 -0.046785608 -0.09238922 0.053867675
0.14781785 -0.087080896 0.00062060705 -0.050499894 -0.03017184 0.034165137 0.0914706 0.0063768113
0.016646342 0.015356737 0.024848524 0.054622225 -0.027534632 -0.044311326 0.018723285 -0.067572065
0.09759416 0.025120156 -0.03402343 0.038493983 -0.012775242 0.04234769 -0.05567544 -0.01103264
0.016168043 -0.024717983 0.12500672 0.08315768 0.0032390433 0.051896613 0.052203912 0.041600626
0.045391615 0.052824836 0.01358532 0.024500193 -0.08738321 0.13048205 0.009536078 0.021241546
-0.078865215 0.054254644 0.0819264 -0.051859662 0.0031456945 0.027484087 0.007654167 -0.0017014735
-0.063356236 -0.002014436 0.02416393 -0.010164419 -0.054784417 0.024096183 0.048662536 0.04626784
-0.013867735 -0.0052006696 0.013514195 0.108796105 -0.024390228 -0.0045426833 -0.005290124 -0.012024411
0.032376073 -0.015886936 -0.016355315 -0.008764392 -0.041109588 0.010884765 -0.06541566 -0.06932801

network_body._body_endoder.seq_layers.0.bias f4 [128]
00000000: 7cd1 2fbc a0ca a53b a090 11bc 71d8 52bc
00000010: ac2f 49bc 3f03 69bb c34e a43a 7870 a53b
00000020: 6a52 e9ba 7af7 143c 7fbd 043c 2e0c 17bb
00000030: daee 38bc de92 ac3b 9827 49bc 82cd e0ba
00000040: 78ad 6f3b eb2a 22bc 0f6d 103c d713 b6ba
00000050: e1a2 3e3c 6715 483c d845 f33b b20b f639
00000060: 141c 333c 500e 7abb f494 2c3b 93f6 13bb
00000070: d8a2 673c e9ab 383c e30f a33b ea15 e33b
00000080: 735f b53b d3f4 76bb 337d 6fb9 a0ae 2ebb
00000090: 9fd2 103a dbc4 233c 1fc6 ae3c 9c32 693c
000000a0: ac33 db3a 6bc6 32bc df92 4d3c 25be 5a38
000000b0: 3419 cf3b fb7b 573c 63f8 b43b da39 5db9
000000c0: b12b 233c e7c2 8b3b 8739 24bb 5ff5 253a
000000d0: 41ec 133c 7cfa d33b dd48 103d a7e8 323c
000000e0: ddba 45bc dd74 d33a f8d8 383c dd68 7dbb
000000f0: 0a33 333b 0385 24bb 2cda 893b dc7c 4e3d
00000100: d1e5 c03a 1580 83bb c659 a13b e969 dcba
00000110: 9329 f4b9 e1f5 03bc 1b4e 1dbc a7bd 5d3c
00000120: ffa8 0b3c 3192 763a df56 45bc 1b23 16bc
00000130: 71a5 3f3c a22c db3b 58df 19bb cd67 56ba
00000140: 166e 983b 8b9b a4bb bc50 563c 6125 9cbb
00000150: 1992 263c 4e1a 26bb 7af9 21bc 8edd 20ba
00000160: b74d 2dbc 699a ccbb f2bb 63bc 3a9f a7ba
00000170: f6ff 473c 5e4f 7dbc ae3d aabc cd53 5abc
00000180: e031 6d3a 1a7a 763c b1d3 933a de84 11bc
00000190: 2fb9 aa3c 18b2 5dbb 34c1 63bc ed01 20bc
000001a0: 1199 883c 32f7 073c b022 ef38 5116 1a3a
000001b0: b1c9 963b d1fc 8fbb 0a02 d9bb af53 a4bc
000001c0: e79e 06bc 892e e3bb be23 8c3b a41b c13c
000001d0: d408 27bc 59de 57bc 6d4a 21bc 13d1 163c
000001e0: cda9 4e3c 8373 be3a abee 33bb e102 b9bb
000001f0: a0d1 423b 097e ff3a e517 423c 4297 ebb8
-0.010731097 0.005059555 -0.008884579 -0.012868986 -0.012279432 -0.0035554913 0.001253568 0.0050488077
-0.001780105 0.009092206 0.00810182 -0.002304803 -0.011287415 0.0052665314 -0.012277506 -0.001715109
0.0036571901 -0.009897928 0.008815064 -0.0013891411 0.011635513 0.012212134 0.0074240975 0.0004692949
0.010931987 -0.0038155504 0.00263339 -0.002257739 0.014137946 0.011271455 0.004976259 0.0069301026
0.00553506 -0.0037682548 -0.00022839457 -0.0026654378 0.0005524549 0.0099956645 0.021334706 0.014233258
0.0016723773 -0.010911564 0.012547224 5.2152336e-05 0.006320143 0.013152118 0.005522774 -0.00021097754
0.009959147 0.0042651775 -0.0025058703 0.00063308136 0.009028495 0.006469069 0.035225738 0.010919726
-0.012068477 0.001613285 0.011282198 -0.003866724 0.0027343654 -0.0025103695 0.0042069163 0.050412044
0.0014716928 -0.0040130713 0.004924032 -0.0016816232 -0.00046570282 -0.008054228 -0.009601141 0.013533986
0.0085241785 0.00094059395 -0.012044637 -0.009163643 0.011697159 0.0066886703 -0.002347907 -0.00081789197
0.004651795 -0.005023425 0.013080772 -0.004765198 0.010166668 -0.0025345269 -0.00988614 -0.000613653
-0.010577611 -0.006243993 -0.01389979 -0.0012788542 0.012207022 -0.015460817 -0.020781364 -0.013325644
0.00090482645 0.01504376 0.0011278299 -0.008881776 0.020840256 -0.0033828076 -0.013901044 -0.009766084
0.01667455 0.008298682 0.00011402869 0.0005877959 0.00460168 -0.0043941517 -0.0066225575 -0.020059435
-0.008216596 -0.0069330377 0.0042767217 0.02357275 -0.010194976 -0.01317557 -0.009844405 0.009205121
0.012613726 0.0014530275 -0.002745549 -0.005646095 0.0029726997 0.0019492517 0.011846517 -0.00011233847

network_body._body_endoder.seq_layers.2.weight f4 [128, 128]
00000000: 1614 6cbd 9372 83bc 6c10 7cbd 96c4 aebd
00000010: 4db5 a9bd 49ee 60bd 0715 0ebd 063f 69bd
00000020: 53e5 18bc 3443 0bbd fe96 24be 1a14 8dbd
00000030: 147e 903c 7cf3 403e f859 b23d 515a f93c
00000040: b937 f5bc 4aff 59bd 65ef 96bd a3e1 953c
00000050: 878e 18be f2c0 1b3e 1b93 29be 45ce 97bd
00000060: dbda b5bd 24a1 c9bd 0f28 093e 32f6 573c
00000070: b952 373d fe36 1b3e dc29 b73d 5ea9 a93d
00000080: 8fc2 5a3d fea6 e1ba 1ff6 a53d 4e75 cf3d
00000090: b48c cf3d 90c2 a93d 5dbc 43bd 035d 92bc
000000a0: 6457 1dbe 882e 433d e578 42bd d92f a4bd
000000b0: 0a14 15be 75d6 e7bb 50e4 17be 9d87 eebc
000000c0: 276b 18bd 9ff7 353d 1511 e2bc 71cc 1ebd
000000d0: 477b bb3d c5fb 0a3e 7dbb 323d bc1d bebd
000000e0: d8c8 7d3d 4f2a 2abc 1ea1 b3bd 4f6a 573c
000000f0: 41ab 61bd 27d9 2d3d 40f8 283d 5f07 be3c
00000100: adec cebd ba27 5dbd d521 f63d eaad 93bd
00000110: 5c01 1cbd 96ef aabd 7128 1ebe a254 223c
00000120: d0f7 513c 0712 28bd a98b 733c 0489 1f3d
00000130: 7857 ae3d faed 1f3e 330a b43d bdd9 0fbe
00000140: f976 c23d b5a1 b3bc 7f53 e8bd 9fe7 7bbd
00000150: 6042 3d3d 922f 0bbd ff50 22be 4d94 383b
00000160: 9c61 debd dc64 e4bd 37b4 38bd b64a bfbd
00000170: 097e e93b cd26 e43d 751b 003b 53b2 183e
00000180: 8208 763b d437 00be 3559 c63d 4074 c43d
00000190: cc64 02be b452 fcbb cc00 2ebe b13d b6bc
000001a0: 8401 81be fb07 2b3e c967 8b3d 41b3 50bc
000001b0: af09 38bd 0fc0 71bd e9ab 49bd 96a2 2f3e
000001c0: 8a3d ad3c f0ec 48be 4b55 b2bd 5017 d4bd
000001d0: ad76 803d 6007 3e3d acb2 b1bd 8517 533d
000001e0: 24b2 c23a ff18 03be 4d2e 01be 58d2 0dbe
000001f0: 268b 563d 9915 4bbe 3563 ea3d 9866 9b3d
00000200: ff82 b2bc 86b8 e43c 7521 a0bd e245 0e3d
00000210: 452e 2e3d 55ca e6bd 86da 083c a05e 2fbd
00000220: 728f f6bd 8e52 553d e147 11be 95d8 a73c
00000230: 1224 d83b d478 ebba 5770 6fbd 368e 00bc
00000240: f123 20be 40a9 93bc ff00 2cbd 3539 9f3b
00000250: dd5b b73d c7fb 71bd e5a4 bbbd 14b1 a73d
00000260: cb7f 44bc 1960 7e3a b30a dfbc 31e1 72bd
00000270: fa51 05bb 8d04 d13d d923 193c f0b0 23bc
00000280: ce26 27be c0be d4bd e7bf 24bc ab9a 58bc
00000290: 3615 fdbd b661 b63d d017 7b3d a4e8 ed3c
000002a0: fb73 4fbc 6512 50bc 836e 8b3d 56f9 41be
000002b0: 4a68 013e 539f 833d cd01 61bc e328 a53d
000002c0: f735 8cba 4f35 ce3d 8ab0 513d 2c26 103e
000002d0: 08ab 623d 50c4 f53d d3ba 8fbd 43ad 2f3c
000002e0: 99ca 51bd 7129 12be 6baf 62bc a079 db3d
000002f0: a261 00be 1385 593d ef8e fbbc c724 95bd
00000300: 2c5a ebbc c6c5 263e 6c2c 0fbe 813a e6bc
00000310: db6f a23e 6856 ddbb 490e e83d a1ce c3bd
00000320: a046 9e3b 81a7 34ba c790 fa3d 7c8f b43d
00000330: 2a59 04be 09a6 4c3c 88b7 8c3c 92aa a63d
00000340: b22f 36be 6db8 8ebd 4f66 a23d 6194 0dbe
00000350: d15d ac3c d89e 4bbd 9ab6 47bc ed18 66bc
00000360: 56ab a4bd dd7b 91bd 3582 4d3e fbf9 a9bd
00000370: d5d7 be3d e6e7 5bbc b224 2d3e d381 f93d
00000380: 3c8a dd3d 2b14 f6bb d865 13bd 918e 9ebd
00000390: db54 72bd f3af 16be 0550 96bc 453e 9c3c
000003a0: 5042 063d b634 773e 11ee 04bc 7c62 69bc
000003b0: bc8c 0a3e 5a40 3f3d ed72 813d 9792 513d
000003c0: c263 933d 90ba 3bbc 1727 083c cd80 103e
000003d0: fc7a 03bd dced 4dbd f485 043e 4573 dbbd
000003e0: 34cf afbd 7569 aabd a020 d33c e6f0 e93b
000003f0: 3066 eabd 4650 7e3e 1c24 ea3d 54ba 43bd
-0.057636343 -0.016045844 -0.0615391 -0.085335895 -0.082865335 -0.054914746 -0.034688022 -0.05694487
-0.009332019 -0.033999637 -0.16073224 -0.068886 0.017638244 0.18842882 0.087085664 0.030438574
-0.029933797 -0.05322198 -0.0736988 0.018296069 -0.1489812 0.15210322 -0.16560023 -0.0741239
-0.08879634 -0.09845188 0.13394187 0.013181256 0.044756625 0.15157697 0.08943531 0.08284257
0.0534082 -0.0017215905 0.081035845 0.10129796 0.10134259 0.08289063 -0.04778706 -0.017866617
-0.15365368 0.047651798 -0.047478575 -0.08016939 -0.14558426 -0.007075126 -0.14833188 -0.0291174
-0.037211563 0.044425603 -0.027596036 -0.03876919 0.09154373 0.13572605 0.043635834 -0.09283015
0.061959118 -0.010386064 -0.08770965 0.013147905 -0.05509496 0.04244342 0.041252375 0.023196874
-0.10103736 -0.053992964 0.12018172 -0.07210906 -0.038087234 -0.08346479 -0.15445115 0.009907873
0.012815431 -0.041032817 0.014864841 0.038949028 0.08512777 0.15618125 0.08791008 -0.14047904
0.094953485 -0.021927694 -0.113440506 -0.061500188 0.04620588 -0.033980913 -0.1585121 0.0028164566
-0.10858461 -0.1115205 -0.04509374 -0.09340422 0.0071256203 0.11140213 0.0019547616 0.14911775
0.0037541692 -0.12521297 0.09684984 0.095924854 -0.12733763 -0.0077002887 -0.16992491 -0.022246214
-0.2519647 0.16702263 0.06806905 -0.01273805 -0.04493111 -0.059021052 -0.049236212 0.17151865
0.021147508 -0.19621634 -0.087076746 -0.10356009 0.062726356 0.046393752 -0.08676657 0.0515361
0.0014854115 -0.12802504 -0.12615319 -0.13849771 0.052378796 -0.19832458 0.114447035 0.075879276
-0.02179098 0.027920019 -0.078188814 0.034734614 0.042524595 -0.112690605 0.008352881 -0.04281485
-0.12039079 0.052080683 -0.14187576 0.020489017 0.006596097 -0.0017965087 -0.058456745 -0.007846406
-0.1563871 -0.01802504 -0.041993137 0.0048591145 0.089530684 -0.059078004 -0.091623105 0.08188072
-0.011993359 0.0009703651 -0.027226781 -0.05929679 -0.0020343051 0.10205946 0.009346926 -0.009990916
-0.16323397 -0.10387945 -0.010055519 -0.0132204695 -0.12357561 0.08905356 0.061302006 0.029041596
-0.012661929 -0.012699698 0.06808188 -0.1894277 0.1263744 0.06426873 -0.0137333395 0.08064439
-0.0010697235 0.100687616 0.05119375 0.14077061 0.05533889 0.12000334 -0.07018056 0.010722461
-0.051218603 -0.14273621 -0.013835768 0.107165575 -0.12537244 0.053105425 -0.030707804 -0.07282405
-0.02872952 0.16286382 -0.1398179 -0.028104069 0.31725964 -0.006754685 0.1133085 -0.09560896
0.0048301965 -0.0006891415 0.12234645 0.0881643 -0.12924638 0.012490758 0.017177358 0.081380025
-0.17791632 -0.0696877 0.0792967 -0.13826133 0.021040829 -0.049712032 -0.012189532 -0.014044029
-0.08040492 -0.07103703 0.20069201 -0.08299633 0.093185104 -0.013421988 0.1690853 0.12182965
0.10817382 -0.0075097284 -0.035985798 -0.07742036 -0.059162956 -0.14715557 -0.018348703 0.019072661
0.032778084 0.24141201 -0.0081134 -0.014244672 0.13530248 0.04669223 0.063207485 0.05116519
0.07196762 -0.011458054 0.008310101 0.14111634 -0.03209971 -0.05027567 0.12941724 -0.10715345
-0.08584443 -0.083208956 0.025772393 0.007139313 -0.11445272 0.2483531 0.114326686 -0.04778512

network_body._body_endoder.seq_layers.2.bias f4 [128]
00000000: 494e 0e3d 92cd a9bb 35d2 7abc 2a8d 563b
00000010: b812 013c 34ba c9ba 9e58 2d3c 24e1 633c
00000020: 13be 0e3a 39a3 c63c b534 d53a 75e8 a7bc
00000030: 06c4 21bc 0f33 b13b cb12 963c 50f0 5d3c
00000040: aa46 213c 7065 9fbc 2605 98bc dff6 f8bb
00000050: 67e1 bd3b 68fc 30bc 565b 29bc 140e 353c
00000060: cb25 1b3c d942 a23b f196 90ba 7f29 8f3b
00000070: 714d c73b 18fe acba 8125 2c3b 83e3 cc3a
00000080: b87b daba c1e7 003c 3e04 5e3b 1db2 433c
00000090: be28 4e3a f745 b23b 1199 953b a4a0 07bc
000000a0: a967 bdbc 0d29 04bc f4d7 f4b8 172c 5f3c
000000b0: 9ed7 09bd 2f30 25bc af4f e83b ced8 8bbb
000000c0: 7729 be3b ab2e cdbb f11e e73b 0fc3 cbbc
000000d0: 7aa3 a43b f28e eb3b a8af 9c3b 33be eebb
000000e0: 7a9c 12bc 0f4d 9d3c 1483 89bc aaa8 7dbc
000000f0: e999 03bc 3b56 2bbb 6a61 283c 4ea2 973c
00000100: dceb e53b bb95 80bc c75c 813c c076 1f3c
00000110: 491c ecb9 f2cd 02bb 8210 51ba a639 653c
00000120: b899 4b3c 82c2 2ebc eb3d 2dbb 6b0b c0bb
00000130: 085f 863c 5c42 0f3c cff2 85bc 8c2d 613c
00000140: 64df cc3b 2320 a03c d629 ed3a a52b ce39
00000150: cb56 5e3c 587f f43b 9f62 723c 8259 0dba
00000160: 30bd 813a 92cd eeb9 394c 86b9 31e2 68bc
00000170: 32b9 e1bb 5454 1abc d71a 48bc 2f05 d0bc
00000180: dd21 c6bb 24cd acbc 5e09 8abc ce07 8d3c
00000190: 298e 26bc 5c1f 5e3c 4b9c 40bb 800c 5ebc
000001a0: c4ef e3bb b7cd 7b39 d71d 92bb 0ab6 8dbb
000001b0: 988c ec3b a74c 2fbc 6a5a 08bc 2760 00bc
000001c0: 3cf9 cd3c 69b1 6f3c c214 813c 2c56 933c
000001d0: 991f 62bc b80a 3dbc bb4c c5bb 837c 353c
000001e0: b555 b1bb ad51 0d3b b540 13bb 562e 56bc
000001f0: 2db8 0c3c 7c1c 2c3c 8f62 a23b 1790 443c
0.034742627 -0.0051819766 -0.015308906 0.003273795 0.007877998 -0.0015390576 0.01058021 0.013908658
0.00054451934 0.024247753 0.0016266318 -0.020496586 -0.009873396 0.005407698 0.018319508 0.0135460645
0.009843508 -0.019457549 -0.018557142 -0.0075977887 0.0057946923 -0.010802366 -0.010336718 0.01105072
0.00946946 0.0049518165 -0.0011031312 0.0043689604 0.00608223 -0.0013198284 0.0026267471 0.0015631769
-0.0016668951 0.007867754 0.003387704 0.011944321 0.00078643474 0.0054404694 0.004565366 -0.008278046
-0.023120718 -0.008066428 -0.00011675051 0.013621352 -0.033652894 -0.010082289 0.007089577 -0.0042677885
0.005803283 -0.006261667 0.007053249 -0.024873285 0.0050243707 0.0071886713 0.004781682 -0.007285857
-0.00894844 0.019201783 -0.016786136 -0.015482107 -0.0080323005 -0.0026143927 0.010277132 0.01851001
0.007016642 -0.015696397 0.01579131 0.009732902 -0.00045034502 -0.0019959179 -0.0007975177 0.013990795
0.012426786 -0.010666491 -0.002643461 -0.005860736 0.016402736 0.008743849 -0.016351132 0.013743769
0.006252216 0.019546574 0.0018094133 0.000393239 0.013570498 0.0074614696 0.014794021 -0.0005392061
0.0009898301 -0.0004554806 -0.00025615262 -0.0142140845 -0.006888532 -0.009419519 -0.01221343 -0.025393097
-0.0060465173 -0.021093912 -0.01685017 0.017215636 -0.01016573 0.013557281 -0.0029390033 -0.013552785
-0.0069560725 0.0002401386 -0.0044591236 -0.0043246793 0.0072189085 -0.010699428 -0.008322338 -0.0078354245
0.025143258 0.0146297 0.015756968 0.017985426 -0.013801479 -0.0115382 -0.00602111 0.011077049
-0.0054118284 0.0021563575 -0.0022468988 -0.013072571 0.008588833 0.010504838 0.0049555968 0.011997244

action_model._continuous_distribution.log_sigma f4 [1, 2]
00000000: 2311 983e da66 f93e
0.29700574 0.48711282

action_model._continuous_distribution.mu.weight f4 [2, 64]
00000000: 3a17 92bc 8836 563d 60de b2bd 373f a3bd
00000010: 1507 ec3c f710 a23c a4c1 e53d 6e95 18be
00000020: 54c2 123d 5325 233e 9dcc 0b3d 062c fabd
00000030: fd9c 843d 9590 f53d 840b 77bb 452a e5bb
00000040: c12d 75bd d1b9 a53c 1ea1 603c 4b65 b13d
00000050: d985 a13b 0d40 4bbc 41ff b3bb fdc3 88bd
00000060: e36e 013d 6a70 b33d ab04 e6bc 623f 933d
00000070: db40 38bd a882 f23d 8cac 353c 3911 fd3c
00000080: 4734 e93c 30ba 76bd 0d3c b43d cf60 403c
00000090: d427 58bd a6c4 a43d e507 343d 7a1c cf3d
000000a0: f291 223c aaff 13bd 60a2 66bd c6c2 623a
000000b0: 45ff af3d ac75 2a3d 8f06 b43d 476c 063d
000000c0: 7701 3fbd c55f f6bc 6d09 983d 56c1 dcbc
000000d0: 8268 8a3d 8a54 50bd 8d28 4f3d 0e0f fabb
000000e0: 031c 423d 83f6 133c efce 233c 4e65 08bd
000000f0: 8cbe 4ebb 44c5 cbbc 4930 dcbb 2d29 473d
00000100: 0df7 59bd 1d26 eebd 90e2 913d e4b3 593d
00000110: a890 f13c 0a7b 9a3c 2317 5fbd 8b6f 423d
00000120: d4bf 90bd c71d 49bd 6e3a e3bc a927 e43d
00000130: d305 32bd 5d66 16bd 2d3d ebbd c90b dcbd
00000140: 7acf 70bb 242b bb3c 347f 413c ad97 a5bd
00000150: 84bf 9e3d afeb 593d c4b8 68bd d2a6 a93d
00000160: 9d7b bbbd 78b9 3b3d 3648 b3bd 5ad4 103c
00000170: b182 f23b 2133 dcbc 3dfe 813d 7094 ff3a
00000180: 42b9 c9bd 1997 38bd 9402 90bc e11e 88bd
00000190: 7823 603d e1db 1bbd 1662 e63d ef3d c3bc
000001a0: a082 bbbc f960 93bd a849 2ebd a0b6 6dbd
000001b0: ecbd fb3c edb7 8bbd 6187 053e 32ca 2fbc
000001c0: e6b0 5d3d 1dad 9ebd 95d7 1ebe 10cd bc3b
000001d0: db32 b4bd 02e6 e1bd e205 c2bc b4cd 60bd
000001e0: edd2 ae3b bcd3 df3c 6684 743d c659 8dbc
000001f0: 756c a1bd 0230 a43c bb3e ab3d 71c0 8b3c
-0.01783334 0.0522981 -0.08733821 -0.07971042 0.02881197 0.01978348 0.11218575 -0.14900753
0.035829857 0.15932207 0.03413068 -0.12215428 0.06475256 0.119904675 -0.0037696073 -0.0069935643
-0.059858087 0.020230206 0.013710288 0.08661898 0.004929286 -0.012405408 -0.005493075 -0.06678007
0.03159989 0.08761676 -0.028078398 0.07189824 -0.044983726 0.11841327 0.011088502 0.030892001
0.02846731 -0.060236156 0.08800516 0.011741831 -0.052772358 0.0804532 0.04395284 0.10112853
0.009922491 -0.036132492 -0.056307197 0.00086502393 0.08593611 0.041616127 0.087903135 0.032818105
-0.046632256 -0.030074963 0.07423673 -0.026947659 0.067582145 -0.050861873 0.05057578 -0.007631189
0.047389995 0.009030941 0.009998067 -0.033299737 -0.003154668 -0.024874337 -0.006719623 0.048623253
-0.05321412 -0.11628363 0.071232915 0.053150073 0.029487923 0.018857498 -0.054465424 0.047469657
-0.07067838 -0.049100664 -0.027737822 0.11140377 -0.043462586 -0.036718715 -0.11486278 -0.10744435
-0.003674476 0.02284772 0.011810113 -0.080855705 0.077513725 0.05320328 -0.05681683 0.082837716
-0.09154437 0.045831174 -0.087540075 0.008839691 0.0074008335 -0.026879849 0.0634732 0.0019499194
-0.09849788 -0.045065973 -0.017579354 -0.06646515 0.054721326 -0.03805149 0.11249177 -0.023833243
-0.022889435 -0.071962304 -0.042550713 -0.058035493 0.03073021 -0.068221904 0.13039924 -0.010729359
0.05412378 -0.077478625 -0.15511926 0.00576175 -0.087987624 -0.11030199 -0.023684446 -0.054883674
0.005335203 0.027322643 0.059696577 -0.017254721 -0.07882015 0.020042423 0.08361574 0.017059537

action_model._continuous_distribution.mu.bias f4 [2]
00000000: eea7 083c baee 593d
0.008340819 0.053206183

action_model._discrete_distribution.branches.0.weight f4 [2, 64]
00000000: 5bc4 bfbc 7f4a 9cbc 1f05 7e3d b5c7 cf3d
00000010: e9a3 1dbd 2200 05bc b774 633c 0d18 f2bc
00000020: f266 98bd a784 d9bb f4cb 83bd 593f 7c3d
00000030: 77d0 af3a b591 21bd 7a48 06bd 5ba9 05bd
00000040: 2162 1fbd ed74 e83b ed2e 36bd 9caf 87bd
00000050: 9889 153c 4564 2fbd 9558 cebb f80c 883d
00000060: f817 7c3c cf25 543b 63b4 b1bc 75ec 7a3d
00000070: 4af7 983d 0032 cfbd ee10 8f3d 1300 b13d
00000080: fd45 eabc f312 0d3d 347c ae3c ccb4 9dbc
00000090: dcf3 743d 3661 98bd 337d 1b3d 8908 bc3c
000000a0: e8f5 833c 9784 703c 6c52 f5bc 8745 7d3d
000000b0: d2e9 1c3d 093b 673d 197e 03bb 4554 843d
000000c0: 7298 253d 6c16 6ebc 2553 0fbd 9c11 b43b
000000d0: bca2 04bb c757 b1bc 35e0 85bd 7e72 17bd
000000e0: 6006 8e3d 6e60 54bc b4cc ecbc 734d 81bd
000000f0: 1c1d efbd d0cd d63c f8a2 6bbc 6a8c b4bc
00000100: 1ce3 743c fee5 c13c 919a 80bd 28df b7bd
00000110: f678 4d3d 0841 933c ac93 4bbc af0a 2f3d
00000120: 85a8 a53d b8d2 49bc b802 243d f79c 5abd
00000130: b704 d33c 36c6 ec3c 21ee 51bc d4c5 523d
00000140: fd45 013d 3a4f 39bc a21a e33c eb49 343d
00000150: e6e0 32bd f716 033d bdd0 f7bb a5ed 55bd
00000160: 1cba e23c 44c3 843c 202c 123d 91b1 23bd
00000170: 7af1 93bd b1e9 443d c5d3 8ebd 51f3 9fbd
00000180: 73c2 123d 9177 c9bc 9305 12bd 3bf9 443d
00000190: 2f3f 13bd 63bc a43d 2435 23bd b640 51bc
000001a0: 6e03 eabc 8dcb b4bc 2575 1b3d a61b a0bd
000001b0: 7a8e aabc d551 82bd 8380 963c 87b9 5abd
000001c0: 741e 69bd 3ade 9b3c 463c 2d3d e0ab 8bbc
000001d0: 2a26 8c3c 7733 613c bdec 303d e1a0 b73c
000001e0: e56a 8ebd 1236 983c 0bec f03c 0d31 ab3d
000001f0: 2c8c 0e3e 0fe7 243c 82fe 13bc ed42 0b3d
-0.02340906 -0.019078491 0.062016603 0.10145513 -0.038486395 -0.008117707 0.013882807 -0.029552484
-0.0744151 -0.006638128 -0.06435385 0.06158385 0.0013413568 -0.039445598 -0.032783963 -0.032632213
-0.038911942 0.0070940168 -0.044478346 -0.06625292 0.009127043 -0.042820234 -0.006297181 0.066430986
0.015386574 0.0032371168 -0.02169246 0.06126066 0.07469042 -0.101169586 0.06985651 0.08642592
-0.028597826 0.0344419 0.021299459 -0.01925125 0.059802875 -0.074404165 0.037961196 0.022953289
0.016108468 0.014680049 -0.029946528 0.061833885 0.038308926 0.056452785 -0.0020064174 0.06461386
0.040428586 -0.014531713 -0.034991402 0.0054952633 -0.0020238599 -0.0216483 -0.06536905 -0.036974423
0.0693481 -0.012962444 -0.028906204 -0.063136004 -0.11675474 0.026221186 -0.0143821165 -0.02203961
0.014946725 0.02366924 -0.06279481 -0.089781106 0.050164185 0.017975345 -0.012425344 0.042734798
0.08088783 -0.012318306 0.040041655 -0.05337235 0.025759084 0.028903108 -0.012813122 0.051458195
0.031560887 -0.011310393 0.02772266 0.044015806 -0.04367151 0.032004323 -0.0075627253 -0.05222859
0.027676634 0.016206391 0.035686612 -0.039964262 -0.072237924 0.048074428 -0.069739856 -0.07810081
0.035829972 -0.024593147 -0.035649847 0.048089247 -0.03594893 0.080437444 -0.0398456 -0.012771776
-0.028566089 -0.022069717 0.037953515 -0.078177735 -0.020819891 -0.063632645 0.018371826 -0.05339959
-0.056913808 0.019026864 0.04229381 -0.01704973 0.017108042 0.01374518 0.04319452 0.02241558
-0.06953982 0.01858047 0.029409429 0.08358965 0.13920659 0.010064854 -0.009032847 0.033999372

action_model._discrete_distribution.branches.0.bias f4 [2]
00000000: d483 363d d683 36bd
0.044559315 -0.044559322

action_model._discrete_distribution.branches.1.weight f4 [2, 64]
00000000: b3fc 88bd 6151 54bd 7166 2dbc d09e 21bd
00000010: 267f b33d 11cd 7c3d 8fd9 773d 5eea 57bd
00000020: bbcc 31bb 976a 0fbb 1be2 1fbc a39d 21bd
00000030: e54f f6bd f49b 57bc bc61 8abc 59ba 04bc
00000040: fee2 1abd a8c6 82bc ea0e 8ebd 4f65 17bd
00000050: 2800 4c3d 4a5c 503c 9529 d8bd f8b6 843c
00000060: e61b 54bd 7654 dc3c e329 3c3c 9502 c9b8
00000070: 131c 9b3c a667 283d d378 203d 539e 0ebd
00000080: ece6 2cbd 5f38 873c b77f 713c b51a e53b
00000090: 624a 753d 61fe 053d 796d 193a b9aa a13d
000000a0: c6fb bdbd 8a79 8bbd 26d3 48bd 1f75 643d
000000b0: a55d 2fbc 6e85 b9bd e117 863c 6244 033c
000000c0: 0a5b c83c cbb3 3cbd 6c38 973c 3962 ab3d
000000d0: 1c95 7fbd 9367 22bd 85a9 5e3d f856 a4bd
000000e0: 3342 063d c0ea a93c fa08 eebc b03c 0abc
000000f0: 09cb 823c 050a fdbc 9321 393d c897 02bc
00000100: 60e2 a13d 4ed0 343d b466 f03c 4552 0d3d
00000110: 37b3 bcbd bc64 92bd 4e58 aebb 7629 833d
00000120: 1586 733c e1b4 aa3c bc65 9dbc 4acf 3e3d
00000130: 3ae6 d93d 3d28 8abb ceb2 ba3c a701 503d
00000140: c83d d63c f9ec c03c d9b2 9c3d 80de a03d
00000150: 2e51 34bd 09f9 6fbc b199 613d 79c5 19bd
00000160: d973 f43c 7157 b7bc 6739 053c bd1d 2fbc
00000170: 2baf 5abd 6443 97bd f535 07bd 3c7f 143d
00000180: 1e50 8b3d 7d37 0ebc f40a 1ab9 674e f83b
00000190: 0fad c0bc c064 d5bc b4bb d9bc d46a acbd
000001a0: cc3b 733d f285 643d 6636 273d a85b 0cbd
000001b0: 1735 7b3c 6fb4 3a3d ebfe 123b fe13 46bb
000001c0: 4cfb 61bd db0e 0d3d 9b54 04bd 4c3b c3bd
000001d0: 8e96 cc3c e416 b43c 8121 20bd 326a 893d
000001e0: bbce 6abd 9dca 02bd f2ed 553d 03e8 14bc
000001f0: a92b ba3a f3e1 5e3d 0e0f 23bd 508d 993c
-0.066888236 -0.05183542 -0.010583506 -0.039458096 0.08764486 0.061719004 0.060510214 -0.052713744
-0.0027130086 -0.00218836 -0.009758498 -0.039456975 -0.120269574 -0.013159741 -0.016892307 -0.008101069
-0.037814133 -0.015963867 -0.069364384 -0.03696185 0.049804837 0.012717316 -0.10554806 0.016200528
-0.05178442 0.026895743 0.011484596 -9.584908e-05 0.018934285 0.04111447 0.039177727 -0.03481896
-0.04221241 0.016506372 0.014739922 0.006991709 0.05988539 0.032713298 0.00058527995 0.07893891
-0.092765376 -0.06810291 -0.04902949 0.055775758 -0.010703479 -0.09058653 0.016368808 0.008011909
0.024457473 -0.0460699 0.018459521 0.08368344 -0.06239806 -0.039649557 0.054360885 -0.080244005
0.032777976 0.02074182 -0.029057015 -0.008437321 0.015965955 -0.030888567 0.045198034 -0.007970758
0.07904506 0.044143967 0.029345848 0.034502286 -0.0921387 -0.0714812 -0.0053205853 0.064043924
0.014863511 0.020838203 -0.01921355 0.046584405 0.10639615 -0.0042162226 0.022790339 0.050782826
0.026152506 0.023550497 0.076513 0.078549385 -0.04402273 -0.014646777 0.055078212 -0.03754184
0.029840397 -0.022380562 0.008131362 -0.0106882425 -0.05338971 -0.073859006 -0.03301044 0.036254153
0.068023905 -0.008680222 -0.00014690665 0.0075777057 -0.02352002 -0.026049018 -0.026578762 -0.08418813
0.0593832 0.055791803 0.040823363 -0.034267098 0.015332482 0.04558223 0.0022429775 -0.0030224319
-0.055171296 0.034437995 -0.03230725 -0.09532794 0.024974134 0.021983571 -0.03909445 0.06709708
-0.05732606 -0.03193151 0.052228875 -0.009088519 0.0014203686 0.0544147 -0.03980928 0.01874414

action_model._discrete_distribution.branches.1.bias f4 [2]
00000000: 6150 903c 6050 90bc
0.017616453 -0.01761645

onnx::LSTM_133 f4 [1, 256, 128]
00000000: d312 f03d c68a c3bd 7434 c3bd e8c8 e3bd
00000010: 6628 aebd e133 6c3d 1054 dbbd 2574 17be
00000020: d1af e53d 1fe7 27bc 60d9 f83d 5089 bf3d
00000030: 7dbb 4e3c fd0c 6ebd 11a8 3e3e eab9 09be
00000040: b014 153e ba9a 71bc 3daf ad3d b8f9 0abd
00000050: 93ab cf3c ec82 d9bd 350c a83d 9679 eabd
00000060: 5561 b43c 62d6 9a3d 5351 f23b 2d4e 2dbe
00000070: 8a6b 213e 8697 513e 06b3 1cbe 0910 9ebd
00000080: 8247 3cbe 4b77 9bbd 4ea0 f23d 72c2 adbd
00000090: ea2e 8a3b 327a 4cbe 12d9 fb3d 9b5b 973d
000000a0: 84f1 95bd 8bfb 143e 9a2f abbc 4c34 f13d
000000b0: d2de b53d 2ee6 06be 2cf3 6cbd cf49 54bc
000000c0: 3e6f b53d eeeb 2cbe 6f68 b0bc 7670 36be
000000d0: 11bb 023e 60a1 383e caf7 a03d 191b 14be
000000e0: e499 0a3e db21 aabc 4954 25bd 905d adbd
000000f0: 7cf2 5cbd 1555 89bd becb 37be 1415 b83d
00000100: 2222 833d c5cd 36bd 6662 65bd 8216 513d
00000110: 69f9 e3bc ee08 1dbe a5f6 373e 6db9 373e
00000120: b3fa 2dbc 86a3 c13d d9be b43d 3f07 10bc
00000130: b125 983d 011b f3bc a569 be3d e180 f8bd
00000140: adbc 80bc fd68 9fbd 4df0 1ebe d303 febd
00000150: 6092 a5bc fee7 afbd 5478 31bc 7e39 763b
00000160: 3bb6 5f3d 13b1 b9bd b36c 39be d03f f33d
00000170: 89cf 44bc 9fbe 05be 5ba9 543d b652 4c3d
00000180: 8961 6e3b ee58 e1bd 7e95 4cbe a5b3 133e
00000190: 0608 093e 4acf 98bd 0f1b 31be 179f 10be
000001a0: 93dd 06be 60d6 593d 03cf 9dbc 446d 0ebd
000001b0: 4b1e debd f3f7 713d 7673 b8bc eb5f dbbd
000001c0: e6f1 dfbd 33dc 19be a9eb 023e bcb3 d4bd
000001d0: 8c86 3f3e cd75 e13d 549a f43d fe4a dc3d
000001e0: 3b14 4b3e 40b8 143e af76 453d dfc9 5e3d
000001f0: 93e4 c63d f8e7 193e f335 58bd 2433 c63c
00000200: e618 3abe 7518 0f3e 5c78 03bd dcdb 59bd
00000210: 6fc5 233e a59a 1c3e 011e 81bd 942a 3e3a
00000220: 0e6d e8bc f7ad 3c3e 8304 083e 63f7 293d
00000230: 8b42 233e 0aa3 703d 1d70 963d 8651 5e3e
00000240: b761 b7bd 18a6 4fbe 2f58 58bd 8497 0ebe
00000250: 3ee5 c0bc fa45 0bbe 3e69 a43d 7ab3 c53d
00000260: 62ad 8abd 3a94 62bd 5a19 d93d 7350 d7bd
00000270: a475 aabd 620d d53d a11e 9a3d 7962 11be
00000280: 7809 273e e651 983d 35fa 34bd 1fea c5bc
00000290: 1d8c fabd 2ee8 c2bc e82d a33d 4a7b b0bc
000002a0: 35cf 023e f855 de3d ec91 3d3d 68f5 babc
000002b0: cb80 993c 96f7 123e bd6c 203d 15aa 14be
000002c0: 19cd a3bd d69b 8c3d dcdf 17be 2100 81bd
000002d0: 2cce e23d ce49 8abd 2c44 fd3d d089 e13c
000002e0: 6b5e 28bd 27cb 313e f541 72bc 8d50 483d
000002f0: f922 47be 624c 493d 3ad0 ae3d c403 913d
00000300: 34bc 403e ce90 713d 8109 5d3c 6cb1 123e
00000310: 6e90 373e 98d2 b0bd 5708 59bd 8db8 ce3d
00000320: 00a6 013d 3af9 e8bb 9782 aabc ccd4 19be
00000330: fac4 41bd 1444 83bc 525d 46be cbf8 82bd
00000340: 5b78 1b3e 519a 223d b90b 8cbc 482d a8bc
00000350: 9b91 503e 5c50 1f3e 6d5f 1ebe 5223 ebbd
00000360: 3e00 f73d d8f6 6dbd 2d3b bc3b 5b2a e83d
00000370: 6fca 453d 586d 0b3e b3b4 a5bd f608 f1bc
00000380: a4e8 1a3e 4fdb 3cbe ee01 1cbc a95c 973b
00000390: 70db d3bd 9b07 173e 173e 41be 9304 ffbd
000003a0: 69ac 04be 2d69 023d cf20 18bb 0fbb efbc
000003b0: c8f6 da3c db8b b6bd 7158 733d 0ef6 873d
000003c0: d56b 9a3d a882 0bbe d699 953d 0653 6a3d
000003d0: 8fe9 d5bd 60f4 e73d ee31 233e d344 113e
000003e0: e15c 0d3e 2ae1 dd3d 3994 1c3d 2e83 983c
000003f0: f6cb 7bbd b1c0 233d 8afe 433e 9af5 153e
0.117223404 -0.09547953 -0.09531489 -0.11122304 -0.08503799 0.057666663 -0.10709393 -0.147904
0.11215175 -0.010247975 0.12150836 0.09352362 0.012617943 -0.058117855 0.186188 -0.13449827
0.14558673 -0.014746362 0.0848069 -0.033929557 0.025350368 -0.106206745 0.08205453 -0.11448972
0.022019068 0.075604215 0.0073949485 -0.16924353 0.15763679 0.20467958 -0.15302667 -0.07717902
-0.18386653 -0.07591113 0.11846982 -0.08484353 0.0042170184 -0.19968489 0.12297262 0.07390519
-0.07321456 0.14549081 -0.020896722 0.11777553 0.0888039 -0.13173744 -0.057849094 -0.01295705
0.088591084 -0.16886875 -0.021534173 -0.17816338 0.12766673 0.1803031 0.07859762 -0.14463462
0.13535267 -0.020768097 -0.040363584 -0.08465111 -0.05394219 -0.06705681 -0.17948815 0.08988395
0.06402995 -0.04462983 -0.056002043 0.051046856 -0.027828889 -0.15335438 0.17965181 0.17941828
-0.010618853 0.09455018 0.08825464 -0.00879079 0.07429064 -0.029675962 0.09297494 -0.12133957
-0.015714968 -0.07783697 -0.15521355 -0.12403073 -0.020211399 -0.08589171 -0.010831911 0.003757089
0.054617148 -0.09066977 -0.18107872 0.11877406 -0.012012371 -0.13060997 0.051919322 0.049883567
0.0036374053 -0.1100329 -0.19978902 0.14423998 0.13381967 -0.07461412 -0.17295478 -0.14123188
-0.13170461 0.05318296 -0.01926375 -0.034772173 -0.10845622 0.059074353 -0.022515994 -0.10711654
-0.1093481 -0.15025406 0.1278521 -0.10385844 0.1870367 0.11008797 0.11943498 0.10756491
0.19831936 0.14523411 0.04820889 0.054391738 0.09711566 0.15029895 -0.052785825 0.024194308
-0.1817356 0.13974173 -0.032097206 -0.05318819 0.15993284 0.15293367 -0.06304551 0.00072542694
-0.028372314 0.18425737 0.13282971 0.041495692 0.15943353 0.058749236 0.07345603 0.21710786
-0.089541845 -0.20278203 -0.052818473 -0.13924986 -0.023546811 -0.13600913 0.08027886 0.09653373
-0.067713514 -0.05531714 0.106005386 -0.10513391 -0.083232194 0.10402943 0.07525373 -0.1419772
0.16312206 0.07437496 -0.04418393 -0.02415949 -0.12233756 -0.023792353 0.0796774 -0.021543164
0.12774356 0.10856241 0.04628174 -0.022822097 0.018738171 0.14352259 0.0391662 -0.14518006
-0.07998104 0.06865661 -0.1483149 -0.06298853 0.110744804 -0.067523584 0.123665184 0.027531534
-0.04110567 0.17362653 -0.014786233 0.048904944 -0.19446935 0.04914511 0.0853581 0.07080796
0.18821794 0.058975987 0.013491035 0.14325494 0.1792619 -0.086339176 -0.05298647 0.10093794
0.03165245 -0.0071097882 -0.020814223 -0.15022582 -0.047306992 -0.016023673 -0.19371536 -0.0639511
0.1518263 0.03969795 -0.017095434 -0.020529404 0.20368044 0.15557998 -0.1546609 -0.11481346
0.12060593 -0.058096737 0.005744359 0.11336204 0.04828876 0.1361593 -0.08091106 -0.029423218
0.15127808 -0.18443035 -0.009521944 0.0046192002 -0.10344589 0.14748995 -0.18871342 -0.12452044
-0.12956394 0.031838585 -0.0023212915 -0.029264001 0.026729003 -0.08913394 0.059410516 0.06638728
0.075400986 -0.1362406 0.073047325 0.057208084 -0.104449384 0.11325908 0.15937015 0.1418641
0.13804962 0.10833962 0.038227294 0.018617239 -0.06147381 0.039978687 0.19140068 0.14644471

onnx::LSTM_134 f4 [1, 256, 64]
00000000: 8427 443e 2a65 d83d 769b 2bbe ab3d 11be
00000010: 98ab 1abe 5d3b e53d 0ed7 d23d 1ae3 85bc
00000020: 69dd 2a3e 75a0 0c3e 3599 273e d856 45be
00000030: 23c3 f1bd 21d4 5dbe 2f59 4b3e 051d 8d3d
00000040: 07ac 133e 82ff ae3d a49a 3c3e 16ae 6ebd
00000050: dac9 633e 6665 20be 3577 bdbd 6233 86bd
00000060: c695 65be 8f8c a2bd 6374 fc3d b2e0 333e
00000070: f2c3 98bb ecca ccbc 7f5b 7bbc 293b d2bd
00000080: c950 59be 1dfc 2abe 9055 b23c ed11 323c
00000090: e7a9 09be 0720 2abd 2c14 37b9 8e8a 0f3e
000000a0: 04a1 dd3d 5f13 e9ba 376a 08be 8053 fa3d
000000b0: d6a6 c2bd fd59 d53b 1de5 10bd f311 593e
000000c0: d069 ffbd b155 443e e0ab 173b add3 8b3d
000000d0: f0be 703d 07c8 aabb 5875 acbd 88ad f2bd
000000e0: 24e2 0dbe 4b4d 3a3e b617 cb3d 1293 babd
000000f0: eefb fe3a c635 81bd f309 513e 2c0e b03d
00000100: a43a 90bd 51b6 943d 5790 82bd 6ce5 513d
00000110: 2ef4 02be 27d5 8d3d 2eb2 aabd b75e d0bd
00000120: 69cc d5bd 9e20 323e 64b7 5abe 8acd c6bd
00000130: 2dbf dbbd e099 efbd a2a6 f6bd 35b3 2cbd
00000140: da79 b13d 701c 9d3d 1d09 393e e2ff b03d
00000150: e27f 303e 9674 56bd 1d71 86bd bd2b ca3b
00000160: 9457 303e 8629 823d b9db 5d3d 79ac 953d
00000170: 334d 703e 65ac 2fbe b4ab 9f3d 3ffc 343e
00000180: 0220 193e 4561 073e 7b21 163d 67e4 2b3e
00000190: c74c 2d3e 69a9 4ebe 3350 d5bd 431a ac3d
000001a0: 6164 fbbc 743a 083e df6c d23d a829 3a3e
000001b0: f026 12be a14e f03d ffa3 283e 19e8 22be
000001c0: 64ad 0d3e 2115 7c3d e3f8 64bc 86f2 543e
000001d0: c4c1 16be 2ef6 1b3e 4b01 343e aeaa c8bd
000001e0: 7128 553d 6d57 c63d 767f 353e ca87 023e
000001f0: 9b72 bb3d da6d 95bd a0cb 4cba 3b83 123e
00000200: 726f a1bd c750 bbbc b74f 0bbd 90d6 5f3e
00000210: 8bc8 32be 9f25 e13d b753 283d 28f1 c13d
00000220: 0f12 58be 618b 5cbd a9d0 60be 3e0b 3d3e
00000230: f355 283e 1227 c03d 8f94 043e a9d0 ecbd
00000240: 65d5 8a3d 7913 e93c 808e 093e 277d d23d
00000250: 832f eebc 68ee a8bd daa8 633d 93a8 913d
00000260: 330e 6abe c1b0 fbbc 36b9 3abe 8f87 3ebe
00000270: 82be 6a3e 6c8e 06bd 3c59 153e 070f 20be
00000280: 2a35 6f3d c56c 0d3e 4a9e 89bd 2108 f9bd
00000290: 1350 04bd 38b0 23be 9914 34bd cdc8 32be
000002a0: 34e0 2ebe 641b 44be 1060 28bd ae8d 21be
000002b0: f9a4 093e cd97 093e c2e5 5b3c 5ba7 4b3d
000002c0: 77d2 c8bc e8cb 873d 8c71 4abd d3e1 1ebe
000002d0: 22ec 94bd 5c7d 2bbe bf79 e43d 8e06 3a3d
000002e0: 5d91 a03d 485e 43bd a821 5cbe 42c1 93bd
000002f0: 8d0b 00be 3407 b53a 3ba4 86bd 16ae ab3d
00000300: 2949 fe3d 395c a03d d5ac a33d f87d 5f3e
00000310: 6742 1d3e f555 583e 09ba 27be 5bd3 eaba
00000320: 7e9e 313e ec2c de39 14ea 1b3d 7d04 1cbe
00000330: 2943 fd3d 7c14 61bc 8024 d23d e402 2d3d
00000340: 9999 68be f08b 5cbe a826 f3bd 8a79 6bbe
00000350: 2b7c d03d 5c85 f7bd 5f07 64be 948e 08be
00000360: 73e2 453d afc4 2e3e ebf7 4e3d bc57 6f3e
00000370: 4215 3a3e 852e 1abe 600e 1dbe 0719 edbc
00000380: 2e21 ea3d b42f 7b3b 48ba fa3d 9ebb b6bd
00000390: 9c4a 8ebc 2ef2 7ebd 6fe4 ea3d 1956 d63d
000003a0: e673 acbd 06ee e2bd 6c9c b03d ce1b 13bd
000003b0: 4edc 2abe 6542 193e c21d c63d faf0 8bbd
000003c0: 91f5 bd3d 587e 103e 2040 15bd ca3c 14be
000003d0: f256 38be aac1 70be 8e13 a23d 1fc9 16be
000003e0: 5471 30be aefb 0bbe c0af 3b3e 2a17 57be
000003f0: 5cbd 053e 02df 93bc f681 e43d 04c1 22be
0.19155699 0.105661705 -0.16758522 -0.1418368 -0.1510452 0.11192963 0.10294925 -0.016343642
0.16686024 0.13733084 0.16367038 -0.1927141 -0.118047975 -0.21662952 0.1985824 0.06890301
0.14421092 0.08544828 0.18418366 -0.05827149 0.22244969 -0.1566368 -0.092512526 -0.06552769
-0.22420415 -0.07936966 0.123268865 0.17566183 -0.0046620304 -0.024999104 -0.015341639 -0.1026519
-0.21222223 -0.16697736 0.021769315 0.010868532 -0.13443719 -0.04153445 -0.00017459755 0.14017698
0.10821727 -0.0017782262 -0.13321768 0.122229576 -0.09504478 0.0065109716 -0.03537475 0.21198253
-0.12471354 0.19173314 0.0023143217 0.06827483 0.058775842 -0.0052118334 -0.08420819 -0.11849505
-0.13855797 0.18193547 0.09916632 -0.09110083 0.0019453743 -0.063090846 0.20413952 0.08596453
-0.07042435 0.072613366 -0.06375187 0.051244184 -0.1278846 0.06925421 -0.08334766 -0.101743154
-0.10439379 0.17395255 -0.2135902 -0.09707172 -0.10729823 -0.11699271 -0.120435014 -0.042163093
0.086658195 0.0767144 0.18069883 0.08642556 0.17236283 -0.05235728 -0.065645434 0.006169765
0.17220908 0.06355576 0.054164622 0.07308287 0.23466949 -0.17155607 0.07796422 0.17674349
0.14953616 0.13220699 0.036653023 0.16786347 0.1692382 -0.20181812 -0.104156874 0.084034465
-0.030687513 0.13303548 0.10274672 0.18179953 -0.14272666 0.11733747 0.1646881 -0.1590885
0.13835675 0.061543588 -0.013975355 0.2079564 -0.14722353 0.15230629 0.17578618 -0.097981796
0.05204052 0.09684644 0.17724404 0.12747112 0.09152719 -0.07296343 -0.0007812325 0.14307873
-0.07882585 -0.022865666 -0.03401157 0.21859193 -0.17459314 0.10993504 0.04109546 0.09469825
-0.21100639 -0.05384386 -0.21954598 0.1846132 0.16439037 0.09382452 0.12947296 -0.11563236
0.06778983 0.028451668 0.13433266 0.10277777 -0.02907539 -0.082485974 0.05558095 0.07112231
-0.22856979 -0.030723931 -0.18234715 -0.18606399 0.22924235 -0.032850668 0.14584821 -0.15630732
0.05840031 0.13811024 -0.06719644 -0.121597536 -0.032302927 -0.15985191 -0.043964956 -0.17459412
-0.17077714 -0.19151074 -0.041107237 -0.15776703 0.13441838 0.13436814 0.013421478 0.04972015
-0.02451442 0.06630689 -0.049424693 -0.15515833 -0.07271601 -0.1674704 0.11156034 0.045416407
0.07840226 -0.047697335 -0.21497214 -0.072145954 -0.12504406 0.0013811351 -0.06574293 0.08382814
0.12416298 0.0783009 0.079919495 0.21825397 0.15357362 0.2112654 -0.1637956 -0.0017915772
0.17345616 0.0004237661 0.03806503 -0.15236087 0.123663254 -0.013737794 0.10260868 0.042239085
-0.22714843 -0.21537757 -0.118726075 -0.22995582 0.10179933 -0.12085983 -0.22268437 -0.13335639
0.048311662 0.17067216 0.0505294 0.23373312 0.18172172 -0.15056808 -0.15337515 -0.028942598
0.1143211 0.0038327994 0.122425616 -0.08922504 -0.01736956 -0.06224268 0.114693515 0.104656406
-0.084205434 -0.110805556 0.08623585 -0.03591519 -0.16685602 0.14966734 0.096736446 -0.06833072
0.09275354 0.14110696 -0.036438107 -0.14476314 -0.18001917 -0.23511377 0.07913886 -0.14725159
-0.17230731 -0.13670227 0.18328762 -0.2100493 0.13060516 -0.018050674 0.111576006 -0.15893942

onnx::LSTM_135 f4 [1, 512]
00000000: 0185 d43c 77f7 0e3d 07eb 0f3d fe04 c73c
00000010: 7799 123d 231d 193d 9408 b43c e3d0 b73c
00000020: c168 263d e9ae 013d a62d 3f3c 064e 383d
00000030: 71d2 033d 149c 1e3d 37ee b3bc e6f9 ac3c
00000040: d3df 893a 0709 393c d71a 583c 17ef ed3c
00000050: 260f 1c3c 6f14 0f3d 091f 0f3d 8ebc 1d3d
00000060: e65a b13c 43cc a83c b097 733c 56c2 1cbc
00000070: ae85 883c 7377 933c 81fc d73c 928a b63c
00000080: 673f 4f3d fc64 793c c729 af3c 7e19 e3bb
00000090: b174 e23c 3203 163c a05c 0e3c 4b07 283d
000000a0: 8693 fd3a 78eb 203c 41be 2e3c 91dc c63c
000000b0: fe6b 563c aa52 bd3c 9634 c03c b60a 003d
000000c0: 4ffa c13c 5783 d13c f557 f53c e6f7 883c
000000d0: 0fd0 9c3c 8e9b 7e3c 9daf 873a c6f1 e5ba
000000e0: cfcb 1b3d 8c56 913a e9ca 003d bf3a be3c
000000f0: 8a45 cc3c 7559 163c ff21 363b 3625 133d
00000100: 3b98 f4bb 46c2 063c b648 033d 49fd 5e3c
00000110: abb1 ec3c c56e e83c 6ddc 433d a01c 1e3d
00000120: b80b 553c f05d b83c bdec 04bc 3c4e 103d
00000130: 6ddc 953c 7509 883c 7e7a 8f3c d715 963c
00000140: 4fb6 96bc 7808 76bc fb76 86bc 90f2 983c
00000150: cf80 053d affb 013d 8ad4 a93c 401f 973c
00000160: 98a0 bd3c dac0 9b3c 5c99 573c eaec 563b
00000170: 949d 133d d8fa 0e3d 6902 123d 1c21 cc3a
00000180: 5e3b 393d 9ec1 573c 7d3f 383b 27ff 9c3c
00000190: 6937 36bc b8e0 9a3a 8a24 d53c d3b4 3c3d
000001a0: 55a6 0fbd 65b5 923c 96e5 4c3c cb09 513d
000001b0: 88ee db3c c080 a73c d84b 7f3c 60c6 703c
000001c0: d25b 4d3b 8472 b03c 7a5a 133d e2c1 0f3d
000001d0: d65c 543c bd2d dd3c 8933 323c eed0 0c3d
000001e0: 82bf 743c e85e f4bb 15ac 453d e12b f93b
000001f0: 7ff2 b93c e276 a33c 11b1 1a3c 4fe9 743c
00000200: 09b8 823f 7d52 7f3f ba96 7d3f 07a7 7d3f
00000210: 258e 7d3f 3f03 783f e20b 803f 81ce 783f
00000220: bfac 793f ded3 803f 4110 813f 3cd5 7b3f
00000230: f57e 803f c7e5 7f3f fcea 803f 291d 833f
00000240: 992c 813f ebd8 7e3f eaeb 833f 8753 803f
00000250: ac4b 813f c1c5 813f 10e9 813f d1b9 823f
00000260: c8c4 7c3f 9e1a 823f a519 823f 53cc 7d3f
00000270: dd19 813f d3c4 803f 6b15 823f e395 813f
00000280: 3957 823f 0698 823f 7844 7f3f c917 7d3f
00000290: 1205 823f 5095 833f db0d 813f aa63 7e3f
000002a0: 46f9 813f a394 813f 290f 813f 66b9 833f
000002b0: 9cf7 7c3f 5e64 7b3f 402d 823f 3869 813f
000002c0: 6e18 803f b57a 803f 08a1 813f f9b8 803f
000002d0: 86ac 803f 0ddc 813f b32a 823f fd9a 813f
000002e0: e352 7c3f fc0b 803f 7c30 7f3f 1917 823f
000002f0: fe97 7f3f d1f8 7e3f 9a3d 7c3f b5a3 7f3f
00000300: cfe7 67bc ab9c d7b9 165b 37bc 6088 083c
00000310: 197a 1b3c 888a 083c 1025 9eba 12f4 eabb
00000320: 44a0 0b3c 3404 a139 70d5 90bc c4bd ec3b
00000330: 4f05 34bb 5fc7 24bc dde2 0bbb d52a b3bc
00000340: 34e4 d4bb 02fe f2bb 2319 8ebc 53da 11bc
00000350: 9287 e93b 7dbf 603c 9df0 40bc 44e1 ab3c
00000360: 8f1b 54bb f212 c53b a53c 59bc 047c 593c
00000370: 2963 50bb e537 5d3c 3d33 873c 1fa9 243c
00000380: 89a4 60bc 973a 67bc 54fa 623c 2a94 7cbb
00000390: ed32 313c c786 25bc b7cc 923c 763b 13bb
000003a0: e8a6 26bc 75f2 98bc 44bd b9bb fe2b 8dbb
000003b0: 350b 66bb c509 393c a4e7 163c 3a98 c13c
000003c0: 3cb8 9f3c 4bd8 16bc d36c 68bb 75a1 8cba
000003d0: 8056 18bc 4ad7 a2bc 7f3f b9bb 0a3d b5bb
000003e0: ad6d 60bc 6b92 03bb 3e7b 39bc 442c 80bc
000003f0: c9b5 7bbc 72d1 00bc a0d6 073c ee2c bfbb
0.025942327 0.03490397 0.03513625 0.024294373 0.035790887 0.037381303 0.021976747 0.022438472
0.040627245 0.031660948 0.011668598 0.044996284 0.032183114 0.038723066 -0.021964176 0.021115255
0.0010518975 0.011293656 0.013189993 0.029044671 0.009525096 0.034931596 0.034941707 0.038509898
0.021649789 0.020605212 0.014867708 -0.009567818 0.016665306 0.018001294 0.02636552 0.022282872
0.050597575 0.01522183 0.021382226 -0.006930529 0.027643533 0.009156035 0.008689076 0.04102258
0.0019346334 0.009821765 0.010665477 0.024275096 0.013087271 0.023110706 0.023462575 0.031260215
0.023678927 0.025575323 0.029949168 0.01671977 0.019142179 0.015540017 0.001035202 -0.0017543368
0.038036164 0.0011088415 0.03144351 0.023221372 0.024935503 0.009176602 0.002779126 0.03592416
-0.0074644363 0.008225029 0.032051764 0.013610193 0.028893312 0.028373132 0.047817636 0.038601518
0.013003282 0.02250573 -0.008113083 0.03523086 0.018293584 0.016606072 0.017514464 0.01832096
-0.018397478 -0.015016668 -0.016414156 0.01867035 0.032593545 0.031734165 0.02073123 0.018447518
0.023147866 0.019012857 0.013159122 0.003279502 0.03603895 0.034907192 0.03564683 0.0015573832
0.045222633 0.0131687205 0.0028114014 0.019164635 -0.011121609 0.0011816239 0.0260184 0.046070885
-0.035070736 0.017908761 0.012505909 0.05103473 0.026847139 0.020447135 0.015582047 0.014695734
0.0031335247 0.02153898 0.035974957 0.03509701 0.012961587 0.026999349 0.010876545 0.03437894
0.014938237 -0.007457603 0.048259813 0.0076041077 0.022698639 0.019954149 0.00944163 0.014948203
1.0212413 0.9973524 0.99058115 0.9908299 0.9904502 0.96879953 1.0003626 0.971901
0.97529215 1.0064657 1.0083085 0.98372245 1.0038744 0.9995999 1.0071712 1.0243274
1.0091735 0.9954974 1.030637 1.002549 1.0101218 1.0138475 1.014925 1.0212957
0.98737764 1.0164373 1.0164076 0.991399 1.0086018 1.0060066 1.0162786 1.0123867
1.0182868 1.0202644 0.9971385 0.9886442 1.0157797 1.0279942 1.0082353 0.99370825
1.0154197 1.0123485 1.0082752 1.0290954 0.9881532 0.98200023 1.0170059 1.0110235
1.0007455 1.0037447 1.0127268 1.0056449 1.005265 1.0145279 1.0169281 1.0125424
0.98563975 1.0003657 0.99683356 1.0163299 0.99841297 0.99598414 0.98531497 0.9985917
-0.014154389 -0.00041124722 -0.01119115 0.008333296 0.00948956 0.00833381 -0.0012065489 -0.0071702087
0.008522097 0.00030711445 -0.0176799 0.0072247703 -0.0027468984 -0.010057299 -0.0021344938 -0.02187101
-0.0064969305 -0.007415534 -0.01734597 -0.00890215 0.007126757 0.013717529 -0.011776117 0.020981438
-0.003236506 0.0060142213 -0.013259088 0.013274197 -0.0031797385 0.013502096 0.016503925 0.010050087
-0.013711103 -0.01411309 0.013853628 -0.003854046 0.010815364 -0.010102934 0.017919881 -0.0022465861
-0.0101716295 -0.0186703 -0.005668314 -0.004308223 -0.0035101895 0.011293833 0.009210501 0.023632158
0.01949703 -0.009206842 -0.0035465255 -0.001072927 -0.009297967 -0.019878048 -0.0056533213 -0.005530958
-0.013698024 -0.0020076286 -0.011320887 -0.015646107 -0.015363165 -0.007862436 0.008290917 -0.0058342135
