results/learn_shoot_ppo/Shootair/Shootair-190618.onnx (onnx, 507113 bytes, 15 tensors)

discrete_act_size_vector f4 [1, 2]
2.0 2.0
00000000: 0000 0040 0000 0040

network_body._body_endoder.seq_layers.0.weight f4 [128, 447]
0.03761877 0.042948127 -0.025498915 0.097343475 0.0035743401 0.032473348 0.07363139 -0.018779073
0.053130325 -0.078969106 0.049326736 0.044066362 0.027290307 0.022444597 0.07875892 -0.004240695
-0.0083486615 -0.06267071 -0.00068084337 0.094525225 -0.057331204 -0.00980266 0.032395665 0.068685256
0.039013684 0.0023168356 0.0029068608 0.06181528 0.013657702 -0.027072532 0.03370073 0.013378838
-0.056964446 -0.0026238426 0.025333283 -0.010968851 0.0038256075 -0.019180907 -0.025333304 0.026217807
-0.06720352 0.070673816 -0.04383054 -0.013559346 -0.005358027 -0.012567858 -0.015787179 0.070350416
-0.04035549 0.050461285 0.023475232 0.097492374 -0.02202445 0.043125827 0.09002663 0.0051722126
-0.036662817 0.0051665553 0.026693055 0.0030275802 0.052077394 -0.011712131 -0.027790433 -0.031466186
-0.0063119475 0.029706825 0.020290589 0.0030878035 0.0805537 0.049068667 0.016871413 -0.06965109
-0.009288942 0.008898206 -0.022500934 -0.05012655 -0.014968187 -0.02391631 -0.01992823 0.04697551
-0.006949419 -0.0646865 -0.0035097147 -0.017609704 0.02814504 0.0013639828 -0.0037626696 0.052451868
-0.06810569 0.054133914 -0.041245114 0.038286738 0.046353 -0.03338774 0.10124876 0.09904542
-0.09437381 -0.009286874 -0.05122639 -0.0197104 -0.04798286 0.004916808 0.016292524 0.005834391
-0.057524566 -0.063088045 0.033873465 0.04544788 0.06940581 0.048242975 -0.05150362 0.02498975
0.032228623 -0.038308952 -0.05814853 0.0024891654 -0.013997771 0.07695475 0.062236402 0.014838112
0.074156106 -0.003744897 0.015542698 -0.0057874974 0.013758131 0.087089896 -0.053865135 0.018775037
0.031912945 0.020371923 -0.03840814 0.07849702 0.086878665 -0.024449231 -0.02260107 -0.009175683
-0.0157086 0.040742073 -0.01800902 -0.03543408 0.033118375 0.044037316 0.017409984 0.023731206
-0.005167865 0.052042615 0.011908567 0.07817617 0.057047244 -0.101200365 0.039892655 -0.047029957
0.0025525466 0.0057898397 -0.030556897 0.03635641 0.03605781 -0.05101836 0.0467781 -0.016943397
0.0015919178 0.052733127 0.0059403973 0.053982165 -0.009410163 -0.040351275 0.007270221 0.0034615889
0.054200966 -0.024013648 -0.010320826 -0.030245494 -0.08133677 0.04936248 0.06718605 0.046079703
0.07276033 -0.027169257 0.045129914 -0.048759107 -0.0916962 -0.04591064 -0.09238922 0.057664134
0.15135725 -0.088841334 0.00062060705 -0.05297727 -0.033434983 0.0360993 0.0914706 0.008456036
0.019938782 0.014069152 0.024848524 0.052402224 -0.018731285 -0.047356706 0.018723285 -0.071036085
0.11380062 0.016220612 -0.03402343 0.033900913 -0.029075637 0.049399085 -0.05567544 -0.008748039
0.01569224 -0.02344753 0.12500672 0.0851503 -0.012185444 0.05755082 0.052203912 0.043962065
0.03223389 0.06019172 0.01358532 0.028914949 -0.1054716 0.13711698 0.009536078 0.026723284
-0.088920526 0.06013512 0.0819264 -0.04881175 -0.012567179 0.03334832 0.007654167 0.0014227604
-0.07654482 0.004381328 0.02416393 -0.008683564 -0.061341424 0.02703547 0.048662536 0.044200167
-0.034155466 0.003542451 0.013514195 0.106797695 -0.022107104 -0.0043659476 -0.005290124 -0.017990537
0.03391771 -0.0158922 -0.016355315 -0.0061234483 -0.036779553 0.009480608 -0.06541566 -0.06931947
00000000: 2416 1a3d 60ea 2f3d 1ae3 d0bc 045c c73d
00000010: 7a3f 6a3b c602 053d 0ecc 963d 92d6 99bc
00000020: 2f9f 593d 8eba a1bd d50a 4a3d ee7e 343d
00000030: ec8f df3c bbdd b73c 5b4c a13d 87f5 8abb
00000040: d3c8 08bc 8059 80bd a07a 32ba 7196 c13d
00000050: 20d4 6abd 569b 20bc 51b1 043d dbaa 8c3d
00000060: d0cc 1f3d 0dd6 173b 0881 3e3b 0532 7d3d
00000070: 8ec4 5f3c 37c7 ddbc c709 0a3d ea32 5b3c
00000080: 8d53 69bd c6f4 2bbb bf87 cf3c b2b6 33bc
00000090: 0bb7 7a3b 4721 9dbc ca87 cfbc bac6 d63c
000000a0: 00a2 89bd 6fbd 903d a787 33bd 0528 5ebc
000000b0: 6392 afbb 6be9 4dbc 1d54 81bc e113 903d
000000c0: cc4b 25bd 7eb0 4e3d 214f c03c 15aa c73d
000000d0: 9f6c b4bc b5a4 303d e25f b83d aa7b a93b
000000e0: c02b 16bd 354c a93b 65ab da3c 5e6a 463b
000000f0: 1b4f 553d 3de4 3fbc c3a8 e3bc b0e2 00bd
00000100: 74d4 cebb ba5b f33c 7338 a63c bf5c 4a3b
00000110: 57f9 a43d 3afc 483d eb35 8a3c 3ba5 8ebd
00000120: a630 18bc c8c9 113c e153 b8bc 7f51 4dbd
00000130: 203d 75bc 23ec c3bc 8740 a3bc 6469 403d
00000140: f4b7 e3bb 5b7a 84bd 3e03 66bb 3a42 90bc
00000150: 6d90 e63c abc7 b23a 1f97 76bb c5d7 563d
00000160: ff7a 8bbd 86bb 5d3d a3f0 28bd 8ed2 1c3d
00000170: a5dc 3d3d 95c1 08bd 835b cf3d 53d8 ca3d
00000180: 0e47 c1bd f927 18bc c3d2 51bd b477 a1bc
00000190: ad89 44bd 2d1d a13b e677 853c 6b2e bf3b
000001a0: e19e 6bbd 4e34 81bd e7be 0a3d 8e27 3a3d
000001b0: a224 8e3d 6d9a 453d 76f5 52bd 4eb7 cc3c
000001c0: 2902 043d d9e9 1cbd 272d 6ebd 4421 233b
000001d0: e856 65bc 749a 9d3d 99eb 7e3d 8d1b 733c
000001e0: 28df 973d f26c 75bb cda6 7e3c 0ca5 bdbb
000001f0: c969 613c 305c b23d b0a1 5cbd 1bce 993c
00000200: 26b7 023d 05e3 a63c db51 1dbd 0cc3 a03d
00000210: 71ed b13d c149 c8bc e125 b9bc 9b55 16bc
00000220: 52af 80bc 29e1 263d a787 93bc 5323 11bd
00000230: 22a7 073d 7960 343d 629f 8e3c f267 c23c
00000240: 3257 a9bb a32a 553d 261c 433c d41a a03d
00000250: 5faa 693d 2342 cfbd 7b66 233d 7ca2 40bd
00000260: a048 273b b2b8 bd3b 7552 fabc 75ea 143d
00000270: 5bb1 133d a1f8 50bd 659a 3f3d e1cc 8abc
00000280: e6a7 d03a b1fe 573d aaa7 c23b 671c 5d3d
00000290: 162d 1abc 6147 25bd 093b ee3b d3db 623b
000002a0: d501 5e3d 45b8 c4bc af18 29bc 66c5 f7bc
000002b0: e493 a6bd 5030 4a3d d798 893d 12be 3c3d
000002c0: 5e03 953d 1092 debc 25da 383d a1b7 47bd
000002d0: 38cb bbbd cc0c 3cbd 8f36 bdbd 3a31 6c3d
000002e0: 65fd 1a3e 72f2 b5bd 3cb0 223a b2fe 58bd
000002f0: 1ff3 08bd dcdc 133d f054 bb3d 308b 0a3c
00000300: a856 a33c 4d82 663c 228f cb3c b7a3 563d
00000310: 5a72 99bc 1bf9 41bd 9361 993c 5e7b 91bd
00000320: 4d10 e93d 17e1 843c 275c 0bbd afdb 0a3d
00000330: 0830 eebc b256 4a3d ee0b 64bd ef53 0fbc
00000340: 038d 803c 0915 c0bc c301 003e 4863 ae3d
00000350: 75a5 47bc 69ba 6b3d c5d3 553d 9111 343d
00000360: af07 043d 988b 763d f694 5e3c 0bdf ec3c
00000370: 7f01 d8bd 6568 0c3e 363d 1c3c caea da3c
00000380: f71b b6bd 3e50 763d 07c9 a73d d4ee 47bd
00000390: 92e6 4dbc 3f98 083d cecf fa3b eb7b ba3a
000003a0: 88c3 9cbd 3e91 8f3b 6ff3 c53c 8245 0ebc
000003b0: 2541 7bbd 7d79 dd3c 5e52 473d 3c0b 353d
000003c0: 9ae6 0bbd 7728 683b a46a 5d3c c0b8 da3d
000003d0: f519 b5bc 3910 8fbb c758 adbb e460 93bc
000003e0: 4ced 0a3d 5c30 82bc 95fb 85bc 35a7 c8bb
000003f0: 28a6 16bd 8d54 1b3c a5f8 85bd 5ef7 8dbd

network_body._body_endoder.seq_layers.0.bias f4 [128]
-0.009969332 0.0055013024 -0.011887826 -0.01091702 -0.010745585 -0.0038764987 0.0006501304 0.0061544115
-0.0026757354 0.00800204 0.013172209 -0.005124596 -0.012321053 0.00747654 -0.013562829 -0.002953516
0.0043538497 -0.01441502 0.004405555 0.001982376 0.007902382 0.011476748 0.004377959 -0.0015004781
0.011953303 -0.0039523644 0.0008257876 -0.000999479 0.014635722 0.0100035705 0.0047691246 0.007755817
0.0042165555 -0.0034706593 -0.0016128892 -0.0006540692 -0.0028832422 0.009307303 0.020754797 0.013956154
0.0010783278 -0.013496012 0.012374755 0.00081346626 0.007201014 0.013615968 0.0057456493 -0.00030727062
0.009254785 0.008275755 -0.003971145 -0.0005136002 0.010882648 0.0066041425 0.03846075 0.009792841
-0.011139593 -0.0025705502 0.010950176 -0.0024755162 0.0010082927 -0.0015556724 0.007671106 0.055677965
0.0052160434 -0.0035511919 0.0039916844 -0.005152712 -0.00058688107 -0.0068642464 -0.009830287 0.012019242
0.008507818 -9.625141e-05 -0.013561461 -0.0076396703 0.012152839 0.006930923 -0.0037145715 9.343456e-05
0.008356815 -0.005523192 0.0140271345 -0.0037413356 0.010945936 -0.0064213397 -0.010768344 -0.0014250586
-0.010871912 -0.008156502 -0.0152096795 -0.0056667197 0.013688163 -0.013148269 -0.022009658 -0.013580237
-0.0015243605 0.007471063 0.002787413 -0.013653184 0.01648984 -0.004157219 -0.013233515 -0.007469934
0.015433467 0.010282623 -0.0005080416 -0.00066048454 0.0045220223 -0.0057593854 -0.010627603 -0.021536015
-0.0070974953 -0.005799212 0.004487553 0.023447422 -0.010036606 -0.014241061 -0.008957379 0.008482037
0.011712873 0.0026117328 -0.0007796382 -0.0056533753 0.004444082 0.00199803 0.012058869 -0.0010020059
00000000: 6956 23bc 4544 b43b 28c5 42bc 4ddd 32bc
00000010: 400e 30bc db0c 7ebb 836d 2a3a f2aa c93b
00000020: 645b 2fbb fd1a 033c 40d0 573c 3aec a7bb
00000030: 3ede 49bc c3fd f43b a136 5ebc c78f 41bb
00000040: bdaa 8e3b fa2c 6cbc 795c 903b c0ea 013b
00000050: fe78 013c f808 3c3c fb74 8f3b b1ab c4ba
00000060: c9d7 433c d682 81bb ab79 583a f300 83ba
00000070: abca 6f3c 04e6 233c 5146 9c3b 8224 fe3b
00000080: 082b 8a3b 0074 63bb 9567 d3ba d775 2bba
00000090: c7f4 3cbb a87d 183c f705 aa3c 5aa8 643c
000000a0: ad56 8d3a 611e 5dbc 7cbf 4a3c cc3e 553a
000000b0: 7cf6 eb3b 8215 5f3c 0046 bc3b 2a19 a1b9
000000c0: 62a1 173c 0897 073c 6120 82bb 20a3 06ba
000000d0: 224d 323c 9067 d83b 0589 1d3d 2772 203c
000000e0: d782 36bc ad76 28bb 5e68 333c 453c 22bb
000000f0: b028 843a b4e7 cbba e75d fb3b 940e 643d
00000100: 58eb aa3b 1dbb 68bb adcc 823b 15d8 a8bb
00000110: ecd8 19ba 79ed e0bb 360f 21bc 5bec 443c
00000120: 6064 0b3c 95da c9b8 e430 5ebc 3356 fabb
00000130: b41c 473c cc1c e33b 2b70 73bb 4cf2 c338
00000140: 06eb 083c e5fb b4bb 11d2 653c 3231 75bb
00000150: 9556 333c 1a6a d2bb b56d 30bc 08c9 baba
00000160: 1b20 32bc d9a2 05bc 0532 79bc e4af b9bb
00000170: 5144 603c d66b 57bc 994d b4bc a47f 5ebc
00000180: 0dcd c7ba d2cf f43b 08ad 363b 9bb1 5fbc
00000190: b315 873c 4839 88bb 63d1 58bc 59c6 f4bb
000001a0: a7dc 7c3c 7278 283c 182e 05ba 5e24 2dba
000001b0: 792d 943b 3ab9 bcbb 661f 2ebc 4c6c b0bc
000001c0: 1b92 e8bb 5107 bebb 530c 933b cf14 c03c
000001d0: 9470 24bc 5753 69bc f8c1 12bc 3ef8 0a3c
000001e0: 5ae7 3f3c 9b29 2b3b a260 4cba f33f b9bb
000001f0: a99f 913b 62f1 023b 9092 453c bd55 83ba

network_body._body_endoder.seq_layers.2.weight f4 [128, 128]
-0.049911898 -0.014317223 -0.05995924 -0.09047773 -0.082907766 -0.059342146 -0.035409007 -0.055045076
-0.007567646 -0.029179726 -0.14957467 -0.071817786 0.016170567 0.20415029 0.08292022 0.029249089
-0.024337336 -0.05805773 -0.07270796 0.0075970404 -0.14413074 0.15440588 -0.17468524 -0.07758984
-0.10389404 -0.09499599 0.13750069 0.01411192 0.047911953 0.15278338 0.09081364 0.0832502
0.05526612 -0.00036808697 0.08104695 0.10000186 0.10851368 0.08401924 -0.07238289 -0.015867488
-0.15393604 0.040663604 -0.03947951 -0.07513658 -0.14875484 -0.0038422048 -0.16252866 -0.033472687
-0.031941045 0.044984523 -0.028655782 -0.036795583 0.09580819 0.13895568 0.032441717 -0.089389674
0.062756315 -0.026398256 -0.08857928 0.01697045 -0.053822603 0.046617292 0.04659093 0.024326134
-0.09777026 -0.05113027 0.12027375 -0.06867612 -0.03144506 -0.08611469 -0.15011232 0.011586411
0.016320359 -0.03807213 0.02803899 0.042914562 0.088057026 0.15765211 0.08807048 -0.12880106
0.084667094 -0.019498143 -0.11508208 -0.058948074 0.051952336 -0.034435224 -0.1574298 0.0032115942
-0.106627196 -0.109951 -0.04521974 -0.0883843 -0.010136664 0.1152158 0.0043358877 0.1489933
0.003120238 -0.12949352 0.09847105 0.09373249 -0.12031865 -0.0028249996 -0.17239851 -0.02321664
-0.26158848 0.1685914 0.0684801 -0.008331705 -0.03944967 -0.06150002 -0.056792766 0.17191187
0.022579111 -0.19418578 -0.08303138 -0.09888663 0.06484334 0.04715857 -0.0868619 0.054156013
0.002859118 -0.12447939 -0.124807365 -0.15089586 0.056322705 -0.19241343 0.11723764 0.07896513
-0.02203173 0.023188032 -0.073666975 0.030202262 0.04154928 -0.11174611 0.002587013 -0.06262825
-0.11307365 0.050559063 -0.13656084 0.017458998 0.00995666 0.013098302 -0.05857455 -0.0043918383
-0.15837029 -0.016906641 -0.043148965 0.010698628 0.08366909 -0.056151785 -0.08946512 0.08563574
-0.00483555 0.00021034128 -0.023229495 -0.061211932 -0.0007637298 0.1018889 0.013794845 -0.007944222
-0.161199 -0.10392911 -0.0067782938 -0.013429179 -0.12552005 0.08872391 0.08478339 0.028176758
-0.014292996 -0.00053018815 0.068338715 -0.19486211 0.13101375 0.062933125 0.0039016104 0.08387435
-0.0011038807 0.102538526 0.049748965 0.14479898 0.053254448 0.117653124 -0.070810035 0.008772174
-0.050921246 -0.11328542 -0.011319058 0.10671551 -0.118134834 0.060706105 -0.029404843 -0.0767906
-0.024852077 0.1637204 -0.13494533 -0.030031264 0.3125048 -0.008223692 0.11354225 -0.09666793
0.0060488516 -0.0015613234 0.13258183 0.09122118 -0.12819901 0.014272585 0.021505326 0.09353023
-0.18068652 -0.070974685 0.08053648 -0.14116734 0.01889668 -0.050873704 -0.013402952 -0.0105396
-0.07867706 -0.06936464 0.20101327 -0.084933214 0.10642745 -0.020365037 0.16753767 0.11980347
0.10837038 -0.008744124 -0.03458389 -0.075510964 -0.05036251 -0.14986433 -0.01837727 0.017880995
0.044064604 0.24228801 -0.00047487835 -0.016979015 0.13468851 0.04399845 0.060008388 0.049487844
0.07045037 -0.010349012 0.004722202 0.14174925 -0.03503871 -0.052096568 0.12925611 -0.10339368
-0.08420627 -0.07820597 0.030168012 0.018135464 -0.11371351 0.24658605 0.1135303 -0.04700025
00000000: 6b70 4cbd c992 6abc d297 75bd 634c b9bd
00000010: 8ccb a9bd c010 73bd 0909 11bd f276 61bd
00000020: 04fa f7bb 520a efbc 1a2a 19be 3415 93bd
00000030: 2378 843c c60c 513e 14d2 a93d c99b ef3c
00000040: 185f c7bc f1cd 6dbd e9e7 94bd 98f0 f83b
00000050: 0297 13be 931c 1e3e b0e0 32be 6ce7 9ebd
00000060: 66c6 d4bd 428d c2bd fbcc 0c3e af35 673c
00000070: 533f 443d 3f73 1c3e 80fc b93d 157f aa3d
00000080: ba5e 623d ccfb c0b9 f1fb a53d c6cd cc3d
00000090: 6c3c de3d 4812 ac3d 7b3d 94bd 89fc 81bc
000000a0: 69a1 1dbe e18e 263d 44b5 21bd 35e1 99bd
000000b0: 3053 18be 80cd 7bbb ea6d 26be a81a 09bd
000000c0: 9dd4 02bd b141 383d 88bf eabc f7b6 16bd
000000d0: 1637 c43d 664a 0e3e 9be1 043d ef11 b7bd
000000e0: 6286 803d 2841 d8bc 0e69 b5bd 9d05 8b3c
000000f0: 1775 5cbd c6f1 3e3d 22d6 3e3d 9a47 c73c
00000100: c63b c8bd f96d 51bd 1552 f63d 11a6 8cbd
00000110: 89cc 00bd e65c b0bd 0bb7 19be eed4 3d3c
00000120: 46b2 853c 86f1 1bbd 06b2 e53c 2ec7 2f3d
00000130: 3e57 b43d 8e6f 213e 4c5e b43d 6de4 03be
00000140: f165 ad3d 92ba 9fbc 27b0 ebbd 8973 71bd
00000150: f9cb 543d f30b 0dbd 4735 21be 9c79 523b
00000160: 5c5f dabd fd2d e1bd 5638 39bd d402 b5bd
00000170: 4014 26bc 43f6 eb3d 1014 8e3b b391 183e
00000180: e87c 4c3b f399 04be 31ab c93d d2f6 bf3d
00000190: a069 f6bd a123 39bb 3c89 30be d330 bebc
000001a0: edee 85be 39a3 2c3e 4b3f 8c3d b481 08bc
000001b0: fa95 21bd 72e7 7bbd 889f 68bd aa09 303e
000001c0: d4f7 b83c a3d8 46be 5b0c aabd 1385 cabd
000001d0: 96cc 843d 5829 413d a7e4 b1bd b2d2 5d3d
000001e0: 0a60 3b3b 0def febd 019b ffbd 7284 1abe
000001f0: a3b2 663d 0708 45be 4a1a f03d 78b8 a13d
00000200: e37b b4bc d4f4 bd3c b6de 96bd bc6a f73c
00000210: 942f 2a3d 25db e4bd e08a 293b 3d43 80bd
00000220: 2893 e7bd 0517 4f3d 9bd6 0bbe 2c06 8f3c
00000230: 4221 233c 439a 563c deeb 6fbd 69e9 8fbb
00000240: d22b 22be cc7f 8abc f8bc 30bd 4c49 2f3c
00000250: b35a ab3d 6aff 65bd 7d39 b7bd ca61 af3d
00000260: 8973 9ebb 0f8f 5c39 c84b bebc 5db9 7abd
00000270: 0a35 48ba 21ab d03d c603 623c 7b28 02bc
00000280: 5a11 25be c9d8 d4bd 731c debb 0f06 5cbc
00000290: 5488 00be e2b4 b53d eaa2 ad3d f2d2 e63c
000002a0: 2c2d 6abc 53fc 0aba 2bf5 8b3d ef89 47be
000002b0: 7828 063e 15e3 803d 29b2 7f3b 51c6 ab3d
000002c0: 17b0 90ba b8ff d13d 92c5 4b3d 2f46 143e
000002d0: 5621 5a3d 1ff4 f03d da04 91bd 2ab9 0f3c
000002e0: cc92 50bd 3002 e8bd 9273 39bc a98d da3d
000002f0: adf0 f1bd f7a6 783d 6de2 f0bc 6444 9dbd
00000300: 9596 cbbc 52a6 273e 1c2f 0abe 2004 f6bc
00000310: a100 a03e aabc 06bc d788 e83d d6f9 c5bd
00000320: 7235 c63b 52a5 ccba 88c3 073e 2cd2 ba3d
00000330: 9a46 03be 8fd7 693c f02b b03c c78c bf3d
00000340: e305 39be 2d5b 91bd 4ff0 a43d 2c8e 10be
00000350: 36cd 9a3c f260 50bd 0e98 5bbc 49ae 2cbc
00000360: 7021 a1bd 0c0f 8ebd 6cd6 4d3e 77f1 adbd
00000370: a3f6 d93d 94d4 a6bc ff8e 2b3e 865b f53d
00000380: 4af1 dd3d 8443 0fbc d6a7 0dbd 7ea5 9abd
00000390: eb48 4ebd 0976 19be ee8b 96bc 2a7b 923c
000003a0: 167d 343d 591a 783e 18f9 f8b9 9317 8bbc
000003b0: c9eb 093e b837 343d 5bcb 753d c4b3 4a3d
000003c0: 4948 903d e78e 29bc b4bc 9a3b b726 113e
000003d0: c084 0fbd 3663 55bd b75b 043e 11c0 d3bd
000003e0: 5674 acbd 742a a0bd e822 f73c d390 943c
000003f0: a1e2 e8bd 0e81 7c3e 9382 e83d 5683 40bd

network_body._body_endoder.seq_layers.2.bias f4 [128]
0.03770702 -0.0050449716 -0.01834184 0.0022577338 0.009879013 7.726129e-05 0.012919871 0.015896356
0.0023955628 0.026080227 0.0008440155 -0.023720907 -0.015528 0.0061086593 0.022379484 0.010702102
0.010098683 -0.018626496 -0.01595966 -0.005124111 0.0034513082 -0.012184191 -0.011295936 0.008549556
0.011852013 0.0064659 -0.00039301094 0.0055416143 0.0039524315 -0.0027708807 0.0032202017 0.00504252
-0.0025457672 0.009155112 0.0038470423 0.016377356 0.0038051126 0.004467093 0.0032066223 -0.01091963
-0.024403706 -0.006578942 -0.0041490896 0.017702641 -0.033862658 -0.004163226 0.0013878384 0.00014773657
0.0065485975 -0.0058482406 0.0037767908 -0.029242143 0.0061934735 0.010774895 0.006776944 -0.0072769234
-0.006767524 0.016666574 -0.014175386 -0.014330407 -0.003449989 -0.0029825147 0.009767143 0.021105707
0.0007158509 -0.013119181 0.016193412 0.007533053 -0.00090663624 0.00028551868 -0.0018289505 0.017429225
0.010995158 -0.007117474 -0.0035707757 -0.004214183 0.016160231 0.008113061 -0.014995851 0.01166201
0.0064663365 0.023127452 0.0011327694 -0.0019203866 0.013817113 0.009858791 0.012722925 0.005247616
0.0028850462 0.0007603739 0.010067866 -0.010058485 -0.007927604 -0.008768639 -0.01537061 -0.024383564
-0.0059046554 -0.019478241 -0.018513028 0.018904949 -0.009409148 0.014307873 -0.006997676 -0.013433495
-0.004335001 -0.00057131005 -0.007912243 -0.0048876777 0.015527482 -0.017468624 -0.010385942 -0.012461561
0.024946537 0.013728184 0.020516822 0.018158058 -0.014222561 -0.005936537 -0.0042378246 0.009204499
0.00020416088 0.0032459928 -0.0056351097 -0.011710938 0.009933022 0.013934632 0.004883021 0.01922195
00000000: ad72 1a3d 4a50 a5bb a041 96bc 7df6 133b
00000010: 95db 213c 5707 a238 dead 533c 1339 823c
00000020: e0fe 1c3b 33a6 d53c ec40 5d3a 5952 c2bc
00000030: 2769 7ebc 262b c83b 2e55 b73c df57 2f3c
00000040: f274 253c 9896 98bc d5bd 82bc 29e8 a7bb
00000050: 582f 623b 33a0 47bc 9712 39bc 7013 0c3c
00000060: f22e 423c e7df d33b 090d ceb9 6e96 b53b
00000070: 6683 813b aa97 35bb 050a 533b b93b a53b
00000080: e3d6 26bb 53ff 153c a91e 7c3b ce29 863c
00000090: 325f 793b b160 923b 3226 523b 3fe8 32bc
000000a0: 48ea c7bc 2a94 d7bb 16f5 87bb 2105 913c
000000b0: 92b3 0abd ac6b 88bb 21e8 b53a bce9 1a39
000000c0: 9e95 d63b 99a2 bfbb 0984 773b 388d efbc
000000d0: 9ff2 ca3b 2f89 303c 2011 de3b 4273 eebb
000000e0: 1bc2 ddbb 5788 883c e13f 68bc 15ca 6abc
000000f0: 3619 62bb 4b76 43bb 5e06 203c e0e5 ac3c
00000100: f1a7 3b3a d5f1 56bc 0ca8 843c d4d7 f63b
00000110: 54ab 6dba abb1 9539 65b9 efba bcc7 8e3c
00000120: 0925 343c b339 e9bb ad03 6abb 2117 8abb
00000130: 7662 843c a5ec 043c 28b1 75bc 0412 3f3c
00000140: 90e3 d33b c875 bd3c 6f79 943a 7bb5 fbba
00000150: 2c61 623c c486 213c d173 503c 32f4 ab3b
00000160: 0b13 3d3b d453 473a b1f3 243c 58cc 24bc
00000170: c8e2 01bc 56aa 0fbc 03d5 7bbc 0ac0 c7bc
00000180: d77b c1bb d590 9fbc a2a8 97bc 8dde 9a3c
00000190: d428 1abc 926b 6a3c c34c e5bb 2918 5cbc
000001a0: a00c 8ebb f8c3 15ba 5aa2 01bc d028 a0bb
000001b0: fb66 7e3c 5c1a 8fbc cc29 2abc 932b 4cbc
000001c0: ae5c cc3c 2dec 603c e512 a83c 35c0 943c
000001d0: bf05 69bc 4887 c2bb 73dd 8abb 78ce 163c
000001e0: 0514 5639 b9ba 543b baa6 b8bb 3cdf 3fbc
000001f0: 1dbe 223c 154e 643c c001 a03b 5a77 9d3c

action_model._continuous_distribution.log_sigma f4 [1, 2]
0.33870003 0.5184163
00000000: 176a ad3e eeb6 043f

action_model._continuous_distribution.mu.weight f4 [2, 64]
-0.017272064 0.05823358 -0.10245264 -0.08275356 0.02649189 0.032183047 0.12419244 -0.15542777
0.03407199 0.16809495 0.03625079 -0.124440566 0.067016415 0.123293705 -0.00267775 -0.0047825226
-0.06532687 0.020555379 0.013196171 0.08979339 0.007700243 -0.014676071 -0.005177851 -0.07185144
0.037818708 0.09264326 -0.02613354 0.07599148 -0.04711623 0.13034394 0.011598688 0.034299
0.032128178 -0.06327134 0.09736557 0.014928846 -0.052782934 0.086247 0.042015176 0.11120888
0.010324702 -0.035667405 -0.066813424 -0.0041007437 0.0990468 0.044727538 0.088629395 0.045551125
-0.048429396 -0.028231533 0.07763357 -0.035062734 0.07156572 -0.051285524 0.05296706 -0.006788743
0.055236135 0.0094854 0.012276727 -0.03136694 -0.0073570223 -0.022831732 -0.010915623 0.045896668
-0.053496756 -0.116421364 0.06983621 0.054018423 0.028424285 0.021689761 -0.054848414 0.041930534
-0.07038347 -0.048526455 -0.028281566 0.111519344 -0.041045107 -0.026589483 -0.115190566 -0.109707065
-0.0074619325 0.023187699 0.013891505 -0.08134379 0.08091729 0.05560394 -0.058514647 0.08429238
-0.09068983 0.049370397 -0.089725144 0.0107987495 0.0040643597 -0.027317476 0.065411255 0.0064551714
-0.09913798 -0.048319373 -0.012459691 -0.06897556 0.053257268 -0.035386596 0.114585705 -0.019076927
-0.023297697 -0.07359111 -0.049991764 -0.05643643 0.03615538 -0.07317129 0.13214982 -0.0020937761
0.05464316 -0.07952626 -0.1584748 -0.0017440764 -0.088690475 -0.11143233 -0.025509091 -0.05603103
-0.003562043 0.032330286 0.06799311 -0.010921234 -0.07904286 0.027733572 0.082857914 0.016199525
00000000: 257e 8dbc 5686 6e3d b1d2 d1bd b37a a9bd
00000010: 8505 d93c 5fd2 033d 9b58 fe3d 7528 1fbe
00000020: 128f 0b3d 1521 2c3e b57b 143d b2da febd
00000030: e73f 893d 6981 fc3d 317d 2fbb b5b6 9cbb
00000040: 18ca 85bd c163 a83c c134 583c 99e5 b73d
00000050: 5252 fc3b e773 70bc f6aa a9bb d926 93bd
00000060: cae7 1a3d c0bb bd3d 0116 d6bc 6ca1 9b3d
00000070: f3fc 40bd e278 053e 6c08 3e3c 1c7d 0c3d
00000080: d698 033d 6894 81bd 9a67 c73d 1e98 743c
00000090: eb32 58bd 44a2 b03d 1b18 2c3d 7bc1 e33d
000000a0: f028 293c fc17 12bd 7ad5 88bd 885f 86bb
000000b0: 0cd9 ca3d 3934 373d 5483 b53d d193 3a3d
000000c0: e75d 46bd d145 e7bc 59fe 9e3d f19d 0fbd
000000d0: 0c91 923d c510 52bd fdf3 583d 1b74 debb
000000e0: 493f 623d a768 1b3c 5324 493c 9f7a 00bd
000000f0: 2d13 f1bb 9d09 bbbc 71d7 32bc 25fe 3b3d
00000100: 6a1f 5bbd 536e eebd 4906 8f3d 6c42 5d3d
00000110: 0cda e83c baae b13c bba8 60bd 5abf 2b3d
00000120: 3525 90bd adc3 46bd beae e7bc 4164 e43d
00000130: ea1e 28bd 30d2 d9bc 08e9 ebbd 19ae e0bd
00000140: 3a83 f4bb 21f4 bd3c 3299 633c 9397 a6bd
00000150: f7b7 a53d f5c0 633d 0ead 6fbd 7ca1 ac3d
00000160: 97bb b9bd 9d38 4a3d d1c1 b7bd 3ded 303c
00000170: 522e 853b e6c8 dfbc 56f6 853d e785 d33b
00000180: da08 cbbd 89ea 45bd bb23 4cbc 0f43 8dbd
00000190: 4b24 5a3d 89f1 10bd e9ab ea3d 3747 9cbc
000001a0: d0da bebc f0b6 96bd 2ac4 4cbd e329 67bd
000001b0: aa17 143d d4da 95bd 4852 073e bc37 09bb
000001c0: 82d1 5f3d aade a2bd 3847 22be 7e99 e4ba
000001d0: 5aa3 b5bd a236 e4bd 71f8 d0bc cb80 65bd
000001e0: 2a71 69bb c36c 043d f93f 8b3d faee 32bc
000001f0: 39e1 a1bd 8431 e33c 69b1 a93d deb4 843c

action_model._continuous_distribution.mu.bias f4 [2]
0.006477403 0.05525088
00000000: 6540 d43b bf4e 623d

action_model._discrete_distribution.branches.0.weight f4 [2, 64]
-0.020727133 -0.01751156 0.06623108 0.100633204 -0.04346723 -0.0075199204 0.015919859 -0.026556317
-0.08623933 -0.0013560534 -0.06547378 0.05812111 0.0025112743 -0.03456308 -0.033916544 -0.030054146
-0.036712486 0.006569489 -0.045242533 -0.06628839 -0.0021250087 -0.04500959 -0.004588854 0.065159164
0.014952503 0.0011062798 -0.019389363 0.06421381 0.08396557 -0.09577507 0.070856564 0.092070185
-0.025641667 0.041358937 0.022415409 -0.016693538 0.061906192 -0.07429726 0.035682917 0.018180495
0.021693168 0.020249922 -0.026067993 0.060478806 0.04519821 0.07188887 -0.0057086735 0.07002937
0.03788545 -0.012401442 -0.03413952 0.009402582 0.001286605 -0.021552244 -0.06876617 -0.03444216
0.09170647 -0.021998407 -0.035297588 -0.06782427 -0.12353255 0.02683416 -0.018512568 -0.034493074
0.012264783 0.022102311 -0.0670093 -0.08895918 0.05514502 0.017377546 -0.014462391 0.039738655
0.09271207 -0.017600384 0.041161645 -0.0499096 0.024589151 0.024020627 -0.011680524 0.048880123
0.029361451 -0.01078586 0.028486883 0.044051275 -0.032419454 0.03419368 -0.009271053 -0.050956752
0.0281107 0.018337242 0.03338347 -0.042917438 -0.08151308 0.042679947 -0.07073991 -0.08374507
0.032873794 -0.031510185 -0.036765806 0.04553153 -0.038052246 0.08033054 -0.03756732 -0.007998982
-0.034150798 -0.027639588 0.03407499 -0.07682266 -0.027709173 -0.07906873 0.022074085 -0.058815103
-0.054370675 0.016896594 0.04144193 -0.02095705 0.013797573 0.013649121 0.046591684 0.019883312
-0.091898195 0.027616428 0.0358008 0.08827791 0.14598447 0.009451872 -0.004902396 0.04645284
00000000: f3cb a9bc 6774 8fbc 29a4 873d c818 ce3d
00000010: b20a 32bd aa69 f6bb 5d6a 823c a28c d9bc
00000020: 3f9e b0bd 9abd b1ba 1e17 86bd 6710 6e3d
00000030: 3194 243b 0492 0dbd 13ec 0abd 1d34 f6bc
00000040: d55f 16bd de44 d73b 3c50 39bd 35c2 87bd
00000050: bb43 0bbb fa5b 38bd 195e 96bb 2b72 853d
00000060: 58fb 743c 9700 913a 71d6 9ebc 8882 833d
00000070: 24f6 ab3d b825 c4bd 3f1d 913d 4b8f bc3d
00000080: 790e d2bc fd67 293d 85a0 b73c e3c0 88bc
00000090: 5991 7d3d 2929 98bd 4028 123d 43ef 943c
000000a0: dfb5 b13c 2ae3 a53c 8b8c d5bc a0b8 773d
000000b0: c221 393d 793a 933d d30f bbbb 8f6b 8f3d
000000c0: c62d 1b3d 6b2f 4bbc e2d5 0bbd 4a0d 1a3c
000000d0: 4da3 a83a 558e b0bc 47d5 8cbd 3913 0dbd
000000e0: 9ad0 bb3d 0136 b4bc 3494 10bd 73e7 8abd
000000f0: a2fe fcbd 50d3 db3c aba7 97bc 9c48 0dbd
00000100: 3af2 483c e80f b53c 2c3c 89bd 3b30 b6bd
00000110: bfdf 613d 5b5b 8e3c aaf3 6cbc 00c5 223d
00000120: d3df bd3d ae2e 90bc 1d99 283d 026e 4cbd
00000130: 306f c93c e8c6 c43c ab5f 3fbc 8636 483d
00000140: 6d87 f03c 2db7 30bc 535d e93c 1c6f 343d
00000150: 43ca 04bd ac0e 0c3d 9de5 17bc 07b8 50bd
00000160: 6948 e63c fc37 963c 1bbd 083d 32ca 2fbd
00000170: 54f0 a6bd 2bd1 2e3d 16e0 90bd 8982 abbd
00000180: aca6 063d d310 01bd be97 16bd 457f 3a3d
00000190: acdc 1bbd 5784 a43d 31e0 19bd 2a0e 03bc
000001a0: b5e1 0bbd 6b6c e2bc 3792 0b3d 3355 9dbd
000001b0: 59fe e2bc c9ee a1bd b6d4 b43c 1be8 70bd
000001c0: c9b3 5ebd ba6a 8a3c 03bf 293d 1fae abbc
000001d0: 370f 623c 90a0 5f3c ecd6 3e3d 54e2 a23c
000001e0: 1f35 bcbd d93b e23c dca3 123d 0dcb b43d
000001f0: f47c 153e 06dc 1a3c 47a4 a0bb 5545 3e3d

action_model._discrete_distribution.branches.0.bias f4 [2]
0.042507265 -0.042507276
00000000: 191c 2e3d 1c1c 2ebd

action_model._discrete_distribution.branches.1.weight f4 [2, 64]
-0.06945417 -0.055699956 -0.012596499 -0.039025623 0.09037985 0.059258617 0.06419265 -0.055260606
-0.012775443 -0.0043109134 -0.0089623025 -0.041840203 -0.1199285 -0.014206689 -0.01627961 -0.009523724
-0.039212774 -0.016050888 -0.07120446 -0.039239768 0.051994115 0.013801699 -0.108350754 0.016965419
-0.055994026 0.028527413 0.0101588825 0.0011342654 0.025822444 0.04009355 0.041509967 -0.03687715
-0.04386598 0.016759656 0.017831095 0.0063803312 0.061638217 0.03100935 0.0017562557 0.086119585
-0.09664509 -0.07053067 -0.050658036 0.058492668 -0.009989792 -0.087493196 0.014868513 0.0063658725
0.026636494 -0.047254603 0.022945859 0.087621674 -0.06299603 -0.03769847 0.051508006 -0.07466219
0.033358425 0.021498185 -0.035987224 -0.013966908 0.016975977 -0.031571932 0.047512203 -0.0047116783
0.08161099 0.0480085 0.03135884 0.034069814 -0.09487369 -0.06902084 -0.009003024 0.06659079
0.024925953 0.02296076 -0.020009758 0.04896763 0.10605507 -0.0031692672 0.022177635 0.052205477
0.027551146 0.023637518 0.07835307 0.080827355 -0.046212006 -0.015731161 0.057880964 -0.03830674
0.03405 -0.024012232 0.009457076 -0.011918354 -0.06027785 -0.07283806 -0.035342682 0.03831235
0.06967743 -0.008933514 -0.0032380798 0.008189086 -0.025272883 -0.024345038 -0.027749734 -0.09136881
0.06326294 0.05821945 0.042451907 -0.036983985 0.014618805 0.04248892 0.003743266 -0.0013763879
-0.057350334 0.035622694 -0.036793593 -0.09926618 0.025572076 0.020032436 -0.036241572 0.061515294
-0.0579065 -0.032687854 0.059159085 -0.003558931 0.00041033427 0.055098064 -0.042123448 0.015485058
00000000: fd3d 8ebd a325 64bd 8c61 4ebc 55d9 1fbd
00000010: 1219 b93d 2ab9 723d 7077 833d f258 62bd
00000020: 1750 51bc 9042 8dbb 9fd6 12bc a260 2bbd
00000030: 139d f5bd 2cc3 68bc d15c 85bc 6509 1cbc
00000040: 939d 20bd 277d 83bc a5d3 91bd e1b9 20bd
00000050: c8f7 543d 8520 623c 00e7 ddbd 10fb 8a3c
00000060: fe59 65bd 52b2 e93c 7171 263c a2ab 943a
00000070: 9789 d33c 2239 243d 5b06 2a3d 7f0c 17bd
00000080: d0ac 33bd 8c4b 893c 8412 923c 1912 d13b
00000090: 5b78 7c3d 5207 fe3c 2a32 e63a 775f b03d
000000a0: dced c5bd 6272 90bd cd7e 4fbd 0296 6f3d
000000b0: 39ac 23bc a22f b3bd 109b 733c cf98 d03b
000000c0: c734 da3c 0b8e 41bd f4f8 bb3c fe72 b33d
000000d0: 1004 81bd b669 1abd 0ffa 523d 7ee8 98bd
000000e0: d8a2 083d f61c b03c 5767 13bd 75d5 64bc
000000f0: 3411 8b3c 9251 01bd 289c 423d 6c64 9abb
00000100: aa23 a73d 90a4 443d 2172 003d ca8c 0b3d
00000110: 234d c2bd cc5a 8dbd 6b81 13bc c160 883d
00000120: 8331 cc3c 3418 bc3c 81eb a3bc 4892 483d
00000130: 6733 d93d 7bb3 4fbb dfad b53c 69d5 553d
00000140: f1b2 e13c 78a3 c13c 9377 a03d d088 a53d
00000150: cd48 3dbd a3de 80bc 9714 6d3d 87e7 1cbd
00000160: 0378 0b3d 4db5 c4bc daf1 1a3c 3345 43bc
00000170: e8e5 76bd 1f2c 95bd 7dc3 10bd 69ed 1c3d
00000180: 0ab3 8e3d e05d 12bc f735 54bb 842b 063c
00000190: 1409 cfbc 3f6f c7bc 6953 e3bc 921f bbbd
000001a0: 0090 813d 8577 6e3d 0de2 2d3d 857c 17bd
000001b0: b683 6f3c dd08 2e3d 9551 753b ea67 b4ba
000001c0: 2fe8 6abd 1ae9 113d e1b4 16bd 114c cbbd
000001d0: 887c d13c 101b a43c 0b72 14bd 76f7 7b3d
000001e0: 5e2f 6dbd b3e3 05bd cc50 723d f43c 69bb
000001f0: 2222 d739 82ae 613d a389 2cbd 0ab5 7d3c

action_model._discrete_distribution.branches.1.bias f4 [2]
0.01873038 -0.01873038
00000000: 7470 993c 7470 99bc

onnx::LSTM_133 f4 [1, 256, 128]
0.11576221 -0.09668376 -0.09394583 -0.11082136 -0.08957714 0.05699169 -0.10829903 -0.14907882
0.111392036 -0.011545079 0.1205939 0.09482895 0.013449359 -0.059257697 0.18315618 -0.13569424
0.14490563 -0.012936719 0.086795226 -0.03253913 0.023915 -0.10526553 0.0826038 -0.11606002
0.022076236 0.07486621 0.005158307 -0.17001322 0.15648401 0.20431978 -0.15469705 -0.07675081
-0.18305923 -0.07761763 0.118851356 -0.08473818 0.0022748306 -0.19811574 0.11988101 0.07276404
-0.07175211 0.1456811 -0.020535812 0.1168998 0.090713255 -0.13035099 -0.058228154 -0.014301649
0.08715938 -0.16633356 -0.0201576 -0.17692788 0.12718438 0.1791864 0.078090824 -0.14495224
0.13687345 -0.020410452 -0.039888307 -0.08656329 -0.0526996 -0.06700308 -0.17912826 0.08851976
0.06294356 -0.04649538 -0.057070184 0.05081199 -0.029515915 -0.15333982 0.17890894 0.1771214
-0.012047787 0.09209132 0.08924921 -0.010055004 0.072462976 -0.02924523 0.09565679 -0.12251714
-0.017167497 -0.078938864 -0.15367153 -0.124838084 -0.021565212 -0.08820566 -0.011207352 0.004342336
0.05291575 -0.09157109 -0.17963526 0.11829009 -0.012184097 -0.13167194 0.05346625 0.05150968
0.0041524633 -0.108792335 -0.1983183 0.14229561 0.13553692 -0.075686105 -0.17219695 -0.13967016
-0.13118206 0.05241374 -0.017473992 -0.038841818 -0.107495464 0.060407564 -0.021595722 -0.105970174
-0.112012476 -0.15025683 0.12520917 -0.10304226 0.18736975 0.10765515 0.12017908 0.10651561
0.19647682 0.14560542 0.047645584 0.055414196 0.0955567 0.14866549 -0.053899936 0.018046753
-0.18182375 0.11883387 -0.018251538 -0.055969387 0.19594051 0.13561796 -0.07425716 0.002847335
-0.062204737 0.19087258 0.12087092 0.033046395 0.14366588 0.06632816 0.057541713 0.19614387
-0.11623023 -0.2004905 -0.075204544 -0.13819714 -0.042410485 -0.16009967 0.07312493 0.087088734
-0.08830827 -0.07063898 0.09923058 -0.10601092 -0.08924085 0.08502985 0.05892075 -0.14504641
0.13890636 0.06174334 -0.060782675 -0.04681089 -0.12955087 -0.020719824 0.07663458 -0.019133357
0.13409314 0.08928341 0.025456768 -0.040957287 -0.009296346 0.14880395 0.013509502 -0.16575369
-0.08370418 0.07655874 -0.17901705 -0.058975603 0.09134797 -0.078513935 0.13825248 0.036391605
-0.031378347 0.15721197 -0.015747927 0.049278397 -0.19602992 0.05488732 0.08690807 0.0718514
0.20436814 0.03326659 0.014331885 0.14595321 0.16650046 -0.12452777 -0.06054735 0.09273343
0.027459595 -0.02220211 -0.04517342 -0.14698628 -0.031500224 -0.013828104 -0.19554463 -0.08035601
0.13930249 0.031096874 -0.01932034 -0.036309868 0.20339654 0.124350086 -0.1608548 -0.11603063
0.12998836 -0.077092364 -0.0011207951 0.12104351 0.049146682 0.1335555 -0.08819891 -0.028917806
0.15750805 -0.1799594 -0.020539055 0.029065546 -0.10420925 0.12377397 -0.18978228 -0.12487611
-0.15594424 0.009546314 -0.01294306 -0.024489151 0.020760352 -0.06532893 0.024829948 0.036023
0.07473006 -0.16362008 0.07837737 0.05987129 -0.10108773 0.13470708 0.16723685 0.123623416
0.15770829 0.08472918 0.007847226 -0.017557204 -0.08495099 0.035579607 0.17961904 0.15949368
00000000: bd14 ed3d 2302 c6bd ac66 c0bd 4ff6 e2bd
00000010: 3874 b7bd 1e70 693d e2cb ddbd 1ea8 18be
00000020: 8221 e43d 9227 3dbc eff9 f63d ae35 c23d
00000030: b35a 5c3c 33b8 72bd 4b8d 3b3e 6ef3 0abe
00000040: 2462 143e 88f4 53bc b2c1 b13d c047 05bd
00000050: 64e9 c33c 7495 d7bd 2e2c a93d e0b0 edbd
00000060: 39d9 b43c 7553 993d 0407 a93b f217 2ebe
00000070: 583d 203e 3439 513e e768 1ebe 872f 9dbd
00000080: e173 3bbe fef5 9ebd 5768 f33d 368b adbd
00000090: 5315 153b dade 4abe 2d84 f53d 5005 953d
000000a0: c5f2 92bd 6d2d 153e b83a a8bc 2a69 ef3d
000000b0: dfc7 b93d bb7a 05be a580 6ebd 7751 6abc
000000c0: 9e80 b23d 5853 2abe 8d21 a5bc 952c 35be
000000d0: 9f3c 023e a47c 373e 15ee 9f3d 5c6e 14be
000000e0: 8e28 0c3e d233 a7bc ec61 23bd 1848 b1bd
000000f0: 89db 57bd e938 89bd 666d 37be d949 b53d
00000100: 8ee8 803d f171 3ebd 6dc2 69bd 3c20 503d
00000110: 5ccb f1bc 1d05 1dbe e833 373e 505f 353e
00000120: 1564 45bc 609a bc3d 4ac8 b63d bebd 24bc
00000130: 7867 943d b193 efbc b5e7 c33d 44ea fabd
00000140: daa2 8cbc b3aa a1bd 125c 1dbe 1cab ffbd
00000150: 87a9 b0bc 2ba5 b4bd 0b9f 37bc 284a 8e3b
00000160: 2fbe 583d a089 bbbd 4ef2 37be 1342 f23d
00000170: cf9f 47bc 02d5 06be 6dff 5a3d d0fb 523d
00000180: 6311 883b 84ce debd f413 4bbe f1b5 113e
00000190: 31ca 0a3e 5101 9bbd 6654 30be b205 0fbe
000001a0: 9754 06be caaf 563d 9e25 8fbc 9918 1fbd
000001b0: 9526 dcbd ec6d 773d 83e9 b0bc e406 d9bd
000001c0: cc66 e5bd eddc 19be d536 003e d207 d3bd
000001d0: dbdd 3f3e 4e7a dc3d 7320 f63d db24 da3d
000001e0: 3831 493e 9619 153e 0428 433d fff9 623d
000001f0: 3bb3 c33d c43b 183e 2ec6 5cbd c9d6 933c
00000200: 0130 3abe 2c5f f33d 4084 95bc 2840 65bd
00000210: a1a4 483e 6fdf 0a3e 2314 98bd 5b9a 3a3b
00000220: 65ca 7ebd 1a74 433e 2c8b f73d a85b 073d
00000230: 261d 133e 0fd7 873d dcb0 6b3d f0d9 483e
00000240: 1d0a eebd 624d 4dbe d704 9abd 8d83 0dbe
00000250: 9eb6 2dbd 2bf1 23be 86c2 953d 945b b23d
00000260: f7da b4bd 2bab 90bd 6739 cb3d 411c d9bd
00000270: e8c3 b6bd 2124 ae3d e256 713d 0c87 14be
00000280: 783d 0e3e 96e6 7c3d 41f7 78bd c7bc 3fbd
00000290: fca8 04be 9fbc a9bc 97f2 9c3d 8fbd 9cbc
000002a0: b64f 093e 38da b63d b68a d03c d4c2 27bd
000002b0: b44f 18bc 1060 183e f556 5d3c 56bb 29be
000002c0: 196d abbd d4ca 9c3d 3f50 37be 6790 71bd
000002d0: a514 bb3d eacb a0bd 0f92 0d3e 5d0f 153d
000002e0: 9586 00bd 2dfc 203e cc01 81bc 25d8 493d
000002f0: 11bc 48be 87d1 603d dcfc b13d d426 933d
00000300: e245 513e 8c42 083d 48d0 6a3c c274 153e
00000310: 197f 2a3e 6a08 ffbd 8000 78bd 06eb bd3d
00000320: f2f2 e03c 33e1 b5bc c407 39bd 9283 16be
00000330: 6106 01bd 468f 62bc da3c 48be b191 a4bd
00000340: 50a5 0e3e dfbe fe3c b145 9ebc a8b9 14bd
00000350: 2f47 503e 42ab fe3d 1fb7 24be 78a1 edbd
00000360: ab1b 053e 9ae2 9dbd a5e7 92ba a9e5 f73d
00000370: 084e 493d c6c2 083e a1a1 b4bd 09e5 ecbc
00000380: ca49 213e 4747 38be 8541 a8bc de1a ee3c
00000390: a96b d5bd 357d fd3d 4956 42be 0cbf ffbd
000003a0: d9af 1fbe 2568 1c3c 210f 54bc 799d c8bc
000003b0: 9d11 aa3c 2dcb 85bd 2d68 cb3c da8c 133d
000003c0: 130c 993d 068c 27be 5184 a03d 993b 753d
000003d0: 1507 cfbd a7f0 093e 2340 2b3e 462e fd3d
000003e0: 487e 213e 7e86 ad3d a791 003c 20d4 8fbc
000003f0: c9fa adbd ecbb 113d 0eee 373e 5052 233e

onnx::LSTM_134 f4 [1, 256, 64]
0.19207619 0.106534466 -0.16856602 -0.14283885 -0.15056057 0.11336958 0.10324716 -0.015369052
0.16803265 0.13850611 0.16478388 -0.19389752 -0.1180477 -0.21532471 0.19923007 0.06997615
0.14487734 0.0858712 0.18528003 -0.057350263 0.22152504 -0.15741408 -0.092417 -0.06672219
-0.22330366 -0.07983887 0.12446684 0.17506355 -0.0058212187 -0.02452503 -0.016516894 -0.10343199
-0.21115021 -0.17053628 0.021263244 0.011741727 -0.13547565 -0.040224407 -0.0011563003 0.14024559
0.1086321 -0.0014374104 -0.13170895 0.12087671 -0.09393842 0.0070973416 -0.035759337 0.21165618
-0.12564847 0.19275455 0.003105022 0.06655875 0.059601095 -0.0049188086 -0.08265547 -0.118833005
-0.13886023 0.18168832 0.10008049 -0.09012174 0.00273238 -0.0638747 0.20268808 0.08435476
-0.05509479 0.05698411 -0.04713942 0.060679074 -0.1241938 0.045328867 -0.09223196 -0.10074528
-0.09688478 0.18255626 -0.19877411 -0.080834255 -0.100853465 -0.13242579 -0.11369376 -0.026890954
0.09363366 0.06903974 0.20467396 0.10099228 0.23391047 -0.063955046 -0.05301122 -0.0019291625
0.14996815 0.049325522 0.06790596 0.061277624 0.23532984 -0.19578241 0.05783099 0.17057936
0.1501593 0.15458182 0.0043073096 0.18116671 0.1538498 -0.2307367 -0.117878735 0.06171072
-0.01909532 0.15299074 0.1267095 0.18818974 -0.16270731 0.11103692 0.14524002 -0.1846386
0.16702734 0.07436188 0.011226221 0.23898216 -0.13629685 0.17243104 0.19188549 -0.10255367
0.03527007 0.07633041 0.18919569 0.09708055 0.09547846 -0.07544864 -0.010374443 0.12818187
-0.079565294 -0.023037428 -0.034810845 0.21993248 -0.17357098 0.110632606 0.039657176 0.09479652
-0.20867641 -0.053036623 -0.22076032 0.18586352 0.16448909 0.09335917 0.12890281 -0.11669466
0.06826364 0.028792182 0.13371232 0.10162744 -0.029372903 -0.08152706 0.05491695 0.07119929
-0.23052928 -0.030198868 -0.18342656 -0.18699086 0.22856344 -0.03187934 0.14667818 -0.15536141
0.057388447 0.13748674 -0.06722629 -0.12260297 -0.031713206 -0.16026428 -0.042836938 -0.17616011
-0.17135128 -0.19245407 -0.04080632 -0.15746857 0.13260847 0.13377732 0.014104625 0.04941758
-0.024337064 0.06530689 -0.05077646 -0.15382005 -0.07371511 -0.16869369 0.11144422 0.04352233
0.07588449 -0.04668785 -0.21450639 -0.072026335 -0.12454073 0.0026744455 -0.06564924 0.085843205
0.12950048 0.084020816 0.07734439 0.21547481 0.15160327 0.21621737 -0.17018898 0.007220932
0.17887734 -0.0014093306 0.042563364 -0.15372635 0.12827413 -0.0073307552 0.105968356 0.04876977
-0.22003226 -0.2104345 -0.11122233 -0.22566251 0.097892046 -0.12339439 -0.2199514 -0.1404296
0.05372707 0.16305028 0.05655109 0.23020184 0.17632331 -0.15443803 -0.16004899 -0.03417432
0.12077631 0.005010363 0.115373105 -0.085885875 -0.021035979 -0.05916411 0.10984573 0.09743386
-0.08115836 -0.10924643 0.0938818 -0.038596198 -0.16366917 0.14778376 0.09066842 -0.07375646
0.08808574 0.14625807 -0.037651848 -0.15063849 -0.17764851 -0.23115547 0.08508982 -0.14610709
-0.17674622 -0.14321893 0.18678685 -0.20472385 0.136093 -0.017918075 0.101125106 -0.17441311
00000000: 9faf 443e be2e da3d 929c 2cbe 5944 12be
00000010: 8d2c 1abe 4f2e e83d 3f73 d33d 7ace 7bbc
00000020: c010 2c3e 8cd4 0d3e 1bbd 283e 128d 46be
00000030: fec2 f1bd 157e 5cbe f802 4c3e a84f 8f3d
00000040: ba5a 143e 3ddd af3d 0cba 3d3e 1ce8 6abd
00000050: 76d7 623e 2831 21be 2045 bdbd a5a5 88bd
00000060: b7a9 64be 9082 a3bd 78e8 fe3d dc43 333e
00000070: ecbf bebb b7e8 c8bc 704e 87bc 27d4 d3bd
00000080: c337 58be 10a1 2ebe 4130 ae3c 5f60 403c
00000090: 21ba 0abe 59c2 24bd 008f 97ba 8a9c 0f3e
000000a0: 827a de3d 7d67 bcba b6de 06be 358e f73d
000000b0: c962 c0bd d190 e83b 6278 12bd 66bc 583e
000000c0: fea9 00be 7361 453e a07d 4b3b f44f 883d
000000d0: 4720 743d f52d a1bb 4547 a9bd b85e f3bd
000000e0: 6031 0ebe 810c 3a3e 00f7 cc3d bf91 b8bd
000000f0: bb11 333b bdd0 82bd 778d 4f3e 30c2 ac3d
00000100: 13ab 61bd 2c68 693d 4415 41bd 9f8a 783d
00000110: 5259 febd c3aa 393d 1ce4 bcbd 8b53 cebd
00000120: 876b c6bd 07f0 3a3e 718b 4bbe 6e8c a5bd
00000130: 438c cebd a09a 07be 46d8 e8bd 6b4a dcbc
00000140: 01c3 bf3d b564 8d3d 0d96 513e 0ad5 ce3d
00000150: 3a86 6f3e ddfa 82bd 4b22 59bd f4db fcba
00000160: 4091 193e 8f09 4a3d 4812 8b3d 3ffe 7a3d
00000170: 4efa 703e 2f7b 48be 30e0 6c3d 5bac 2e3e
00000180: 5cc3 193e b24a 1e3e 5524 8d3b c483 393e
00000190: cd8a 1d3e 3e46 6cbe 686a f1bd 61c4 7c3d
000001a0: ca6d 9cbc 9ba9 1c3e 23c0 013e d0b4 403e
000001b0: bf9c 26be 5367 e33d cdb9 143e e711 3dbe
000001c0: 3709 2b3e 0b4b 983d 2fee 373c bdb7 743e
000001d0: 6791 0bbe c391 303e a17d 443e a907 d2bd
000001e0: 5977 103d 1e53 9c3d 84bc 413e 2bd2 c63d
000001f0: 368a c33d d184 9abd 91f9 29bc 1c42 033e
00000200: 21f3 a2bd fdb8 bcbc d195 0ebd fb35 613e
00000210: 97bc 31be 5993 e23d 906f 223d ae24 c23d
00000220: 45af 55be ee3c 59bd fe0e 62be 0253 3e3e
00000230: d46f 283e 1833 bf3d 19ff 033e 9cfd eebd
00000240: cfcd 8b3d 95dd eb3c e2eb 083e 0c22 d03d
00000250: 719f f0bc a9f7 a6bd 99f0 603d efd0 913d
00000260: de0f 6cbe 9e63 f7bc 2cd4 3bbe 887a 3fbe
00000270: 890c 6a3e e993 02bd ce32 163e 1017 1fbe
00000280: 2610 6b3d 53c9 0c3e f0ad 89bd 4417 fbbd
00000290: b5e5 01bd 521c 24be c975 2fbd 5163 34be
000002a0: b676 2fbe ae12 45be 8724 27bd 713f 21be
000002b0: 84ca 073e ecfc 083e 1617 673c 176a 4a3d
000002c0: 865e c7bc 9ebf 853d fafa 4fbd 0183 1dbe
000002d0: f3f7 96bd 0abe 2cbe de3c e43d 7844 323d
000002e0: 5469 9b3d c23b 3fbd 90a7 5bbe 8b82 93bd
000002f0: 360f ffbd c045 2f3b 1c73 86bd 90ce af3d
00000300: c69b 043e 1b13 ac3d bc66 9e3d 6ea5 5c3e
00000310: e33d 1b3e 1668 5d3e 0546 2ebe 919d ec3b
00000320: 9f2b 373e 4ab9 b8ba ec56 2e3d 716a 1dbe
00000330: 4b5a 033e d536 f0bb f005 d93d cfc2 473d
00000340: 2350 61be 247c 57be 88c8 e3bd 1314 67be
00000350: a07b c83d 33b6 fcbd f13a 61be c7cc 0fbe
00000360: eb10 5c3d a7f6 263e 1ea2 673d 08ba 6b3e
00000370: 198e 343e 0125 1ebe e2e3 23be 5ffa 0bbd
00000380: 9259 f73d f92d a43b bc48 ec3d efe4 afbd
00000390: a553 acbc 1156 72bd ccf6 e03d 678b c73d
000003a0: 5b36 a6bd 98bc dfbd 1a45 c03d 0c17 1ebd
000003b0: e498 27be a054 173e 5db0 b93d a00d 97bd
000003c0: 4c66 b43d adc4 153e d338 1abd fa40 1abe
000003d0: 7ee9 35be 05b4 6cbe 9243 ae3d 199d 15be
000003e0: f6fc 34be fca7 12be 0d45 3f3e 21a3 51be
000003f0: f75b 0b3e edc8 92bc ae1a cf3d 5a99 32be

onnx::LSTM_135 f4 [1, 512]
0.024359623 0.023571348 0.03583894 0.018456789 0.02551281 0.04298172 0.025288023 0.028186442
0.040704895 0.03311502 0.0104700625 0.049337618 0.03563579 0.04107649 -0.02300274 0.020864397
0.00040604608 0.010381014 0.013526308 0.019965565 0.01087195 0.034073066 0.034370568 0.038837966
0.022371834 0.020411348 0.014604577 -0.011377124 0.021977274 0.018095778 0.025461767 0.026523842
0.049035273 0.018336637 0.02046579 -0.005840177 0.029883422 0.008149909 0.00922559 0.039515078
0.0015208152 0.008831781 -0.00021849117 0.020520737 0.017102608 0.029815491 0.020530105 0.031201888
0.022748798 0.025718834 0.017243605 0.024689117 0.019681176 0.01781372 0.0007561749 -0.009970321
0.0397406 -0.0012108629 0.033989575 0.029684879 0.023821661 0.005649693 0.004235957 -0.00025683834
-0.011378811 0.006436794 0.034734488 0.014560322 0.027689615 0.02754058 0.049409688 0.043212432
0.017665274 0.022516431 -0.010362885 0.037869513 0.009028184 0.016927434 0.014996228 0.022787211
-0.020304495 -0.015414665 -0.012735736 0.018312164 0.0319811 0.031034287 0.017512595 0.017979944
0.02508694 0.014582162 0.013526877 0.004517761 0.036519777 0.030345106 0.03225054 -0.0019115597
0.048353534 0.011369733 0.008069529 0.022718647 -0.013164609 0.0012447102 0.027251204 0.0457316
-0.032845274 0.018395914 0.010989435 0.049699213 0.03125745 0.013285991 0.020063143 0.0051748096
0.0035033354 0.020257993 0.043143287 0.043069843 0.013565464 0.02885205 0.013991866 0.022641664
0.020166548 -0.007860034 0.047417138 0.0039326726 0.027294274 0.024841946 0.007070333 0.01365189
1.0212337 1.0002916 0.99063957 0.98989195 0.99035895 0.97781396 1.0017568 0.97395784
0.9729239 1.006661 1.0083196 0.9828675 1.0015954 0.99881256 1.00634 1.0241694
1.0090659 0.99563366 1.0307631 1.0004733 1.0079786 1.0132161 1.0148313 1.0260973
0.9830889 1.0169234 1.0164698 0.9919222 1.0036652 1.006834 1.020453 1.0193311
1.0094905 1.013298 0.99720615 0.9880903 1.0146525 1.0283899 1.0082333 0.9963027
1.0183457 1.0109315 1.0167009 1.0325019 0.98859876 0.98465294 1.017581 1.0108944
1.0034487 1.0032693 1.01848 1.0048455 1.0052669 1.0185443 1.0122743 1.0107456
0.9925146 1.0013399 0.99308425 1.0145414 0.99819255 0.99566656 0.9798589 1.0253975
-0.015703233 0.0002302545 -0.00889938 0.01284636 0.009615474 0.0034677356 0.0020027722 -0.007457283
0.0038444255 -0.0021248765 -0.017684817 0.010561336 -0.0036392868 -0.0062948177 -0.002669458 -0.022214305
-0.0064692283 -0.007042568 -0.022437556 -0.007692738 0.018078195 0.01571781 -0.011563314 0.024067204
-0.0022217268 0.0060422295 -0.013277032 0.0120988 -0.0032699052 0.015953196 0.01685617 0.010309472
-0.013632646 -0.013294915 0.01682095 -0.0038561462 0.010893262 -0.009519428 0.01790072 3.7341542e-05
-0.0112016145 -0.018999659 -0.004697927 -0.0032151234 0.00078717957 0.009983481 0.009165342 0.025190176
0.019163286 -0.00922836 -0.0004746349 0.00055115414 -0.009288576 -0.019188266 -0.0020749285 -0.009815081
-0.0151196215 -0.0021941182 -0.012669926 -0.016565798 -0.015168951 -0.0065789134 0.010400554 -0.016102925
00000000: d58d c73c b318 c13c dacb 123d b132 973c
00000010: 3e00 d13c 9a0d 303d d428 cf3c 41e7 e63c
00000020: 2dba 263d 9da3 073d a08a 2b3c 3e16 4a3d
00000030: d6f6 113d d23f 283d 3e70 bcbc d0eb aa3c
00000040: 95e2 d439 2115 2a3c 739d 5d3c d38e a33c
00000050: 4320 323c 3390 0b3d 27c8 0c3d 8f14 1f3d
00000060: 2345 b73c b335 a73c 0948 6f3c 1e67 3abc
00000070: af09 b43c 993d 943c 3295 d03c 8748 d93c
00000080: 36d9 483d b736 963c dfa7 a73c f55e bfbb
00000090: 14ce f43c 3287 053c ee26 173c 90da 213d
000000a0: 1756 c73a 2db3 103c c71a 65b9 1b1b a83c
000000b0: c51a 8c3c 9e3f f43c c02e a83c 1a9b ff3c
000000c0: b05b ba3c 4eb0 d23c 7642 8d3c d540 ca3c
000000d0: 6b3a a13c 14ee 913c 0a3a 463a 8f5a 23bc
000000e0: 0ac7 223d d1b5 9eba a738 0b3d b42d f33c
000000f0: a525 c33c 0f21 b93b c8cd 8a3b 42a8 86b9
00000100: 316e 3abc beeb d23b c045 0e3d 6b8e 6e3c
00000110: 55d5 e23c c89c e13c d061 4a3d 85ff 303d
00000120: c4b6 903c 6174 b83c 17c9 29bc 101d 1b3d
00000130: f3ea 133c 67ab 8a3c bdb2 753c 3fac ba3c
00000140: 9d55 a6bc cb8d 7cbc 8ca9 50bc 6403 963c
00000150: 9dfe 023d 9e3b fe3c 9376 8f3c ad4a 933c
00000160: 2083 cd3c 05ea 6e3c d69f 5d3c ba09 943b
00000170: c395 153d 4d96 f83c 2419 043d 4d8d faba
00000180: 5b0e 463d 1e48 3a3c 0f36 043c 751c ba3c
00000190: 5fb0 57bc 8b25 a33a eb3d df3c 0f51 3b3d
000001a0: c488 06bd 07b3 963c 080d 343c 6791 4b3d
000001b0: d007 003d 7cad 593c 765b a43c 7391 a93b
000001c0: 3798 653b 17f4 a53c 04b7 303d 016a 303d
000001d0: ae41 5e3c 225b ec3c 243e 653c 037b b93c
000001e0: 5134 a53c 5fc7 00bc 7938 423d a6dd 803b
000001f0: 3e98 df3c 5681 cb3c 41ae e73b 2dac 5f3c
00000200: c9b7 823f 8e09 803f 8e9a 7d3f 8f69 7d3f
00000210: 2a88 7d3f 0452 7a3f 9139 803f 4d55 793f
00000220: 8a11 793f 45da 803f 9e10 813f 349d 7b3f
00000230: 4734 803f 2eb2 7f3f c0cf 803f fc17 833f
00000240: 1229 813f d9e1 7e3f 0cf0 833f 820f 803f
00000250: 7105 813f 11b1 813f fee5 813f 2857 833f
00000260: b7ab 7b3f 8c2a 823f af1b 823f 9dee 7d3f
00000270: 1a78 803f f0df 803f 349e 823f 7179 823f
00000280: fc36 813f c0b3 813f e748 7f3f 7cf3 7c3f
00000290: 22e0 813f 48a2 833f ca0d 813f b20d 7f3f
000002a0: 2759 823f 3466 813f 4123 823f 0629 843f
000002b0: cf14 7d3f 3712 7c3f 1840 823f fd64 813f
000002c0: 0271 803f 216b 803f 8d5d 823f c79e 803f
000002d0: 96ac 803f a95f 823f 3492 813f 1d60 813f
000002e0: 7015 7e3f e82b 803f c53a 7e3f 7edc 813f
000002f0: 8c89 7f3f 01e4 7e3f 08d8 7a3f 3a40 833f
00000300: 11a4 80bc 7970 7139 b5ce 11bc 8a79 523c
00000310: 398a 1d3c f342 633b f140 033b 395c f4bb
00000320: c2f2 7b3b 8341 0bbb c0df 90bc 7409 2d3c
00000330: 1a81 6ebb c244 cebb 13f2 2ebb c6fa b5bc
00000340: d2fb d3bb 58c5 e6bb f7ce b7bc 5d13 fcbb
00000350: b918 943c a3c2 803c 0e74 3dbc 9628 c53c
00000360: 649a 11bb e5fd c53b e987 59bc 0c3a 463c
00000370: e84b 56bb 47b0 823c f315 8a3c 0fe9 283c
00000380: 765b 5fbc ead2 59bc 17cc 893c 66b7 7cbb
00000390: a779 323c 60f7 1bbc 88a4 923c 2d9f 1c38
000003a0: fa86 37bc 2ca5 9bbc 11f1 99bb d2b4 52bb
000003b0: ba5a 4e3a c191 233c 3b2a 163c a15b ce3c
000003c0: 53fc 9c3c 8c32 17bc 6bd8 f8b9 547b 103a
000003d0: 1d2f 18bc b630 9dbc 86fb 07bb 6fcf 20bc
000003e0: 4ab8 77bc 32cb 0fbb 8595 4fbc ffb4 87bc
000003f0: 3187 78bc ed93 d7bb 1667 2a3c 48ea 83bc
