results/learn_shoot_ppo/Shootair/Shootair-210879.onnx (onnx, 507113 bytes, 15 tensors)

discrete_act_size_vector f4 [1, 2]
00000000: 0000 0040 0000 0040
2.0 2.0

network_body._body_endoder.seq_layers.0.weight f4 [128, 447]
00000000: f38e 113d 7645 393d 1ae3 d0bc 7ec5 cf3d
00000010: 0983 163c 8b88 f33c 0ecc 963d dd6c 84bc
00000020: 2a42 773d 746c abbd d50a 4a3d 5b60 3b3d
00000030: 5721 f63c 77d7 af3c 5b4c a13d 2fa6 d938
00000040: c2ad c0ba 1702 8abd a07a 32ba 017e c33d
00000050: 2560 7abd 6501 e5bb 51b1 043d 764c 993d
00000060: bf94 1c3d ca5f 7a3b 0881 3e3b 3d14 833d
00000070: a0f2 013c f712 bebc c709 0a3d 0066 9f3c
00000080: 1e64 4bbd 66d2 e6bb bf87 cf3c e5b3 62bc
00000090: 7656 333b 0b33 92bc ca87 cfbc 2099 003d
000000a0: 7246 69bd 5a21 843d a787 33bd c659 8fbc
000000b0: 5644 29bb efd5 5bbc 1d54 81bc ed7e 973d
000000c0: b916 e9bc 184d 383d 214f c03c 28eb bf3d
000000d0: 3b4f dbbb f6dd 0e3d e25f b83d b404 3c3b
000000e0: abf4 0bbd 37b3 973b 65ab da3c a6d3 603b
000000f0: c4c5 7a3d 929a 88bc c3a8 e3bc fe75 10bd
00000100: 47b5 04bc ac00 ff3c 7338 a63c 02b0 b43b
00000110: 6815 a63d 5c56 4a3d eb35 8a3c bab4 93bd
00000120: 0440 2ebc f214 243c e153 b8bc e44c 43bd
00000130: 46f5 d5bc ccfd 89bc 8740 a3bc 5cab 3b3d
00000140: 46b0 16bc 3350 81bd 3e03 66bb c9b2 69bc
00000150: ac2c a93c cffe c83b 1f97 76bb cf40 543d
00000160: fc71 9cbd dba0 6a3d a3f0 28bd b9cf 2f3d
00000170: b676 353d 7030 01bd 835b cf3d c13e c33d
00000180: 543c adbd 2c45 42bc c3d2 51bd 8bae a7bc
00000190: e0b5 53bd 6a99 f43b e677 853c 8fcc a53a
000001a0: 9b1c 7abd 2de7 7bbd e7be 0a3d 3065 463d
000001b0: fb31 6e3d d976 5b3d 76f5 52bd 6345 b43c
000001c0: 78e9 123d c241 1ebd 272d 6ebd 8979 c33b
000001d0: 57dc 05bc 1257 9a3d 99eb 7e3d c944 f03b
000001e0: f7be a13d ca89 94bb cda6 7e3c 5e4b 90ba
000001f0: 85f5 d53c fc01 a43d b0a1 5cbd 28bf a03c
00000200: 5f2f 063d 1b44 a93c db51 1dbd 0afe ab3d
00000210: 58dd bd3d ea4a e2bc e125 b9bc b863 efbb
00000220: 587f 9abc e632 313d a787 93bc 54b8 e2bc
00000230: 15df 123d 5358 2f3d 629f 8e3c 3a9c e33c
00000240: 72c3 1cba 79a3 4e3d 261c 433c 8ae9 a73d
00000250: 6798 6c3d 8652 cebd 7b66 233d 18d6 36bd
00000260: c1bc f63b 09f2 813b 7552 fabc e758 2a3d
00000270: d880 203d 4105 56bd 659a 3f3d 1e43 82bc
00000280: 9323 b73a 1df0 5b3d aaa7 c23b d35e 703d
00000290: 4b94 eebb dab6 27bd 093b ee3b 1cb2 923b
000002a0: e417 843d 2f88 ebbc af18 29bc a80f f3bc
000002b0: f3c7 8cbd a3c4 303d d798 893d d95f 2d3d
000002c0: 2397 a73d e643 02bd 25da 383d a598 4ebd
000002d0: 9b5b b1bd 79ad 43bd 8f36 bdbd 5dfb 613d
000002e0: 3c77 263e 1858 c2bd 3cb0 223a ad67 6dbd
000002f0: 155b e7bc a89e 0d3d f054 bb3d ac90 a73b
00000300: 1142 913c 93f7 843c 228f cb3c f251 503d
00000310: 9ed0 c1bc 4db0 36bd 9361 993c bfa3 90bd
00000320: ff0d d83d 815c b53c 275c 0bbd 7bfb 093d
00000330: 0a91 0abd 2fc1 553d ee0b 64bd 44a9 ccbb
00000340: d143 df3b f4a1 8fbc c301 003e 1b61 ac3d
00000350: 9d55 acbc 68ee 7b3d c5d3 553d 2e25 4a3d
00000360: 3f4a b93c f996 863d f694 5e3c ba29 d83c
00000370: d08e e4bd 5026 0f3e 363d 1c3c 595f 013d
00000380: 850f bdbd 7362 803d 07c9 a73d 84cb 5cbd
00000390: f7e1 91bc 31c3 113d cecf fa3b 49e6 8b3b
000003a0: 86af b4bd 0822 253c 6ff3 c53c dd4d 40bc
000003b0: 0a68 83bd 00ad e93c 5e52 473d 0405 443d
000003c0: a7db 10bd 42be 9b3b a46a 5d3c 0f1f ce3d
000003d0: 947d 7abc 2f1d babb c758 adbb 7ac3 6ebc
000003e0: 0951 1c3d b056 95bc 95fb 85bc cf12 30ba
000003f0: d440 0abd 8bbb 043c a5f8 85bd db20 81bd
0.035536718 0.04523226 -0.025498915 0.101450905 0.009186515 0.029728195 0.07363139 -0.016165191
0.060365833 -0.08370295 0.049326736 0.04574619 0.030045195 0.021465046 0.07875892 0.000103783204
-0.0014700221 -0.0673868 -0.00068084337 0.09545518 -0.061126847 -0.0069886916 0.032395665 0.07485287
0.038227793 0.0038204067 0.0029068608 0.064003445 0.007931381 -0.023202403 0.03370073 0.019457817
-0.049656026 -0.0070441244 0.025333283 -0.0138368355 0.0027364767 -0.017846605 -0.025333304 0.03139603
-0.056951948 0.06451674 -0.04383054 -0.017498862 -0.0025828085 -0.013417705 -0.015787179 0.07397256
-0.028453218 0.044995397 0.023475232 0.09371024 -0.0066927946 0.034879647 0.09002663 0.0028689327
-0.03416888 0.0046295184 0.026693055 0.003430584 0.06122376 -0.016675267 -0.027790433 -0.035268776
-0.0080998605 0.03112825 0.020290589 0.005514146 0.08109552 0.049398765 0.016871413 -0.07212205
-0.01063538 0.010014759 -0.022500934 -0.04768075 -0.026117932 -0.016844653 -0.01992823 0.045817718
-0.0091973 -0.06314125 -0.0035097147 -0.014263817 0.020651184 0.006133891 -0.0037626696 0.05181962
-0.07638928 0.05728231 -0.041245114 0.04292271 0.044302665 -0.031540334 0.10124876 0.09533454
-0.08458772 -0.011857312 -0.05122639 -0.02046897 -0.05168712 0.0074645774 0.016292524 0.0012649464
-0.061062437 -0.061499763 0.033873465 0.048436344 0.058153134 0.05358014 -0.05150362 0.022005742
0.035867184 -0.03863693 -0.05814853 0.005965416 -0.008170209 0.075361386 0.062236402 0.0073324186
0.07897752 -0.0045330273 0.015542698 -0.0011008789 0.02611805 0.08008191 -0.053865135 0.0196224
0.03276002 0.020662358 -0.03840814 0.083980635 0.092707336 -0.027623612 -0.02260107 -0.0073055886
-0.01885955 0.04326143 -0.01800902 -0.027675785 0.03585728 0.042808842 0.017409984 0.027784456
-0.00059800514 0.05044887 0.011908567 0.08198841 0.05776253 -0.10074334 0.039892655 -0.04463777
0.0075298254 0.0039656204 -0.030556897 0.04158869 0.039185375 -0.052251104 0.0467781 -0.015901145
0.0013972394 0.053695787 0.0059403973 0.05868418 -0.0072808615 -0.040945865 0.007270221 0.0044767987
0.06449869 -0.02875146 -0.010320826 -0.029670551 -0.06874075 0.043156277 0.06718605 0.042327736
0.08183124 -0.031803034 0.045129914 -0.050438542 -0.086600505 -0.04777286 -0.09238922 0.05517136
0.16256422 -0.09489459 0.00062060705 -0.0579602 -0.028241673 0.034575135 0.0914706 0.005113682
0.017731698 0.016231334 0.024848524 0.0508594 -0.023659047 -0.044601727 0.018723285 -0.07062482
0.105495445 0.022138836 -0.03402343 0.033687096 -0.033829726 0.052186187 -0.05567544 -0.006245764
0.0068135043 -0.01753328 0.12500672 0.08416959 -0.021036917 0.06150666 0.052203912 0.049351864
0.022618411 0.065717645 0.01358532 0.026387084 -0.11160052 0.13979459 0.009536078 0.03158507
-0.09231476 0.06268778 0.0819264 -0.053905025 -0.017807944 0.03558654 0.007654167 0.0042693955
-0.08822541 0.010078914 0.02416393 -0.011737314 -0.06416328 0.028524876 0.048662536 0.047856346
-0.035365727 0.004752905 0.013514195 0.10064518 -0.015288729 -0.0056797485 -0.005290124 -0.014572972
0.03816322 -0.018229812 -0.016355315 -0.000671667 -0.03375323 0.008101354 -0.06541566 -0.06305095

network_body._body_endoder.seq_layers.0.bias f4 [128]
00000000: 4d27 1fbc 9226 ee3b e557 3bbc 251f 4abc
00000010: e703 3fbc effd 88ba 61ea 37ba 9d02 c03b
00000020: 78ab 84bb 4959 043c 17c7 573c 8e44 7ebb
00000030: 28d4 3bbc ec4d d93b e78c 7cbc ece3 8dbb
00000040: 9845 8c3b c4c8 d0bb 822b 973b 1d7d 2abb
00000050: 20a2 2f3c 5468 3e3c ac6a 583b 8afc 23bb
00000060: 3c42 3b3c 6a62 60bb 0b5c 5337 e925 76ba
00000070: 9975 5f3c 2e8e 1f3c 0498 ae3b 23d5 fa3b
00000080: d65e 903b dfd5 a7bb d5aa 73b9 cee6 1abb
00000090: e455 71bb 477f 133c bc58 af3c a2ed 613c
000000a0: 3d19 f83a 8af2 24bc feea 333c 973d bd3a
000000b0: 9ea3 d13b ba99 513c 3952 ed3b bbbb 213b
000000c0: a994 1c3c 2acf 053c dac6 7bbb 5352 873a
000000d0: f6c6 2a3c 7a08 e23b af05 293d 7b25 3e3c
000000e0: f7c2 4abc 0d6d 2eba c696 573c 0b51 ecba
000000f0: 35ea 153b f6ab 43bb 7818 bf3b 9ffe 5d3d
00000100: ab3a b33b f17a 98b8 88eb 843b f18f a1bb
00000110: 5bd7 fab8 dfa9 eabb 1624 d5b9 58f1 3a3c
00000120: 1f6b 013c 81a9 78ba 61ca 6dbc 3a9b c8bb
00000130: 7120 3c3c 054e c73b b03d 62bb 74b0 a43a
00000140: e304 363c 379d f7bb 6f41 473c bbda 26bb
00000150: 558d 343c 8a92 16bc a4aa 24bc 7646 9fba
00000160: 850c 0dbc 897d e7bb 202d 4ebc 7a39 74ba
00000170: 16c8 633c 0395 81bc 7155 b3bc 2cd9 6bbc
00000180: d412 68ba e138 c73b e5a6 013b c0e1 5fbc
00000190: 00ca 823c 3021 d0bb 290c 54bc e695 48bc
000001a0: 7a47 9e3c e244 143c 5ef0 1d3b 7f29 c4b9
000001b0: 7797 b03b 86fe f9bb 4186 4dbc a05b a2bc
000001c0: 3e6b 33bc 214a cfbb a021 a13b 652c be3c
000001d0: 548e 25bc bd5f 62bc a037 01bc c7a7 2b3c
000001e0: 92b9 1d3c bf5e 053b 0e7b ac39 934d 12bc
000001f0: 1d07 9e3b 071d a03a 572e 4f3c f35a 693b
-0.00971396 0.0072677815 -0.01143453 -0.012336527 -0.011658645 -0.0010451655 -0.0007015821 0.0058596865
-0.004048761 0.008077928 0.013170025 -0.0038798186 -0.011464156 0.0066316035 -0.015414453 -0.004330149
0.004280757 -0.0063715894 0.004613341 -0.0026014515 0.010719806 0.011621553 0.0033022566 -0.0025022351
0.011429366 -0.0034238347 1.25980105e-05 -0.00093898043 0.013638877 0.009738488 0.0053281803 0.0076548024
0.0044058366 -0.005121931 -0.00023237926 -0.0023636105 -0.0036824876 0.009002513 0.021404617 0.013789566
0.001892842 -0.010067591 0.0109813195 0.0014437911 0.0063976785 0.012792999 0.0072424677 0.0024678546
0.009556928 0.008167068 -0.0038418085 0.0010324217 0.010423413 0.006897983 0.041265186 0.011605616
-0.012375585 -0.0006653823 0.013158506 -0.0018029524 0.0022875194 -0.0029857135 0.0058317743 0.054197904
0.0054696403 -7.2708244e-05 0.004056398 -0.004930489 -0.00011961042 -0.0071613635 -0.00040653412 0.01141008
0.007899075 -0.0009485707 -0.014513583 -0.00612202 0.011482344 0.0060822987 -0.0034521632 0.0012564794
0.0111095635 -0.0075565833 0.012161597 -0.0025459963 0.011020024 -0.009190211 -0.0100504495 -0.0012151736
-0.008608942 -0.0070645255 -0.012584001 -0.0009316426 0.013902685 -0.015818125 -0.021891328 -0.0143950395
-0.0008852903 0.0060797785 0.0019783315 -0.013664663 0.015965462 -0.0063516125 -0.012942352 -0.01224277
0.019321192 0.009049626 0.002409957 -0.0003741495 0.0053891498 -0.0076292185 -0.012544216 -0.01981908
-0.0109508615 -0.0063259755 0.0049173385 0.023214528 -0.010104734 -0.013816771 -0.007886797 0.010477013
0.009626763 0.0020350663 0.0003289808 -0.008929628 0.0048226253 0.0012215682 0.012645326 0.0035607188

network_body._body_endoder.seq_layers.2.weight f4 [128, 128]
00000000: 04be 33bd 532a 88bc 0862 73bd 09ca b4bd
00000010: 4bcb aabd 9007 6ebd e456 08bd 77da 7dbd
00000020: f9a6 28bc 0a03 f9bc a57b 21be c7e1 93bd
00000030: 6ec8 743c 65ed 4e3e 7c2c a93d cc71 f03c
00000040: 5e01 e0bc f8ee 53bd 36cd 9cbd eba1 a73b
00000050: 8617 0ebe 098d 1a3e 118a 38be db7b a2bd
00000060: 94ac e0bd a771 c2bd 183a 103e 52ba 833c
00000070: 1eba 393d 3b09 1a3e 1c68 b53d 4f2e aa3d
00000080: ddec 6a3d 4fb0 1fbb 42f8 a43d b3ff cb3d
00000090: da6f e43d 5b85 a93d 180c 94bd 4896 8ebc
000000a0: f62f 22be ac13 303d 9082 2abd eab3 9dbd
000000b0: 25c4 17be 7b15 e2bb d585 2cbe 2003 07bd
000000c0: a244 04bd 732f 303d 90d6 01bd 9673 20bd
000000d0: 0d3d bd3d 8f2a 0e3e 5375 053d 96e3 b7bd
000000e0: de04 803d ff4f e5bc ff44 c3bd 943a 7e3c
000000f0: 1a0a 69bd 1843 343d 4328 2e3d 8094 ae3c
00000100: 0f93 c4bd 1384 4ebd e02c f13d e216 8bbd
00000110: 24f7 10bd 6455 acbd 8f59 1bbe 9a95 0b3c
00000120: e3b8 763c 12cb 19bd 0c95 f23c 1084 3a3d
00000130: 7627 af3d 72e5 1f3e 28b8 b03d 1042 07be
00000140: ec3f a43d 0db5 a2bc 0bc3 eabd 0ba3 6bbd
00000150: 67cd 4d3d dd94 0abd 89aa 21be 2f52 a33b
00000160: d640 ddbd 823d e2bd 4e9e 33bd e9ad b6bd
00000170: 3188 61bc 6cc4 f03d d0d9 7b3b c424 193e
00000180: 0f6c 3c3b 91bf 07be 846f cc3d 7830 c13d
00000190: a2f8 f3bd ebe1 1cbb 8558 30be 3534 b8bc
000001a0: 6050 88be a568 2b3e 5df7 8e3d 664d 18bc
000001b0: 72a4 1dbd d2a5 7abd 701e 68bd 9b13 303e
000001c0: 35fa bd3c 895b 45be eef1 a9bd 5f56 bdbd
000001d0: a94e 853d ef61 413d faac b0bd 42e4 573d
000001e0: e161 8cb9 8d21 fabd 14f8 fbbd e9fc 1dbe
000001f0: 0645 623d deff 47be 2f9e eb3d 6e69 993d
00000200: ced5 b7bc ba6d a43c 0353 87bd e371 f63c
00000210: 4042 2a3d ee70 e4bd 7d6e 2e3c bf8f 6dbd
00000220: 9435 dabd 7a71 4e3d bc09 11be 4a37 723c
00000230: a384 263c c6f3 4f3c 5127 68bd 3c08 71bb
00000240: 7695 22be 4e3a b2bc 3343 1ebd ac64 523c
00000250: ce6d b13d a1a5 70bd be2c b0bd 0039 ab3d
00000260: a60a 04bc 6d42 483b bcb4 acbc eb38 71bd
00000270: 9328 10bb 6964 ca3d 3d2d 1f3c 936b 33bc
00000280: afe2 25be a604 d3bd d31a 333b 1cd3 3abc
00000290: ba33 fbbd 5867 b23d 3146 b13d c192 d33c
000002a0: c9e3 85bc 25ec f2ba f224 873d f594 49be
000002b0: ef0e 033e 5a06 833d 128d d43a 50fd ad3d
000002c0: 54ff 94ba 7640 ce3d 103d 533d 396a 153e
000002d0: f6ca 543d bf3a f03d 6e3a 99bd 20f2 193c
000002e0: c1c6 4abd 4c8f e5bd ec69 69bc 233d d73d
000002f0: 040f f6bd b754 7b3d b26e fabc 9606 97bd
00000300: 5ffc c1bc 6c6e 2a3e f7ff 0dbe 4d5e 00bd
00000310: 3109 a03e 3bce 1abc cacc f43d e7b4 c9bd
00000320: 3c87 b63b 9f74 b63a 8c9d 053e 59fe c23d
00000330: 33a8 06be 3c1b 523c c3fb b63c 0c7c b23d
00000340: 4ed2 3cbe c192 8ebd 8a02 a43d 4732 0cbe
00000350: 93da 933c d1ee 49bd d1f9 52bc e94d d3bb
00000360: 34f1 9cbd b21c 7ebd 8cc1 513e 7247 a9bd
00000370: f7a6 df3d 6acd a4bc e62b 2d3e 8a9c f73d
00000380: 7adc df3d 9466 e2bb 76e1 0ebd 8cc9 9abd
00000390: 6eb9 4ebd f04a 15be 0cee a4bc 5860 953c
000003a0: 6540 333d 4fa3 783e 503d e13b e584 89bc
000003b0: 5fc9 0b3e 82c6 1a3d def5 723d 0b6c 523d
000003c0: a85f 923d 7a52 c2ba 01f2 613a 61f9 193e
000003d0: 5ace 06bd 3e39 51bd b149 043e f49d dbbd
000003e0: 70d7 b2bd 9e55 8dbd 694d 1c3d 4c8d ab3c
000003f0: 65c3 ebbd ec18 7c3e 52d4 e43d 6aba 18bd
-0.043882385 -0.016621744 -0.05941966 -0.08827598 -0.08339556 -0.05811268 -0.03328599 -0.061975922
-0.010293716 -0.030396957 -0.15769823 -0.07220798 0.014940364 0.20207746 0.08260438 0.029351138
-0.027344402 -0.05174157 -0.076563284 0.0051157377 -0.13876161 0.15092863 -0.18021418 -0.0793378
-0.10970417 -0.09494334 0.14084661 0.016080055 0.04534351 0.15042584 0.08857748 0.08309614
0.057354797 -0.0024366563 0.08055164 0.0996088 0.111541465 0.08277389 -0.07228869 -0.017405644
-0.15838608 0.04298751 -0.04162842 -0.077003315 -0.14820917 -0.0068995333 -0.16847928 -0.032961965
-0.032292016 0.043014 -0.031698763 -0.03917273 0.0924016 0.13883422 0.032582592 -0.089789554
0.06250928 -0.027992247 -0.09534644 0.015516896 -0.0568944 0.044009298 0.042518865 0.021311045
-0.09598362 -0.050418925 0.11776137 -0.06791474 -0.03539194 -0.084147245 -0.15170883 0.0085195545
0.015058729 -0.03754718 0.029612087 0.0455361 0.085524485 0.1561487 0.08628875 -0.13208795
0.08020005 -0.019861722 -0.11462983 -0.057528537 0.050244715 -0.033833373 -0.1578771 0.0049841623
-0.10803382 -0.11046888 -0.043852143 -0.089198895 -0.013765381 0.117562145 0.0038429387 0.14955431
0.0028750931 -0.1325667 0.099822074 0.09433073 -0.11912657 -0.0023938369 -0.17221268 -0.022485832
-0.2662382 0.16739137 0.069807746 -0.009295797 -0.038486905 -0.061193295 -0.056669652 0.17194979
0.023190597 -0.19273199 -0.082980976 -0.092449896 0.06509144 0.047212537 -0.08626743 0.052707918
-0.00026775806 -0.122134306 -0.123031765 -0.15428509 0.055241607 -0.195312 0.115047805 0.07490812
-0.022440817 0.020071853 -0.0660763 0.030083602 0.041567087 -0.11154352 0.01064646 -0.057998415
-0.106547505 0.05040119 -0.1416387 0.01478369 0.010163459 0.012692397 -0.05667812 -0.003677859
-0.15877327 -0.021756317 -0.038638305 0.012841385 0.08663522 -0.058751706 -0.08602284 0.08360481
-0.008059179 0.003055717 -0.021082275 -0.05889217 -0.002199684 0.09882433 0.0097153755 -0.010950941
-0.16199754 -0.10303621 0.002732922 -0.011402871 -0.122657254 0.087111175 0.08655966 0.025826814
-0.016343968 -0.0018533511 0.06598844 -0.19685729 0.12798665 0.06397696 0.0016216359 0.08495581
-0.0011367598 0.10070889 0.051571906 0.14591302 0.05195137 0.11729955 -0.07481848 0.009396106
-0.049505953 -0.11208972 -0.014246445 0.10509708 -0.12014583 0.061360087 -0.030570362 -0.07374303
-0.02367991 0.16643685 -0.13867174 -0.031339932 0.31257012 -0.009448583 0.11953123 -0.098489575
0.0055703204 0.0013920254 0.1304838 0.09521169 -0.131501 0.012823876 0.022336846 0.08715066
-0.184396 -0.06961585 0.08008297 -0.13691054 0.01804856 -0.04930002 -0.012876944 -0.0064484966
-0.07663193 -0.062039085 0.20483989 -0.0826558 0.10920518 -0.02011748 0.16911277 0.12090404
0.109307244 -0.006909201 -0.034882985 -0.07557973 -0.05046981 -0.14579368 -0.02013304 0.018234417
0.043762583 0.24281047 0.006873764 -0.016787002 0.13651036 0.037786968 0.05931651 0.05137257
0.07147151 -0.0014825605 0.000861913 0.15036537 -0.032911636 -0.05107998 0.12918736 -0.107234865
-0.08732498 -0.06901096 0.03815976 0.020941399 -0.11511878 0.24618882 0.111733094 -0.037287153

network_body._body_endoder.seq_layers.2.bias f4 [128]
00000000: c740 133d 9b3a cebb 3638 8ebc f31f 393b
00000010: 9ffa 423c f089 4a3a 1022 493c 56ea 843c
00000020: 4c50 2a3b 498d e93c a645 1fb8 2f6e 9fbc
00000030: 7307 92bc a43b a73b e095 b53c cb0e 3d3c
00000040: f1e5 183c 3986 a6bc 67db 61bc 5a1f 4aba
00000050: c40b c73a fa07 23bc 1a1b 3ebc d5b4 1e3c
00000060: b397 383c 828d 633b 0fdd a1ba 2410 9c3b
00000070: efba 9b3b a6a2 7abb d587 b53b 8802 dd3b
00000080: f216 3dbb a003 ca3b 3b5c e73b accb 583c
00000090: 8008 943b 4ab2 bf3b 88bd d03a 7125 20bc
000000a0: 5364 d1bc 9df0 ebba dcbd a7bb 32be 903c
000000b0: 70c8 1dbd a916 bebb a701 283b 3eec ad39
000000c0: d5be d13b bd7a 12bc 3176 323b e753 f1bc
000000d0: 7eef b93b c8ca 253c 8927 f33b 64f4 0fbc
000000e0: d3c5 93ba 7b17 773c 59a9 6dbc 8a76 84bc
000000f0: 3190 ba39 02f5 53bb 5d5a af3b 63e6 bc3c
00000100: 0b06 bcba e8c0 42bc 1e4c 7e3c 0d96 203c
00000110: 127c 76bb 22b6 183b df83 38ba 8c1b 8f3c
00000120: de59 473c 553e 15bc 496a 2e39 5ca7 c7bb
00000130: 299d 8e3c 6317 133c 87fd 6ebc a7bc 2a3c
00000140: 6c7e e53b 8d15 bb3c 45f7 863b 01f7 64bb
00000150: 771f 4f3c c7eb 013c 2c05 353c a192 0b3c
00000160: 4b37 ba3b 2ab4 8639 bbf3 233c 5be6 1fbc
00000170: 4398 4dbc 5acb 14bc cc4e 80bc 56b4 ccbc
00000180: c86f 98bb cd2f 49bc 12aa abbc 566d 903c
00000190: 95f9 31bb 7c8f 723c 90c6 cbbb eeac 62bc
000001a0: a137 94bb c432 58bb bc83 01bc 6249 d8bb
000001b0: 3119 703c caee 99bc 772b 13bc 34de 73bc
000001c0: a90c df3c 9756 653c 15fd 9c3c 36d9 983c
000001d0: 33d8 4dbc bd34 87bb 6b4c c1bb 4ff0 013c
000001e0: 81db 073b 32f2 573b 09e0 f1bb cae5 22bc
000001f0: b52a 353c e3b2 693c 39ba 543b 2f28 b53c
0.03595045 -0.0062936074 -0.017360788 0.0028247803 0.011900573 0.0007726243 0.012276188 0.016225021
0.0025987802 0.028509753 -3.797342e-05 -0.01946172 -0.017825818 0.0051035453 0.022166193 0.011539171
0.009332166 -0.020327674 -0.01378522 -0.000771036 0.0015186002 -0.009950632 -0.011603141 0.009686668
0.011266637 0.0034721796 -0.0012349206 0.0047626663 0.004752509 -0.0038243919 0.005539874 0.0067446865
-0.0028852788 0.006164983 0.0070605553 0.013232153 0.004517615 0.005850111 0.0015925625 -0.009774552
-0.025560534 -0.0018000785 -0.0051190685 0.017668817 -0.03852123 -0.005801041 0.002563575 0.00033173145
0.006400923 -0.008940396 0.0027231092 -0.029458953 0.0056743016 0.010119148 0.0074204844 -0.008786295
-0.0011274166 0.015081282 -0.014505708 -0.016169805 0.00035584116 -0.003234208 0.0053513483 0.023059076
-0.0014345063 -0.011886813 0.015521077 0.0098014 -0.0037610573 0.002330192 -0.00070386933 0.01746919
0.012167422 -0.009109099 0.00016633527 -0.006092949 0.017408924 0.008977744 -0.014586813 0.010420955
0.007003596 0.022837425 0.0041188323 -0.0034937265 0.012641779 0.007929749 0.011048596 0.008518846
0.005682861 0.00025692704 0.01000684 -0.009759511 -0.012548509 -0.009081686 -0.015662573 -0.024988335
-0.0046519972 -0.012279463 -0.02095512 0.01763026 -0.002715682 0.014804717 -0.006218739 -0.013835175
-0.004523233 -0.0032989243 -0.007904943 -0.006600545 0.014654444 -0.018790621 -0.008982531 -0.01488452
0.027227717 0.013997695 0.019163648 0.018658262 -0.012563753 -0.00412616 -0.0058990023 0.007930829
0.00207302 0.0032950756 -0.0073814434 -0.009942481 0.011057545 0.014263841 0.003245963 0.022113888

action_model._continuous_distribution.log_sigma f4 [1, 2]
00000000: a977 b23e 6a18 0e3f
0.34856918 0.55506

action_model._continuous_distribution.mu.weight f4 [2, 64]
00000000: c878 87bc 095a 8c3d ebb8 e3bd df96 b7bd
00000010: 38e8 d93c 0a5d 2b3d 2ba8 0b3e 932b 27be
00000020: c7c4 363d ff41 373e 3f6e 293d b007 09be
00000030: 88eb 8f3d 5a5c 003e 207f 323a 921e c8ba
00000040: 8394 8ebd 489a b43c 0a79 ac3c dee8 c73d
00000050: 509c ac3b cc9b 92bc 2c81 9cbb 76b2 a5bd
00000060: c3e6 2f3d b805 c83d 98f1 bbbc c189 a23d
00000070: 01a0 68bd 6b71 0c3e 5616 0d3c a427 083d
00000080: cc66 123d 6ab3 8bbd d2ec d93d 8e32 9e3c
00000090: ba32 76bd 9ca8 c33d 1ef6 1f3d 7736 f93d
000000a0: 74c8 7d3c f14f 15bd c470 96bd 9a79 43bc
000000b0: b36e e33d ed82 713d 5ba1 ba3d f3d0 4a3d
000000c0: 8f14 5abd ca3c cfbc 3e6c a43d 17c2 0cbd
000000d0: a54f a13d 64b9 50bd 4866 563d beef 40bc
000000e0: 58e5 733d 1b0d 383c 8391 823c 1267 f5bc
000000f0: bf4f adbb d829 acbc 0f55 a2bc 2d38 6d3d
00000100: 8681 68bd d52c f8bd 5c73 993d 8bd5 6d3d
00000110: fe8a 0c3d 9658 513c f8e0 81bd d9e4 2c3d
00000120: 6331 97bd 9769 5cbd 6e9e 09bd ee1b ee3d
00000130: 5349 26bd eb1a dbbc 0eea f1bd 4e12 edbd
00000140: cf4c 08bc e285 b73c e108 1b3c aa10 b0bd
00000150: 781f af3d 8b87 7b3d c5b3 7ebd f542 b63d
00000160: 4253 c1bd 0786 4e3d f591 c3bd f484 473c
00000170: 9607 f83b b079 ebbc 5a8f 8d3d f97c 323c
00000180: e084 d6bd 2022 4ebd b6ef 0ebc 389e 99bd
00000190: b1b5 693d 94d7 14bd 71ee f53d a00e d3bc
000001a0: 823f d7bc 9d49 a1bd de8e 4fbd ee0d 40bd
000001b0: e661 ec3c d47d 92bd e65c 0e3e ecfe d9ba
000001c0: 9e6e 5d3d e3bf adbd 82c4 25be 2d82 9cbb
000001d0: af5a bdbd b692 f1bd da88 adbc 4ef1 79bd
000001e0: 435e 09bc 57cc 163d d168 953d b2bd 5bbc
000001f0: 2cc3 a4bd 7791 ff3c 811b b73d ff05 ab3c
-0.016537085 0.0685311 -0.11119255 -0.08964323 0.026599988 0.041836776 0.1363837 -0.16325216
0.044621255 0.1789627 0.041364904 -0.13381839 0.07027346 0.1253523 0.0006809104 -0.00152679
-0.0696192 0.022046223 0.02105381 0.09761213 0.0052676573 -0.017896555 -0.0047761407 -0.08090679
0.04294468 0.09766716 -0.02294235 0.07936431 -0.056793217 0.1371514 0.008611282 0.03324093
0.035742566 -0.0682133 0.10640873 0.019311216 -0.06010697 0.09553644 0.039053075 0.121685915
0.015489686 -0.03645319 -0.07345727 -0.011930848 0.111050986 0.05896275 0.09112807 0.049515676
-0.053242262 -0.025297541 0.08028458 -0.034364786 0.07876519 -0.050958052 0.052343637 -0.011775909
0.05954489 0.011233593 0.015938526 -0.029956374 -0.0052890475 -0.021016046 -0.01981595 0.0579149
-0.05676415 -0.12117926 0.07492706 0.05806498 0.03431224 0.012777468 -0.063417375 0.042210434
-0.07382467 -0.053811636 -0.033598356 0.11626421 -0.04059727 -0.026746234 -0.118122205 -0.11575757
-0.008319094 0.022402707 0.009462566 -0.085969284 0.08550924 0.06140856 -0.06218316 0.0889949
-0.09439708 0.050420787 -0.095493235 0.012177695 0.0075692637 -0.028744549 0.06912108 0.010894054
-0.10474563 -0.050325513 -0.008724144 -0.07500881 0.05705804 -0.036338404 0.1200837 -0.02576381
-0.0262754 -0.07875369 -0.05067336 -0.046888284 0.028855275 -0.07152906 0.13902625 -0.0016631759
0.05406057 -0.08483865 -0.16188243 -0.0047762603 -0.09245812 -0.11795561 -0.02118342 -0.06102114
-0.00838429 0.036815967 0.07295383 -0.013411926 -0.080450386 0.031197293 0.08940793 0.020876883

action_model._continuous_distribution.mu.bias f4 [2]
00000000: 53fe 6b3b 5cac 773d
0.0036009743 0.06046711

action_model._discrete_distribution.branches.0.weight f4 [2, 64]
00000000: 7da0 9cbc 33ed 3cbc 41a9 883d e642 cd3d
00000010: 2063 45bd 3bb1 bcba 4137 b03c 9f26 cdbc
00000020: 1788 b6bd 7508 303b f386 84bd ed97 4b3d
00000030: 0845 993b 6759 2dbd bdbf e2bc 5bb3 d4bc
00000040: 8b46 16bd 8131 0a3c b3a3 32bd 2140 7cbd
00000050: 8e23 b9bb 9c3d 48bd d688 2a3a a866 773d
00000060: 675b ac3c 1cb6 5e3a 9f37 7bbc 3ee9 813d
00000070: 26b2 b13d d789 bbbd 928b 8d3d dd5a be3d
00000080: 6a74 afbc 4579 343d 0f7e b93c 04f5 53bc
00000090: 4554 803d 8e86 9abd 96cb 023d bbce a73c
000000a0: 51c4 e53c 8018 d43c 46e1 b9bc 62d2 5f3d
000000b0: 5585 453d fbee aa3d 9b35 42bc 0b5a 8f3d
000000c0: 93f5 173d c3e6 0dbc b2ef 0dbd 2232 bf3b
000000d0: 6ff1 d43b 086d 95bc 14c4 92bd 2d59 f3bc
000000e0: d284 c93d 500b e5bc 06a5 2fbd 53ef 88bd
000000f0: 88b2 00be 58ce 073d e83b b6bc 6c74 f3bc
00000100: 4e9b 2e3c 1b12 843c 4441 8abd 585a b5bd
00000110: 2e38 753d 1918 393c b846 a4bc fa91 1c3d
00000120: abc9 c33d 9b4b b1bc b978 253d 87f5 29bd
00000130: 74b0 b73c d62a 023d 3ac8 92bc 2376 373d
00000140: de54 f03c 3d46 4fbc 4504 dc3c cd2a 213d
00000150: 1ab4 ecbc 4ef0 1b3d 2dbd 6dbc 563a 3dbd
00000160: ac6a b43c 5852 983c 973f f03c 9f97 2cbd
00000170: 56ac acbd 6799 1d3d 694e 8dbd 1c4e adbd
00000180: 4fb3 ea3c 1c22 0cbd 8686 17bd 161c 2b3d
00000190: e6f3 1ebd bce1 a63d 8683 0abd 2ccd 28bc
000001a0: f3e8 25bd e150 08bd 2579 fb3c 1a62 91bd
000001b0: 89c5 fbbc 4ba3 b9bd 8e2b e73c 0ac5 70bd
000001c0: 967b 5bbd ca8c 573c d3d8 2b3d ff73 8ebc
000001d0: ecaa 0c3c ef5d 293c 8bb4 4a3d 222a 783c
000001e0: 56e9 c9bd 9288 093d adb4 313d edd2 b23d
000001f0: 2db0 173e 4025 4d3b 0f4d 99ba f4b6 2a3d
-0.019119496 -0.011531162 0.066729076 0.100225255 -0.048190236 -0.001439608 0.021510722 -0.02504283
-0.08912676 0.002686051 -0.06471052 0.049705435 0.0046774186 -0.04232159 -0.027679319 -0.02596443
-0.03668837 0.008434654 -0.043613147 -0.061584596 -0.0056499904 -0.04888688 0.00065053755 0.060400635
0.021039678 0.00084957643 -0.015333085 0.063433155 0.08676557 -0.0915715 0.069113865 0.092946745
-0.021417815 0.044060964 0.022643117 -0.012936834 0.06266073 -0.075451955 0.031932436 0.020484319
0.028047713 0.025890589 -0.022690427 0.054643996 0.04822286 0.08346363 -0.011853601 0.06999596
0.037099432 -0.008660975 -0.03465242 0.0058348337 0.0064985077 -0.018240467 -0.07166305 -0.029705608
0.098397866 -0.027959496 -0.042881988 -0.066862725 -0.12568104 0.03315577 -0.022245362 -0.0297186
0.010657145 0.016121915 -0.0675073 -0.08855122 0.05986803 0.011297249 -0.020053253 0.03822515
0.095599495 -0.021642497 0.040398333 -0.04149392 0.022423007 0.031779133 -0.017917741 0.0447904
0.029337343 -0.012651023 0.026857505 0.03934746 -0.028894473 0.03807097 -0.014510435 -0.04619821
0.022023521 0.018593952 0.029327197 -0.042136785 -0.08431308 0.038476374 -0.06899721 -0.08462164
0.028649954 -0.034212217 -0.036993526 0.04177483 -0.03880682 0.08148524 -0.033816837 -0.010302823
-0.04050536 -0.033280257 0.030697415 -0.070987895 -0.03073384 -0.09064349 0.02821901 -0.05878166
-0.053584658 0.013156125 0.041954827 -0.017389296 0.008585673 0.010337337 0.049488585 0.015146764
-0.098589584 0.03357751 0.043385196 0.08731637 0.148133 0.003130272 -0.0011695939 0.041678384

action_model._discrete_distribution.branches.0.bias f4 [2]
00000000: 1c83 1d3d 2083 1dbd
0.038455114 -0.03845513

action_model._discrete_distribution.branches.1.weight f4 [2, 64]
00000000: 57af 95bd 01e4 65bd adad 84bc 37c1 27bd
00000010: 7f19 c33d e14e 893d a00c 7a3d b69d 6bbd
00000020: 892a 96bc 05a6 12bc 1004 e2bb 4ad4 33bd
00000030: 086a 01be 4578 3bbc e21d 98bc 9b4a 0cbc
00000040: bdfb 26bd 797b 7abc d31c 98bd ab48 1dbd
00000050: e64c 513d 8d77 543c 25af e7bd ad3d 823c
00000060: 6844 70bd 73e3 f33c dc14 333c 65cc b03a
00000070: acf0 153d 5a41 133d 01f5 273d d736 28bd
00000080: 07b5 30bd 19df cd3c 4e27 8c3c 33e8 003c
00000090: 07c0 773d 7118 0a3d d53b 883a ecbd c63d
000000a0: d9bc cfbd fa47 98bd d87c 51bd a23d 9c3d
000000b0: ea0c 4dbc 0d20 bbbd 04e0 873c e345 013c
000000c0: cf5b cb3c 8788 3ebd 9478 d53c 6a3c ba3d
000000d0: 6571 80bd c0f7 17bd 1c9a 403d f8e6 9dbd
000000e0: 9264 fb3c 217b bb3c 25c9 19bd c0de 6cbc
000000f0: f16a a03c 895c 0ebd b8de 3c3d e676 17bc
00000100: 0495 ae3d ee62 463d 9c30 0f3d ac74 133d
00000110: 904d ccbd 134d 9dbd eef0 bfbb 2b03 8d3d
00000120: 03b4 f93c 8a1a e23c cad5 b4bc f005 513d
00000130: 666a e63d 826f c2bb f06e c83c bee5 513d
00000140: 4b6f ee3c 0b64 bb3c c1c0 a63d 36d0 a33d
00000150: ea9d 39bd 4e14 74bc 7452 803d d788 18bd
00000160: 6d62 163d 6de6 cebc 6e4e 0e3c 45c9 46bc
00000170: e088 91bd 3ab0 8cbd 22b2 0ebd c017 2e3d
00000180: 2637 8d3d 82c2 8dbc 4fdc 24bb bb98 db3b
00000190: 6a98 c5bc ce98 ddbc 0274 ddbc 077e d1bd
000001a0: fd5e 8b3d b122 7e3d 17e0 2f3d c961 60bd
000001b0: 3472 8c3c ade9 3d3d b5bd 043b e319 3ebb
000001c0: b57b 63bd 96e3 0e3d b974 23bd 7e15 d2bd
000001d0: d731 cf3c 2337 9f3c 1812 02bd 35fa 823d
000001e0: d03e 62bd d192 0bbd 9ab2 783d c517 49bb
000001f0: ece9 0fbb 78b9 6e3d 34cc 26bd dafc a33c
-0.07308834 -0.056125645 -0.016196096 -0.04095575 0.09526347 0.06704498 0.061047196 -0.05752345
-0.01833083 -0.008950715 -0.006897457 -0.043903627 -0.12638104 -0.011442249 -0.018568937 -0.008562709
-0.04076742 -0.015288227 -0.07427373 -0.03839938 0.051098727 0.012967956 -0.11312703 0.01589855
-0.058658987 0.029771542 0.010930266 0.0013488649 0.036606476 0.035950996 0.04100514 -0.041067924
-0.04314139 0.025130795 0.017108586 0.007867861 0.060485866 0.033714715 0.0010393808 0.097041935
-0.10143442 -0.074356034 -0.05114445 0.07628943 -0.012515286 -0.091369726 0.016586311 0.007890197
0.024824051 -0.04651692 0.026058473 0.09093554 -0.06271628 -0.037101507 0.04702197 -0.077100694
0.030687604 0.02288586 -0.037545342 -0.014457405 0.019582244 -0.034756217 0.04611084 -0.009244656
0.08524516 0.04843419 0.034958467 0.03599994 -0.099757314 -0.07680716 -0.0058575785 0.0688537
0.030481344 0.027600545 -0.022074599 0.051031053 0.11250763 -0.005933703 0.024466962 0.05124449
0.029105803 0.022874853 0.08142234 0.079986975 -0.045316614 -0.014897419 0.06265727 -0.037239876
0.03671496 -0.02525636 0.008685691 -0.012132947 -0.07106185 -0.0686955 -0.03483785 0.04250312
0.06895284 -0.017304663 -0.0025155728 0.0067015565 -0.024120528 -0.027050402 -0.027032856 -0.10229116
0.06805227 0.062044803 0.042938318 -0.054780755 0.0171443 0.04636543 0.0020254676 -0.002900713
-0.055537898 0.03488501 -0.039906237 -0.102580056 0.02529232 0.01943547 -0.031755537 0.063953795
-0.055235684 -0.034075562 0.060717203 -0.0030684334 -0.0021959497 0.058282346 -0.040722087 0.02001803

action_model._discrete_distribution.branches.1.bias f4 [2]
00000000: 133a 923c 113a 92bc
0.017849958 -0.017849954

onnx::LSTM_133 f4 [1, 256, 128]
00000000: 6e37 f33d 1d96 c9bd c048 c1bd b935 ddbd
00000010: f7b0 c1bd 2afa 723d 356a e0bd 872d 19be
00000020: 5752 ec3d 3fac 3bbc c999 f23d 7139 c23d
00000030: 2371 623c d2fd 5bbd 638d 393e 334f 0bbe
00000040: 9063 113e 5146 50bc 34ca b43d 9ae4 04bd
00000050: abdc c43c c972 d9bd ab53 aa3d 6008 f0bd
00000060: c4b6 ce3c a1cc 913d c07d 6f3b 918c 28be
00000070: 3f24 223e 30c9 503e efa7 21be 664a 93bd
00000080: bf2f 3bbe 0178 a0bd e664 ee3d e433 acbd
00000090: fe1e 323a 2cc2 4abe db08 f73d 2d28 973d
000000a0: 0c85 93bd 8433 183e 68e1 8dbc 0ed0 f83d
000000b0: cdcc b93d f61f 05be 454f 6fbd 10de 65bc
000000c0: 1420 b73d 3a07 29be 2e98 9ebc 788f 33be
000000d0: 9108 033e c778 353e 974f 9b3d 969b 16be
000000e0: 1d07 0e3e d924 a5bc 95c7 21bd 408c b0bd
000000f0: 6481 55bd 3fdd 84bd 9963 35be b602 b53d
00000100: 69bc 793d 8e1b 45bd 12c5 78bd a945 583d
00000110: f3b2 01bd 8ff9 16be a766 343e c2f0 353e
00000120: e388 70bc dff3 c03d a7ee bf3d 7503 21bc
00000130: 58ad 9a3d 35cf d2bc 5037 c63d 75da fbbd
00000140: 9e0f 8bbc cd67 a7bd 3d9a 17be 3018 02be
00000150: 17ab bbbc 09d8 bdbd a581 0cbc def4 bd3b
00000160: 58e9 353d 025d bdbd 3758 38be 9dec ee3d
00000170: 7ba2 2fbc 3fc1 02be 76ff 5a3d 47c2 573d
00000180: a38a 903b cb8d debd 7bd9 49be 4526 0e3e
00000190: df11 0b3e 5430 9abd 534a 30be 4690 0fbe
000001a0: 8e19 07be eeb8 4d3d c75e 93bc 48ae 24bd
000001b0: 4742 d0bd f12d 763d fdcf b2bc 2c9c d7bd
000001c0: 93cb e9bd e72d 1abe 9040 f83d 4d8c d3bd
000001d0: b3ed 3f3e 2243 d63d f82e f33d 4f71 d83d
000001e0: 18d9 463e 7c61 163e 192b 3b3d 8e9d 663d
000001f0: eb21 bc3d 23b9 143e 061f 64bd dbef a23b
00000200: 0174 31be 78a1 f23d 2d10 acbc 494f 61bd
00000210: b5a1 4f3e 7183 0c3e 60fe 92bd 65dc 8c3b
00000220: 1954 84bd 58d6 473e 7870 f83d 361b 073d
00000230: fe7c 133e 0365 933d 59bd 713d e515 4b3e
00000240: 8a16 eabd 8a4d 4fbe 7241 9abd 7545 10be
00000250: d222 34bd 36bb 23be fe94 943d df21 b73d
00000260: b133 a1bd 5636 8ebd 9683 cb3d 1e76 d6bd
00000270: 3c43 b6bd b6b0 b03d 8df9 773d 8b45 11be
00000280: 6cb5 0c3e a15c 7a3d 9416 72bd f710 3cbd
00000290: d48a 01be bc4d e1bc 835b a23d b3ba 97bc
000002a0: 1084 023e d128 b63d eebd c93c c201 25bd
000002b0: a71e 25bc aaba 163e 1ff9 5d3c 5f8f 28be
000002c0: 3327 a3bd 91b4 963d 4707 37be 6006 71bd
000002d0: 1732 bc3d c534 9bbd be7e 0d3e a9c1 163d
000002e0: eb6a 16bd c5b0 203e 77e1 90bc c668 463d
000002f0: 8c10 4bbe c5df 5b3d 790d b63d 9ec3 9a3d
00000300: 7127 503e 2c1e 083d 0c00 803c 5c42 183e
00000310: aed8 2c3e 5eca 01be 129e 71bd 4a76 c73d
00000320: 397f f53c a886 c1bc 29d8 34bd 1a9e 16be
00000330: f170 febc 532d 22bc cdf2 49be 94f8 9ebd
00000340: 71fa 133e 76a4 083d 2876 acbc 15ab 10bd
00000350: 6eaf 533e 265d 003e bd00 21be 529e ecbd
00000360: d6a3 033e 1500 9bbd a2e0 c0bb 2ec5 fa3d
00000370: baeb 433d 1dd5 0a3e 7ade aebd d4a3 ffbc
00000380: 1796 203e 898c 3abe 8835 debc c9b4 fc3c
00000390: f397 dabd bf69 003e 9dc8 45be 4842 04be
000003a0: 7ff8 1ebe 16af 203c a646 60bc c080 d4bc
000003b0: 0f3c 123d 26ea 85bd 0ab3 bc3c 5b53 133d
000003c0: 0973 a03d 7756 27be 439a 9a3d 3585 703d
000003d0: c073 d2bd 8243 0a3e 3d7f 2e3e b5d1 ff3d
000003e0: c95d 263e 6559 aa3d 5d1a 043c 4a80 a5bc
000003f0: 1f34 adbd 3a50 163d c3aa 393e bd71 213e
0.11875807 -0.09843085 -0.09437704 -0.108012624 -0.094575815 0.059320606 -0.109577574 -0.14958774
0.115391426 -0.011454641 0.118457384 0.09483612 0.013820919 -0.05370886 0.18120341 -0.13604431
0.14198136 -0.012712077 0.0882763 -0.032444574 0.024031004 -0.10617597 0.0831674 -0.117203474
0.025233634 0.07119108 0.0036543459 -0.16459872 0.1583414 0.20389247 -0.15786718 -0.07191925
-0.18279932 -0.07835389 0.116403386 -0.08408335 0.00067947793 -0.19800633 0.12062236 0.0738071
-0.07203111 0.14863402 -0.017319396 0.12149058 0.09072266 -0.13000473 -0.058425207 -0.014029995
0.08941665 -0.16506663 -0.019359674 -0.17535198 0.12796237 0.17721854 0.0758354 -0.14707789
0.13869901 -0.020159172 -0.039496977 -0.086205006 -0.05212535 -0.06487512 -0.17713775 0.08838408
0.060970698 -0.04812198 -0.060734816 0.052800808 -0.0316648 -0.14743637 0.17617284 0.17767623
-0.014681074 0.09421515 0.09371691 -0.009827484 0.07552594 -0.02573357 0.09678519 -0.12297527
-0.01697522 -0.08174095 -0.14804931 -0.1270454 -0.02290873 -0.09269721 -0.008575832 0.0057970127
0.044411987 -0.092462555 -0.18002401 0.11666224 -0.010719891 -0.1276903 0.053466283 0.05267551
0.004411058 -0.108668886 -0.19711868 0.13881786 0.13581036 -0.07528749 -0.17215852 -0.1401988
-0.13193342 0.05022519 -0.01798953 -0.04020527 -0.101688914 0.060102407 -0.021827692 -0.10527834
-0.11415782 -0.15056573 0.12121689 -0.103294946 0.18743019 0.10462023 0.11874193 0.10568487
0.19418752 0.14685625 0.045695398 0.0563026 0.09186157 0.14523749 -0.05569365 0.0049724407
-0.17329408 0.11847204 -0.021003807 -0.055007253 0.2027653 0.13722016 -0.071774244 0.004298734
-0.06461353 0.1951536 0.12130827 0.032984935 0.1440315 0.07197001 0.059018467 0.19832571
-0.1143008 -0.20244423 -0.07532014 -0.14088996 -0.04397852 -0.15989384 0.072549805 0.08942007
-0.078711875 -0.069439575 0.099372074 -0.10471748 -0.08899543 0.08627455 0.060540725 -0.14186685
0.13741082 0.061123494 -0.059103563 -0.045914616 -0.12650615 -0.027502887 0.07927611 -0.018521642
0.1274569 0.08894504 0.024626698 -0.04028488 -0.010078109 0.14719644 0.013548165 -0.16460942
-0.07966461 0.07358659 -0.1787387 -0.05884397 0.091892414 -0.07578424 0.1381788 0.036805782
-0.03672306 0.15692432 -0.017685635 0.048439763 -0.19830531 0.0536802 0.088892885 0.07556842
0.20327546 0.0332319 0.015625022 0.14869064 0.16879532 -0.12674853 -0.05898864 0.09739359
0.029967891 -0.02362378 -0.04415146 -0.14708748 -0.031059714 -0.009898501 -0.19721527 -0.07762256
0.14451005 0.033359967 -0.021052435 -0.035319407 0.2067239 0.12535533 -0.15722938 -0.11553635
0.12855467 -0.07568375 -0.0058861533 0.1224464 0.04783223 0.13557859 -0.08538528 -0.031206049
0.15682255 -0.18217672 -0.027125135 0.030847924 -0.10673513 0.12540339 -0.19314809 -0.1291591
-0.15524481 0.009807369 -0.013688719 -0.025940299 0.035701808 -0.06538801 0.023034591 0.035968166
0.07834441 -0.16341577 0.07548954 0.058720786 -0.10275984 0.13502315 0.17040725 0.1249117
0.16246714 0.08317832 0.008062926 -0.020202775 -0.08457207 0.036697604 0.18131547 0.15766044

onnx::LSTM_134 f4 [1, 256, 64]
00000000: 99f5 443e 7d35 dd3d 8787 2dbe 5d6f 12be
00000010: 0d44 1abe 19c0 e83d 7543 d03d 4417 69bc
00000020: af23 2d3e 6997 0f3e 046f 293e 7c51 47be
00000030: c81d edbd 90a0 5bbe 157b 4c3e 3485 8f3d
00000040: 275d 143e 6db2 b23d 0dff 3f3e 7ffe 64bd
00000050: 12bb 623e 24e6 20be b3b9 bdbd 8047 8cbd
00000060: f760 64be 292f a0bd 4f2c ff3d 3bd3 333e
00000070: 965f e7bb ddca ccbc 8b2b 8dbc dfa1 d2bd
00000080: f9f3 57be 5f89 2bbe d36b bf3c a24c 313c
00000090: faae 0cbe 2d25 1bbd 74c5 44ba 3fdf 0d3e
000000a0: cbdc de3d 8604 28bb 4b55 04be 8958 f93d
000000b0: 1f6f b9bd 6310 2b3c b032 0cbd b440 593e
000000c0: d063 02be 974c 453e fa55 303b 1f83 843d
000000d0: 4fdb 783d d939 e2bb f70d a7bd abe8 f8bd
000000e0: 8dca 0fbe 9f8a 3a3e dcfa d23d b013 b8bd
000000f0: da38 4c3b 3550 83bd aded 4c3e 6091 a63d
00000100: 4882 63bd 3cff 6b3d 0e33 43bd 8d6a 893d
00000110: ca29 f7bd c60b 193d 6207 bbbd a346 d7bd
00000120: abc9 ccbd 6bd4 3a3e 0997 4dbe 9ed1 99bd
00000130: cf8d c3bd 52cb 06be 9ac8 e5bd 66d5 eebc
00000140: 27c0 c33d dd15 8a3d 195c 4f3e cf6c ca3d
00000150: fcc7 7c3e c315 7dbd fe63 57bd fc41 a938
00000160: 8ee1 173e 059a 603d 252b 863d 3ca5 803d
00000170: d9bf 743e b9b7 46be 3bd3 743d a52d 2a3e
00000180: 78f1 143e d896 1f3e ddf3 853b e7a1 373e
00000190: f7fd 1f3e f80a 76be 5e53 ecbd e8d9 833d
000001a0: af7c a2bc d954 1b3e bbb1 023e 5ac4 403e
000001b0: cca0 29be b78f de3d dce0 163e a3d1 3dbe
000001c0: 5d52 263e c668 933d 9484 0b3c 5852 7b3e
000001d0: adc6 0dbe adc9 2e3e 340c 3d3e 4d56 cbbd
000001e0: 4b34 0b3d f577 9f3d b8dd 3f3e 818d c93d
000001f0: 7cb3 c43d 5618 95bd 65dd f8bb c982 063e
00000200: ef2c a5bd f55f bdbc 09cb 0fbd a157 613e
00000210: 1c17 31be 8b8d e23d d1aa 1b3d eebd c03d
00000220: e520 57be 85e0 5ebd fd4b 62be a1c0 3e3e
00000230: a7f9 273e 8e67 be3d 37f4 023e a682 efbd
00000240: 3f64 8c3d 9cfe ec3c 9f23 073e 5cc6 cd3d
00000250: 516a eebc d8a5 a6bd b8d9 5c3d 041a 953d
00000260: 03b1 6bbe 067e 00bd a710 3cbe e7ca 3ebe
00000270: f068 693e e942 07bd 55ce 163e f751 1ebe
00000280: e357 6b3d 1c1e 0d3e 4c37 8bbd 768f fcbd
00000290: cf40 f8bc 28e6 24be 3534 2ebd a1c7 33be
000002a0: 7d46 30be 5799 45be 1f90 2bbd e1b6 21be
000002b0: cd80 073e dea4 093e 7602 643c fc16 4a3d
000002c0: cc0e c4bc 8038 853d 9591 54bd e5e5 1bbe
000002d0: bed1 98bd d315 2dbe 9dca e43d 2ca5 333d
000002e0: 02cf 9e3d 941a 3bbd 6d2f 5cbe cde1 93bd
000002f0: ab26 00be 2b45 0b3b bfc1 83bd dc3a ad3d
00000300: c5be 003e b76f a93d eedf 9c3d 0712 5a3e
00000310: 5033 1e3e ab12 633e 4b04 30be cb7f 143c
00000320: 3b3c 373e a39b efbb ee83 313d 0372 23be
00000330: 099c fe3d f492 22bc 40c1 d93d 7741 483d
00000340: 1066 61be acee 58be 5de9 e6bd 0f15 68be
00000350: 7362 c93d a1ea fcbd c509 64be 22dc 0ebe
00000360: 0c98 5c3d 2113 273e df7d 663d bb2c 6b3e
00000370: 59a3 333e fb11 23be 2536 24be f67f 14bd
00000380: 70d1 f73d 4590 3c3c 3ee7 e03d 4571 abbd
00000390: a3fb 90bc f049 76bd df65 e03d e290 c03d
000003a0: 0a69 aabd 3697 e5bd fa32 c63d 4483 0bbd
000003b0: 472a 31be c7fd 143e e6e1 b83d 7457 9abd
000003c0: 182d b43d e55e 153e 93bb 2bbd ef47 19be
000003d0: 9764 38be 5e37 6dbe 6124 ae3d 2fa3 14be
000003e0: f455 37be 75b4 11be d29c 3b3e 7b67 51be
000003f0: d4ed 0b3e 4979 77bc 61cb d53d 7e3b 36be
0.19234313 0.10801218 -0.16946231 -0.14300294 -0.15065022 0.11364765 0.101691164 -0.014226738
0.16908143 0.14022602 0.16546255 -0.19464678 -0.11577946 -0.21447968 0.19968827 0.07007828
0.1448866 0.08725438 0.18749638 -0.05590677 0.22141674 -0.15712792 -0.09263935 -0.06849575
-0.22302614 -0.07821495 0.12459623 0.17561047 -0.0070609553 -0.024999077 -0.017232677 -0.10284781
-0.21089162 -0.16751622 0.023366844 0.010821493 -0.13738623 -0.03787725 -0.00075062294 0.13854693
0.10881957 -0.0025637462 -0.12923162 0.1217509 -0.09054398 0.010440919 -0.034228027 0.21216089
-0.12733388 0.19267498 0.0026906715 0.06470322 0.060756024 -0.0069038686 -0.081569605 -0.12153753
-0.1404211 0.18216942 0.10301754 -0.0898813 0.0031161816 -0.06411783 0.20012541 0.08133197
-0.055544168 0.057616457 -0.04765611 0.06709776 -0.120685175 0.037364744 -0.091322675 -0.1051152
-0.099994026 0.18245094 -0.20077147 -0.075106844 -0.09548532 -0.13163498 -0.11219902 -0.02915449
0.095581345 0.06742451 0.20249976 0.09884035 0.24685663 -0.06178833 -0.052585594 8.0708385e-05
0.14832136 0.054834384 0.06551198 0.06281516 0.23901309 -0.19406022 0.059771758 0.16618975
0.14545238 0.15584886 0.0040879087 0.17932855 0.15624224 -0.24027622 -0.115393385 0.06438047
-0.019834844 0.15169086 0.12763111 0.18824902 -0.16565245 0.10867255 0.14734215 -0.18537001
0.16242357 0.07197718 0.008515496 0.2454313 -0.1384532 0.1706912 0.18461686 -0.0992857
0.033985417 0.07786552 0.18736923 0.09841443 0.096045464 -0.07280032 -0.0075947517 0.13135828
-0.08065211 -0.023117045 -0.03510574 0.22006084 -0.17293972 0.110621534 0.0380047 0.09411226
-0.21008642 -0.054413337 -0.220993 0.1862817 0.16403829 0.09297095 0.12788473 -0.11694841
0.06855058 0.028930001 0.13197182 0.100476 -0.02910343 -0.08137101 0.05391857 0.07280353
-0.23016743 -0.031370185 -0.18365727 -0.18632089 0.22793937 -0.033022795 0.14727147 -0.15460955
0.057456862 0.13781017 -0.067976564 -0.123320505 -0.03030434 -0.16103423 -0.042530257 -0.17556621
-0.17214389 -0.19296776 -0.04188549 -0.15792419 0.13232727 0.13441798 0.013916602 0.049338326
-0.023932837 0.06504917 -0.05189665 -0.15224417 -0.0746188 -0.16902857 0.11171458 0.043858692
0.07754327 -0.045679644 -0.21502466 -0.072208025 -0.1251475 0.0021250944 -0.064334385 0.08458492
0.12572773 0.08273261 0.07659899 0.2129594 0.15449262 0.2217509 -0.17189138 0.009063671
0.1789407 -0.0073122545 0.04333871 -0.15961461 0.12432105 -0.009922732 0.10632563 0.048890557
-0.2201159 -0.21184796 -0.11274979 -0.22664283 0.09833231 -0.123494394 -0.22269352 -0.13951162
0.05385594 0.16315891 0.056272384 0.22966282 0.17542781 -0.15924828 -0.1603628 -0.036254846
0.12100494 0.011509006 0.10981606 -0.08371214 -0.017698115 -0.060129106 0.1095693 0.09402634
-0.08320816 -0.11210482 0.09677692 -0.03406073 -0.17301284 0.14549933 0.09027462 -0.075362116
0.087976635 0.1458698 -0.04192693 -0.14968847 -0.18007122 -0.23165652 0.085030325 -0.14515375
-0.17903882 -0.14228995 0.18321541 -0.20449631 0.13664943 -0.0151046 0.10439182 -0.17796132

onnx::LSTM_135 f4 [1, 512]
00000000: cbec c43c c04a d43c 011a 143d 115d 9b3c
00000010: e3e1 0d3d 30d9 2f3d 6fdf e63c 3f47 ee3c
00000020: 7dab 1a3d 5701 183d 6b9c 57bb 0da6 4e3d
00000030: 0394 0b3d 76f7 1c3d cf2c 9fbc c839 a03c
00000040: 1b95 f8ba efab d03b 906e 203c a934 1c3c
00000050: a075 653c 75db 0d3d d98d 0b3d 1aa3 1c3d
00000060: 3b09 b43c 3fda a73c 01bb 5c3c 02f3 93bc
00000070: 49bd d93c e416 b83c f2be c33c c4c6 d33c
00000080: fcc6 403d 1623 963c dca7 9d3c 2e59 92bc
00000090: 8dec f53c 79ca 9d3b 7a56 f03b 07a7 263d
000000a0: bda6 383b 1b6d 153c dc32 0fbc a171 a13c
000000b0: b221 a13c 5f94 d43c d9a7 d43c 73ed 103d
000000c0: 15cb b83c 8865 c03c 2a3f 453c 50a1 b83c
000000d0: dac2 a73c 7ffa 773c a3aa 773a 9775 80bb
000000e0: dc2a 263d 81d4 223b 1683 083d d7b9 ee3c
000000f0: 492f f63c 3649 123c 1c77 093c 00e4 afbb
00000100: 55f4 61bc d4e1 cf3b ea0d 143d da49 933c
00000110: fcc9 cd3c fc04 eb3c c1a3 4a3d a44f 2d3d
00000120: 9bf3 893c 234b c43c 0845 4fbc 4924 113d
00000130: b50e 5c3c 35d7 8b3c 8405 903c 75d1 b43c
00000140: 33c8 96bc c964 75bc 6eec 68bc c370 853c
00000150: f7a4 003d 4240 053d 4db2 913c c37d 8f3c
00000160: 5008 bf3c 0abf 923c d239 5c3c 2ee7 aa3b
00000170: 9ebd 153d 8d96 083d 6baa 013d 28cd cbba
00000180: 5a84 4b3d 0bb7 313c ada4 1a3c 370f e23c
00000190: e35e 66bc 4076 863b 7d67 df3c ba1b 3b3d
000001a0: 83c5 f7bc 1864 b63c 192d 203c e4fc 3d3d
000001b0: 4ef5 c23c 1a3b bc3b 0044 ac3c a4ea 983a
000001c0: ca2d cc3a 5bfe a63c b8f3 3b3d 5b45 303d
000001d0: 219a 483c 4beb ce3c 9f53 043c 7ea2 a53c
000001e0: bc8d 9e3c 3ed4 2dbc 46ef 4a3d da1f 393a
000001f0: 0627 d33c fe19 c63c a152 fe3b 36a1 9d3c
00000200: 3fb8 823f 940b 7f3f 9637 7d3f 3591 7d3f
00000210: 5508 7e3f 6e13 7b3f fd89 803f ac3c 793f
00000220: 4e2c 7a3f 42d4 803f 8c10 813f 62b1 7a3f
00000230: 586c 803f 5e04 803f 8a1c 813f 75f7 823f
00000240: 6723 813f c0db 7e3f 1af0 833f e6af 7b3f
00000250: 61e8 803f 36a2 813f 39e8 813f ca6b 833f
00000260: 5cff 7b3f d128 823f 8b1a 823f e0f3 7c3f
00000270: cf00 813f 7808 813f 56c0 823f c11b 833f
00000280: 24d3 803f a0b5 823f da46 7f3f 46da 7c3f
00000290: 12db 813f f1bb 833f f00e 813f 5f23 7f3f
000002a0: 2381 823f 6e7e 813f 6337 813f 5d4f 843f
000002b0: 87ba 7c3f ae40 7c3f eb65 823f 52c4 813f
000002c0: e867 803f 2370 803f e362 823f cfaf 803f
000002d0: 0eae 803f 5c9e 823f 38fa 813f b7e2 813f
000002e0: e4fc 7c3f 7993 7f3f aec7 7e3f 215f 813f
000002f0: 1940 803f 86c7 7d3f 57a2 7b3f 466c 833f
00000300: b75a 95bc 9d2b 11ba 0c15 30bc 1768 293c
00000310: bac9 503c 0a3f 3c3b 7413 d13a 8774 04bc
00000320: 83fe 7c3b 9274 36bb 2dcd 90bc 2f01 3b3c
00000330: 8970 feba 817c c0bb db44 1fbb c3b6 b3bc
00000340: c077 d2bb 42db d9bb d1d4 aebc 8fec f8bb
00000350: c95c 9d3c 1ba9 8c3c c9bd 3bbc 4f03 ce3c
00000360: 0927 a8bb edcc c63b bdac 57bc 40fb 3d3c
00000370: eb0c 6dbb b37f 733c 042c 883c 3808 3c3c
00000380: 9314 5ebc f0fb 5fbc b3c3 a13c 94b5 7cbb
00000390: 23ed 3c3c cb42 30bc 5f0c 923c dbeb b4ba
000003a0: b01f 53bc b798 99bc 230b bdba 037e 37bb
000003b0: b1ba 82ba 9e2d 1d3c 946c 1e3c 1775 ca3c
000003c0: 3496 a13c b6f8 0abc 2160 b03a 9977 423a
000003d0: 6a4c 18bc b5b1 98bc cb15 45ba 5602 a5bb
000003e0: c594 61bc af58 09bb 0e6b 34bc 785b 91bc
000003f0: 4402 cdbc 5df2 d5bb 5853 323c 70ec 51bc
0.024038693 0.02591455 0.03615761 0.018965276 0.03463925 0.042931736 0.028182713 0.029086707
0.0377612 0.037110653 -0.003289963 0.050451327 0.0340767 0.038321935 -0.019430546 0.019558802
-0.0018965335 0.0063681523 0.009791985 0.00953404 0.014005095 0.03463312 0.034070823 0.038241483
0.021977058 0.02048981 0.01347232 -0.018060211 0.026579516 0.022471853 0.02389476 0.025851615
0.047064766 0.018327277 0.01924508 -0.01786479 0.030020023 0.0048153964 0.0073345276 0.040686633
0.0028175556 0.009120251 -0.008740153 0.019707503 0.019669387 0.025949655 0.025958942 0.0353827
0.022557775 0.023485914 0.012038985 0.022537857 0.020478655 0.0151354065 0.0009447729 -0.003920268
0.040568218 0.00248459 0.03332814 0.02914135 0.030051844 0.008928588 0.008390214 -0.005367756
-0.013791163 0.0063440595 0.036146082 0.017979551 0.025120728 0.0286889 0.049472574 0.04231228
0.016839793 0.02396161 -0.012650736 0.035434995 0.013431241 0.017070392 0.017580755 0.022072533
-0.01840601 -0.014977642 -0.0142165255 0.01628912 0.031407323 0.032531984 0.017785216 0.017516023
0.023319393 0.01791336 0.01344152 0.005215547 0.036557786 0.0333467 0.031656664 -0.0015548812
0.049686767 0.0108468635 0.009438676 0.027595146 -0.014060709 0.004103452 0.027271027 0.04568074
-0.030245548 0.022264525 0.009776377 0.046383753 0.023798611 0.00574435 0.021028519 0.0011666608
0.0015577611 0.020384958 0.045886725 0.043034893 0.012243778 0.02525868 0.008076577 0.020219084
0.019354694 -0.0106096845 0.049544595 0.0007061936 0.025775444 0.024182316 0.007761315 0.01924191
1.0212477 0.9962704 0.9891294 0.99049693 0.99231464 0.9807652 1.0042111 0.973582
0.97723854 1.0064776 1.0083175 0.97926915 1.0033064 1.0001333 1.0086834 1.0231768
1.0088929 0.9955406 1.0307648 0.98315275 1.0070916 1.0127628 1.0148994 1.026727
0.9843652 1.0168706 1.016435 0.98809624 1.0078372 1.008071 1.0214946 1.0242845
1.0064435 1.0211678 0.99717486 0.9877056 1.014498 1.029173 1.0082684 0.99663347
1.0195659 1.0116708 1.0095028 1.033672 0.9872212 0.98536193 1.0187353 1.0138037
1.003171 1.0034221 1.0186428 1.0053653 1.0053117 1.0204577 1.0154486 1.0147313
0.9882338 0.998344 0.9952344 1.0107156 1.0019561 0.99132574 0.98294586 1.0267417
-0.018231733 -0.000553781 -0.0107472055 0.010339758 0.012743408 0.0028724098 0.0015951232 -0.008084423
0.003860385 -0.0027840477 -0.01767596 0.011413856 -0.00194122 -0.005874217 -0.0024302516 -0.021937734
-0.0064229667 -0.006648452 -0.021341713 -0.0075965594 0.019209282 0.01717048 -0.0114588225 0.025148062
-0.0051316065 0.0060669095 -0.013163743 0.011595547 -0.003617103 0.014861989 0.01662255 0.011476569
-0.01355471 -0.013670906 0.019746637 -0.0038560377 0.011531147 -0.010758112 0.017828165 -0.00138032
-0.012885973 -0.018749578 -0.0014422875 -0.0027998693 -0.0009973851 0.0095933955 0.009669442 0.024714036
0.019724943 -0.008482149 0.0013456383 0.0007418334 -0.009295562 -0.018639425 -0.0007518201 -0.005035679
-0.01376838 -0.00209574 -0.011011852 -0.017743811 -0.025025494 -0.006529136 0.0108841285 -0.012812719
