results/learn_shoot_ppo/Shootair/Shootair-200968.onnx (onnx, 507113 bytes, 15 tensors)

discrete_act_size_vector f4 [1, 2]
2.0 2.0
00000000: 0000 0040 0000 0040

network_body._body_endoder.seq_layers.0.weight f4 [128, 447]
0.029615628 0.04720536 -0.025498915 0.09923963 -0.00033485997 0.033484675 0.07363139 -0.018723821
0.051041376 -0.07896343 0.049326736 0.044036854 0.030726373 0.018899273 0.07875892 -0.006433608
-0.011306368 -0.06188582 -0.00068084337 0.09492116 -0.05690226 -0.011493349 0.032395665 0.06792686
0.03184334 0.006337163 0.0029068608 0.06266997 0.013891935 -0.02861534 0.03370073 0.012824811
-0.05653686 -0.0045327498 0.025333283 -0.01277562 0.0032986565 -0.020290991 -0.025333304 0.026087219
-0.06350873 0.06661981 -0.04383054 -0.017836118 -0.0039995825 -0.014718851 -0.015787179 0.0698712
-0.03563575 0.04659315 0.023475232 0.093884364 -0.015839972 0.038102847 0.09002663 0.0025841484
-0.033229634 0.0021695748 0.026693055 0.0004858204 0.06195772 -0.019389415 -0.027790433 -0.03669946
-0.0031850098 0.02717539 0.020290589 0.0018405985 0.076196276 0.050150815 0.016871413 -0.07094086
-0.0056257215 0.006132418 -0.022500934 -0.050823864 -0.021519998 -0.021661064 -0.01992823 0.045741007
-0.0049582087 -0.06675005 -0.0035097147 -0.017408732 0.023055753 0.0026823254 -0.0037626696 0.050746396
-0.066608965 0.052391227 -0.041245114 0.039539147 0.040512893 -0.031640522 0.10124876 0.09643067
-0.091394894 -0.011505912 -0.05122639 -0.018688787 -0.05076092 0.0049190912 0.016292524 0.0018396114
-0.061508585 -0.06321215 0.033873465 0.048791055 0.06246239 0.04984633 -0.05150362 0.021309353
0.034683257 -0.040148567 -0.05814853 0.0050096493 -0.0137740765 0.075554855 0.062236402 0.00957994
0.07860244 -0.006247585 0.015542698 -0.0032466361 0.016846253 0.08420817 -0.053865135 0.016792446
0.033932783 0.018305399 -0.03840814 0.07747189 0.08293096 -0.022566129 -0.02260107 -0.008589427
-0.015751671 0.039930712 -0.01800902 -0.035352577 0.02736925 0.04775848 0.017409984 0.025782999
-0.0005122232 0.048786208 0.011908567 0.0768568 0.05230939 -0.09848888 0.039892655 -0.047107674
0.005128916 0.0036105288 -0.030556897 0.036117963 0.030341674 -0.04787628 0.0467781 -0.016207466
0.0010373883 0.052253377 0.0059403973 0.0543473 -0.009030346 -0.041531954 0.007270221 0.0021897915
0.05918868 -0.027524712 -0.010320826 -0.032022435 -0.07686639 0.046002258 0.06718605 0.04244461
0.07442615 -0.029045684 0.045129914 -0.05000075 -0.09158831 -0.04680026 -0.09238922 0.054595325
0.15541519 -0.09220438 0.00062060705 -0.055557072 -0.035096318 0.03600216 0.0914706 0.006320025
0.013197338 0.017265148 0.024848524 0.05284057 -0.020717124 -0.04734527 0.018723285 -0.07168659
0.110209316 0.017516447 -0.03402343 0.032908905 -0.025937166 0.04737884 -0.05567544 -0.009136075
0.010739293 -0.021487003 0.12500672 0.083163165 -0.010513026 0.05616609 0.052203912 0.044925805
0.028186426 0.061370928 0.01358532 0.026058564 -0.103009745 0.13559154 0.009536078 0.02815235
-0.09238293 0.061081126 0.0819264 -0.05233733 -0.01328467 0.03282774 0.007654167 0.004119418
-0.07489976 0.0029293539 0.02416393 -0.013575059 -0.06180071 0.02643052 0.048662536 0.04800837
-0.034752272 0.003005619 0.013514195 0.10262387 -0.017222505 -0.006555616 -0.005290124 -0.014833697
0.034877926 -0.017483123 -0.016355315 -0.0062361415 -0.03388195 0.0069211177 -0.06541566 -0.06964211
00000000: 799c f23c 685a 413d 1ae3 d0bc 263e cb3d
00000010: 2590 afb9 3a27 093d 0ecc 963d b362 99bc
00000020: c310 513d 94b7 a1bd d50a 4a3d fd5f 343d
00000030: e0b5 fb3c a6d2 9a3c 5b4c a13d 04d1 d2bb
00000040: 583e 39bc fc7b 7dbd a07a 32ba 0666 c23d
00000050: 5812 69bd 9a4e 3cbc 51b1 043d 3d1d 8b3d
00000060: 296e 023d faa7 cf3b 0881 3e3b 1d59 803d
00000070: 009b 633c b86a eabc c709 0a3d 281f 523c
00000080: 3293 67bd 7687 94bb bf87 cf3c d650 51bc
00000090: 462e 583b 4b39 a6bc ca87 cfbc ddb4 d53c
000000a0: dd10 82bd f86f 883d a787 33bd 0d1d 92bc
000000b0: ee0e 83bb 5627 71bc 1d54 81bc a218 8f3d
000000c0: cbf6 11bd 75d8 3e3d 214f c03c 7246 c03d
000000d0: d4c2 81bc bb11 1c3d e25f b83d d15a 293b
000000e0: cc1b 08bd 6d2f 0e3b 65ab da3c b6b5 fe39
000000f0: 61c7 7d3d 8dd6 9ebc c3a8 e3bc 2c52 16bd
00000100: 99bb 50bb ec9e de3c 7338 a63c 3d40 f13a
00000110: cb0c 9c3d f16a 4d3d eb35 8a3c 7149 91bd
00000120: f957 b8bb 73f2 c83b e153 b8bc af2c 50bd
00000130: b54a b0bc 8b72 b1bc 8740 a3bc ec5a 3b3d
00000140: 7878 a2bb 40b4 88bd 3e03 66bb c29c 8ebc
00000150: 6bdf bc3c f4c9 2f3b 1f97 76bb 74db 4f3d
00000160: 486a 88bd 2f98 563d a3f0 28bd cdf3 213d
00000170: d9f0 253d 7e99 01bd 835b cf3d 717d c53d
00000180: 3f2d bbbd 4b83 3cbc c3d2 51bd 3a19 99bc
00000190: afea 4fbd 5430 a13b e677 853c 1e1f f13a
000001a0: 6df0 7bbd 5f75 81bd e7be 0a3d 21d9 473d
000001b0: 90d8 7f3d aa2b 4c3d 76f5 52bd f490 ae3c
000001c0: 0810 0e3d d372 24bd 272d 6ebd fc27 a43b
000001d0: aaac 61bc 81bc 9a3d 99eb 7e3d 2ef5 1c3c
000001e0: 51fa a03d 8bb8 ccbb cda6 7e3c 84c5 54bb
000001f0: 2701 8a3c 5575 ac3d b0a1 5cbd 5090 893c
00000200: 1afd 0a3d 34f5 953c db51 1dbd 95a9 9e3d
00000210: b5d7 a93d 9adc b8bc e125 b9bc abba 0cbc
00000220: a609 81bc 638e 233d a787 93bc ddcd 10bd
00000230: 7a35 e03c 659e 433d 629f 8e3c de36 d33c
00000240: b846 06ba 0cd4 473d 261c 433c 1967 9d3d
00000250: 5f42 563d 8ab4 c9bd 7b66 233d faf3 40bd
00000260: 7710 a83b 9f9e 6c3b 7552 fabc 6ef0 133d
00000270: 1a8f f83c eb19 44bd 659a 3f3d 85c5 84bc
00000280: faf8 873a a307 563d aaa7 c23b 469b 5e3d
00000290: 04f4 13bc 691d 2abd 093b ee3b 9b82 0f3b
000002a0: d46f 723d 817b e1bc af18 29bc f529 03bd
000002b0: 206c 9dbd dd6c 3c3d d798 893d 66da 2d3d
000002c0: bd6c 983d 37f1 edbc 25da 383d 96cd 4cbd
000002d0: a792 bbbd a1b1 3fbd 8f36 bdbd 599f 5f3d
000002e0: 2925 1f3e a6d5 bcbd 3cb0 223a d08f 63bd
000002f0: 28c1 0fbd 0077 133d f054 bb3d 3618 cf3b
00000300: a639 583c a46f 8d3c 228f cb3c 5b6f 583d
00000310: f5b6 a9bc 1ded 41bd 9361 993c 6bd0 92bd
00000320: 6cb5 e13d a77e 8f3c 275c 0bbd 7dcb 063d
00000330: 2e7a d4bc 5110 423d ee0b 64bd 7aaf 15bc
00000340: dcf3 2f3c 8305 b0bc c301 003e 7351 aa3d
00000350: d43e 2cbc 6a0e 663d c5d3 553d 1f04 383d
00000360: 38e7 e63c 1560 7b3d f694 5e3c c578 d53c
00000370: c6f6 d2bd 82d8 0a3e 363d 1c3c c29f e63c
00000380: 4333 bdbd 3430 7a3d 07c9 a73d ab5f 56bd
00000390: f2a7 59bc 6176 063d cecf fa3b 2ffc 863b
000003a0: 0c65 99bd 67fa 3f3b 6ff3 c53c ed69 5ebc
000003b0: be22 7dbd d184 d83c 5e52 473d 6da4 443d
000003c0: 6658 0ebd ebf9 443b a46a 5d3c 772c d23d
000003d0: 3616 8dbc 7ed0 d6bb c758 adbb 0909 73bc
000003e0: 28dc 0e3d c438 8fbc 95fb 85bc 8c58 ccbb
000003f0: cdc7 0abd 8bca e23b a5f8 85bd 86a0 8ebd

network_body._body_endoder.seq_layers.0.bias f4 [128]
-0.01071437 0.006265154 -0.012662221 -0.013447426 -0.012222637 -0.00235886 -0.0022750387 0.0061980584
-0.0028705935 0.008704217 0.014051198 -0.006299873 -0.011976774 0.009410073 -0.014230824 -0.0046487516
0.004258153 -0.010407102 0.00572163 -0.002766974 0.0083985515 0.010936354 0.003964575 -0.0013517203
0.0100183 -0.002483713 -0.00015791776 -8.399625e-05 0.013362912 0.010549528 0.0044834954 0.0071238484
0.0051109316 -0.005006615 -9.839034e-05 -0.0010497202 -0.003258786 0.009369082 0.021269683 0.013117132
0.0010245353 -0.008984363 0.011847344 0.0012540277 0.006502732 0.013380619 0.0071134926 -0.0009502271
0.007818371 0.007597759 -0.0053232363 -0.00019754043 0.010692315 0.0074863615 0.038901612 0.011672829
-0.012656793 -0.0004359074 0.01281923 -0.002038831 0.0011343076 -0.0018284441 0.0073401937 0.05532765
0.005421271 4.9775765e-05 0.0042811017 -0.005886665 -0.0021616637 -0.0073086633 -0.0048394706 0.011656843
0.008602883 -0.0004798512 -0.012117191 -0.008614861 0.01150283 0.006129354 -0.0026983118 0.0009278081
0.0068226783 -0.0056600156 0.017190706 -0.0017896986 0.011104926 -0.0075682527 -0.010681162 -0.0005996126
-0.0110537 -0.007917946 -0.014000893 -0.0047694943 0.012763343 -0.014557413 -0.02381486 -0.0140515305
-0.0020171925 0.0068487846 0.002823325 -0.013535888 0.014748498 0.00083736057 -0.012722809 -0.009026192
0.015580602 0.0092331795 0.0007577927 -0.00097277545 0.0059524695 -0.0045659156 -0.013257518 -0.021539537
-0.00788781 -0.0064591784 0.0048239827 0.021160174 -0.010714675 -0.013735724 -0.009738981 0.008660318
0.011007759 0.001204781 -0.00017086566 -0.0068397056 0.0039048595 0.0019982306 0.012263741 0.0019789517
00000000: 538b 2fbc ec4b cd3b 3475 4fbc 9852 5cbc
00000010: 7541 48bc 1b97 1abb d118 15bb 1519 cb3b
00000020: 9120 3cbb 229c 0e3c ff36 663c 2a6f cebb
00000030: 3b3a 44bc b52c 1a3c 6728 69bc 8e54 98bb
00000040: fa87 8b3b 8d82 2abc 837c bb3b 1f56 35bb
00000050: 149a 093c 652e 333c 44e9 813b 352c b1ba
00000060: cc23 243c cac5 22bb ba96 25b9 2527 b0b8
00000070: 1ef0 5a3c edd7 2c3c 49ea 923b 2c6f e93b
00000080: 9a79 a73b 880e a4bb e956 ceb8 c496 89ba
00000090: 5b91 55bb c780 193c c23d ae3c 3de9 563c
000000a0: b349 863a 2633 13bc 5d1b 423c 305e a43a
000000b0: df14 d53b 623a 5b3c 4d18 e93b a918 79ba
000000c0: a018 003c 9ff6 f83b 8b6e aebb db22 4fb9
000000d0: d22e 2f3c 2750 f53b 4c57 1f3d 653f 3f3c
000000e0: 705e 4fbc 808a e4b9 bf07 523c e89d 05bb
000000f0: 0cad 943a 67a8 efba 0286 f03b 3f9f 623d
00000100: eba4 b13b 52c6 5038 7c48 8c3b ede4 c0bb
00000110: b3aa 0dbb 837d efbb 6c94 9ebb 58fc 3e3c
00000120: 1bf3 0c3c 8a94 fbb9 2f87 46bc 5925 0dbc
00000130: 5e76 3c3c bfd8 c83b 29d6 30bb 2638 733a
00000140: c690 df3b a777 b9bb 86d3 8c3c 5294 eaba
00000150: 6ff1 353c 1bff f7bb 0a00 2fbc 522f 1dba
00000160: 941a 35bc 46ba 01bc 0064 65bc 6b49 9cbb
00000170: 571d 513c 3782 6ebc 6217 c3bc 6438 66bc
00000180: e032 04bb c56b e03b 8907 393b a1c5 5dbc
00000190: afa3 713c 5182 5b3a 5473 50bc 98e2 13bc
000001a0: c845 7f3c c346 173c 9ba6 463a db01 7fba
000001b0: ef0c c33b ad9d 95bb 1036 59bc af73 b0bc
000001c0: df3b 01bc 84a7 d3bb 8012 9e3b 1a58 ad3c
000001d0: 9b8c 2fbc cd0b 61bc 3f90 1fbc 02e4 0d3c
000001e0: e359 343c bee9 9d3a 672a 33b9 9c1f e0bb
000001f0: ace8 7f3b bff4 023b dced 483c 4db1 013b

network_body._body_endoder.seq_layers.2.weight f4 [128, 128]
-0.04754114 -0.014136848 -0.058993224 -0.088510245 -0.083413444 -0.058573097 -0.03283982 -0.05604258
-0.008273317 -0.029348383 -0.15446457 -0.07301528 0.015927033 0.20527367 0.08234707 0.029937388
-0.025529828 -0.055188216 -0.07203926 0.00080976536 -0.13919003 0.15204522 -0.18268456 -0.0771535
-0.10774347 -0.09463897 0.13999426 0.015023866 0.046632085 0.15195096 0.09085827 0.083839856
0.058104813 -0.00075038377 0.08191423 0.09890598 0.10978258 0.08318009 -0.07528117 -0.016625818
-0.1536754 0.042726308 -0.041233536 -0.07714349 -0.14583258 -0.0036384268 -0.1667106 -0.033161987
-0.029803261 0.044577833 -0.03223556 -0.036253326 0.09401297 0.13855752 0.03528301 -0.08910284
0.062298786 -0.032341335 -0.09137376 0.015254315 -0.05458705 0.047266018 0.044233724 0.025668897
-0.09528109 -0.04982634 0.11943021 -0.06666618 -0.034311257 -0.08558174 -0.15032695 0.010380632
0.013277202 -0.036805335 0.0323496 0.044098776 0.08605778 0.1578644 0.08757989 -0.12693733
0.08147304 -0.021007963 -0.1145656 -0.059664655 0.051188134 -0.034414187 -0.15814704 0.0042551835
-0.10719655 -0.109292775 -0.044845138 -0.08936196 -0.019712573 0.11827383 0.0036612502 0.14919408
0.0029353278 -0.13251525 0.10012277 0.093892194 -0.1188136 -0.0033782958 -0.17253241 -0.024549913
-0.26057816 0.16996874 0.06881707 -0.008693648 -0.03884178 -0.06277599 -0.05679617 0.17179905
0.022723885 -0.19304472 -0.084642634 -0.09579506 0.06467229 0.04712689 -0.0870726 0.05368637
0.0016263344 -0.12183168 -0.121792585 -0.15734473 0.055620257 -0.19477347 0.11580467 0.07959603
-0.021453314 0.023049088 -0.070698954 0.027809937 0.04020074 -0.110019304 0.0042958222 -0.060745638
-0.11146852 0.050437257 -0.14048642 0.015315807 0.009771975 0.012089269 -0.06053838 -0.004111426
-0.159037 -0.014834682 -0.04006577 0.011824239 0.08102506 -0.056016978 -0.08658941 0.08628738
-0.0039253845 0.0011661763 -0.02113323 -0.0614479 -0.00068016915 0.10201977 0.013564693 -0.007746634
-0.15995489 -0.10396364 -0.0035282066 -0.01634409 -0.124395885 0.088626385 0.08685248 0.027759155
-0.014760067 -0.0009762132 0.06691489 -0.19645382 0.1304984 0.06300635 0.0043751774 0.08593573
0.0016165396 0.10327751 0.04734098 0.144887 0.052201517 0.118221045 -0.0636173 0.009014968
-0.052420147 -0.1106224 -0.0126356175 0.106811084 -0.11747477 0.06298257 -0.028246546 -0.07427144
-0.022848804 0.16304733 -0.1345148 -0.030051915 0.31151348 -0.008760111 0.10865966 -0.09751645
0.0051193666 -9.122499e-05 0.13288704 0.09321574 -0.12898996 0.014550378 0.022898039 0.08954992
-0.18144786 -0.07398805 0.083060205 -0.14296037 0.018057479 -0.051034465 -0.014330194 -0.008916794
-0.07839732 -0.0666111 0.2021489 -0.090120785 0.10913306 -0.021972178 0.16459556 0.11874377
0.10819782 -0.009610951 -0.03347539 -0.07567326 -0.049045764 -0.15719524 -0.019420087 0.016400136
0.051411293 0.24262182 0.0027754388 -0.017684607 0.1363707 0.039897706 0.059510693 0.047921833
0.06789235 -0.008012408 0.003469042 0.14692393 -0.036587626 -0.053300522 0.12849022 -0.10313268
-0.08497857 -0.0750308 0.033221964 0.020193119 -0.113281555 0.24540289 0.11332248 -0.04543566
00000000: 80ba 42bd 3d9e 67bc e1a2 71bd dc44 b5bd
00000010: abd4 aabd 58ea 6fbd 0c83 06bd e88c 65bd
00000020: ce8c 07bc 056c f0bc f62b 1ebe 0989 95bd
00000030: 6979 823c 4333 523e 95a5 a83d 413f f53c
00000040: ee23 d1bc 0a0d 62bd 5289 93bd 6f46 543a
00000050: d587 0ebe beb1 1b3e a911 3bbe a702 9ebd
00000060: 9ca8 dcbd 14d2 c1bd a85a 0f3e a926 763c
00000070: 4901 3f3d 0899 1b3e e713 ba3d 3bb4 ab3d
00000080: 50ff 6d3d 67b5 44ba a6c2 a73d 388f ca3d
00000090: b0d5 e03d 535a aa3d 042d 9abd de32 88bc
000000a0: 165d 1dbe c801 2f3d 7fe4 28bd 68fd 9dbd
000000b0: 2355 15be ac72 6ebb 2fb6 2abe ddd4 07bd
000000c0: f825 f4bc 3f97 363d 6f09 04bd 5e7e 14bd
000000d0: df89 c03d 06e2 0d3e eb84 103d 8d7b b6bd
000000e0: 032d 7f3d 5978 04bd 2a22 bbbd 3ced 793c
000000f0: ac96 5fbd 039a 413d 6c2e 353d 9447 d23c
00000100: bb22 c3bd b416 4cbd d397 f43d 4788 88bd
00000110: f689 0cbd 7b45 afbd 4fef 19be 8713 2a3c
00000120: 9f88 593c 31c1 16bd 0481 043d eba0 343d
00000130: 103f b03d 35a7 213e 165d b33d dcfb 01be
00000140: 56db a63d e418 acbc 5fa1 eabd ed62 74bd
00000150: a6aa 513d e4f5 0cbd 4cf1 21be 116f 8b3b
00000160: dd89 dbbd e4d4 dfbd 89af 37bd 6703 b7bd
00000170: 437c a1bc 8d39 f23d 96f1 6f3b 55c6 183e
00000180: a15e 403b 14b2 07be 2b0d cd3d 8d4a c03d
00000190: 8b54 f3bd 6666 5dbb 56ac 30be e61c c9bc
000001a0: 806a 85be 490c 2e3e f7ef 8c3d cd6f 0ebc
000001b0: 8f18 1fbd b390 80bd 1aa3 68bd 17ec 2f3e
000001c0: 7127 ba3c 84ad 45be 1e59 adbd 3330 c4bd
000001d0: e872 843d 2008 413d 1f53 b2bd 3de6 5b3d
000001e0: ba2a d53a e382 f9bd 646e f9bd fa1e 21be
000001f0: 11d2 633d b272 47be 002b ed3d 3e03 a33d
00000200: dcbe afbc 71d1 bc3c 9dca 90bd aad1 e33c
00000210: 88a9 243d cd51 e1bd f8c3 8c3b 6bd0 78bd
00000220: 9b49 e4bd 4c97 4e3d acdb 0fbe 27ef 7a3c
00000230: a21a 203c 1212 463c 18f7 77bd 24b9 86bb
00000240: 98da 22be 2b0d 73bc 011c 24bd 74ba 413c
00000250: 77f0 a53d 0f72 65bd ca55 b1bd 70b7 b03d
00000260: 83a0 80bb 62da 983a 981f adbc cbb0 7bbd
00000270: 614d 32ba beef d03d 723e 5e3c 7ad7 fdbb
00000280: 37cb 23be e4ea d4bd 7c39 67bb 0be4 85bc
00000290: 45c3 febd c081 b53d b7df b13d 2b67 e33c
000002a0: 35d4 71bc 8fe8 7fba ad0a 893d 312b 49be
000002b0: 5fa1 053e 7909 813d a65d 8f3b 12ff af3d
000002c0: 11e2 d33a 2983 d33d 9ee8 413d 425d 143e
000002d0: 42d1 553d e01d f23d c949 82bd 84b3 133c
000002e0: 82b6 56bd ff8d e2bd 9f05 4fbc c5bf da3d
000002f0: 9d96 f0bd 01fd 803d 4d65 e7bc a01b 98bd
00000300: 6a2d bbbc e1f5 263e 3fbe 09be 6f2f f6bc
00000310: b27e 9f3e 9286 0fbc f588 de3d b4b6 c7bd
00000320: 5cc0 a73b 0b50 bfb8 8a13 083e e5e7 be3d
00000330: f215 04be b564 6e3c ab94 bb3c f365 b73d
00000340: 78cd 39be 0c87 97bd 781b aa3d 3464 12be
00000350: 47ed 933c 8409 51bd 31c9 6abc bf17 12bc
00000360: c68e a0bd 676b 88bd 1f00 4f3e 3f91 b8bd
00000370: 2781 df3d fffe b3bc bd8b 283e ef2f f33d
00000380: d296 dd3d 4077 1dbc 7e1d 09bd 95fa 9abd
00000390: 36e4 48bd caf7 20be e016 9fbc 9459 863c
000003a0: a694 523d db71 783e 23e4 353b 4fdf 90bc
000003b0: c3a4 0b3e c76b 233d 7cc1 733d af49 443d
000003c0: 250b 8b3d 7a46 03bc de58 633b 3a73 163e
000003d0: e8dc 15bd a651 5abd f192 033e 3a37 d3bd
000003e0: 3f09 aebd c0a9 99bd c113 083d 0a6c a53c
000003f0: 2900 e8bd e54a 7b3e 9e15 e83d be1a 3abd

network_body._body_endoder.seq_layers.2.bias f4 [128]
0.037182756 -0.0044477163 -0.01777052 0.002151828 0.012759882 -0.0010049967 0.0133600915 0.015569453
0.00094177603 0.026472323 0.00031486928 -0.021654785 -0.018097362 0.0045336527 0.022975858 0.011843148
0.010391778 -0.018147655 -0.015315184 -0.005459723 0.003615228 -0.01009995 -0.01187266 0.009528846
0.011229016 0.0042911926 0.0008340918 0.006044048 0.0029347204 -0.003745164 0.0044946983 0.0057747313
-0.0027143282 0.006744436 0.004016673 0.0146175595 0.005815202 0.006080639 0.0007804537 -0.008855618
-0.024974644 -0.0043019033 -0.0038787827 0.017411174 -0.03559294 -0.0056679957 0.0006567247 -0.0019889893
0.0050239037 -0.007484826 0.0020904497 -0.029564524 0.005987299 0.011659091 0.0074299853 -0.009360954
-0.0026687768 0.017019605 -0.015535541 -0.015003294 0.00022377729 -0.00219333 0.0076608346 0.021957375
-0.00059748645 -0.013211578 0.015357741 0.009197966 -0.0018030141 0.0011474089 -0.0020956402 0.016071642
0.011607369 -0.008144483 -0.0019172498 -0.0052652624 0.01703493 0.008259762 -0.011807422 0.010696344
0.00644549 0.024602039 0.0023007668 -0.002154528 0.013253139 0.009149475 0.013263969 0.0064514284
0.0065308427 0.0013207168 0.011899019 -0.010847326 -0.0077103702 -0.009855814 -0.015996864 -0.026258934
-0.005055144 -0.014851424 -0.021254573 0.017090613 -0.0078225965 0.015411995 -0.006795823 -0.013398751
-0.004540255 -0.001956592 -0.0069246865 -0.0072262706 0.014933028 -0.018690057 -0.010750763 -0.013326165
0.025406463 0.013787754 0.019919138 0.018861078 -0.013624669 -0.0055556907 -0.005499537 0.008339594
0.0013608814 0.002910767 -0.0063406825 -0.011714908 0.010520785 0.014671002 0.002052773 0.020337027
00000000: f24c 183d 26be 91bb 7b93 91bc af05 0d3b
00000010: d30e 513c 18ba 83ba 49e4 5a3c 0517 7f3c
00000020: 85e1 763a 7cdc d83c 0a15 a539 6065 b1bc
00000030: eb40 94bc 098f 943b de37 bc3c c309 423c
00000040: 4742 2a3c 64aa 94bc 8aec 7abc 7ae7 b2bb
00000050: 76ed 6c3b 437a 25bc 8c85 42bc e01e 1c3c
00000060: e8f9 373c 229d 8c3b f4a6 5a3a 260d c63b
00000070: 7054 403b 6d71 75bb 4348 933b f539 bd3b
00000080: dfe2 31bb 6e00 dd3b 4c9e 833b 7d7e 6f3c
00000090: 738d be3b 1940 c73b 5c97 4c3a 2717 11bc
000000a0: a097 ccbc fbf6 8cbb 2d33 7ebb e1a1 8e3c
000000b0: e7c9 11bd 98ba b9bb 0c28 2c3a b459 02bb
000000c0: 8f9f a43b 4543 f5bb edff 083b 4d31 f2bc
000000d0: 1b31 c43b c605 3f3c 3c77 f33b b05e 19bc
000000e0: a5e6 2ebb b36c 8b3c c888 7ebc 60d0 75bc
000000f0: c2a5 6a39 f9bd 0fbb bd07 fb3b f4df b33c
00000100: a3a0 1cba 6075 58bc 099f 7b3c 11b3 163c
00000110: 1d53 ecba a764 963a 0257 09bb ada8 833c
00000120: d62c 3e3c 7070 05bc 3a4c fbba 3988 acbb
00000130: d68c 8b3c f453 073c eb73 41bc b83f 2f3c
00000140: b034 d33b 378a c93c 76c8 163b fb32 0dbb
00000150: b223 593c aee7 153c 1e51 593c 8166 d33b
00000160: ae00 d63b e71b ad3a 1af4 423c fcb8 31bc
00000170: 46a7 fcbb 487a 21bc db0b 83bc fa1c d7bc
00000180: 9fa5 a5bb 6353 73bc 121e aebc 9d01 8c3c
00000190: 592a 00bc 9882 7c3c 7faf debb 6f86 5bbc
000001a0: 6bc6 94bb 2b3a 00bb 7be8 e2bb 5aca ecbb
000001b0: a9a9 743c e41b 99bc f823 30bc fd55 5abc
000001c0: 3721 d03c 08e6 613c 762d a33c 8c82 9a3c
000001d0: 013a 5fbc 830c b6bb 7635 b4bb cba2 083c
000001e0: 9a5f b23a 91c2 3e3b 80c5 cfbb e3ef 3fbc
000001f0: 5f5f 2c3c a45e 703c d187 063b d699 a63c

action_model._continuous_distribution.log_sigma f4 [1, 2]
0.34607115 0.53631973
00000000: 3d30 b13e 404c 093f

action_model._continuous_distribution.mu.weight f4 [2, 64]
-0.016143544 0.06276279 -0.10540327 -0.0832466 0.025506267 0.0350363 0.12919697 -0.15820561
0.039253324 0.17244041 0.036935776 -0.12889326 0.07357837 0.12019779 -0.002837999 -0.0042260196
-0.067084335 0.020603279 0.01585714 0.09204875 0.007061741 -0.015250592 -0.004384765 -0.0753527
0.039165914 0.094636686 -0.025557118 0.07741902 -0.04946534 0.13163441 0.011570673 0.03451634
0.032933254 -0.06612554 0.100697845 0.015836705 -0.05462683 0.089574955 0.041559365 0.11542347
0.013520009 -0.035768345 -0.06966419 -0.0050375867 0.10215192 0.05219191 0.09021651 0.04763908
-0.050107796 -0.027745444 0.077709295 -0.033941273 0.073781416 -0.051504407 0.05198652 -0.0071746176
0.057813987 0.009746814 0.0131610995 -0.031083534 -0.0082045905 -0.019976513 -0.013848332 0.05361963
-0.054809023 -0.11984623 0.07157702 0.058508158 0.03130006 0.015689708 -0.06066623 0.04283054
-0.075374104 -0.05292506 -0.032209504 0.11264935 -0.043380335 -0.027287835 -0.11640211 -0.11240448
-0.0070685376 0.022995144 0.010421049 -0.0847281 0.08314015 0.058345836 -0.060074996 0.0874537
-0.09215633 0.048126906 -0.09235193 0.011068094 0.010900428 -0.027818289 0.06790127 0.007934004
-0.10190087 -0.047048595 -0.011216755 -0.07241697 0.055616353 -0.03685813 0.11713453 -0.02350784
-0.021931536 -0.07448726 -0.049746864 -0.05382071 0.030313792 -0.07072157 0.13420044 -0.0034259455
0.053999074 -0.081943534 -0.15677527 -0.0047152475 -0.09083098 -0.11384447 -0.023348574 -0.057024036
-0.006297244 0.03193898 0.06959459 -0.012355171 -0.07965439 0.027670193 0.08674591 0.01978781
00000000: 773f 84bc c789 803d abdd d7bd 327d aabd
00000010: 85f2 d03c 3982 0f3d 364c 043e a700 22be
00000020: 18c8 203d 3894 303e f849 173d 98fc 03be
00000030: 42b0 963d 422a f63d b9fd 39bb 6c7a 8abb
00000040: 8363 89bd 35c8 a83c d5e6 813c 0e84 bc3d
00000050: 2d66 e73b 9edd 79bc 13ae 8fbb 8452 9abd
00000060: 706c 203d e1d0 c13d 295d d1bc dd8d 9e3d
00000070: 2b9c 4abd 2ccb 063e ec92 3d3c 0161 0d3d
00000080: 05e5 063d d46c 87bd ac3a ce3d fabb 813c
00000090: 62c0 5fbd 1373 b73d 273a 2a3d 2463 ec3d
000000a0: 0783 5d3c d481 12bd 19ac 8ebd 5712 a5bb
000000b0: 0735 d13d 2fc7 553d 6fc3 b83d 3221 433d
000000c0: d53d 4dbd 6a4a e3bc 0d26 9f3d 0106 0bbd
000000d0: b61a 973d 49f6 52bd d1ef 543d 0e19 ebbb
000000e0: 5cce 6c3d 1ab1 1f3c a7a1 573c e5a2 febc
000000f0: 8c6c 06bc c9a5 a3bc 1de4 62bc 42a0 5b3d
00000100: 6d7f 60bd f171 f5bd f996 923d 40a6 6f3d
00000110: 7e34 003d b487 803c 277d 78bd 146f 2f3d
00000120: bd5d 9abd f3c7 58bd 1dee 03bd b4b4 e63d
00000130: 94af 31bd bd8a dfbc 3b64 eebd 5234 e6bd
00000140: 319f e7bb 5060 bc3c 0cbd 2a3c ed85 adbd
00000150: 6245 aa3d 0bfc 6e3d 3311 76bd ed1a b33d
00000160: 75bc bcbd b820 453d 0223 bdbd f356 353c
00000170: b597 323c 2ee3 e3bc d20f 8b3d a0fd 013c
00000180: 67b1 d0bd 07b6 40bd 7bc6 37bc 594f 94bd
00000190: f9cd 633d 8df8 16bd 3ae4 ef3d 8393 c0bc
000001a0: c4a9 b3bc c78c 98bd 5ec3 4bbd 1b73 5cbd
000001b0: a154 f83c 78d6 90bd d76b 093e d485 60bb
000001c0: 222e 5d3d 03d2 a7bd b289 20be 5d82 9abb
000001d0: 9805 babd 4a27 e9bd 8245 bfbc 0992 69bd
000001e0: 1d59 cebb 73d2 023d 9c87 8e3d 586d 4abc
000001f0: d721 a3bd 9aac e23c d7a7 b13d 0c1a a23c

action_model._continuous_distribution.mu.bias f4 [2]
0.0059660375 0.057637364
00000000: c07e c33b 2815 6c3d

action_model._discrete_distribution.branches.0.weight f4 [2, 64]
-0.01930069 -0.013773387 0.065071605 0.09986402 -0.047126208 -0.0047510145 0.019969868 -0.026079109
-0.087643035 0.00019936626 -0.06538557 0.056294218 0.004574413 -0.039875347 -0.031690985 -0.028174765
-0.037495263 0.007911768 -0.04415098 -0.06477967 -0.004165739 -0.04689846 -0.0018791126 0.063735224
0.018725153 0.00076991017 -0.017501932 0.064161554 0.0866719 -0.09146678 0.070490174 0.093180716
-0.023123324 0.044998184 0.024217814 -0.014759714 0.06271405 -0.07346705 0.03395374 0.0201721
0.024749193 0.022584202 -0.024734156 0.057473782 0.047032367 0.078898996 -0.007988642 0.070842445
0.035268027 -0.010669512 -0.035392042 0.008708176 0.0034468097 -0.020401249 -0.070825554 -0.033197235
0.09495337 -0.025254102 -0.03749445 -0.06634336 -0.12584224 0.030356327 -0.01997602 -0.031442173
0.010838331 0.018364135 -0.065849826 -0.08819 0.058803998 0.0146086505 -0.018512398 0.039261427
0.09411577 -0.019155806 0.04107341 -0.048082706 0.022526009 0.029332895 -0.013906077 0.04700075
0.030144254 -0.012128137 0.027395327 0.042542554 -0.030378727 0.036082547 -0.011980789 -0.0495328
0.024338048 0.018673616 0.031496033 -0.04286517 -0.0842194 0.038371645 -0.07037352 -0.08485561
0.030355463 -0.035149436 -0.038568214 0.043597724 -0.038860135 0.07950034 -0.035838146 -0.009990589
-0.037206847 -0.029973868 0.032741144 -0.07381766 -0.029543342 -0.08607885 0.024354057 -0.05962817
-0.051753253 0.015164662 0.04269445 -0.020262629 0.011637372 0.012498123 0.048651066 0.018638393
-0.0951451 0.030872121 0.03799766 0.08679701 0.14829423 0.0059297057 -0.0034389389 0.043401945
00000000: 7b1c 9ebc c6a9 61bc 4344 853d 8285 cc3d
00000010: 6907 41bd 66ae 9bbb d997 a33c dba3 d5bc
00000020: 317e b3bd f90c 5139 dfe8 85bd c494 663d
00000030: f5e4 953b 5554 23bd 68ce 01bd c4ce e6bc
00000040: a294 19bd 5ca0 013c a8d7 34bd 34ab 84bd
00000050: c080 88bb 9918 40bd 8e4c f6ba 9d87 823d
00000060: 7e65 993c ccd3 493a 3660 8fbc 2267 833d
00000070: 0981 b13d ef52 bbbd 275d 903d 88d5 be3d
00000080: 206d bdbc 0450 383d 7064 c63c bad2 71bc
00000090: 3970 803d e575 96bd 1413 0b3d f63f a53c
000000a0: d2be ca3c 8102 b93c 499f cabc a169 6b3d
000000b0: 03a5 403d cc95 a13d cbe2 02bc d815 913d
000000c0: 3575 103d 2dcf 2ebc 3ff7 10bd bdac 0e3c
000000d0: dfe3 613b 8520 a7bc fd0c 91bd d3f9 07bd
000000e0: ea76 c23d b1e1 cebc c893 19bd 07df 87bd
000000f0: cadc 00be d5ad f83c c0a4 a3bc 82c9 00bd
00000100: 4193 313c 6270 963c 46dc 86bd f59c b4bd
00000110: 76dc 703d 1f59 6f3c 50a7 97bc 97d0 203d
00000120: c5bf c03d a3ec 9cbc 983c 283d 5ff2 44bd
00000130: 7788 b83c 8a4b f03c 50d6 63bc dc83 403d
00000140: 15f1 f63c 18b5 46bc 2a6c e03c 1a41 2e3d
00000150: cfdc f8bc 4bcb 133d 124b 44bc e8e2 4abd
00000160: 9660 c73c 69f9 983c fc01 013d 6393 2fbd
00000170: 397b acbd 962b 1d3d fe1f 90bd c7c8 adbd
00000180: 05ac f83c dbf8 0fbd b4f9 1dbd 8793 323d
00000190: ce2b 1fbd 13d1 a23d 05cb 12bd 91af 23bc
000001a0: 3566 18bd c28b f5bc 941b 063d b72d 97bd
000001b0: e104 f2bc 1c4a b0bd 2982 c73c ab3c 74bd
000001c0: 38fb 53bd 3475 783c 60e0 2e3d d0fd a5bc
000001d0: adaa 3e3c edc4 4c3c 5746 473d 8baf 983c
000001e0: 6fdb c2bd 88e7 fc3c 6fa3 1b3d a1c2 b13d
000001f0: 71da 173e fa4d c23b d25f 61bb 3dc6 313d

action_model._discrete_distribution.branches.0.bias f4 [2]
0.040599972 -0.040599983
00000000: 284c 263d 2b4c 26bd

action_model._discrete_distribution.branches.1.weight f4 [2, 64]
-0.071102604 -0.054217793 -0.013705033 -0.040038925 0.09156172 0.063420266 0.06338521 -0.055543527
-0.013132236 -0.008058889 -0.007432291 -0.045496587 -0.123810284 -0.014943214 -0.016179103 -0.008207624
-0.039102253 -0.015142835 -0.07135495 -0.0379448 0.050508793 0.012536528 -0.11076466 0.015903998
-0.0555143 0.028353974 0.011352934 0.00013462384 0.029250002 0.03749562 0.039779976 -0.039648727
-0.042470396 0.01800227 0.016225826 0.007850069 0.06076474 0.033727985 0.0006416741 0.08956673
-0.099519216 -0.072259665 -0.051729664 0.06543974 -0.014011994 -0.0901387 0.015303138 0.0057027247
0.024732193 -0.046123218 0.024780462 0.089563996 -0.06264525 -0.036867633 0.052004103 -0.07570249
0.033453386 0.021666365 -0.03830691 -0.013617775 0.01844142 -0.036229305 0.04693757 -0.0063689793
0.083259426 0.04652634 0.032467395 0.035083115 -0.09605556 -0.07318245 -0.008195588 0.066873744
0.02528275 0.026708724 -0.021539764 0.052624013 0.109936856 -0.0024327408 0.022077128 0.050889388
0.027440628 0.022729462 0.07850356 0.07953241 -0.044726685 -0.014465991 0.06029492 -0.037245303
0.03357027 -0.023838792 0.0082630245 -0.010918711 -0.063705415 -0.07024014 -0.03361269 0.041083924
0.06828185 -0.010176134 -0.001632808 0.006719347 -0.02439939 -0.027063655 -0.026635151 -0.094815955
0.06613707 0.05994847 0.04352353 -0.043931063 0.018641017 0.045134403 0.003308639 -0.00071324094
-0.055446036 0.034491308 -0.038628206 -0.1012085 0.02522132 0.019201608 -0.03673767 0.06255559
-0.058001462 -0.03285605 0.06147877 -0.003908058 -0.001055116 0.059755433 -0.04154882 0.017142354
00000000: 3e9e 91bd 7a13 5ebd 138b 60bc dbff 23bd
00000010: b684 bb3d 7ce2 813d 1bd0 813d 9c81 63bd
00000020: 9728 57bc 6e09 04bc 938a f3bb a15a 3abd
00000030: 3f90 fdbd 62d4 74bc 0a8a 84bc 4579 06bc
00000040: af29 20bd a719 78bc 8b22 92bd 026c 1bbd
00000050: 4fe2 4e3d 0266 4d3c 95d8 e2bd 1a49 823c
00000060: f662 63bd 9846 e83c a801 3a3c d029 0d39
00000070: b39d ef3c 0295 193d 54f0 223d b466 22bd
00000080: 70f5 2dbd 7f79 933c 06ec 843c 939d 003c
00000090: 73e4 783d 5b26 0a3d 0536 283a c36e b73d
000000a0: bbd0 cbbd e0fc 93bd 7ce2 53bd 4505 863d
000000b0: 9092 65bc a49a b8bd 03ba 7a3c ecdd ba3b
000000c0: 2b9b ca3c b3eb 3cbd 6500 cb3c 546d b73d
000000d0: 274c 80bd 8402 17bd 4102 553d e809 9bbd
000000e0: 6b06 093d a97d b13c b5e7 1cbd 171d 5fbc
000000f0: 7612 973c 2e65 14bd 9c41 403d dfb2 d0bb
00000100: eb83 aa3d 6792 3e3d 88fc 043d 50b3 0f3d
00000110: c7b8 c4bd aee0 95bd ca46 06bc 1af5 883d
00000120: c51d cf3c 41cc da3c 2974 b0bc 478c 573d
00000130: 9326 e13d 9e6e 1fbb 18db b43c 6471 503d
00000140: 2bcb e03c 2333 ba3c 79c6 a03d e3e1 a23d
00000150: 5433 37bd c402 6dbc cef7 763d 888e 18bd
00000160: fb80 093d 9249 c3bc a361 073c 65e4 32bc
00000170: fc77 82bd 10da 8fbd 76ad 09bd 9e47 283d
00000180: 5bd7 8b3d cdb9 26bc f203 d6ba f82d dc3b
00000190: 3be1 c7bc 99b4 ddbc f631 dabc de2e c2bd
000001a0: df72 873d 878c 753d bb45 323d 0ff1 33bd
000001b0: 0cb5 983c dade 383d c0d5 583b caf8 3aba
000001c0: 621b 63bd c246 0d3d 9c38 1ebd 6746 cfbd
000001d0: f19c ce3c b14c 9d3c 3d7a 16bd 251d 803d
000001e0: f192 6dbd 1194 06bd 2ad1 7b3d 2b0f 80bb
000001f0: d14b 8aba 1dc2 743d 182f 2abd 1f6e 8c3c

action_model._discrete_distribution.branches.1.bias f4 [2]
0.017443553 -0.017443549
00000000: c8e5 8e3c c6e5 8ebc

onnx::LSTM_133 f4 [1, 256, 128]
0.11621796 -0.09673743 -0.09278106 -0.11036918 -0.095251516 0.057145 -0.10872681 -0.14878243
0.110651545 -0.01221527 0.12006838 0.09586668 0.014186313 -0.05851421 0.18213618 -0.13617137
0.14488068 -0.011061992 0.0884195 -0.0310478 0.02145836 -0.10545305 0.08320149 -0.11680242
0.022567142 0.073392674 0.0024406107 -0.16859053 0.15540397 0.20459814 -0.15605184 -0.07559206
-0.1818804 -0.08043818 0.11704191 -0.08453267 0.00041478846 -0.19577588 0.11667858 0.070382036
-0.06956679 0.14609528 -0.020200813 0.11652118 0.09236887 -0.12881644 -0.057896618 -0.014045096
0.08721628 -0.164354 -0.01922635 -0.17482346 0.12788251 0.17787261 0.077888705 -0.14595534
0.13851188 -0.020232722 -0.039092958 -0.08891453 -0.052047912 -0.06562452 -0.17861742 0.08789987
0.060750306 -0.048138253 -0.057104208 0.051068056 -0.031666614 -0.15253977 0.17826581 0.17382666
-0.01277487 0.09168273 0.08924269 -0.011266385 0.073086604 -0.028776472 0.09787555 -0.12263558
-0.018471949 -0.07911327 -0.15265831 -0.124999635 -0.02222623 -0.091808155 -0.010861998 0.00504198
0.05161055 -0.09197105 -0.17869599 0.118319295 -0.010912803 -0.13272963 0.054781508 0.052944727
0.004908015 -0.10795213 -0.19568695 0.14000328 0.13701567 -0.07642184 -0.17135024 -0.13794284
-0.1318541 0.052082464 -0.016345961 -0.039641585 -0.10564141 0.06144371 -0.021035902 -0.104856506
-0.1149014 -0.14974126 0.118506595 -0.10283626 0.1876551 0.10591477 0.11894609 0.105594575
0.19682571 0.14603604 0.04656927 0.056192175 0.094409704 0.14277524 -0.0552703 0.013394106
-0.18204166 0.1193169 -0.019618355 -0.06124205 0.20328358 0.13662456 -0.07164523 0.0022661588
-0.06304215 0.19170699 0.12278529 0.031578083 0.14360946 0.06343368 0.05902055 0.19717515
-0.11454 -0.20054397 -0.0739261 -0.13828897 -0.042822096 -0.15886812 0.074096985 0.08879548
-0.08564374 -0.06863891 0.10082654 -0.10780908 -0.09018775 0.08546652 0.060880855 -0.1465972
0.1389481 0.06400124 -0.060104452 -0.04560612 -0.12714545 -0.021024313 0.07707517 -0.01927948
0.13242991 0.08976512 0.025533862 -0.0398754 -0.009433606 0.14956163 0.013807994 -0.1649988
-0.08465139 0.07451603 -0.17727982 -0.06005498 0.089663796 -0.075633965 0.13739407 0.03586975
-0.031798854 0.15739183 -0.016464278 0.047947995 -0.19701475 0.053876 0.0864038 0.072763875
0.20358029 0.034236677 0.014734912 0.14513704 0.16845898 -0.12587604 -0.059549015 0.09586572
0.029927861 -0.022157442 -0.043427277 -0.1464804 -0.03239044 -0.013601175 -0.1948738 -0.07839758
0.13961926 0.03406911 -0.020419626 -0.03447063 0.20548029 0.1263403 -0.15984258 -0.11758979
0.13400817 -0.07542407 -0.0020523986 0.12435549 0.050718673 0.13263398 -0.09098554 -0.028979514
0.15800913 -0.17853595 -0.02371016 0.03131142 -0.106013514 0.1255083 -0.18965288 -0.12501708
-0.15408286 0.01119332 -0.013335255 -0.024962982 0.020948423 -0.06433379 0.025942083 0.03751731
0.076195605 -0.16268356 0.07731758 0.060117755 -0.1019033 0.13496 0.16760603 0.12570597
0.15803045 0.08300864 0.007780362 -0.016596926 -0.08348621 0.038506363 0.18250449 0.15853062
00000000: af03 ee3d 461e c6bd ff03 bebd 3d09 e2bd
00000010: 3a13 c3bd e010 6a3d 29ac debd 6c5a 18be
00000020: 479d e23d 8e22 48bc 69e6 f53d c055 c43d
00000030: b66d 683c 99ac 6fbd e881 3a3e 8270 0bbe
00000040: 9a5b 143e 5b3d 35bc 4815 b53d f557 febc
00000050: 71c9 af3c c5f7 d7bd 8b65 aa3d 1b36 efbd
00000060: bade b83c e64e 963d a7f2 1f3b ffa2 2cbe
00000070: 3822 1f3e 2d82 513e 0ecc 1fbe 03d0 9abd
00000080: db3e 3abe c6bc a4bd abb3 ef3d 771f adbd
00000090: f777 d939 7979 48be 2ef5 ee3d 7524 903d
000000a0: 0879 8ebd 009a 153e 2d7c a5bc a8a2 ee3d
000000b0: e42b bd3d 75e8 03be 0125 6dbd 671d 66bc
000000c0: 739e b23d 6a4c 28be 9480 9dbc ec04 33be
000000d0: a2f3 023e 3d24 363e 1d84 9f3d 5175 15be
000000e0: 0fd6 0d3e 18bf a5bc f01f 20bd d218 b6bd
000000f0: 3130 55bd 2666 86bd 7ce7 36be d904 b43d
00000100: 50d5 783d 9e2c 45bd 1ae6 69bd bd2c 513d
00000110: dab4 01bd 6333 1cbe 508b 363e 9eff 313e
00000120: b04d 51bc 28c4 bb3d dfc4 b63d a596 38bc
00000130: 6eae 953d a3bc ebbc fa72 c83d 5d28 fbbd
00000140: 7c52 97bc 2306 a2bd 7652 1cbe cfff ffbd
00000150: c813 b6bc ea05 bcbd 86f6 31bc 3237 a53b
00000160: 9665 533d 515b bcbd 15fc 36be 6351 f23d
00000170: 9dcb 32bc 47ea 07be 9362 603d 92dc 583d
00000180: 6ad3 a03b 0216 ddbd 2962 48be 055d 0f3e
00000190: d64d 0c3e 0e83 9cbd 7076 2fbe e340 0dbe
000001a0: c304 07be 6c54 553d f7e7 85bc 375f 22bd
000001b0: 865a d8bd 66ac 7b3d 7c53 acbc 02bf d6bd
000001c0: 6d51 ebbd c655 19be 96b3 f23d d19b d2bd
000001d0: a928 403e d8e9 d83d 029a f33d f841 d83d
000001e0: ae8c 493e 798a 153e 6bbf 3e3d c429 663d
000001f0: e059 c13d ac33 123e 1c63 62bd f472 5b3c
00000200: 2169 3abe 6b5c f43d acb6 a0bc f2d8 7abd
00000210: 9229 503e 4fe7 0b3e bcba 92bd d683 143b
00000220: 3e1c 81bd d64e 443e db76 fb3d 0558 013d
00000230: 5c0e 133e 84e9 813d 88bf 713d 48e8 493e
00000240: f393 eabd 665b 4dbe 9166 97bd a09b 0dbe
00000250: 3966 2fbd 53ae 22be 29c0 973d 68da b53d
00000260: fc65 afbd 8f92 8cbd 257e ce3d 02cb dcbd
00000270: 5bb4 b8bd 1209 af3d 345e 793d 941d 16be
00000280: 6948 0e3e 1513 833d 1630 76bd 7ccd 3abd
00000290: 6b32 02be 2e3b acbc 96d9 9d3d 00f0 9dbc
000002a0: b59b 073e c6d6 b73d 642c d13c 6354 23bd
000002b0: 698f 1abc af26 193e ed3a 623c 72f5 28be
000002c0: b55d adbd dc9b 983d d788 35be 36fc 75bd
000002d0: a7a1 b73d fbe5 9abd 08b1 0c3e 29ec 123d
000002e0: 843f 02bd 532b 213e 18e0 86bc 1e65 443d
000002f0: 3cbe 49be 15ad 5c3d 7af4 b03d 3a05 953d
00000300: 5a77 503e c23b 0c3d b36a 713c ce9e 143e
00000310: 8380 2c3e a6e5 00be abe9 73bd 3f55 c43d
00000320: 462b f53c 8683 b5bc cde0 31bd f5fe 15be
00000330: d7ab 04bd 76d7 5ebc ff8c 47be e98e a0bd
00000340: 5af8 0e3e 0d8c 0b3d 0f47 a7bc 1331 0dbd
00000350: 6d69 523e 5a5f 013e c6ad 23be ead2 f0bd
00000360: 7039 093e ef77 9abd 8981 06bb 17ae fe3d
00000370: 62be 4f3d 34d1 073e a056 babd 7266 edbc
00000380: 25cd 213e 21d2 36be cf3b c2bc 6740 003d
00000390: 9d1d d9bd 3f85 003e 5d34 42be 7a04 00be
000003a0: e6c7 1dbe 3064 373c 1d7c 5abc 2b7f ccbc
000003b0: 079c ab3c 6fc1 83bd 7e84 d43c c0ab 193d
000003c0: 710c 9c3d 8596 26be ae58 9e3d 093e 763d
000003d0: adb2 d0bd f432 0a3e eaa0 2b3e 11b9 003e
000003e0: bcd2 213e 6f00 aa3d 68f2 fe3b 47f6 87bc
000003f0: d1fa aabd d9b8 1d3d 75e2 3a3e da55 223e

onnx::LSTM_134 f4 [1, 256, 64]
0.1922921 0.10667097 -0.16858959 -0.14287354 -0.15050547 0.11341316 0.10279327 -0.014543641
0.1683759 0.1385968 0.16491313 -0.19418052 -0.11782982 -0.21512811 0.1993326 0.07012612
0.14518657 0.08626293 0.18550625 -0.05726101 0.22140837 -0.15740615 -0.0924404 -0.06693732
-0.22317305 -0.08016167 0.12460602 0.17475402 -0.0060618343 -0.02480941 -0.01678295 -0.10397209
-0.21099047 -0.17096743 0.020745635 0.011621796 -0.13566546 -0.03992319 -0.0011854431 0.13950701
0.10870484 -0.0016729719 -0.13117559 0.12094966 -0.09446473 0.006920084 -0.035881374 0.21123971
-0.12598276 0.19284165 0.0031382933 0.06621902 0.05961171 -0.004963004 -0.08218321 -0.11920479
-0.13936514 0.18170439 0.10039428 -0.089847796 0.0030250733 -0.064394064 0.20245071 0.0824165
-0.057112914 0.05899636 -0.048124973 0.06564033 -0.12292414 0.040535063 -0.08825948 -0.103372276
-0.09936777 0.18174422 -0.20066594 -0.08011528 -0.098921515 -0.13456535 -0.11172843 -0.028233375
0.09318033 0.06809954 0.20260869 0.099472575 0.2384667 -0.06279449 -0.053833447 -2.8584274e-05
0.15053497 0.04747277 0.06651278 0.0621446 0.2403562 -0.1935586 0.05924869 0.16825846
0.14701015 0.15870777 0.0067682853 0.17982604 0.15578666 -0.23875548 -0.116403334 0.065437794
-0.020849817 0.15173326 0.12406125 0.18745422 -0.16626069 0.11021555 0.14659911 -0.18477327
0.16386367 0.072990246 0.010455592 0.24720736 -0.13771941 0.17118171 0.18715817 -0.099382214
0.03660415 0.077750005 0.18756227 0.09822929 0.09737204 -0.074118 -0.008302886 0.13304652
-0.08060701 -0.02327445 -0.03538431 0.2201229 -0.17303781 0.11098784 0.04006308 0.09311186
-0.21046907 -0.053281173 -0.22082914 0.1856213 0.16393636 0.0944379 0.12818393 -0.11705343
0.06735241 0.028528277 0.13213827 0.10108781 -0.029134665 -0.081267275 0.053967446 0.07181072
-0.23045114 -0.02998608 -0.18372543 -0.18598607 0.22893085 -0.031339936 0.1474357 -0.1544605
0.057215214 0.1372661 -0.06631416 -0.122689545 -0.030802548 -0.16087268 -0.042540245 -0.17579752
-0.1718194 -0.19288348 -0.042170085 -0.15657088 0.13302216 0.13541456 0.014220602 0.049951766
-0.023773607 0.06503304 -0.050995424 -0.15274335 -0.073953144 -0.1690202 0.111469306 0.04327542
0.07709742 -0.046140734 -0.21481769 -0.07276103 -0.12560354 0.0017850228 -0.06489573 0.08591078
0.12793411 0.08444198 0.075485386 0.21385448 0.1533007 0.21763988 -0.16987057 0.0071506905
0.17880756 -0.0019203487 0.043723624 -0.15777268 0.12704366 -0.008093132 0.10620046 0.0490009
-0.2197553 -0.21042866 -0.112103365 -0.22564302 0.09820884 -0.12355914 -0.22215088 -0.14147182
0.05386936 0.16342774 0.056604654 0.22964406 0.17591812 -0.15514818 -0.16048147 -0.03561542
0.120988436 0.0048600724 0.11503257 -0.08499424 -0.020633444 -0.058746286 0.109801106 0.09632923
-0.08153557 -0.11241309 0.09484318 -0.040053964 -0.16586527 0.15060198 0.090562284 -0.074873656
0.086970106 0.14615266 -0.037008956 -0.15217325 -0.17781721 -0.23263887 0.08701014 -0.14696637
-0.17687751 -0.14250012 0.18768416 -0.20481484 0.13651115 -0.018673196 0.100935504 -0.17438959
00000000: 38e8 443e 4f76 da3d c0a2 2cbe 714d 12be
00000010: 1b1e 1abe 2945 e83d 4785 d23d 7448 6ebc
00000020: bb6a 2c3e 52ec 0d3e fdde 283e 42d7 46be
00000030: c350 f1bd 8b4a 5cbe d81d 4c3e 489e 8f3d
00000040: caab 143e 9eaa b03d 5af5 3d3e 858a 6abd
00000050: e0b8 623e 142f 21be 6451 bdbd 6f16 89bd
00000060: 7a87 64be cd2b a4bd 7131 ff3d b8f2 323e
00000070: 5aa2 c6bb 1b3d cbbc 667c 89bc 52ef d4bd
00000080: e30d 58be 1612 2fbe c0f2 a93c 5869 3e3c
00000090: e3eb 0abe 8086 23bd df60 9bba edda 0e3e
000000a0: a5a0 de3d 9f47 dbba e552 06be 75b4 f73d
000000b0: b976 c1bd dfc1 e23b 59f8 12bd 394f 583e
000000c0: a001 01be 4878 453e d3ab 4d3b d69d 873d
000000d0: 692b 743d b2a0 a2bb ac4f a8bd a421 f4bd
000000e0: bcb5 0ebe b710 3a3e 849b cd3d 1f02 b8bd
000000f0: 4f40 463b 09e1 83bd 3d4f 4f3e fbc9 a83d
00000100: 3bef 69bd 2ba6 713d b11e 45bd 706e 863d
00000110: a7bf fbbd 1808 263d 63c1 b4bd d8b4 d3bd
00000120: 5481 cbbd 281b 3a3e 5f7b 4dbe 7b13 a4bd
00000130: 5d97 cabd 80cb 09be e0d1 e4bd ae49 e7bc
00000140: 54d5 be3d c677 8b3d a778 4f3e 47b8 cb3d
00000150: 9d30 743e 669a 80bd 7680 5cbd 43c8 efb7
00000160: d725 1a3e cf72 423d da37 883d 568b 7e3d
00000170: f01f 763e 3a34 46be c1ae 723d f24b 2c3e
00000180: d489 163e 4a84 223e 7ec8 dd3b 5124 383e
00000190: 8a86 1f3e 517c 74be df64 eebd 4004 863d
000001a0: 3ccd aabc f75f 1b3e d313 fe3d 00f4 3f3e
000001b0: 3e40 2abe b1b8 e13d 141e 163e 3435 3dbe
000001c0: e1cb 273e e97b 953d ee4d 2b3c ed23 7d3e
000001d0: 5106 0dbe 424a 2f3e 64a6 3f3e e788 cbbd
000001e0: 3cee 153d 653b 9f3d 5310 403e 702c c93d
000001f0: fe6a c73d 2ecb 97bd d408 08bc 593d 083e
00000200: 4a15 a5bd 0faa bebc 23ef 10bd e667 613e
00000210: d330 31be 984d e33d 2f19 243d 6eb1 be3d
00000220: 3485 57be 5c3d 5abd 0921 62be 8313 3e3e
00000230: efde 273e a868 c13d a642 033e b5b9 efbd
00000240: 0ff0 893d 22b4 e93c 414f 073e 2007 cf3d
00000250: d2ab eebc 756f a6bd f80c 5d3d 8011 933d
00000260: 62fb 6bbe 5ea5 f5bc 8522 3cbe 2273 3ebe
00000270: d96c 6a3e 4e5e 00bd 62f9 163e e52a 1ebe
00000280: 805a 6a3d 7c8f 0c3e b8cf 87bd a844 fbbd
00000290: a055 fcbc cfbb 24be ae3e 2ebd 4404 34be
000002a0: 6df1 2fbe 3f83 45be 8aba 2cbd 1e54 20be
000002b0: f636 083e 1daa 0a3e 87fd 683c 399a 4c3d
000002c0: dec0 c2bc 0b30 853d 94e0 50bd c168 1cbe
000002d0: bf74 97bd a213 2dbe 054a e43d 9141 313d
000002e0: 41e5 9d3d 11fe 3cbd 2bf9 5bbe bc03 95bd
000002f0: 379e 00be 6df7 e93a 0de8 84bd fef1 af3d
00000300: 2901 033e ebef ac3d 1598 9a3d abfc 5a3e
00000310: dcfa 1c3e fddc 5e3e 8df2 2dbe 5750 ea3b
00000320: 5419 373e 36b4 fbba 8b17 333d 298f 21be
00000330: bc17 023e 0e99 04bc a07f d93d 2bb5 483d
00000340: 8907 61be 9c7a 57be 7396 e5bd f70e 67be
00000350: b721 c93d 930c fdbd 857b 63be fddd 10be
00000360: 1ea6 5c3d 9a59 273e 48da 673d d027 6b3e
00000370: e123 343e 2adf 1ebe 4155 24be 7ae1 11bd
00000380: c9c8 f73d 3e41 9f3b 3296 eb3d 7611 aebd
00000390: 7807 a9bc f29f 70bd 67df e03d 4248 c53d
000003a0: 1ffc a6bd d638 e6bd 243d c23d a00f 24bd
000003b0: 96d8 29be 6837 1a3e b878 b93d 5c57 99bd
000003c0: 621d b23d 0ba9 153e b496 17bd 4ed3 1bbe
000003d0: b715 36be e238 6ebe 5f32 b23d 5a7e 16be
000003e0: 611f 35be 8deb 11be 4730 403e fbba 51be
000003f0: 94c9 0b3e 88f8 98bc 46b7 ce3d 2f93 32be

onnx::LSTM_135 f4 [1, 512]
0.023097318 0.024920166 0.036324892 0.020602658 0.030368384 0.043138027 0.026477318 0.027177205
0.039236046 0.03500723 0.007560452 0.050448224 0.0353756 0.04094968 -0.020289756 0.020588346
-0.0017692298 0.00933701 0.009846497 0.013153075 0.012074931 0.034178667 0.033785842 0.03856281
0.022357687 0.020463245 0.014621848 -0.015520996 0.023506366 0.020166729 0.024179788 0.026193453
0.04763774 0.017889706 0.019699614 -0.017883891 0.029871413 0.007356516 0.0073631452 0.0410409
0.00079124427 0.008598661 -0.0054701744 0.021088663 0.017745275 0.026922813 0.02554176 0.033452462
0.022575203 0.02358339 0.013241683 0.020354552 0.019759389 0.017158518 0.00029558945 -0.006463115
0.0397289 -0.00082275306 0.030944804 0.029030582 0.027707996 0.011304709 0.0051505687 0.0092646945
-0.014400514 0.0051819077 0.035812963 0.016017055 0.020442802 0.027969409 0.04898347 0.040926132
0.019943167 0.023179078 -0.010246834 0.036979355 0.012096868 0.018028958 0.015470913 0.023223743
-0.02029768 -0.015259327 -0.014248391 0.01582881 0.031422015 0.031624403 0.014963213 0.015603254
0.023888674 0.016385263 0.013851172 0.0021912388 0.036335148 0.028713861 0.033386644 -0.00033082988
0.04823619 0.010589742 0.009894221 0.024744332 -0.013961863 0.0023223916 0.02719371 0.04580899
-0.029779868 0.01860051 0.009909762 0.043345183 0.027706953 0.008675145 0.022342047 0.0022745144
0.0012284382 0.020618198 0.043212928 0.04134397 0.012274166 0.029393591 0.013661097 0.02262615
0.018524906 -0.012921096 0.04888152 0.00029302086 0.02528705 0.022951191 0.0076705934 0.018282332
1.0212339 0.99977535 0.99052626 0.98661786 0.99118084 0.97763306 1.0048186 0.9713129
0.9778767 1.0054439 1.0083172 0.97944355 1.004535 0.9999583 1.0064131 1.0248525
1.0089914 0.9956067 1.030762 0.9986705 1.0079405 1.0123264 1.0148336 1.0265309
0.9835259 1.0169334 1.0164741 0.9897386 1.0042301 1.0065247 1.0205175 1.0165846
1.0120536 1.0152633 0.997184 0.98452705 1.0143687 1.0280948 1.0082548 0.9985469
1.0183808 1.0111915 1.0141699 1.0318153 0.98764026 0.98339003 1.0181121 1.0129119
1.0036626 1.0031565 1.0190227 1.0013008 1.0052928 1.017626 1.0158757 1.0115373
0.99263495 0.9983085 0.99214137 1.0143348 1.000818 0.992499 0.98200876 1.0221409
-0.0151750455 0.00065703655 -0.009274318 0.011243316 0.011658581 0.004753275 0.0010669131 -0.0076441895
0.0034704162 -0.0017985805 -0.017682532 0.011706278 -0.0038496095 -0.0071757147 -0.0027116733 -0.022089828
-0.00641407 -0.00690567 -0.021019017 -0.007614742 0.01843114 0.016343988 -0.011188304 0.02510789
-0.0037143303 0.006090241 -0.013214867 0.012370608 -0.0035691129 0.014053906 0.016689591 0.010103487
-0.013606809 -0.014918019 0.015144645 -0.0038562662 0.011331619 -0.009053545 0.017916718 0.00067890884
-0.011119333 -0.018486114 -0.0046791094 -0.002786061 -0.00051384815 0.009270283 0.009202771 0.024698548
0.019549401 -0.008881782 -0.00044241396 0.0011560931 -0.009294163 -0.019149316 -0.002195131 -0.006994402
-0.015170048 -0.0021246716 -0.012950502 -0.015099518 -0.01902149 -0.007559447 0.010750566 -0.012409739
00000000: 9636 bd3c 6025 cc3c 69c9 143d e8c6 a83c
00000010: 1ec7 f83c 80b1 303d f6e6 d83c bba2 de3c
00000020: fab5 203d be63 0f3d abbd f73b cca2 4e3d
00000030: 01e6 103d daba 273d b436 a6bc e4a8 a83c
00000040: 80e5 e7ba 42fa 183c 3453 213c ff7f 573c
00000050: eed5 453c eefe 0b3d 0663 0a3d 09f4 1d3d
00000060: 7827 b73c 89a2 a73c 7a90 6f3c c74b 7ebc
00000070: 6c90 c03c b234 a53c b114 c63c a793 d63c
00000080: ca1f 433d 6f8d 923c 1661 a13c 3d81 92bc
00000090: e5b4 f43c ee0e f13b 8a46 f13b 811a 283d
000000a0: 816b 4f3a 66e1 0c3c 263f b3bb 22c2 ac3c
000000b0: 8a5e 913c 3b8d dc3c f43c d13c 7305 093d
000000c0: a2ef b83c f431 c13c a5f3 583c 97be a63c
000000d0: 71de a13c 0590 8c3c 58f9 9a39 8ac8 d3bb
000000e0: c5ba 223d 06ae 57ba f57f fd3c 8bd1 ed3c
000000f0: e1fb e23c 6337 393c 1ac6 a83b f2ca 173c
00000100: 22f0 6bbc fecc a93b 9db0 123d 3336 833c
00000110: aa77 a73c 1a20 e53c e4a2 483d 29a2 273d
00000120: da5f a33c 0de2 bd3c 56e2 27bc aa77 173d
00000130: f131 463c 77b1 933c b679 7d3c b83f be3c
00000140: 5247 a6bc 4202 7abc 1572 69bc 6cab 813c
00000150: 5fb4 003d 9788 013d 4428 753c caa4 7f3c
00000160: 2eb2 c33c 633a 863c 07f0 623c e39a 0f3b
00000170: 2ad4 143d 5539 eb3c 6fc0 083d 3c73 adb9
00000180: 5093 453d 9980 2d3c 5f1b 223c a0b4 ca3c
00000190: 4cc0 64bc 4433 183b 58c5 de3c 35a2 3b3d
000001a0: e9f4 f3bc 1960 983c 8e5c 223c b88a 313d
000001b0: b1f9 e23c 3222 0e3c ab06 b73c 0510 153b
000001c0: 8c03 a13a 7fe7 a83c 0a00 313d 4b58 293d
000001d0: 9519 493c d4ca f03c cbd2 5f3c 7a5a b93c
000001e0: 8bc1 973c 01b3 53bc fd37 483d 98a0 9939
000001f0: ca26 cf3c 2304 bc3c 9a59 fb3b d4c4 953c
00000200: cbb7 823f 47f1 7f3f 2193 7d3f fd92 7c3f
00000210: 07be 7d3f 2946 7a3f e59d 803f f6a7 783f
00000220: 2156 7a3f 63b2 803f 8a10 813f d0bc 7a3f
00000230: 9a94 803f 44fd 7f3f 25d2 803f 5e2e 833f
00000240: a126 813f 15e0 7e3f 02f0 833f dfa8 7f3f
00000250: 3204 813f e993 813f 11e6 813f 5d65 833f
00000260: 5ac8 7b3f e02a 823f d31b 823f 825f 7d3f
00000270: 9d8a 803f cdd5 803f 51a0 823f 721f 823f
00000280: f98a 813f 26f4 813f 7347 7f3f f709 7c3f
00000290: d5d6 813f 9c98 833f 7e0e 813f c5a0 7f3f
000002a0: 4d5a 823f b96e 813f 52d0 813f 8612 843f
000002b0: fed5 7c3f 73bf 7b3f 7f51 823f 19a7 813f
000002c0: 0478 803f 6f67 803f 566f 823f a02a 803f
000002d0: 6fad 803f 9241 823f 3708 823f 0e7a 813f
000002e0: 531d 7e3f 2591 7f3f fafc 7d3f b9d5 813f
000002f0: ce1a 803f 6a14 7e3f ed64 7b3f 83d5 823f
00000300: c1a0 78bc fa3c 2c3a 4ff3 17bc e335 383c
00000310: a203 3f3c 5cc1 9b3b aad7 8b3a 1c7c fabb
00000320: ec6f 633b 59be ebba f5da 90bc b0cb 3f3c
00000330: bb49 7cbb 4222 ebbb 54b6 31bb baf5 b4bc
00000340: 1e2d d2bb f548 e2bb 1330 acbc 1685 f9bb
00000350: e7fc 963c d4e3 853c 264f 37bc 10af cd3c
00000360: 1f6c 73bb a590 c73b 2b83 58bc 17ae 4a3c
00000370: c7e7 69bb 5b42 663c 9cb8 883c 1989 253c
00000380: 18ef 5ebc b56a 74bc 3f21 783c 69b9 7cbb
00000390: 41a8 393c 5255 14bc 15c6 923c cdf8 313a
000003a0: dd2d 36bc 3170 97bc 3753 99bb 5996 36bb
000003b0: c4b3 06ba 63e2 173c 38c7 163c 9c54 ca3c
000003c0: 1126 a03c e584 11bc ccf3 e7b9 0c88 973a
000003d0: 8c46 18bc 07df 9cbc 30dc 0fbb 4c31 e5bb
000003e0: cb8b 78bc 133e 0bbb 582e 54bc f863 77bc
000003f0: f5d2 9bbc 3db5 f7bb 2423 303c 3852 4bbc
