results/test/Shootair.onnx (onnx, 493289 bytes, 15 tensors)

discrete_act_size_vector f4 [1, 2]
00000000: 0000 0040 0000 0040
2.0 2.0

network_body._body_endoder.seq_layers.0.weight f4 [128, 420]
00000000: 1266 c0ba e953 6ebc 5832 353c f75c 8f3d
00000010: 06d5 e73b 8601 43bd 4ed5 e63c bd6f 9f3d
00000020: 7ee4 93bd 95ec 743c 99eb 03bd 339b b83d
00000030: 1b17 c8bc 6f85 ce3c 171e 0a3d bea6 fcbc
00000040: baa5 7fbc 013f 0a3d 1097 013b 21fc f03b
00000050: 71c7 15be 9902 833c cb7d cabc 046b e8bc
00000060: de64 80bc 618b a03d 68e4 88bc 53a9 273d
00000070: 97d1 fbbc 5920 80bd edc2 b63c cd9e 78bc
00000080: 2fd1 1e3c b4ce 0c3d 2cd3 b13d e9f6 06bd
00000090: 04c6 513d 79cb 163d 7bb7 073d d5ed 25bd
000000a0: c888 fd3c 3546 97bd 9a68 103d 5c87 0c3a
000000b0: f55c 4a3c 66c7 b73d fbe4 0ebb 1a65 60bd
000000c0: 1d57 1cbb 89dd dc3c 7f5b 0c3e f62d 99ba
000000d0: 8b66 18be 4b33 4ebd f09e 8a3d 3fda 2bbd
000000e0: a916 083c c579 c5bd 228c 3a3c 54ae b63c
000000f0: 9ca3 4dbd 08da 15bb 42dd 86bc 4fd3 3e3b
00000100: 651c 94bd efcb 353d d9fa f9bc a895 f6bc
00000110: 6cbe e03c 9c88 40bd 2613 47bc 8535 073d
00000120: b033 a33c cb16 f33c e4eb 643d b57b 65bc
00000130: 2865 88bb 1803 f53c 2793 6abd 459e b53c
00000140: 3c05 923d 2138 cb3c aed6 42bd 0a32 083d
00000150: 7786 b7bd d6f7 463d 835c a03d ccc3 5d3b
00000160: 9319 973d a194 66bc 763c 873d b208 e43d
00000170: 9524 57bd 2081 05be a871 f3bc 2ac0 65bd
00000180: ac78 f63d 2bdf 93bd 6f5a 8f3d 788c 28bd
00000190: d5a6 d0bc 4e1d 583d 6574 0f3d 9e14 a43c
000001a0: 5ee0 be3d e944 8f3d 7ea7 343d 8328 c5bc
000001b0: 3ded e53c d047 823c 4012 983d f65a 40bd
000001c0: db49 44bd 1092 ec3c f0f1 a23d 1ca3 093d
000001d0: 35cf 0fbd d396 db3c 51ce fbbb 1aa9 153d
000001e0: dd31 883d 559a d83c 1cb0 0e3d 9d77 00bd
000001f0: 5a3a 82bd 56a2 95bc 55f2 2b3d 9424 07be
00000200: f323 febd 3aad 13bd 4af8 ba3d 9390 23ba
00000210: 5ef5 823d 5b62 193d 2868 afbd 1262 6bbc
00000220: 30ab 393b f692 163c 36c1 933d 549d e83c
00000230: 5110 61bd 7cea 573b 8056 773d 63fb 823d
00000240: 6b88 c53d 20dd 913d 7773 dc3c aba8 4a3c
00000250: 0891 903b ec6c ee3d f402 29bd dfb0 1abb
00000260: 8bf9 7e3d b545 54bd cb61 ee3c 167b 3ebd
00000270: 4c0e 5ebd eb74 80bb 3f4c 463c 02fd 8fbc
00000280: 053f f3bd 92ae f93c 92f0 ec3c 9b24 be3d
00000290: 5f6b a13d c75e 513d 365c 2e3d 40bb febc
000002a0: ee64 12bc ed77 873c 2ca4 eb3b d088 9e3d
000002b0: 6497 95bb 19e2 a9bc 19af 2d3b 9102 fa3c
000002c0: 103c 29bd 0be1 ed3a 7769 103b 5125 0dbd
000002d0: c086 d13c e452 693d f9fa 653c 929b 97bc
000002e0: dcaf 0dbd 5c1e cb3d 82f9 f63b 0049 2bbd
000002f0: 83b2 843b 7884 303d 0390 8c3a fa7f 4f3c
00000300: 3dea 2d3b 8c60 69bd 40e4 8cbd 8a66 5cbd
00000310: a24c 913c 88f1 773b fadc 1fbc 2cfc 45bc
00000320: 6074 ec3c 22b6 093d bd49 263d 019c 863d
00000330: 63cc 7a3d 4ff8 273c 4ebb 69bc 9106 453d
00000340: c5b6 81bd 6c95 e2bc 8d49 0c3d 0d02 c7bd
00000350: 62e5 823d 5122 c03d 9206 b03d 9df6 813a
00000360: 091f a03d 77ec 41bd 1735 5d3d 1baf 7abd
00000370: 17cb 023d 8146 963d b7c3 d4bc d371 91bb
00000380: f398 30bd f461 8e3d d1ac bfbc 0b63 193d
00000390: b88d 7c3d 0517 363d 3315 a63d 6c92 fd3c
000003a0: 75fa 213d 1fcb 923d f8fd 553d 41fb 07bd
000003b0: 7a4e e53d b2fa c03b 6eee bb3d 6064 4bbc
000003c0: 4043 c83c aff2 ae3c 7eed f33c 5549 e7bd
000003d0: 0409 1b3d 5897 0e3d e1e5 14bc 315a 8abc
000003e0: 78f4 20bd ff4e 383d d11c ec3b 76e7 c1bc
000003f0: c2d3 dfbc 6522 9d3b ee3d 953d b4c0 b03d
-0.0014678857 -0.014546373 0.011059366 0.070001535 0.007074955 -0.047608875 0.028177883 0.07784984
-0.07221316 0.014948984 -0.032207105 0.09013977 -0.02442508 0.02521011 0.033720102 -0.030841228
-0.015603477 0.03375149 0.0019773878 0.007354275 -0.14626862 0.01599245 -0.024718186 -0.028371342
-0.015673097 0.078390844 -0.016710475 0.040932965 -0.030739589 -0.0625617 0.022309745 -0.01517458
0.009693428 0.034376815 0.08682856 -0.032950316 0.051214233 0.03681514 0.033133965 -0.040510017
0.030949011 -0.07386438 0.035256006 0.0005360746 0.012351264 0.08973579 -0.0021803963 -0.054783918
-0.0023855634 0.026961105 0.13706778 -0.0011686671 -0.14882867 -0.050341886 0.06768596 -0.041956183
0.008306184 -0.09642366 0.011385949 0.022299923 -0.05020486 -0.0022865552 -0.016462926 0.002911765
-0.07231978 0.04438394 -0.030515121 -0.030100659 0.02743455 -0.04700528 -0.012150561 0.033010025
0.019922107 0.029673954 0.055889025 -0.014006545 -0.0041624494 0.029908702 -0.05726924 0.022170195
0.07129905 0.024807038 -0.047568016 0.033250846 -0.08961194 0.0485762 0.07830145 0.0033838628
0.07377925 -0.014073522 0.06603329 0.11134471 -0.05252512 -0.13037539 -0.029717281 -0.056091465
0.12034735 -0.072203 0.06999671 -0.041149586 -0.025470177 0.052762322 0.03502311 0.020029362
0.093201384 0.069955654 0.044105045 -0.024067169 0.028067226 0.015903383 0.07425356 -0.046961747
-0.047921997 0.028878242 0.07956302 0.03360282 -0.035109717 0.026805317 -0.007684507 0.03653822
0.06650136 0.026440779 0.03483592 -0.031364072 -0.06358786 -0.018265884 0.041979153 -0.13197547
-0.124092005 -0.036053874 0.09129389 -0.00062395 0.06394456 0.037447315 -0.08564788 -0.0143666435
0.0028330795 0.009190312 0.072145864 0.028395332 -0.0549472 0.003294616 0.060385227 0.063956045
0.0964516 0.07122254 0.026910527 0.012369315 0.0044118203 0.11641869 -0.041262582 -0.0023603959
0.0622497 -0.05182429 0.029099366 -0.046504103 -0.054212853 -0.0039201877 0.012103139 -0.017576698
-0.118772544 0.03047875 0.028923307 0.09284326 0.078818075 0.051115777 0.042568408 -0.031095147
-0.008935196 0.016536677 0.0071912017 0.07740939 -0.0045651663 -0.020737695 0.0026502071 0.030518802
-0.041317046 0.0018148733 0.0022035518 -0.034459416 0.02557695 0.056963816 0.014036887 -0.018506799
-0.03459154 0.099179 0.007537068 -0.041817665 0.0040496006 0.043095082 0.0010724071 0.012664789
0.0026537322 -0.05697684 -0.06879473 -0.053808726 0.017736737 0.0037833173 -0.009757275 -0.012084048
0.028864086 0.03362096 0.040597666 0.06572724 0.061230075 0.0102520725 -0.014265848 0.048101965
-0.06333689 -0.02765914 0.03424983 -0.09717188 0.063914075 0.09381545 0.08595003 0.0009915415
0.078184195 -0.04734465 0.05400571 -0.06120215 0.031931963 0.07337666 -0.02597223 -0.0044386177
-0.043114614 0.06952277 -0.023397835 0.03744797 0.06165859 0.044455547 0.08109512 0.030953608
0.039545495 0.071676485 0.052244157 -0.0331986 0.11196609 0.00588926 0.09176336 -0.012414068
0.02444613 0.021355955 0.029776331 -0.11293284 0.037850395 0.0348123 -0.0090880105 -0.01688871
-0.039295644 0.04499721 0.0072055836 -0.02366994 -0.027322654 0.00479536 0.07287203 0.08630505

network_body._body_endoder.seq_layers.0.bias f4 [128]
00000000: ee12 0b3c 93fd adba fa3e c83b ea25 07bc
00000010: 56e5 8f3c 2cb7 543c c26e 993c 396f 6b3b
00000020: f4e3 72bc 3638 e3bb 5204 f8bb 8128 9bbb
00000030: 2b72 123d 9329 c1bb 205b d03a 457b ea3a
00000040: 3958 2dbc 16e3 333b 56c8 993c 9b8e 4dbc
00000050: adda 843c 5c55 2abc 56f7 0cbb 7fad b9ba
00000060: 8cb0 8ebc 26ab b4bb 0ad0 0bba d552 253c
00000070: 60d4 d93c 1ec7 7e3b 2159 4c3c 4839 26bc
00000080: fae7 2bbb 0503 41bb 22c7 2f3c e66a 6fba
00000090: d60b fbbb 0074 2cbb d3f0 82bc 98ed dfbb
000000a0: 2a0b 993c 744c da3c e3c0 7bbb 030e 23bc
000000b0: ba50 adb9 a516 e13a a9a1 19bc 1ae0 97bc
000000c0: 05b1 533b a6b8 043b 775f d73b 6ddf e43a
000000d0: 91a3 1a3c 50b0 2abc 78c7 34bc b70d 233c
000000e0: f3d4 523c d40c ee3b 8ba3 adbb 68c8 0a3a
000000f0: e987 0cbb d303 0abc be63 c7bb acca 79bb
00000100: 12ea 1d3c 4a6d b33c 0ec6 15bc 644d 1e3c
00000110: c33d 713b f0b9 753b 08e8 e8bb c81e 413c
00000120: af42 043c fcc8 e53b 5fe9 59bc c53a ad3c
00000130: 1d1a 94bb 8088 443c 7eef 5f3c 03eb fc3b
00000140: 1a33 223c 2607 39bc 9cf6 593c 1330 09bc
00000150: 69d9 f63c de8d b6bc 16f7 4e3c b29b 6dbc
00000160: 42e5 f33c a05d ecba 146d 0dbb db60 833c
00000170: 2da6 08bc 37e2 0e3d 9d7c 3ebc febe b53c
00000180: 9651 1fbc 43d7 843c abd3 bcbb d88f fe3c
00000190: 0cab 87bb 117a 0c3c 336e 2dbc b5da 4cbc
000001a0: cb09 d33b 7f5a fc3b b303 41bc 6613 803b
000001b0: 2df5 253c 1d74 ebbb c1f8 0039 b38d 4dbc
000001c0: 3c3e d23b 825b 88bb f851 213c 2e0c 0f3c
000001d0: cbcc 4238 e92a e63c acb3 493c d288 0f3a
000001e0: d690 dab9 f882 0c3c f8b6 413c 86b1 333c
000001f0: 1448 afbb f46c 44bc d96f f339 4268 b53c
0.0084884 -0.0013274424 0.006111023 -0.0082487855 0.01756541 0.012983125 0.018729571 0.0035924448
-0.014824856 -0.006934191 -0.0075688744 -0.004735053 0.03575341 -0.0058948486 0.0015896298 0.001788952
-0.010580116 0.0027448586 0.018772285 -0.012546207 0.016217554 -0.010396328 -0.0021509728 -0.0014166086
-0.017418168 -0.0055135665 -0.00053334294 0.0100905495 0.026590526 0.0038876007 0.012472422 -0.010145493
-0.0026230798 -0.0029451263 0.010728629 -0.00091330556 -0.007661323 -0.0026314259 -0.015983975 -0.0068337433
0.018682081 0.026647784 -0.003841453 -0.009952071 -0.00033057277 0.0017172886 -0.009376922 -0.018539477
0.0032301557 0.002025166 0.0065726596 0.0017461606 0.009438411 -0.010418013 -0.011033885 0.009952
0.012868154 0.007264713 -0.005299037 0.0005294145 -0.0021443313 -0.008423763 -0.0060848882 -0.0038115187
0.009638326 0.021902699 -0.009141458 0.009662006 0.0036810494 0.003749486 -0.0071077384 0.011787124
0.008072539 0.0070124846 -0.013300269 0.021146188 -0.0045197145 0.011995435 0.013667939 0.0077184453
0.009899879 -0.011293208 0.013303425 -0.008373278 0.030132966 -0.022284444 0.012632152 -0.014502453
0.029772405 -0.0018033274 -0.0021579908 0.016037395 -0.008340401 0.034883704 -0.01162639 0.022185799
-0.009724041 0.016215926 -0.0057625375 0.03107445 -0.0041402634 0.008574025 -0.010585356 -0.012503316
0.0064403764 0.0077012177 -0.011780667 0.0039085625 0.010129255 -0.0071854726 0.000122997 -0.012545991
0.0064161103 -0.004161299 0.009846203 0.008730931 4.6443933e-05 0.028096633 0.0123109035 0.0005475405
-0.0004168811 0.008576147 0.011823408 0.010967618 -0.0053491686 -0.011988867 0.00046431905 0.02214444

network_body._body_endoder.seq_layers.2.weight f4 [128, 128]
00000000: a6e5 94bc c7ff 8f3d 4eb5 e9bd 2d03 253d
00000010: 6731 33bd 7006 5a3d 8dc8 50bd 3a9b 7f3c
00000020: 9f48 f3bd 618b d5bd 2e75 373d f5cc ea3c
00000030: 9301 d43d 60a7 2f3d 99e0 833d edf9 e13d
00000040: ec3f e7bb e1b2 4b3d bba2 6f3e 6802 edbd
00000050: b794 4bbd cce5 07be ed41 1d3e 6c06 db3d
00000060: a833 9a3d 7b48 30bb 9511 0abe 6fdb 403e
00000070: 4c7f b8bd 89a7 ad3d 0594 5bbc 4ba5 37bb
00000080: 3e14 a33d 4e21 523d fca4 a3bd df38 c03b
00000090: 0023 32bd cf2a bc3c 82ec 073b b3d1 243d
000000a0: d684 e5bd 91c2 83bd 5148 58bc 3ec9 e9bc
000000b0: 877a 713c 0909 493b fffd a33c c977 d33d
000000c0: ad53 83bd 3ce9 8e3c 82e9 703d aea8 87bd
000000d0: 721c 6e3d 39e7 a1bc 1441 abbd ec06 afbd
000000e0: 3c77 a53d 1efa d03d 0208 e53d d65d fdbc
000000f0: e535 bd3d 8ac2 913d 6bac 403c 243c 82be
00000100: a42f 6b3e 3898 1d3d 09df 1fbe 238a d3bd
00000110: f4c5 c43d 36e4 283e 823a afbd 1ac4 04be
00000120: 434f 5b3d 5fe3 813d 39d9 ee3d d1ec 3e3b
00000130: 38ba 4f3c 00f3 033d 357a ba3c 5b3a 94ba
00000140: e948 b2bb 7a7d 04bd 1ba6 bfbd 062a 00bd
00000150: a2f1 acbd 69a0 c73d e979 5a3d 3e35 123e
00000160: 2ff9 95bd 9b01 11be 6c73 3b3d 0af8 683d
00000170: 3c60 28be aac6 b9bc 3340 a6bd 2db0 3a3e
00000180: 8e1d b33c 0e3f d93d 96dc 013e 7802 96bb
00000190: 4f2b 42bb c86a 52bd 099a 8bbd 2f1f 2e3b
000001a0: abaa a73d a536 343c f014 973d 0709 203c
000001b0: 1c6f 8e3d e717 23be 7c25 023d 60e9 fdbd
000001c0: 1df9 dcbd 5812 d03d 5902 d43d ab64 0fbd
000001d0: 4986 c93d 3321 35be 947f 02bd 077d 47ba
000001e0: 8b5b a0be 01e3 e8bc 4b36 edbc bf9e bc3d
000001f0: 5124 293d dbc5 24bd 2c78 a6bd 5f76 3abc
00000200: 47e7 eebd 282e 7c3d ecbb 98bc df20 90bd
00000210: 1c04 483e 0dbe 5f3d 2d5b ad3c 9382 2abd
00000220: 6ee4 dd3d dde6 2ebe aace f1bc 591e bdbc
00000230: 9238 d2bd 7d80 493d cf54 64bd 7b17 eabd
00000240: ecf0 fdbb 3e96 f1bd ff68 80bd ce9e 8b3c
00000250: 9e39 5e3d 1867 083e 09bc 57bd a4b3 4dbd
00000260: c7bb 9a3c d301 a33d dc8f 6bbd c73a 42be
00000270: bd80 ddbd d30f 063e 714d b9bc 41d0 4dbe
00000280: 0b4e a63d 03db 2b3d bee4 cd3d 0941 923d
00000290: 1878 9e3c 80ed 813c b9e2 55bd 7ce5 693d
000002a0: 74d3 19bc a292 9cbd 8e16 cabd b989 113e
000002b0: cca0 513d 035d a63d 6d7e de3d 5ff3 153c
000002c0: 3c5a 0e3d 8dd9 b43d c818 b5bd 2ab0 92bd
000002d0: 400c c13d 7636 303d 061d 253b b25c d6bc
000002e0: 14e9 803c 2330 493e 3cfc 753d 2db8 5e3d
000002f0: 1448 c93d cbab 813d 2058 82bc eda5 a9bd
00000300: c1d4 e0bd a87d 883d 4865 a73c e59e 4b3e
00000310: 490b abbd 9da9 1ebd 8871 653c 3d24 233e
00000320: 86da b7bd cbc7 e6bd bbbe 903d bde8 97bd
00000330: b2aa e83c b9e4 62be 3864 9cbd 95a7 723d
00000340: 0eaa 39bd c000 0cbd 46d7 d13d e1cc a3bd
00000350: 55b5 2d3e f49e 86bc e4b8 26be 86e6 41bc
00000360: 512d eabd 4a81 133d 6584 673d 6609 58be
00000370: 5b45 023e 7699 89bd 27df 03bc 916e de3c
00000380: b61c 81be ce9a 13be b8fb 31bd f4bc 9ebc
00000390: 81da 53bb 5595 94bc ec3b 31be 9405 8b3d
000003a0: bb16 81bd 7b70 0a3e 94b8 723e 9bcb 1ebc
000003b0: 0873 b9bd 73c0 c83d 6aa0 97bc 6373 263e
000003c0: f500 a4bd 8b5f 06be d145 7cbd 3453 3f3c
000003d0: 9345 0cbd 42c4 183e 1315 f83b 3645 1ebe
000003e0: 6144 003e 78fa 47ba 07ae ee3c a72a 8bbc
000003f0: f54e 863d b888 0fbd 815c 5c3e 74dc c63c
-0.018175911 0.070312075 -0.11411534 0.04028623 -0.043748286 0.053228796 -0.05097251 0.015600974
-0.11879086 -0.10426975 0.044789486 0.028662184 0.10351863 0.04288423 0.06439323 0.11033998
-0.0070571806 0.04973114 0.2340192 -0.115727246 -0.049702372 -0.13271254 0.1535718 0.10694584
0.07529384 -0.002689867 -0.1348327 0.18833707 -0.09008655 0.084792204 -0.01340199 -0.0028022106
0.07962845 0.051301293 -0.07990453 0.0058661546 -0.04349041 0.022969631 0.0020740335 0.040239047
-0.11206977 -0.06433595 -0.013200835 -0.028538343 0.014738685 0.0030675551 0.020018576 0.103255816
-0.06412444 0.0174452 0.05881644 -0.0662397 0.058132596 -0.019763576 -0.08362022 -0.08546242
0.08079383 0.10203956 0.11183168 -0.030928534 0.09238795 0.071171835 0.011759858 -0.2543651
0.22967392 0.038475245 -0.15612425 -0.10329082 0.09608069 0.16493306 -0.08556081 -0.12965432
0.053542387 0.06342196 0.11662526 0.0029132853 0.012678675 0.032214165 0.022763351 -0.0011308895
-0.0054408205 -0.032346226 -0.09357854 -0.031290077 -0.08444525 0.09747393 0.05333892 0.14278123
-0.073229186 -0.14160769 0.04576437 0.056877173 -0.1644296 -0.022677738 -0.08117714 0.18231268
0.021864679 0.1060773 0.12681803 -0.004577931 -0.0029627865 -0.051371366 -0.06816489 0.002656888
0.08186849 0.010999356 0.073770404 0.009767777 0.06954786 -0.15927087 0.03177403 -0.123980284
-0.10789702 0.10159749 0.1035201 -0.035008114 0.09840066 -0.17688446 -0.03185995 -0.0007609878
-0.31319842 -0.028428556 -0.028956553 0.09209966 0.0412944 -0.040227752 -0.0812839 -0.011380761
-0.116652064 0.061567456 -0.018644296 -0.0703752 0.19532818 0.054624606 0.02116164 -0.04162843
0.10834585 -0.17080255 -0.02951749 -0.02308576 -0.10264696 0.0491948 -0.055744942 -0.1143026
-0.0077496674 -0.117962345 -0.062700264 0.017043497 0.054254167 0.13320577 -0.05266956 -0.050220147
0.018888367 0.07959332 -0.057510242 -0.18967734 -0.108155705 0.13091974 -0.022619935 -0.20098974
0.08120354 0.041956913 0.10053395 0.07141311 0.019344375 0.01586032 -0.052218173 0.05710362
-0.009388793 -0.076451555 -0.09867583 0.14212693 0.05117874 0.08123209 0.108639576 0.0091522625
0.034754023 0.08830557 -0.08842617 -0.07162507 0.094261646 0.043020688 0.0025194301 -0.026167247
0.01573614 0.19647269 0.060055003 0.054374862 0.09828201 0.06331595 -0.015911162 -0.08283601
-0.109780796 0.06664592 0.020434037 0.19884832 -0.08351762 -0.038735975 0.014004119 0.15931793
-0.08977227 -0.11268576 0.07067629 -0.07417438 0.028401706 -0.22157563 -0.07636303 0.05924185
-0.045328192 -0.034180403 0.10246138 -0.07998062 0.16963704 -0.016433217 -0.16281468 -0.011834746
-0.11434425 0.03601197 0.056522746 -0.21097335 0.1272177 -0.067187235 -0.008048809 0.027152332
-0.25217217 -0.14414522 -0.04345295 -0.01937721 -0.0032326283 -0.018137613 -0.17308015 0.06788173
-0.063031636 0.1351947 0.23703223 -0.009692098 -0.090551436 0.09802332 -0.018509109 0.16254954
-0.08007995 -0.13122384 -0.06159002 0.011677552 -0.03424604 0.14918616 0.0075708716 -0.1545609
0.12526084 -0.00076285703 0.029135717 -0.016988112 0.065580286 -0.035042495 0.21519662 0.024275042

network_body._body_endoder.seq_layers.2.bias f4 [128]
00000000: 277a 9d3b 305c 8bbc ee70 6ebc 9463 813c
00000010: 37b7 56bc 8402 bdbb 25e4 0c3c dfc2 5abb
00000020: a0ce 1c3c a844 00bc 0c30 3c3d 92c1 cdbc
00000030: cfbd 95ba e1fc 33bc c12b 21bb 747b bb3c
00000040: 6999 73bc 788d 83bc 7628 f6bb ea95 143d
00000050: f193 f53b f600 6e3c 78fa e23b 3355 cc3b
00000060: 29f5 a2bc fa69 dfbb a12d 043d 15bf d33c
00000070: 4960 4b3c f89d 32bc a7c1 00bc 8a67 9e3b
00000080: 3212 9fbb 8e8f b8bb 8a2d e43b 7326 4e3c
00000090: 2e37 74bb c6c0 483c 6643 82bc aeb8 943c
000000a0: ae12 24bc 3f25 40bc ba3c 783b e8fd 7dbc
000000b0: 6709 fd3c 9955 9b3c c6ee 683c 2da7 143d
000000c0: 21f8 f0ba 9dc9 a53b a5fc 2c3b 98dc 0e3d
000000d0: eb6b a83c 1d8d 40bb e938 5e3b 9555 853a
000000e0: 2913 5d3b d0b2 d7bc 5562 463c 6079 e73c
000000f0: 50d9 b63c 511c b83a c8c8 b7bc 142c f8b7
00000100: d60f e7b8 9f4e 56bb e8f5 fd3a e2cc 9c3b
00000110: dbad bb3b 8ec5 38bc 21fe 58bc e493 353c
00000120: f1dd 073b cc27 8c3c e40c 0bbc fea3 c5bb
00000130: 079a 4a3d 1848 b63c c90f 2cbc 2871 333b
00000140: ab4a c13a f9e6 9a3b 78be 3b3c 043e d33c
00000150: 1efe c4bc eeec bcb9 eb94 bcbb 4dae e33b
00000160: 9f1e 613c 3fe5 943c 4e1d 32bb c723 3a38
00000170: 54d9 cd3c f286 50bc 2ab8 653b 390d a03c
00000180: e7a7 e53b d752 35bc 6135 1f3c 626e a5bc
00000190: af8c abbc 640c 05bc b031 1d3d f68a 11bc
000001a0: 31ed ed3c 895d f0bb 3733 123b c35b 383c
000001b0: 69cc 273c 231d d4bc 7a8f e03c da36 fd3b
000001c0: 23d3 1b3c 8d8c bfbb 8fc2 463c 317e 4e3c
000001d0: 91f0 a7bc e590 95bb b2ad de3a 4b8c 433c
000001e0: a70d 30bc 2400 d2bb c32a 8cbc 62c6 f53b
000001f0: bfb6 583c 78fe a23c 0d5c 683c 4d49 31bb
0.0048058215 -0.017011732 -0.014553292 0.015794553 -0.013105205 -0.005768122 0.008599316 -0.0033380312
0.009570748 -0.007828869 0.04594426 -0.025116716 -0.0011424365 -0.010985584 -0.002459273 0.022886015
-0.014868119 -0.016058668 -0.0075121475 0.03627578 0.0074944426 0.014526596 0.006926831 0.0062357425
-0.019892292 -0.0068180533 0.032270078 0.025847951 0.012413093 -0.0109019205 -0.00785867 0.00483412
-0.004854464 -0.0056323474 0.0069634365 0.012582409 -0.0037264335 0.012252992 -0.015901279 0.018154468
-0.010014219 -0.01172763 0.0037877993 -0.0155024305 0.030888272 0.018961715 0.014217084 0.036292244
-0.0018384495 0.0050594346 0.0026395705 0.034878343 0.020559272 -0.0029380985 0.0033908433 0.00101726
0.0033733344 -0.026330382 0.012108405 0.028256118 0.02232042 0.0014046525 -0.022434607 -2.958443e-05
-0.00011017888 -0.003270067 0.0019375654 0.004785166 0.0057275123 -0.011277569 -0.013244183 0.011082623
0.0020731653 0.01710882 -0.00848696 -0.0060315123 0.0494633 0.022251174 -0.01050181 0.0027380679
0.0014746984 0.004727241 0.0114589855 0.025786407 -0.024046954 -0.0003603468 -0.005755057 0.0069482685
0.013740211 0.01817572 -0.0027178111 4.4379176e-05 0.025128044 -0.012727486 0.0035052397 0.019537555
0.007008541 -0.011067114 0.009717316 -0.020194236 -0.020941107 -0.00812063 0.038377464 -0.0088832285
0.029043766 -0.007335369 0.0022308358 0.011252346 0.010241606 -0.0258928 0.027412165 0.007727486
0.009510788 -0.0058456124 0.012131347 0.012603329 -0.020500453 -0.004564392 0.0016989021 0.011935304
-0.0107454425 -0.006408708 -0.017110234 0.0075004557 0.013227164 0.01989673 0.014182103 -0.0027051747

action_model._continuous_distribution.log_sigma f4 [1, 2]
00000000: bd2f 32bd a85e 4cbc
-0.043502558 -0.01247374

action_model._continuous_distribution.mu.weight f4 [2, 64]
00000000: 3be1 abbc 14ed dd3b 4ad7 b23b b51e 1fbd
00000010: 5712 473d 74c2 273c 7ce7 f23c 0c85 c9bc
00000020: 486a e23c 7a75 833c 89c0 813c f1ba a73c
00000030: baef e7ba 75cf 30bd 7706 883d 53a0 abbc
00000040: 1c35 e1bc 98bb 7c3c 0659 b13b 80a2 5bbb
00000050: 15f0 083c 1103 46bb fae3 0dbd b88b 59bc
00000060: 0464 2dbd 5752 bd3c d107 af3c bdab c03c
00000070: 3a59 8fbb 0ec5 253c 2839 cb3b bef6 353d
00000080: 7bb3 d7bb d066 7cbd 634d 0b3d fa69 c1bb
00000090: 594f dc3a 3073 433d 1b8e 063d 5c50 5cbc
000000a0: a3a0 d8bc a063 2b3c a020 903c 0dce 973b
000000b0: 518e 12bd a641 f03a 2b10 3c3c eb7a 19bc
000000c0: 53e6 9bbb 7060 c73c a03c e43b e8a0 8dbd
000000d0: b9fa 36bd 0ecc ec3c 3a8c 8fbc ec11 873c
000000e0: cfbf 3c3b 5fe6 553c 7072 17bd df0d 89b9
000000f0: fb3c ae3c 4485 cd3c 3bd4 01bd 67e1 303c
00000100: 27f5 95bd 478c 413d 185a e2bc 5f66 2e3d
00000110: 61fb 3a3d e02b 4ebd ac14 443d 077f 173c
00000120: 0f45 0e3b fdce 1a3d 1643 933d a843 3c39
00000130: 1fc2 663b 70f9 063b 63ed 013d 9cbe 8c3d
00000140: f98d 053d 4bd2 e33c bd87 77bc 2ce0 dd3c
00000150: 4d49 debc f38e 233d 8fcc 8abc 9e76 acbb
00000160: 6311 493d 3907 f63c b652 ac3c e673 9bbb
00000170: b83d 59bc 321f 1dbd 67f4 e23c e202 4b3c
00000180: b5ce 7dbc ecd4 583d 6a33 0a3d d264 543b
00000190: 559e 363d 3588 383c d391 b2bc 11d6 fa3c
000001a0: cb28 f43b 46e7 e2bd b920 14bd 2912 01bc
000001b0: 1ab4 433d b208 23bd 2574 d43c c3d7 81bc
000001c0: 019a 8cbc 95d0 173d f969 333c b679 c1bc
000001d0: 38f3 97bb 2935 863c ab9d 2b3b ba1c 473d
000001e0: 360a 3b3c 18e3 17bd 71b5 3fbd 17d5 1d3d
000001f0: 433f 663d 535d 173d 04a9 8cbd 3e3e 363d
-0.020981422 0.0067726467 0.0054577934 -0.038847644 0.048601475 0.010239232 0.029651396 -0.024599575
0.02763857 0.016047228 0.015838878 0.020474883 -0.0017695345 -0.043166596 0.06641858 -0.020950472
-0.027491145 0.015425585 0.0054122237 -0.0033513606 0.008358021 -0.003021423 -0.034641244 -0.01327794
-0.04233171 0.023110552 0.021366032 0.023519391 -0.0043746503 0.010117782 0.006201882 0.044424765
-0.006582675 -0.061621487 0.03400935 -0.005902526 0.0016808315 0.047717273 0.032850366 -0.013446894
-0.026443785 0.010460764 0.017593682 0.0046327175 -0.035780255 0.0018330112 0.011478464 -0.009367685
-0.0047576814 0.024337977 0.006965235 -0.06915456 -0.0446727 0.028905895 -0.01752292 0.016488038
0.002880085 0.013055413 -0.03697437 -0.0002614101 0.021269312 0.02508796 -0.03169654 0.010795928
-0.0732215 0.04725292 -0.02763085 0.042578097 0.04564989 -0.05033481 0.047871277 0.009246594
0.0021708643 0.037795056 0.0719053 0.00017954281 0.003521092 0.0020595454 0.03172053 0.06872293
0.0326061 0.027810236 -0.015108046 0.027084433 -0.027134562 0.03993125 -0.016943244 -0.0052631637
0.049088847 0.03003274 0.021035533 -0.004744041 -0.013259344 -0.03835983 0.02770443 0.012390824
-0.015491177 0.052937433 0.03374044 0.0032408726 0.04458459 0.011262943 -0.02179805 0.030619653
0.007451152 -0.11079268 -0.03616402 -0.007877865 0.04777918 -0.039803214 0.025934288 -0.015849954
-0.017163279 0.037064154 0.010950559 -0.023617607 -0.004637148 0.01638277 0.0026186507 0.04861138
0.011416009 -0.037081808 -0.046803895 0.038533296 0.056212675 0.036954235 -0.06868175 0.044492953

action_model._continuous_distribution.mu.bias f4 [2]
00000000: f61f 2f3c 54e4 95bc
0.010688772 -0.018297352

action_model._discrete_distribution.branches.0.weight f4 [2, 64]
00000000: 4f9d 3c3c d84b ab3b 7c30 a73c 2c50 08bc
00000010: 84e8 05bb f912 673c 02f0 42bc 345c 1d3d
00000020: e3c1 aebc 5394 16bd 83d6 05bd 1865 89bc
00000030: a419 463c 7180 4d3d 83ae 523c ac9b d6bb
00000040: eaca c8bb 95f9 2a3d c3ad 86bc a54e ea3c
00000050: 0fc3 03bc a2e2 d23c 4d67 c33b fbcd 883c
00000060: 2881 4eba b453 dabc a0f5 9bbb 2d2d 11bc
00000070: 9ab4 903c 7208 04bd 4768 5abc e71a b1bc
00000080: 39e5 183c 7850 053a b60c b33b 5b44 2f3c
00000090: 5c5e 5fbc 593f 433b c92d b1bb 3974 eebc
000000a0: 8c9b 533d d28e 093c f2d3 823b b86e 9d39
000000b0: 83cf 5eba e033 ab3c c870 dc3c 93e9 7b3a
000000c0: 11b4 bd3c 6a3d 423d b0a5 0b3a 364e 13bd
000000d0: 5d2c 82bd 852f 0abc 5af8 683c 9613 f0bc
000000e0: 1a0b 3f3c f62a c2bb ca70 34bd 6414 b7bb
000000f0: edfb 3e3d 4bbc f8bc 95a4 24bd 31ac 28bc
00000100: 2d0b b0bc cf38 e0bc 3393 bdbc 9dfe b43b
00000110: f438 16bd a193 b8bc d342 aabc 6af9 1bbd
00000120: 97cf e83c 3723 eb3c a487 533d 18b1 80bb
00000130: 613d 14bd e49b 06bd e103 9a3b 7831 afbc
00000140: 9a23 3abc 1deb 64bd 1c07 a23c 45fa f4bc
00000150: e27b ea3b 07c6 b3bc faeb 01ba 6745 d7bb
00000160: b48c b23c 4f0e a83c 8688 ae3c 9528 cf3c
00000170: 8b5f 8f3c 536e 093d 8f3b 773c dd75 393d
00000180: 808e 0239 d370 cdbc cbb7 a0bc 489e f93c
00000190: 9027 703c d2a1 283c 34e7 bf3c f965 833b
000001a0: 7bf1 5fbc 8519 a6bc aeb7 f03a 53fe da39
000001b0: 1a39 94bc 9654 58bc af26 f1bb f639 70bc
000001c0: 3909 50bd 9fdc c8bc 8125 16bc 55b8 0a3d
000001d0: f22d 583d 72e2 49b9 5ff5 ffbc af5e 81bb
000001e0: abfb 433b e10e b93c 384c 9f3c 6066 9b3c
000001f0: ab73 fbbc c2f8 d43c 7af3 8b3c c4af ab3c
0.011512115 0.005227547 0.020408861 -0.008319896 -0.002043278 0.0141036445 -0.011898043 0.03841801
-0.021332687 -0.036762547 -0.032675277 -0.016771838 0.012091074 0.05017132 0.01285899 -0.0065493193
-0.006127705 0.041741926 -0.016440278 0.028601954 -0.008042111 0.025742833 0.005963242 0.016699782
-0.0007877522 -0.02665124 -0.0047595054 -0.008860868 0.017664243 -0.032234617 -0.013330526 -0.021619273
0.009331995 0.0005085538 0.0054641617 0.01069745 -0.013633337 0.0029792397 -0.0054070693 -0.029108154
0.051662013 0.008395867 0.003992551 0.00030027865 -0.00084995496 0.02089876 0.026909247 0.00096096954
0.023157151 0.04742185 0.00053271186 -0.03596326 -0.06356118 -0.008434181 0.014219368 -0.029306214
0.011660362 -0.0059255315 -0.044052877 -0.0055871475 0.046626974 -0.030363223 -0.04019602 -0.01029496
-0.021489704 -0.027370838 -0.02314148 0.0055235163 -0.03667541 -0.022531332 -0.020783817 -0.038079657
0.028419299 0.028703315 0.05164303 -0.003927361 -0.036191348 -0.032863513 0.0047001694 -0.021385893
-0.011361027 -0.055888284 0.01977878 -0.029904494 0.0071558813 -0.021945013 -0.0004956123 -0.0065695527
0.021795608 0.020514635 0.021305334 0.025287906 0.017501613 0.03355248 0.0150898835 0.04527842
0.00012450852 -0.025078213 -0.01961889 0.030470982 0.01465787 0.010292487 0.023425676 0.004009959
-0.013668413 -0.02027584 0.0018365288 0.00041769687 -0.018093634 -0.013203761 -0.007359348 -0.014662256
-0.050790045 -0.024519263 -0.009164215 0.0338672 0.052778192 -0.00019253211 -0.031244932 -0.0039480547
0.0029904644 0.022590103 0.019445524 0.018969715 -0.030694803 0.025997523 0.017083872 0.020957835

action_model._discrete_distribution.branches.0.bias f4 [2]
00000000: d3c2 413c d8c2 41bc
0.011826235 -0.0118262395

action_model._discrete_distribution.branches.1.weight f4 [2, 64]
00000000: 9459 12bc a96b 0d3d 1eba a4bc 258d 7f3d
00000010: ed29 3abc 3a73 ccbb bde3 983b 44b0 163a
00000020: a77c cabc 2ad3 e83c a7fc fc3c 93b4 09bc
00000030: faf9 be3c 145b 933b 9380 bdbc 9d1a 613c
00000040: 7465 9b3c afcf 86bb 2b97 5d3c 2fe4 cbbc
00000050: 7838 26bd f1ea 6abc b097 4e3c 00ce d03c
00000060: d864 293c c9cc 26bd e93d 87bc 57cf 1cbc
00000070: f951 b3bb 0dbf 933c f1a4 233c 0db3 7abc
00000080: a49d f43c a8c8 753c f353 9abc 3db4 323d
00000090: b11d ba3c 71f9 c73b ad4c bdbb c8f9 493d
000000a0: ecfa 67bc 1c22 3d3c 1b0c 9e3c 8aa6 31bd
000000b0: fd92 ad3c 341e a8bc ef58 d13c 90d1 8c3c
000000c0: 4bb6 92ba ec6f 27ba dc7d bb3b 7560 02bb
000000d0: bd76 d13c 2a50 c7bc 0870 0e3d ea63 843c
000000e0: b01f 7fbc f219 92bc 85ca bf3c 2edb 58bc
000000f0: 4179 713b b0ca 14bc aa95 5f3c 6dde db3c
00000100: 5d23 d0ba 4cf9 84bc 51be 023d 677c 34bd
00000110: af6d 6d3c f2b5 2d3c 8f1e b5bb d4b1 3c3c
00000120: 3ccc 1f3d a74d dabc a89a 1fbd 6851 693c
00000130: 3db8 afbc d627 86bc b0b2 703c 3e29 4fbd
00000140: a65d 14bd 0468 f23c 334a 533c 4bae f63c
00000150: 84aa 1a3d 20b2 82bb b6e7 24bd 9803 82bc
00000160: b134 c7bc 54d3 11bb 3d19 0e3d 24dc 19bb
00000170: 77ef 873c c5bd e3bb 84c1 5dbc b428 0bbc
00000180: f098 27bd 7a58 17bd af9b 893c 6d41 9ebc
00000190: 891f f4bc 0eb5 a73c 39a6 853c 5030 c0bc
000001a0: 6840 d13c de24 a93c 42a6 b8bb 908e 003d
000001b0: 19db 29bd 28a2 153c d6d0 99bc ff9e b0bc
000001c0: 5fc8 233c 006a b83c 3597 54bc 6211 b5bb
000001d0: 8ba6 35bd 32df 713b 3766 13bd 4afd d5bb
000001e0: 4004 4e3d 5647 72bc e81e f7bc 2a9d ab3a
000001f0: 27d1 ae3c 470d 963b ee69 cebc 59a7 abbc
-0.00893249 0.0345265 -0.020108279 0.062390465 -0.011362535 -0.006239322 0.0046658204 0.00057483115
-0.024717642 0.028421003 0.030882193 -0.008404869 0.023312557 0.0044969413 -0.023132598 0.013739255
0.018969275 -0.0041141133 0.013524811 -0.02488908 -0.040581197 -0.014338241 0.012609407 0.025488853
0.010338984 -0.040722642 -0.016509013 -0.009570918 -0.0054724184 0.018035436 0.009988056 -0.015301478
0.029860325 0.015001453 -0.018838858 0.04362892 0.022719236 0.006102734 -0.0057769627 0.049310476
-0.0141589455 0.011543777 0.019292882 -0.043371715 0.021188254 -0.020522214 0.025555102 0.017189771
-0.0011193244 -0.0006387222 0.0057217907 -0.0019893919 0.025569314 -0.024330217 0.03477481 0.016160924
-0.01557152 -0.017834637 0.023411999 -0.01323585 0.0036845955 -0.009081528 0.013646523 0.02683946
-0.001587968 -0.016232155 0.03191978 -0.04406395 0.014491483 0.010602461 -0.0055273245 0.011517007
0.039013132 -0.026648356 -0.03896585 0.0142406 -0.021450156 -0.016376417 0.01469104 -0.05057644
-0.036222123 0.029590614 0.012896108 0.030112406 0.037760273 -0.0039885193 -0.04026004 -0.015870854
-0.024317117 -0.0022251206 0.034692038 -0.0023477161 0.016593678 -0.0069501125 -0.013534907 -0.008493591
-0.040917337 -0.036949612 0.016797869 -0.019318307 -0.029800193 0.020472076 0.016314613 -0.023460537
0.025543407 0.020647462 -0.005635054 0.03138596 -0.041468713 0.009132899 -0.018776339 -0.02156019
0.009996503 0.022511482 -0.012975504 -0.005525754 -0.04434828 0.0036906716 -0.03598615 -0.0065304385
0.050297022 -0.014787516 -0.030166104 0.0013093103 0.021339966 0.0045792195 -0.025196996 -0.020953821

action_model._discrete_distribution.branches.1.bias f4 [2]
00000000: e5f8 16bc e3f8 163c
-0.0092146145 0.009214613

onnx::LSTM_133 f4 [1, 256, 128]
00000000: cba7 613d 180c 503e 504f aebd fbc0 82bd
00000010: b283 123e 51f1 033d 5877 763c 9d82 a03d
00000020: 94af 97bd 308e 853c 3268 903d 5bcb 57be
00000030: 6354 85bb d09d 2c3e e5d6 223e 965d 023e
00000040: e612 2e3e 6cb3 16bd b8eb a33d fa53 793d
00000050: 58f5 ae3d 8f02 febd 3fb4 d1bd 6c76 09be
00000060: b5c4 68bc 2760 61bc 84f0 ff3c 2095 3bbd
00000070: 376d 8abd 1567 12be 23ac d8bd 1669 e13d
00000080: dcc0 2ebe 7da9 a6bd 9bab 053e ee4a e8bc
00000090: 402c b0bb a292 91bc 2481 9cbd 6cad 833d
000000a0: c94c 79bc 1379 d33d f03f a33d ff4e 193e
000000b0: 148f 3dbd ffc8 e53d 9faf f83d 0a8c d73d
000000c0: 276c 30be eea7 fe3d 7fde 5dbd 184c c7bc
000000d0: e756 e73d f87d 00bd 7c8c b33d 39dc 0c3d
000000e0: 1171 853d fa55 083d 31b7 093e 72f7 fbbd
000000f0: 1900 2abd 60e4 bbbd cdb0 4a3e f09f e6bd
00000100: 1513 0c3d 7dc7 033d 284b 2ebe d1c6 57be
00000110: 531e 9f3c 5f3a 59bd 5d11 873d 6d29 063e
00000120: 1814 c43c 296a bd3d 3df7 7f3c 57e4 1c3d
00000130: 7e2a 1abe 7c12 f3bd ecd7 70be d3cc cbbd
00000140: 4985 473e bcc7 fd3d 4ee7 cdbc 89b1 ecbc
00000150: 84f2 2b3e b07a 1ebd 2ee7 223e 54e9 19be
00000160: b060 efbd 260e 1abd e116 a9bd 2de8 f63c
00000170: bcbe ba3c fa60 40be deb5 273d 2b64 833d
00000180: 315b 49be 8813 bbbd 8e66 0cbe 9854 9d3d
00000190: b509 81bc f37d 3a3e ede5 66be 5dc7 2e3e
000001a0: 3222 8bbd d00f 6c3d 8485 0b3e 996c 023d
000001b0: 1c99 8fbd 12a8 653c 6b85 a23d 7bd0 05be
000001c0: 3a3b 42be 77e6 57be 3445 95bc 4024 c83d
000001d0: 78f1 a13d 0ab8 173d a19c adbc 9750 c73d
000001e0: 0d79 2d3e 0ef4 3e3d 6863 f1bd 0dc4 6bbd
000001f0: 8641 713c 46ad f4bd d5b3 64be cc3e ddbd
00000200: ef68 9d3d 1932 d1bd 9161 93bd cbd1 a63c
00000210: 520f 063d ca4c 523d dd78 1ebe 43ca 113e
00000220: 55ef c0bc 3736 c43d b7a5 103e a75c 81bd
00000230: 67a5 123c c304 03bd 4d70 353e d35b 143d
00000240: fa23 d5bd 0343 9b3d 2e19 62bd 62b3 b03d
00000250: 1aa7 1b3e cc26 823d 76d1 da3d b259 2e3c
00000260: 4b74 f13c bb8d da3d 253a 863d 2ea3 5b3c
00000270: cb0c 403d 714d 193e eb04 083e bc43 843d
00000280: 5eb9 47be 6c83 b3bd 53f6 b8bd 107a 1abe
00000290: 6ce1 43bd 20f6 a13d 5b53 373e 674c 223d
000002a0: d7f2 e0bb 3a96 efbd 4f12 ef3d 8872 17be
000002b0: 803c b23d 16c1 323e c60b 1bbe 69ad 4b3d
000002c0: 24de 1bbe 0152 223e 4a33 c73d 69fa d0bd
000002d0: 3382 62bd 73e5 dbbd 09a0 303e 147b 023e
000002e0: 90e6 97bd 1af5 c03d 7d49 943d bfee c43d
000002f0: d715 863d 89f9 7c3d e6b0 953c cfb8 a23c
00000300: 86c3 723c 1af7 b33d c96a e23c 4690 48be
00000310: 66bf 5bbd 92f3 873c 8db5 b4bd c967 2f3e
00000320: e58b 043e d01c 7dbd e7e7 293d 5068 4ebd
00000330: 6be0 203e ab8c 0abd 1541 b63c 637c 443d
00000340: 249d 96bd 1cfe 5ebd f364 37bd a7db 96bd
00000350: ea5e 0dbe 1c00 343d af4e 523e e10f 59bd
00000360: 5cfe 563d ae2b b93d 3403 3c3b a0aa 393e
00000370: 7788 3d3e c9fc 773d 9464 a23d c89e 9c3d
00000380: 74fa 38be 1e7b 49bd dd9e 13be 2d9b d93c
00000390: 356e f0bd 8446 9abd 4ed7 16be a027 dd3d
000003a0: 66c4 ef3d 2423 c5bd 8afb 42be 723c 463c
000003b0: 61f4 cd3d 3139 323e 3b30 8c3d 84f7 a7bd
000003c0: ae6d 3ebc b86b d43d 7a5a f8bd ad33 043d
000003d0: f124 f33d 322c d0bd 538c 563e beef 51bd
000003e0: 43c0 7dbd 1de8 14be 7015 c4bd a17b 9c3d
000003f0: a4ee c53d a551 4b3a 445e dd3d 0ad6 55bd
0.05509166 0.20317113 -0.085112214 -0.06384464 0.1430805 0.03221256 0.015043102 0.078374125
-0.07406536 0.016303152 0.07051124 -0.21073668 -0.0040688976 0.16857076 0.15902288 0.12731013
0.16999397 -0.036792204 0.08003944 0.060871102 0.08542889 -0.12402832 -0.10239457 -0.1342408
-0.014207055 -0.013755835 0.031242616 -0.045796514 -0.06759112 -0.14297135 -0.105797075 0.11006372
-0.17065758 -0.08137796 0.13053744 -0.028356042 -0.0053763688 -0.017770115 -0.07641819 0.06429562
-0.015216061 0.103258274 0.079711795 0.14971541 -0.046279028 0.112199776 0.12142872 0.10524757
-0.17228757 0.12434374 -0.054167267 -0.024328277 0.11295872 -0.031370133 0.0876703 0.03438971
0.06515706 0.03328512 0.13448788 -0.12303056 -0.041504 -0.091744184 0.19794007 -0.112609744
0.034197886 0.03217267 -0.17020857 -0.21071936 0.01942364 -0.053034183 0.06595109 0.1310174
0.023935363 0.09248764 0.015622911 0.0383037 -0.15055272 -0.1186876 -0.23519868 -0.099511765
0.19484438 0.12391612 -0.025134709 -0.02889325 0.16791731 -0.038691223 0.159085 -0.15030414
-0.116883636 -0.03761115 -0.08256317 0.030140007 0.022796027 -0.18786994 0.040944926 0.0641559
-0.19663693 -0.09134585 -0.13710997 0.076821506 -0.015751699 0.18212108 -0.22548647 0.17068239
-0.067936316 0.057632267 0.13625151 0.031841848 -0.07011625 0.014017122 0.07935604 -0.1306781
-0.18967906 -0.21084009 -0.018221475 0.09772539 0.07907385 0.037040748 -0.02119285 0.09732168
0.16940708 0.046619467 -0.11786538 -0.057560015 0.014725095 -0.11947112 -0.22334225 -0.10802993
0.0768603 -0.102146335 -0.07196344 0.020363709 0.032729454 0.051342763 -0.15475793 0.14237313
-0.023551622 0.09580653 0.14125715 -0.063165 0.008950568 -0.031986963 0.1771862 0.036220383
-0.104072526 0.07581141 -0.055199794 0.086279646 0.15200463 0.06355056 0.10684483 0.010641502
0.029474398 0.10671564 0.06554059 0.013405604 0.0468872 0.14970948 0.13283126 0.06458232
-0.19504306 -0.08765301 -0.090313576 -0.15085626 -0.0478224 0.07908273 0.17902891 0.039623644
-0.0068648863 -0.11698575 0.11673414 -0.14789784 0.08702946 0.17456469 -0.1514121 0.049725924
-0.15221459 0.15851595 0.097265795 -0.10204012 -0.05529995 -0.10737123 0.17248549 0.12742263
-0.07417023 0.094217494 0.07240579 0.0961585 0.06547134 0.061761413 0.018272828 0.019863514
0.014817124 0.08787365 0.02763881 -0.19586286 -0.05364933 0.016595636 -0.088236906 0.17129435
0.1294399 -0.061795056 0.041480925 -0.05039245 0.15710609 -0.033825558 0.02224783 0.047970187
-0.07354191 -0.054441556 -0.044774007 -0.07366114 -0.13805738 0.043945417 0.20537828 -0.05299366
0.05248867 0.09041534 0.0028688433 0.18131495 0.18509088 0.06054381 0.0792934 0.076474726
-0.1806429 -0.04918968 -0.1441607 0.026563251 -0.1173977 -0.07532981 -0.1473057 0.107985735
0.11707382 -0.09625843 -0.19041267 0.012099372 0.10056377 0.1740463 0.06845137 -0.08201507
-0.011622829 0.10372108 -0.12126632 0.032275844 0.118722804 -0.101646796 0.20951967 -0.051254027
-0.061950933 -0.14541669 -0.095744014 0.07640768 0.09664658 0.00077560014 0.10808995 -0.052206077

onnx::LSTM_134 f4 [1, 256, 64]
00000000: 9217 b8bd 9576 093e b525 cebd 6f74 273e
00000010: 9e73 433e b7dd 463e 548b bcbd b9d0 9abd
00000020: a669 113e 8ee8 783e 4fa7 01bd c532 2d3e
00000030: 4023 47bd d4c2 8abd 435e f5bd 4895 8a3c
00000040: ed92 02be 45cc 09bd 4a7d 2d3e f2b9 eabd
00000050: a2ee 0f3e bb56 f1bd 3e81 16be d7f0 213d
00000060: d98f 513e 94f6 13be 486d 613e c31f 2d3d
00000070: 6292 53be 6123 8fbd bf43 d43d 22be 0d3e
00000080: 9926 15be 6fae 9a3d f442 29be b1aa 473e
00000090: 27f9 0d3e 24b5 4a3c b52e 5d3d 8aff efbd
000000a0: f29e bfbd 2d8e 903d a281 c83d 5e09 403e
000000b0: 01ab 283e 32c8 70bd 70ee f23c b04c 143e
000000c0: 1e89 173d 4313 67be 2c11 9d3c f438 823b
000000d0: d74a 2fbe 399a 29bd 2a7f b1bd 360e 3e3d
000000e0: 6807 0c3e 7cf8 a8bd a317 513e 434c 21be
000000f0: 1c61 a43d 5368 0cbd 10e6 013d 2fe1 3cbe
00000100: 0096 e8bd 9368 7e3d 84c7 1e3d 3b5a abbd
00000110: d382 093e ed4b 423e b475 c53c 72fa b4bd
00000120: 8264 d63d 54d8 0d3e 44d0 443e d1f2 38bd
00000130: dc95 3cbe 0e90 c23d b4a8 ac3c f08c 60be
00000140: a522 19be 9eeb febc 15a4 083e aee4 433e
00000150: 5a56 d23c 885f 533d 2ae4 2d3e 27fe 41bd
00000160: 2f51 e4bd 1116 f53d 20db 9ebc 9052 45bd
00000170: 5ece c13d bbcf 34be 37c1 96bd 355c 043d
00000180: 9ab8 ca3d e6b3 45be ca42 543d cedd 3e3e
00000190: 437c 42be aec1 a7ba 6ec0 d83d 80b8 8c3d
000001a0: ee62 2b3e d706 2b3e d533 f6bd 59e3 22be
000001b0: 2a5d 31be c5ca fb3b aa14 2d3e e23b ca3d
000001c0: b013 303b a0f2 5abe ab70 00be 8d48 0f3e
000001d0: 4895 293e a6ca 46bd e03d 263e e79c 9abd
000001e0: 8a6e 533e 5cb6 1fbe f197 223e 386e 32bd
000001f0: b414 ab3d 8984 633d 690d 743d 12cb 11be
00000200: 6a5b 0bbe 65d6 fa3c ec2d 5c3e acd3 1abe
00000210: 57ff f03d 8a0b 433c 8e8d e6bc 3a08 04bd
00000220: c7cf 3a3e de47 44be 32e6 3c3e 0006 3ebe
00000230: 7e3f 14be ae93 9b3d 9786 a1bd e5d2 29be
00000240: 0cc4 363e a390 40be 2e71 413e f962 093e
00000250: 3448 2c3e 545a c8bc 971f 21be fad1 f63d
00000260: 5408 153e ac02 9cbd 0fda f4bb 5fa9 253e
00000270: 8110 f73d ec0e 583d a379 493e 5bdc 523e
00000280: 0682 e8bd f94d 4a3e 42dc 613e 8fbc 70bd
00000290: 579e aabd f8c6 53bd 84b4 873d 8ae3 373c
000002a0: 4f23 46be dae0 383e 0c09 5f3c a282 18bd
000002b0: ad2f eb3d 52a8 523e d9bf 523e 6ce5 3e3e
000002c0: 06a9 0a3e aff5 ee3d 4f7c 3d3a 8006 293b
000002d0: ebec dd3d 26b2 643e a902 91bd a3b2 843d
000002e0: 738f 3abe 6f07 42be 9b56 143d 0077 a33d
000002f0: 67e1 833d ebe3 1abe 1324 c53d dfb8 f4bd
00000300: cc4c babd 0606 7ebb ddb9 af3c 4bd9 053d
00000310: 8973 793d ff87 353d 8d4b febd e44a 0b3d
00000320: 57d2 26be cdea 123e d293 613d 67cd 02be
00000330: a4db 053e 75eb b439 398e 353e 575f 333e
00000340: 886c c4bd ea60 dbbc 0af5 f0bd d3df 123e
00000350: 1de6 423e bd75 b3bc b7c5 453e e4af 053e
00000360: 6e8f 63be 7aa1 89bd 83ee 60be 3fb3 febc
00000370: 768e 3b3e a9ce 27bd 6c6e cd3d 37ce 0e3e
00000380: b27d d13c e0e4 fd3b 2dba 993c 9583 beba
00000390: e23e e03d 3b2f e13d 4f9e 17be 5262 323e
000003a0: 4fe7 3a3d 9d2d c0bc 28af e5bd 378f 49bd
000003b0: 93d4 dbbc bb65 da3d 97fa 5a3b c581 19be
000003c0: 2c52 b23d 8c4d 94bd 0ca8 963c fb19 18be
000003d0: 962e 63be 261e 1d3e 7adb 18bd 5550 12be
000003e0: faa2 8fbd 424e b1ba f93e 633e ce5e b33d
000003f0: 2ce4 d2bc 2503 dc3b da01 3e3e dcd0 4f3c
-0.08988871 0.13424142 -0.10065786 0.1635301 0.19087073 0.19420515 -0.09206262 -0.07559342
0.14200458 0.24307463 -0.0316537 0.16913898 -0.0486176 -0.06775442 -0.119808696 0.016916886
-0.1275136 -0.033642072 0.16942325 -0.114612475 0.14055875 -0.11784121 -0.1469774 0.039536323
0.2046503 -0.14449531 0.22014344 0.04226662 -0.2066131 -0.0698917 0.10364484 0.13842061
-0.14565505 0.07552802 -0.16529447 0.19498707 0.13864575 0.012372289 0.05399962 -0.11718662
-0.09356488 0.07058368 0.097903505 0.18753573 0.16471483 -0.05878467 0.029654711 0.14482379
0.036996 -0.22565942 0.019173227 0.0039740745 -0.17118393 -0.041406844 -0.08666833 0.04640027
0.136747 -0.0825052 0.20419173 -0.15751748 0.08026335 -0.03427918 0.031713545 -0.18445276
-0.11356735 0.06211145 0.03876449 -0.083668195 0.13428812 0.18974276 0.024103977 -0.08836831
0.10468389 0.13852054 0.19220072 -0.045153443 -0.18416542 0.095001325 0.021076538 -0.21928763
-0.14954622 -0.03111821 0.13343842 0.19130203 0.025675941 0.051604778 0.16981569 -0.04736152
-0.11148297 0.119670995 -0.019391596 -0.04817444 0.094631895 -0.17657368 -0.073610716 0.032314498
0.09898491 -0.19306907 0.051821508 0.186393 -0.18992715 -0.001279881 0.10583578 0.06871128
0.16736957 0.16701828 -0.12021605 -0.15907039 -0.17320696 0.007684084 0.16902414 0.09874703
0.0026867203 -0.21381617 -0.1254298 0.1399252 0.16560853 -0.048533104 0.16234541 -0.07549458
0.20647636 -0.15596908 0.15878274 -0.043562144 0.08353558 0.055546317 0.0595831 -0.14237621
-0.1360909 0.03061981 0.21501893 -0.15119809 0.11767452 0.011904607 -0.02814367 -0.032234408
0.18243323 -0.1916804 0.18447188 -0.18556976 -0.14477345 0.07596527 -0.07886999 -0.16584356
0.17848223 -0.18805175 0.18890831 0.13416661 0.16824418 -0.024457134 -0.15734707 0.120517686
0.14553958 -0.07617697 -0.0074722837 0.16177891 0.12063695 0.052748606 0.19675307 0.20591871
-0.11352925 0.19756307 0.22056678 -0.058773573 -0.08330982 -0.051703423 0.066262275 0.011223683
-0.19349407 0.18054524 0.013612997 -0.037233956 0.11483703 0.20572022 0.20580997 0.18642205
0.1354104 0.11667954 0.0007228301 0.0025791228 0.10836204 0.22333583 -0.070805855 0.06479385
-0.18218784 -0.18948148 0.036215406 0.07981682 0.064394765 -0.15126006 0.09626021 -0.11949324
-0.09096679 -0.0038760914 0.021450931 0.03267793 0.0609012 0.04431915 -0.12416754 0.03400697
-0.16291176 0.14347382 0.055072613 -0.12773667 0.13072067 0.00034507705 0.17730035 0.17516838
-0.09591013 -0.02677961 -0.117654875 0.14343195 0.19033094 -0.021906728 0.19313703 0.13055378
-0.22222683 -0.06720252 -0.21965985 -0.03109133 0.18316063 -0.04096857 0.10030827 0.13945852
0.025572632 0.0077482313 0.018765533 -0.0014535064 0.10949494 0.109953366 -0.14806484 0.17420319
0.04563075 -0.02345925 -0.11215049 -0.049208846 -0.026834762 0.10663935 0.0033413523 -0.1499091
0.08707079 -0.072413534 0.018390678 -0.14853661 -0.2218574 0.15343532 -0.037318684 -0.14288457
-0.07013507 -0.0013527351 0.22191991 0.08758317 -0.025743566 0.006714242 0.18555394 0.012684073

onnx::LSTM_135 f4 [1, 512]
00000000: ebca 0f3d b811 0e3d d8c2 423c 681f 173d
00000010: 570c 053d 7c8a 883c faad 003d 620c d43c
00000020: 3cbd a7ba c2f5 013d 9445 c83c a2c5 f1bc
00000030: 98b8 37b9 7e92 8c3d 46f7 463c 9981 0a3d
00000040: 609f 993c d0cf b43c 1b61 24bc fa47 193c
00000050: bedf b33b 690c 193c efbc 2c3c e322 72ba
00000060: 965b cf3b 7eab f9bb b820 5f3c 0949 1cbc
00000070: a676 b6ba a749 043d c200 0d3c 2ff3 963b
00000080: 42ca 75ba 82cd c53c 175b 22b9 1700 b13c
00000090: 68a1 c63b 1e1a cebb 3e1e 133c 8b4c d43c
000000a0: 25d0 873c 43b8 a73c 1b8c ed3b 41bc 4e3c
000000b0: 6fed a53c 2c87 0b3c d6f2 a339 9abd 56bc
000000c0: f224 383b 7613 813b 4c70 ad3b 1f85 b63c
000000d0: 5ab9 df3c fdc4 e838 df9c 3fbb 71bd b23c
000000e0: 163c 0dbc 5f54 203c 4f3c 613c ef44 c8bb
000000f0: 6acb bd3c 27ac 593c fd00 273d 6c17 97bb
00000100: 9361 763c 67b7 003d 36ea 5fba 6004 a63c
00000110: 4a6c 6a3c 14c4 523c 1110 c93c 720d 5f3c
00000120: 9745 963a 45cc 9c3c 2d16 933c f26c a8bc
00000130: e05e 8eb8 b424 253d cb05 9f3c a473 c93c
00000140: d971 6f3c 0063 983c f333 5abc 46e8 7e3c
00000150: ec67 783c 6f4c 503c d9cf 423c 8a21 05bc
00000160: 4269 153b 39cc b13c 5032 a13a f396 f1bb
00000170: 9674 1bbc 5a3c a23c 5f5c 0fbb dd60 443c
00000180: 19b0 c339 b5f1 373c a2b5 593b 1df8 e83b
00000190: e8fb 2d3b 01b0 293c d76b 34ba d726 523c
000001a0: 1145 633c e0e7 683c 6c30 a23b 479e 28bc
000001b0: 710e eb3b deeb 713b 1505 323c d155 49bc
000001c0: 7828 633c ac6e 023b c5cb 0d3b 41a9 133d
000001d0: 993e 403c 7b1d 77bc 64c2 a33b 4b1f 6e3c
000001e0: f121 df3b 0d0c 083b f843 883c bfd8 aabb
000001f0: f09e e13c 6db5 f13b 16df d03c 734c 92bb
00000200: b29d 7e3f da70 7e3f 71dc 7c3f f3c9 803f
00000210: 3ee8 7e3f 57e7 803f 3a0d 803f 8e15 783f
00000220: 5864 823f 72e1 823f 0f57 803f 9fd4 7e3f
00000230: c2ce 823f 085c 7f3f 8839 803f 3943 833f
00000240: 3bb1 7f3f 4cfb 7d3f 3e0f 7d3f 81e4 803f
00000250: e450 813f 0d8d 7d3f 3be0 7e3f 1459 7c3f
00000260: bf68 813f 4abb 7d3f c86f 833f b21b 803f
00000270: 143a 803f d0a0 7f3f 1c92 7f3f e9c9 803f
00000280: a930 7e3f b604 803f 8b08 7d3f e03b 813f
00000290: f941 7e3f d52e 7a3f 4f78 803f d4ad 813f
000002a0: 1ddb 7d3f 7f5c 813f bdd7 7f3f 9c90 823f
000002b0: dc7c 803f 1654 7c3f 0f59 793f 0757 803f
000002c0: e647 803f 155a 7c3f e948 813f 5670 813f
000002d0: 4bab 7c3f 5ffc 803f 0d51 813f d6f6 7e3f
000002e0: 3aa3 803f f536 7a3f 418a 7b3f 863e 7f3f
000002f0: c113 813f ef1d 813f 2d68 803f 2dfa 7e3f
00000300: d7e3 b4ba f197 56bc 2acd 623c eaa0 a0bc
00000310: 1761 523b be68 9b3c 3b87 393c 0951 1a3c
00000320: a675 743c 63e0 a9bc c18c a1bc ae22 673c
00000330: 3c58 b33b e267 8abc d9f9 223c e38c d2bc
00000340: d8d8 f9bc 7e9c 923c c1b8 90ba 5fad 553c
00000350: 42b5 003d a5aa bd3b ebc9 d6bb 8fae c0ba
00000360: 9b71 8fbc 9a78 883b 73d4 fbba 1273 823c
00000370: 48c0 953c 46f1 3e3c cfff 35bc b675 003c
00000380: 1b40 3fbb 8d72 45bc 7b18 a43c 6d79 afbc
00000390: 83fc 96bc f963 813c bc4e e93b 73ec 0abd
000003a0: c161 043c 20b7 923c d3b8 ef3b 3c34 583c
000003b0: ee2a 9ebc 678c b03c d944 f4ba 6fd4 f6bb
000003c0: 30b4 113c 2bd6 c93c 990f 1f3b c26c 75bc
000003d0: e8c7 c8bc 8a5d 383b ff70 f5bc 6288 9fbb
000003e0: 97d8 723c 696d e33b 6569 bebc 44f6 53bb
000003f0: 9ebb 7fbb e6d2 91b8 997e 45bb 721c 7dbc
0.035105627 0.034684867 0.011887275 0.036895186 0.03248247 0.016667597 0.031415917 0.02588481
-0.0012797485 0.031728514 0.02444724 -0.029513184 -0.00017521007 0.06863879 0.0121439155 0.033815
0.018752754 0.022071749 -0.010032917 0.009355539 0.0054893186 0.009341338 0.010543092 -0.0009236766
0.0063280566 -0.0076193204 0.013618641 -0.009538897 -0.0013920858 0.032296803 0.008606138 0.0046066265
-0.0009376147 0.024145845 -0.00015483458 0.021606488 0.0060617216 -0.0062897345 0.008979378 0.025915405
0.016578743 0.020473605 0.007249368 0.012618125 0.020254819 0.008516114 0.0003127071 -0.013106728
0.0028098193 0.0039390875 0.005292928 0.022280274 0.027310062 0.00011099314 -0.002923779 0.021818848
-0.008620283 0.009785741 0.013747289 -0.006111733 0.023168284 0.013285673 0.040772427 -0.0046109464
0.015037912 0.031424906 -0.0008541675 0.020265758 0.014308045 0.0128641315 0.024543794 0.013614045
0.0011464831 0.019140372 0.01795491 -0.020559762 -6.7887595e-05 0.040318206 0.019411942 0.024591275
0.014614546 0.018601894 -0.01331805 0.015558308 0.015161496 0.012713536 0.011890375 -0.008125672
0.0022798334 0.021703826 0.001229832 -0.007372731 -0.0094882455 0.019804168 -0.0021875126 0.011985985
0.000373245 0.011227061 0.0033219834 0.0071096555 0.0026547853 0.010356904 -0.00068825245 0.012826643
0.013871447 0.01421544 0.00494962 -0.0102916425 0.0071733524 0.003691427 0.010865469 -0.012288527
0.013864629 0.0019902391 0.0021636349 0.036050085 0.011733674 -0.015082712 0.0049975384 0.014533828
0.006809466 0.0020759136 0.016633973 -0.0052138264 0.027541608 0.007376364 0.025497 -0.00446468
0.99459374 0.9939095 0.98773867 1.006163 0.99573123 1.0070599 1.0004036 0.9690789
1.0186872 1.022505 1.0026568 0.99543184 1.0219347 0.99749804 1.0017557 1.025489
0.9987981 0.99211574 0.9885138 1.0069734 1.0102811 0.9904335 0.995609 0.9857342
1.0110091 0.99113905 1.0268488 1.0008452 1.0017724 0.99854755 0.9983232 1.0061618
0.99293 1.0001438 0.9884116 1.0096397 0.99319416 0.9772771 1.0036715 1.0131173
0.99162465 1.0106353 0.99938565 1.0200381 1.0038104 0.98565805 0.9740152 1.0026559
1.0021942 0.98574954 1.0100375 1.0112407 0.9869887 1.0077018 1.010286 0.9959539
1.0049813 0.9774011 0.98257834 0.9970478 1.0084153 1.008726 1.0031792 0.9960049
-0.0013800812 -0.013097749 0.01384286 -0.01960798 0.0032101327 0.018970843 0.011323745 0.009418734
0.014920628 -0.020736879 -0.019720437 0.014107389 0.005473165 -0.016895238 0.009947264 -0.025701946
-0.030498907 0.017896887 -0.0011041389 0.013041823 0.03142286 0.0057881647 -0.006554832 -0.001470046
-0.017510226 0.0041647675 -0.0019213095 0.01592401 0.018280163 0.011654204 -0.011108353 0.0078405645
-0.0029182497 -0.012051237 0.020031204 -0.021420205 -0.018430954 0.015794741 0.0071199816 -0.0339169
0.008079947 0.017909586 0.007315734 0.013196047 -0.01930758 0.021551324 -0.0018636241 -0.0075326483
0.008893058 0.024638256 0.0024270772 -0.014979543 -0.024509385 0.0028131926 -0.029961107 -0.004868553
0.014822147 0.006940533 -0.023243615 -0.003234283 -0.003902174 -6.953422e-05 -0.0030135273 -0.015448676
